models/modello_lstm_20250506_2013.pth (torch, 86873 bytes, 6 tensors)

lstm.weight_ih_l0 f4 [256, 9]
00000000: 25b9 763d ae3c f8bd 2890 343e aed3 933d
00000010: 3921 ba3e 1ffa 703a c048 573e 1c40 993d
00000020: 9be2 cc3e 0da2 feba 6d7a 5a3e 6576 4d3e
00000030: fedb ea3d 155e e13d 96fa 053c 7624 5b3e
00000040: 8c90 233e 7df3 df3d 33ea 063c c7e6 643c
00000050: 66fd ccbd 8cb2 03be 45f0 913e 614b 763e
00000060: 5aa2 773e 5d41 9e3d b20f 853e f418 cabc
00000070: 1fba 793e 7fa1 4d3e 7d57 a33d 1baa ef3c
00000080: ac9a 2c3e d4c0 d93d 2239 7abc 228a 9e3d
00000090: 45eb c03e f9a1 fd3d 00ab 9e3e 8d90 093e
000000a0: 94e2 e4bd e8fc ff3c c5ec b7bd 9c1b 3ebe
000000b0: e333 073e cee1 723d abb3 bc3d 72b9 353e
000000c0: 5ba4 ec3d dc50 bbb9 0df7 1d3e c172 3f3e
000000d0: 06bb 013c e5e0 5d3e 0d41 983d 5402 f9bd
000000e0: eae6 bfbe 57f5 f4bd 3a31 0c3d 55a3 393e
000000f0: 035a 6a3e 37e2 50bb 189e f43d cd33 0abe
00000100: bf98 493b 5f71 8e3d 622d f43c c7b1 73bd
00000110: 780c 803d cacd 3f3e 3ac8 8c3d 47b3 cdbc
00000120: 6649 c83e 4a92 893e 8464 4d3e 5860 693e
00000130: a1ec 1c3e 2fe0 313d 562f 423e f93f 103e
00000140: 91fc 133d ec6f 203d 0885 a7bc a5cf 493d
00000150: 1181 b23d e574 c63c 4c3b 1dbd f3b7 883d
00000160: b987 40bc 20b0 613c 728d e63e 6f2e 193d
00000170: b51c 113e 69b4 66bb 822b 033e d26e 42bd
00000180: 8552 8e3d 0e7b eabb e30c 283e 7484 123e
00000190: 970f 9c3e 2b7e 573f 0a16 1d3f 0ef6 343e
000001a0: 12cb 46bd 5ed4 433e 78e4 1f3e dae1 1b3d
000001b0: adb5 dabd 3498 09be c528 d2bd 8703 52bd
000001c0: 3dbb bcbe 48d2 753d 6463 1d3e eb93 813e
000001d0: 9a71 4b3c 7da5 253e b0dd 653d 1301 a93e
000001e0: 2613 4e3e 4c73 b13c c5d1 563e d66e 343e
000001f0: 57e1 ab3c be23 5d3e a2ab 47be 3af1 243e
00000200: 5fcf 05bf d06d debe b236 6a3d d9f9 453e
00000210: b60a 913d 360e a1bd a921 ad3d 0ce1 ce3d
00000220: 11aa 15be ac8b f53e f13b cc3e e1d3 2e3e
00000230: 3fe8 ea3c 4ce8 653e 50f8 d93d f1f7 b5bc
00000240: 0cd4 4ebd 96b3 a43e 5e0a 1d3f 5a33 d43e
00000250: 5113 edbd 1bb4 92be 266a 573d 03b4 b3bb
00000260: 788a d33d fd55 f4bc 9848 7d3e 2d3e febd
00000270: a29f f73d 9738 013e 6112 0a3e 2051 223e
00000280: 0b85 80bc e01b 533e d1fb 4c3b d019 933d
00000290: c10e 42be 8d52 03be f612 1f3c 2ada 0e3e
000002a0: 5a89 c33d e154 463e cf8f 973d 60be f6bd
000002b0: 277a 49bc feeb b33e b1e4 983e 313e 6f3e
000002c0: 95fa c23d 2086 523e c2e0 4a3e a8cb 233e
000002d0: b18b a8bd 7c08 44be 122b 84be 080a 84be
000002e0: 06b9 893b d18c ed3c 00f4 933c 0b15 023e
000002f0: bf57 e03e d358 04be 4042 663e 505a 743e
00000300: 2e42 8f3e 427d e13c 1d9d 9c3d fab2 053e
00000310: 04e1 933d 4a5d 123c 504d 09bd 53b6 42ba
00000320: 894d 35be 12c4 0c3e f6bf 1ebe 1834 74be
00000330: 8f05 d83d 6295 65bd 37fa 773e e8ab 703d
00000340: 8f7b 02bd 95d0 913e 6b5c 473d 7fd8 b8bd
00000350: 7054 b83d bda9 823e cc88 e23d 9a90 bf3d
00000360: 19c9 c6bd a499 88bd a279 f03c 7fa1 4e3c
00000370: a5c5 06be 8fce 03be 0aa8 f63c fae0 11bd
00000380: c00c a53d 228b c03e ce3d 8b3e f88a e43e
00000390: 6361 cc3e b7df c8bc c75c 67bd d938 d1bc
000003a0: 1404 b2bd 342e 193e 3b2f 9dbe 0f1c 7cbe
000003b0: 5024 8c3c b35a eabd eab0 6f3e df7b dcbd
000003c0: 4696 403e cf74 683e 100c c83d 697c 023e
000003d0: c752 0a3e eb89 5e3e 63de 863e d302 ffbd
000003e0: 8b5d 17bd 5f93 eb3c 8c70 393d 7637 bcbd
000003f0: 6a76 9bbc 5c1c 913e f846 d33d 7667 103e
0.06023516 -0.12120949 0.17633116 0.07218109 0.36353472 0.00091925444 0.21023846 0.07482931
0.40016636 -0.0019426957 0.21335764 0.20064695 0.114677414 0.11004273 0.00817742 0.21400627
0.15973109 0.109351136 0.008234548 0.013971037 -0.100092694 -0.12861079 0.28503624 0.24052192
0.24183026 0.07727311 0.25988537 -0.024670102 0.24387406 0.20081137 0.079756714 0.029255917
0.16855878 0.10632482 -0.015272411 0.077411905 0.37679496 0.123844095 0.30989838 0.13434048
-0.11176029 0.031248525 -0.08980707 -0.1856522 0.13203387 0.059297375 0.092139564 0.17746523
0.11554786 -0.00035727664 0.15426274 0.18696119 0.007918125 0.21667822 0.074342825 -0.12158647
-0.3748086 -0.11960857 0.034226634 0.18128712 0.22885899 -0.0031873116 0.119442165 -0.13496323
0.003076121 0.069552176 0.029806796 -0.059495714 0.06252378 0.18730846 0.06874128 -0.0251099
0.391185 0.26869422 0.20057875 0.22790658 0.15324642 0.04342669 0.1896337 0.14086904
0.036129538 0.039169237 -0.020449176 0.04927029 0.08716024 0.024225662 -0.038386628 0.066757105
-0.011751109 0.013774902 0.4502979 0.0373978 0.14171107 -0.0035202748 0.12809566 -0.047468968
0.06949333 -0.0071557825 0.16411166 0.1430834 0.30480644 0.8417689 0.61361754 0.17671987
-0.048533507 0.1912398 0.15614498 0.038057186 -0.10679183 -0.13436967 -0.102616824 -0.051272895
-0.368616 0.060014993 0.15369946 0.25308165 0.012417221 0.1617641 0.05611962 0.33008632
0.20124492 0.021661423 0.20978458 0.17620406 0.020981474 0.21595666 -0.19499066 0.16107646
-0.5226955 -0.43443155 0.057181068 0.1933359 0.07082121 -0.07864039 0.08453686 0.10101518
-0.14615656 0.47958124 0.39889482 0.17073013 0.028675197 0.22451895 0.10643065 -0.022212954
-0.050495192 0.32168263 0.61343944 0.41445428 -0.1157595 -0.28653035 0.052591465 -0.0054841056
0.10329145 -0.029826159 0.24734724 -0.12414203 0.120909944 0.12619244 0.13483573 0.15851259
-0.01568844 0.20616102 0.0031278024 0.07182658 -0.1895094 -0.1282446 0.0097091105 0.1395041
0.09547682 0.19368316 0.07400476 -0.1204803 -0.01229719 0.35140985 0.29861978 0.23363568
0.09520451 0.20558977 0.19812301 0.15995657 -0.08229769 -0.19143862 -0.2581411 -0.25788903
0.0042029647 0.02899781 0.018060684 0.1270334 0.43816945 -0.12924509 0.2248621 0.23862576
0.2798018 0.027525548 0.076471545 0.13056555 0.07220653 0.008933375 -0.033520997 -0.0007427681
-0.17705359 0.1374667 -0.15502915 -0.23847997 0.10547935 -0.056050666 0.24216543 0.058757693
-0.031856116 0.28479448 0.04867212 -0.09025668 0.0900048 0.25520125 0.11061248 0.093537524
-0.09706325 -0.066699296 0.029354874 0.012611746 -0.13161333 -0.12871765 0.030109424 -0.035614945
0.080590725 0.3760615 0.2719559 0.44637275 0.3991805 -0.024520738 -0.056484964 -0.025539802
-0.08692184 0.14959031 -0.30700096 -0.24620079 0.017107159 -0.11443081 0.23407331 -0.10765814
0.18807325 0.22700809 0.09767926 0.12742771 0.1350814 0.21732299 0.26341543 -0.124517106
-0.036954444 0.028756795 0.04527335 -0.09190266 -0.018977363 0.2834195 0.103162706 0.14101967

lstm.weight_hh_l0 f4 [256, 64]
00000000: c6a4 353d 0f4d b63e c8d2 afbe fed7 083e
00000010: 10be 97bc dd7e 04bd 0f1b 723d d6a7 15be
00000020: c174 8bbe e213 62be 2099 e33d c093 673e
00000030: 4e36 f53d 958e 573e efc4 7fbd c174 fa3d
00000040: 9512 773d fc6a 153e 6aec 90bc 4356 b6be
00000050: 51f4 2a3e 645b 0b3e f60a cdbd 89fd 97bd
00000060: d6ad 6fbe 977a 1dbe 8614 b1be 5393 b2bc
00000070: 2dfc 90be a4ce 9a3e 1045 183d 0b0b 1abe
00000080: a6c7 3e3e 58ac d53e 2616 16be 0f24 163e
00000090: db89 05be a95b 89bd cd3f da3d 00a7 a9be
000000a0: e47e 173d f26f 593e fec8 4b3c fb77 b43e
000000b0: b7b4 a2be 1f6e 1b3e fe72 2bbd ae61 433e
000000c0: daab f2bd 26b9 163e b08a 15be 3395 5fbe
000000d0: 3ef8 1a3e 0bc0 953d a5d6 3d3e 32fc 1b3e
000000e0: 9726 c03d a6c2 d63d 0356 0f3e 5032 c13e
000000f0: 7bf6 b03d 8606 6fbe 7355 a93c ae1d 66bc
00000100: c444 6f3c bcf6 6bbb ca7e 46bd c01f e53d
00000110: 6579 a2bd d17d 433c 554e b7bd 267f f0bb
00000120: 2191 afbd 2fe3 ddbd 3399 88bb 68a7 cb3d
00000130: bd52 253e 941b 95bd 374c 16be 1a74 2d3e
00000140: 4fbd 0d3e 6f90 20bd b61b ab3c 2051 bbbd
00000150: df9b 383e 93cd 083e 07fe 033e 1eac 46bd
00000160: 3b3a 0cbe 7f95 bcbc 58d3 ac3d afc3 bfbd
00000170: 08f8 a6bb 8d91 333e 0ebc 7bbd 1776 253d
00000180: 7900 cd3c cac5 9a3d addb d4bd 9567 80bd
00000190: 3bf0 d43d ca5a aa3d 69b5 293e 2773 fabd
000001a0: 9b9c 86bd e854 2f3e 86db 923d e33a 8cbd
000001b0: 5c49 fbbb e1bb f63d c021 0a3d dfe3 08bd
000001c0: d8ca 0cbc abb8 8ebd b7c7 7dbd 9a87 79bd
000001d0: 2841 313c 932a 693b 388e f1bc a57b bbbd
000001e0: 38b5 243d 7e87 923c 24a3 6dbd d047 d03d
000001f0: ba75 42bd 8feb 5d3e 8bad c23c ff9d 64be
00000200: 8f98 6e3e 4fcd 6f3e 4f48 62be fa1f a13c
00000210: 895e d33d f386 c8bd c146 63be 2da7 10be
00000220: b105 fd3b 2f2a 85be 165d f23d b9a4 053e
00000230: 30df 503e 03be dc3d 8017 1f3e da92 843b
00000240: 00ad 34be 3a83 433e d281 893c 352b 0abe
00000250: f574 173d 20af 493e 6f6f 4a3d 8fcc 59be
00000260: 888b cdbd 1c0c 85be 7549 ccbe 93d6 e13c
00000270: c15d 2cbd 532e 443e 7780 163e 34be ecbd
00000280: 4c96 383e 1e56 8e3e 8245 b83c 1744 c83d
00000290: c580 e7bd a777 96bd 921d f9bd 7581 8cbe
000002a0: d4d8 263e 3ff1 783e ba35 833e fcc6 edbc
000002b0: 96da debd c3ad eb3d 78de c93d 294b ec3c
000002c0: 9473 4fbe 074f a2bc 2862 67be 72a3 74bd
000002d0: 1cc5 4a3d a329 473e e66b 3a3d ca63 87bc
000002e0: a710 e93d e355 ad3e 082a 6e3e 76be b23d
000002f0: 5aed 643e defe b13d 23be ab3e 44e4 abbc
00000300: 1565 cd3e 39f5 683b 893e 56bb 2579 333e
00000310: 0a63 393e b706 66be a89c 90be 8f43 643c
00000320: 0069 bbbc d5cf 38be 3295 3c3e f9bf 2d3c
00000330: 9e11 b03d 722c 323d ad8c 153e d440 46bd
00000340: ca47 27bc d36b 413e 6f71 19be 0e6c 093e
00000350: 62cd cd3d e1ba 993e 9321 01be 494d 66bd
00000360: 0d05 28be 0a2c 7dbe ecba aebd 606b 90bd
00000370: 5895 c3bc bc58 6e3e 9cbc 193c d881 1bbe
00000380: 5f3b e8bc 7a1b b63e 8902 7ebd 7d7c 783e
00000390: 0477 4dbd f6b5 90bd 0853 a1bd 76a3 d9be
000003a0: 1323 b73d abcf 0a3e 7dd3 893e 2bea 0f3e
000003b0: 3aad 99be 4f72 e23d 071f 573d 639b d9bd
000003c0: e311 26be 6ace 75bc 1949 d9bd 1cc2 3abe
000003d0: 2465 5d3e bd8f b63d 6fe2 6f3d df20 1e3e
000003e0: 7994 e43d 9fe5 8ebc 8a0a 413e ffd2 ca3d
000003f0: 6b55 6dbb 96b4 f8bc fcb3 843d c522 95bd
0.044346593 0.35605666 -0.343405 0.13363644 -0.018523246 -0.03234755 0.059107836 -0.14614806
-0.27237514 -0.22077897 0.11113191 0.22614956 0.119732484 0.21050484 -0.06244367 0.122293
0.060320456 0.14591593 -0.017690856 -0.35612687 0.16694762 0.13609082 -0.10011856 -0.07421405
-0.23406157 -0.15378796 -0.3458597 -0.021798765 -0.28317395 0.3023578 0.037175238 -0.15043275
0.18630847 0.4173305 -0.14656886 0.14662193 -0.13040869 -0.06706936 0.106567 -0.33135223
0.036986247 0.2123411 0.012438057 0.35247788 -0.317785 0.15178727 -0.041857712 0.1908023
-0.11849184 0.14719066 -0.14603686 -0.21834259 0.1513376 0.0731202 0.18538912 0.15232924
0.093823604 0.10486345 0.13997655 0.37733698 0.086407624 -0.23342332 0.020670628 -0.014045162
0.014603797 -0.003600522 -0.04846076 0.111876965 -0.079333104 0.011931852 -0.089504875 -0.007339376
-0.08572603 -0.108343475 -0.0041686534 0.099440396 0.16144843 -0.07280651 -0.14677511 0.1693882
0.13841747 -0.039200243 0.020887237 -0.09146333 0.1802821 0.1335967 0.12889872 -0.048503987
-0.13694088 -0.023020504 0.08438748 -0.093634956 -0.0050954856 0.17535992 -0.06145864 0.040395822
0.02502464 0.075572565 -0.10393462 -0.06269757 0.10397383 0.08318098 0.16573109 -0.12228995
-0.06572839 0.17122233 0.07170777 -0.06847169 -0.007668657 0.12047554 0.033723593 -0.03342044
-0.008593284 -0.06968816 -0.06195804 -0.060920335 0.010818757 0.0035578355 -0.02948676 -0.09154443
0.040211886 0.017886873 -0.05801691 0.10169947 -0.047475554 0.2167189 0.023764392 -0.22325896
0.23300384 0.23418163 -0.22097896 0.019668568 0.103207655 -0.097913645 -0.22194959 -0.14126272
0.0077216257 -0.26008746 0.11834161 0.13051118 0.2039764 0.10778429 0.15536308 0.0040458264
-0.1764412 0.19093028 0.016785536 -0.13493045 0.036976773 0.19695711 0.049422678 -0.21269439
-0.10036379 -0.259858 -0.39899793 0.027568137 -0.0420816 0.19158296 0.14697443 -0.11559716
0.18026084 0.27800077 0.022494081 0.09778612 -0.11303858 -0.073470406 -0.12163843 -0.27442518
0.16293651 0.24310778 0.25626928 -0.029025547 -0.10881536 0.11507752 0.09856886 0.028844433
-0.20258933 -0.019813074 -0.22596037 -0.059726186 0.049504384 0.19449477 0.045513056 -0.016527075
0.11380129 0.3385459 0.23258221 0.08727734 0.22356167 0.0869119 0.335435 -0.020982869
0.40116182 0.0035546555 -0.0032691082 0.17526682 0.18104187 -0.22463499 -0.2824452 0.013932123
-0.022877216 -0.18048032 0.18416288 0.010604852 0.0859711 0.043499418 0.14604445 -0.04840167
-0.010209987 0.18888788 -0.14984678 0.13420126 0.10048939 0.3002539 -0.12610464 -0.05622605
-0.16408177 -0.24723831 -0.08531746 -0.0705173 -0.023874924 0.23276037 0.009383347 -0.1518625
-0.028348623 0.35567838 -0.062014136 0.24266239 -0.05016233 -0.07065956 -0.07877165 -0.42507523
0.08942237 0.13555782 0.26919165 0.14054172 -0.30014974 0.11056959 0.052519824 -0.10625341
-0.1621776 -0.015002826 -0.106096454 -0.1823811 0.21620613 0.08914135 0.058565553 0.15442227
0.111611314 -0.017443476 0.18851677 0.099035256 -0.0036214243 -0.030359548 0.06479642 -0.072820224

lstm.bias_ih_l0 f4 [256]
00000000: e164 733e 2f24 1abd e308 9c3e b910 a13e
00000010: 692d f93d 8882 a23b 1cb8 b73e dffc ec3d
00000020: 9c16 b93d 5d55 44bd 5d30 ca3b e34c 9d3d
00000030: a0a0 6abd 21f6 ab3c a348 d63d 9c20 fc3d
00000040: 5643 9bbd 55c1 8b3d 2bc1 0b3e d0b9 723e
00000050: 1333 8a3d 6c6f 74bd 7bad 1c3e bdb5 35bd
00000060: 0a5f b6bd ab15 36bd a0a3 1b3d 6168 ad3d
00000070: beb0 a9bb d596 0f3e dfda c2bd aa52 fe3c
00000080: 496e 083d b6de 32bc 4d1d 81bd 39d7 143e
00000090: 8045 8dbd 94e3 b83d 9a28 853e 67c9 c03d
000000a0: a322 103d 8513 303e 51b5 35bc 6c6d 103d
000000b0: 21f0 12bd bd4f bd3e fd84 c73d d6bf bd3d
000000c0: 126e 933c 308f 5a3d 6526 cd3c 54e6 143e
000000d0: f5f9 563e 26c8 073d 3413 543d 53ec b83d
000000e0: 04d7 2a3b bea3 323e 6e9d 5c3d 0688 813d
000000f0: 0b76 2fbd e221 e43d 5fe3 203e 427f 563c
00000100: dd61 79bc 7f44 063e dec7 d1bd 72b2 35bd
00000110: d355 cabd 0cf7 c93d 64a9 473d 63f5 543d
00000120: c606 043e d0e3 263d 77f3 f43d 3ca1 02bd
00000130: 8b2e 423e a9fc 85bd fbe7 d73d 025b b53c
00000140: 35e4 bfbd 04a5 c43d bb3a 3d3d 7078 173e
00000150: 3f04 5c3d ea65 89bd d9ff 42bd 35b1 97bd
00000160: 7384 80bd 25af a8bd 94bc 443e 049f 78bc
00000170: 7815 7abd a0de 9e3d 5de3 9b3d bf21 ccbc
00000180: 067f 283e ff8f 9d3d 0f63 f3bd b430 87bc
00000190: c773 ce3d b6ee 193e 0e46 643d 7c99 ca3d
000001a0: 0929 1dbc 1796 5abd 4b3a 08bc 083d 77bd
000001b0: f1b0 bc3c e5a5 7e3e 5d29 d23d e5f4 1fbd
000001c0: 5b89 f3bc 6048 4f3d ed23 0abc e914 87bc
000001d0: 5bbb 74bd dcca be3c e3b1 f4bc 5754 cd3d
000001e0: 8fc9 d3bd e96a f4bc 42bf b33d f077 de3d
000001f0: 7eaf 783d 6fdd a03c ac6a 523e 65a1 3c3e
00000200: d7b0 9b3d 5dbc 933d 2873 65bd 3f6d 853d
00000210: 181c 453d eca3 26bd 3240 153d da5c c5bd
00000220: d022 0cbd 3aa2 6e3d 5043 ed3c 8610 79bc
00000230: dd91 e23d 83a7 e2bc a244 c7bc e35d 463d
00000240: e814 6bbd 71d6 b53d 23be fabc 164f 893d
00000250: e3ac 6abd c151 e43b 1ca9 303d 9252 4f3c
00000260: aebf f2bd 32d3 b9bc 36f6 2a3d 5abd 91bd
00000270: 37a4 a6bd 923b 9e3d bb53 2dbb e8dc 80bd
00000280: 701b 0a3d 5900 7b3b 10ed a13d dc2b a03c
00000290: 0d85 32bc 0c5f 38bd c33b b8bd c9f4 7dbd
000002a0: 50b2 2e3d 0c15 b439 48ce 3a3d b091 ba3d
000002b0: 0ecc 28bd 42c7 c33d 141a 013d 04ab 0fbd
000002c0: 15b1 cabc 34e1 3abc e2d9 a1bd 5250 a23d
000002d0: 55d5 9a3d 68e9 883d f370 053d ae6f 70ba
000002e0: 6f40 70bc 3b11 ce3c 1472 0b3d e5b0 c73d
000002f0: b287 9f3b 8f05 633d 5390 74bc a9aa 1dbd
00000300: 767f 613e a9d9 41bd 1906 ac3e 0719 6b3e
00000310: 661f 143e 3ff6 4d3d 1fb7 ab3e 896c bb3d
00000320: 5950 8c3d ab60 8bbc 54c3 3dbd d600 ba3d
00000330: 08e2 8fb8 c4b0 923b 8516 3e3e 3ad4 ac3d
00000340: bc3d 9d3c 4900 cc3d e51a 423d a215 413d
00000350: 9621 4a3e fec6 92bd bdc2 ba3d 94c4 eb3d
00000360: 74e4 f73d c66f ad3d 9e41 383d 4e6d c03d
00000370: d41f b03d 3f19 d53c 5e78 de3c c22c 69bd
00000380: edca cdbb e5e1 11bd a005 65bd 5d2c 2a3d
00000390: d4d2 8abd b992 9b3d 4348 3c3e e798 7d3d
000003a0: d514 8f3d 0bdd 613d 2419 2d3d 61d5 ca3c
000003b0: 1c7c d53d 86d2 153e b719 88bb 3c60 82bd
000003c0: d2a5 7ebd 57ec 04bd bb56 5b3e 8c91 653d
000003d0: 54df 953d b353 6a3d 9d3f f6ba 78c9 333d
000003e0: 4dcb 21bd 1a41 dabc 10dc cdbc f9cc 9e3d
000003f0: 8b41 e73a e9ba 74bd 9369 ba3e 1cbf 10bd
0.23768951 -0.037632164 0.3047553 0.3145807 0.121668644 0.004959408 0.35882652 0.11571669
0.090375155 -0.04793297 0.006170316 0.076806806 -0.05728209 0.020991387 0.10463073 0.12310907
-0.07581203 0.068239845 0.13647906 0.23703694 0.06748023 -0.059676573 0.15300553 -0.044362772
-0.08904846 -0.044454258 0.03799784 0.08467174 -0.00517854 0.14022382 -0.095144026 0.031045277
0.0333083 -0.010917356 -0.06304417 0.14535226 -0.06898022 0.09027782 0.2600754 0.094134144
0.035189282 0.17194946 -0.0110905925 0.035260603 -0.035873536 0.36974898 0.097421624 0.092651054
0.017996822 0.05335921 0.025042722 0.14540988 0.20993789 0.03314986 0.051776126 0.0902945
0.00260681 0.17445275 0.053861074 0.063247725 -0.042837184 0.11139275 0.15711735 0.013091864
-0.015221086 0.13112067 -0.102432 -0.04435963 -0.09879651 0.098615736 0.048745528 0.05199183
0.12893209 0.040744603 0.119605 -0.031892046 0.18963067 -0.06542332 0.10542294 0.022138122
-0.09369699 0.09601787 0.046198588 0.14792037 0.053714987 -0.06708892 -0.047607277 -0.074068464
-0.06275263 -0.08236531 0.19212562 -0.015174631 -0.06105563 0.07757306 0.076117255 -0.024918435
0.16454706 0.07693481 -0.11884128 -0.016502716 0.100806765 0.15032467 0.05573087 0.09892556
-0.009592303 -0.053365793 -0.008314679 -0.06036094 0.023033591 0.24867971 0.10261796 -0.03905191
-0.029728582 0.05060613 -0.008431417 -0.016489463 -0.05974899 0.02329009 -0.02986998 0.10025852
-0.103411786 -0.029836135 0.08776714 0.1086272 0.060714237 0.019636838 0.20548505 0.18420942
0.07602089 0.07213662 -0.056018025 0.06514978 0.048122495 -0.04068367 0.036438175 -0.09636851
-0.034212887 0.05826018 0.028962761 -0.015201693 0.110629775 -0.027667766 -0.024324719 0.04842938
-0.057392985 0.08878792 -0.030608242 0.067045376 -0.057293784 0.0069677536 0.043130025 0.012653964
-0.11852966 -0.022683714 0.04173871 -0.07116194 -0.0813679 0.07726206 -0.0026447612 -0.062921345
0.033717573 0.0038299768 0.07906544 0.019552164 -0.01089598 -0.04501252 -0.08995774 -0.062001023
0.04265052 0.00034347957 0.04560688 0.09109819 -0.041210227 0.0955949 0.03151901 -0.035075203
-0.024742642 -0.011406232 -0.07902886 0.07925476 0.07560221 0.06685144 0.03257842 -0.0009171915
-0.0146638 0.0251547 0.03404434 0.09750537 0.004868471 0.055425223 -0.014926988 -0.038492832
0.22021279 -0.047326718 0.33598402 0.22958766 0.14465103 0.050283667 0.33538148 0.09151561
0.068512626 -0.017013868 -0.046328858 0.09082191 -6.860873e-05 0.0044766385 0.18563278 0.084389165
0.019194476 0.09960992 0.04738893 0.04713977 0.19739375 -0.07166861 0.09119175 0.11512104
0.12104121 0.08468585 0.044984452 0.09395848 0.08599821 0.026013015 0.027157005 -0.05692745
-0.006280294 -0.03561582 -0.055913568 0.041546214 -0.067784935 0.075963445 0.1838694 0.061913397
0.06986395 0.055142444 0.042260304 0.02475995 0.104240626 0.1463109 -0.004153456 -0.063660115
-0.062169857 -0.032451954 0.21419804 0.056047007 0.07317987 0.057208728 -0.0018787269 0.043893307
-0.039500523 -0.026642371 -0.025129348 0.07753939 0.0017643435 -0.059748564 0.36408672 -0.035338506

lstm.bias_hh_l0 f4 [256]
00000000: 97c4 543d 14f4 5d3c 1896 8b3e 693c ff3d
00000010: 17ed fe3d 1138 96bd 6271 e63e 7994 e0bd
00000020: df2f fb3d 7224 1a3e b519 b9bd 2fe9 683d
00000030: 3b87 a6bd 33c6 7cbd 9632 8c3e f0fe 893e
00000040: a9a7 eb3d 0864 4b39 d3a5 7ebd 1e46 883e
00000050: 863e 1f3d ebe2 81bd 7037 7f3d 7218 13bb
00000060: 329c f1bd db62 a13d f509 0dbd dc25 913d
00000070: a11d d3bd 51a7 573d 9247 0abc 0565 8dbc
00000080: b402 0bbb 3b99 9e3b 6071 b5bd c91d 553d
00000090: bbc0 aabd 2ebc d83d 6e2a fe3d 041d 99bd
000000a0: 89cd 323e 8b00 823e 6aad c83d 8471 c63d
000000b0: 1b54 893c c49a 9f3e 836d e6bc 1b17 c23d
000000c0: 5e74 acbd 2845 eb3c 7947 3d3e 8410 183e
000000d0: 6429 613e 383b a53d 6c1f 913b 296a 7d3c
000000e0: 9b51 19bd 6cde b63d c86c 07bc 7e9b 383e
000000f0: 6ddd 23bb b51d a23d 212c 8c3e f0a0 a43d
00000100: 596d bd3c 54ff 053e fb5d ecbd 5a6a 053e
00000110: 13fb afbd b076 e83d 3555 9f3d 9ec5 50bd
00000120: 1d86 003d 34fc 293e 3abe 0a3e 0300 18bd
00000130: 132a 66bd 9dc2 bc3d 65f9 023e a9ea 443d
00000140: c2c3 ad38 fdc3 8a3c a218 1b3d f811 3b3d
00000150: 8b05 39bd 7637 9fbd 9aa3 c13d ff47 a73d
00000160: 4fe1 8dbd e3ac bcbd 87fc 2a3e ac2d 37bc
00000170: e673 d1bd 79e9 1a3e b32e 11bd 77e2 1c3d
00000180: 6b04 813b 726b afbd 9a17 303d c604 383e
00000190: 174e 3e3d 112d 253c 57e4 463e 912f f3bd
000001a0: 483d e53d 9057 dd3c 891b ccbc e385 b8bd
000001b0: 91c0 953d 32b9 933e 759e ff3d 061f 82bd
000001c0: 260c 173e d466 e53d f8e6 f03c f465 45bd
000001d0: f82d b3bd d0a5 4abb 59a2 923d 1bf3 383e
000001e0: a024 f4bc 5db9 4b3d 01b9 ee3d 8471 233a
000001f0: c186 ef3d 9506 463e df54 7c3e 8a2e 8a3c
00000200: 6410 8d3d 983a f4bc bd56 9a3d a35e e6bb
00000210: ff35 07bd d8a5 37bd ed4d 75bd 6e8e c23b
00000220: fe5f 1dbc b41f f4bd 2a97 953d 53cd e5bd
00000230: 7fa6 b5bc df39 db3c 0303 c93d 7d74 fc3d
00000240: 1305 25bd 2984 613c b3de a53d 7e04 cfbc
00000250: 0e30 d33c d857 af3d 94f2 a63d 8223 b9bd
00000260: a5a4 cbbd 6321 c5bd 965e cabd 0636 2dbd
00000270: b12c a0bc c298 0b3d cd4c 593d 4307 d73d
00000280: 50c1 c5bd 73a5 a73d e1d3 0f3d c608 433d
00000290: e801 1dbd bb6a 473d 0578 c03d 206b 14bd
000002a0: b251 713c a36c bf3d d9ac ca3d 316f bfbd
000002b0: 35b0 a7bd 0236 723c 0983 163d 5004 9f3d
000002c0: 4e07 9ebd c486 073d 6d3b 703d d68e e2bd
000002d0: f2ac 1abd 316e cfbc d948 d13d 4a08 17bd
000002e0: 78b3 df3c 69ae 03bd 058a fb3d 259d 0bbd
000002f0: 5c44 9a3d 2ba4 c53b f510 0abd 2883 8bbc
00000300: 0da6 6a3d 46f5 c63d cbcc 613e b130 763e
00000310: 43bd 3d3e 435c 3f3d c7da cd3e 449c 70bb
00000320: f291 82bc 70b9 b63d 106c 4a3d 1ec9 b93c
00000330: 43b4 f8bb 5e72 4c3d a282 863e a851 873d
00000340: 73d1 ed3d 670c cd3c f802 353d 558d 293d
00000350: 8fe6 20bc 3ace 99bd 4c31 acbc cd29 d9bc
00000360: 1bac cdbc 6844 f73d 8ed4 273d 92a6 3f3e
00000370: 1ec5 80bd 677d 823d bd27 be39 3130 363d
00000380: 63c0 8dbd 5065 febc 53d5 f8bc 5032 b23d
00000390: e45e c0bd 4f4f 123e faf1 7e3d 786f 04be
000003a0: 5fe7 50bd 8e9d 693d 30c7 ac3d 68ab 513c
000003b0: 5954 1fbd 6817 1e3e 471b d23d 0745 31bd
000003c0: cc1a ec3d b7fe bb3b f5f3 f13d f51f b43d
000003d0: 0107 c63d 090e 263e fba8 c33c 2cfe a7bc
000003e0: 88af b6bd 2a19 bcbc b2dc 983d 1056 953d
000003f0: 7044 0abd f7fa 973d 22e1 a93e 3802 8d3d
0.051945295 0.013546962 0.2726295 0.12462694 0.12447565 -0.073349126 0.4500838 -0.10965819
0.1226499 0.15052965 -0.09038106 0.056863006 -0.08131262 -0.061712455 0.27382344 0.26952314
0.11506588 0.00019396853 -0.06216986 0.26615995 0.038877986 -0.06342109 0.06230873 -0.002244499
-0.1179737 0.07880183 -0.034433324 0.07087299 -0.10308386 0.0526498 -0.008439915 -0.017260084
-0.0021211328 0.004840044 -0.08859515 0.05203036 -0.08337542 0.105827674 0.124104366 -0.074762374
0.17461218 0.2539104 0.09798701 0.0968962 0.016763737 0.31172764 -0.028128391 0.09477063
-0.08420633 0.0287195 0.18484296 0.1485005 0.21988446 0.08067936 0.0044287946 0.015467205
-0.03743134 0.08929142 -0.008265682 0.18028066 -0.0025003806 0.079158224 0.27377418 0.08038509
0.02312343 0.13085681 -0.11541363 0.13028851 -0.085928105 0.11350763 0.07779924 -0.050969712
0.0313779 0.16600114 0.13549128 -0.037109386 -0.05619247 0.09216807 0.12790449 0.048075352
8.2857456e-05 0.016939158 0.03786529 0.045671433 -0.0451713 -0.0777425 0.09455033 0.08168029
-0.0692774 -0.09212663 0.16697894 -0.011180323 -0.10227184 0.15128125 -0.035444926 0.03830191
0.0039372942 -0.085654154 0.04299126 0.17970571 0.04646119 0.010081545 0.19423042 -0.11874307
0.11193329 0.027019292 -0.024915474 -0.09009912 0.0731212 0.2885223 0.12481395 -0.063535735
0.14750728 0.112012535 0.02940701 -0.048192933 -0.08749002 -0.0030921586 0.071598716 0.18061487
-0.02980262 0.049737323 0.116563804 0.00062348717 0.11695624 0.19338448 0.24641751 0.016867895
0.06887892 -0.029813096 0.07536075 -0.0070303245 -0.03301048 -0.044835895 -0.05988877 0.005937389
-0.009605406 -0.119201094 0.07304223 -0.11220803 -0.022174118 0.026760994 0.098150276 0.12326906
-0.040288042 0.01376442 0.08099117 -0.025270697 0.02577975 0.08561677 0.08151737 -0.09039976
-0.09943513 -0.09625509 -0.09881322 -0.04228785 -0.01955256 0.034081228 0.05305176 0.10499432
-0.09656012 0.08185854 0.035114173 0.04761579 -0.038331896 0.04868577 0.09397892 -0.036234975
0.01472895 0.09346893 0.09896249 -0.0934738 -0.08187906 0.014783384 0.03674606 0.077644944
-0.07716237 0.033087507 0.058650423 -0.110624 -0.03776259 -0.025321098 0.10218973 -0.03687314
0.027307257 -0.032148752 0.122821845 -0.03408541 0.0753257 0.0060315332 -0.033707578 -0.017030314
0.057287265 0.09714751 0.22050779 0.24042012 0.18529229 0.046718847 0.40205976 -0.0036714235
-0.015938733 0.08922088 0.049419463 0.022678908 -0.0075898482 0.049913757 0.2627154 0.066073716
0.11612215 0.025030328 0.044192284 0.04139455 -0.009820594 -0.07510038 -0.0210196 -0.02650919
-0.02510648 0.12073594 0.040974192 0.18715885 -0.06287597 0.06371575 0.0003626923 0.044479553
-0.069214605 -0.031054169 -0.030375158 0.087010026 -0.09393099 0.14288066 0.062242486 -0.12933147
-0.051001903 0.05703502 0.084364295 0.012797214 -0.0388988 0.15438616 0.10259109 -0.04327872
0.115285486 0.0057371515 0.11814109 0.08795158 0.09669305 0.16216291 0.023884287 -0.02050694
-0.08920199 -0.022961218 0.07463969 0.07291806 -0.033756673 0.074209146 0.33179575 0.06885189

fc.weight f4 [30, 64]
00000000: 82ed f2bd 1977 ff3d ef83 6ebe ab7f 983d
00000010: 85da 04be 86e3 b23d 6fd3 5d3d 303a 00be
00000020: 337d b0bd 31e7 433d 7b3d 443d 2817 dd3d
00000030: 857e da3c 2137 7c3d 9303 a63d 0212 91bd
00000040: d852 febc b763 743d 0bd9 4cbd bbd4 f7bd
00000050: 5f5b 2d3d cfc8 073e 8383 0c3d bddb ba3d
00000060: cd88 d13d 7eaf bcbc 599e 23be cb22 29bd
00000070: 3970 08bd df1f f8bc 4a60 9f38 894b d3bd
00000080: a465 ddbc 1a9e 903d fe66 0cbe 2f82 87bc
00000090: 06fc eabd b741 03bd b9b9 08be c75a ea3d
000000a0: dd63 b93d cf81 2b3d 0e17 983c 55e4 e7bd
000000b0: 76d8 90bc b21d 5abe 1e11 563d 50fe 3cbe
000000c0: 3469 e63d a068 223d b898 bf3b bd27 b53d
000000d0: 3693 373e 0586 a63a b300 f43c 1a7e a4bd
000000e0: 410a 37bc 8b31 61bc 753c ce3c 0f55 ca3d
000000f0: 47cc 83bd c015 00be 0df2 8abd f16f 083e
00000100: e3b5 f73b e990 0e3d 2985 95bc 1e0f 0a3e
00000110: 3326 08be 2b2b d6bd d592 b3bc 6d47 a53c
00000120: 5e74 4dbd 7d13 603d 04fb 11bc 67d4 1c3d
00000130: 938d bc3d 6d15 6c3d 25c9 5b3d 9dce fabd
00000140: b5b5 e33b bdec 2d3b 9914 cf3c 8d5f cdbd
00000150: 1e46 bebc 81c3 b0bd bbc7 883d 1e9a 1ebe
00000160: b4c6 c53c b5ab 7bbe 79d9 2e3e 8f62 1d3e
00000170: 8131 d9bd 5a73 4dbe 60cb d43d ab90 10be
00000180: 6310 f73d aa98 bbbd 9382 293c 254e c63c
00000190: af69 413c 12bc de3c fa5f bb3c 51d1 d63d
000001a0: 261e c4bc 1ed7 8d3d 33b1 d3bd 2de7 fbbd
000001b0: ef6b 923d ef3b 9b3b e0c4 35bd 3ae9 f4bc
000001c0: bff3 1dbe 97ae 6b3d 2906 bb3d c6f3 08be
000001d0: 81a0 29bd f1c9 6fbc 63e6 a43d a675 c13d
000001e0: 6f6a d53d a057 c2bc 2914 5c3d 7520 1a3e
000001f0: 19bd a73c 986f 8e3c 7fdb 643e 38bc fb3d
00000200: 2021 003d 19ac b63c 3b42 b6bd bd4e a93d
00000210: fbc8 f5bb 1782 77bd 8054 97be a33a c3bd
00000220: 3f97 6abc 2d83 64bd 5b50 953d ab43 85bc
00000230: 0259 e9bb 1870 1f3e fd21 f7bd 1942 0d3e
00000240: a69a b7bd 1318 1e3e 8455 0c3c fa59 d6bd
00000250: b7f0 db3d fe5a b13d ec43 1abd f497 9fbd
00000260: cde7 bebd d059 b73b a732 10bd bdf4 80bd
00000270: f8e7 bdbd d2d6 883b 5621 433e 0338 cebd
00000280: 716a e43d 8b46 d9bd c3ff 02be fca9 4dbd
00000290: 8bfd 5cbd e50f 11be c0b4 45bc a733 173d
000002a0: 7764 b53c 484e 653d 5558 b93d 3f84 103b
000002b0: d982 2e3d 2eeb 9f3d 753f 53be 20e2 df3c
000002c0: b77f 01be de18 a33d 4741 74be e018 c1bd
000002d0: aa29 6bbd 47fe 623d c4cb f1bc c349 853e
000002e0: c4d8 d53c 91dc adbd 8226 873d 67ff 43bc
000002f0: 5253 26bd c573 5b3d b9f9 7cbd 284b be3d
00000300: 0c0e bfbd 97d9 503d 374d d7bc 0e1a 7c3d
00000310: 9118 5a3d a0ff 66bc d9f6 be3d c487 43bd
00000320: ea8b debd 4379 6f3d 0d2c 313e 4cc9 66bd
00000330: 9259 353e 5b1c b2bd b1e1 783d 9814 43be
00000340: ce86 ed3c dc67 8c3d b948 e8bd 00d3 b0bd
00000350: 171b c83a ff76 633d 0a39 6dbd 1247 033d
00000360: 7294 2bbd 5d6d b23b 0a16 26be a902 b93c
00000370: 2164 f4bd fa64 d03c 3817 c03d c757 52be
00000380: 5863 b63d 2f1a 91bd 3420 dc3c fb63 d3bd
00000390: 24c7 bebd 69b7 f7bc 114f 18be a670 6e3d
000003a0: 93e7 213e e7bb 373e f442 513d f5ff 9ebd
000003b0: bdd1 adbc 37d9 0a3e 8313 3abb 2a57 d83c
000003c0: 45b9 043d 549a 16bd 6921 a1bc fe91 63be
000003d0: 9463 303d c01e 223d c34d 193e 8332 6cbd
000003e0: cfcb c43d 7a4e 6dbc f227 cf3d da87 893d
000003f0: 9ebf fb3d a666 753d 2ccc 33be e701 21be
-0.11861707 0.12473888 -0.23292516 0.07446226 -0.12973984 0.08734803 0.054156717 -0.12522197
-0.0861763 0.047827903 0.047910195 0.10795432 0.026671657 0.061576013 0.081061505 -0.07083513
-0.031045362 0.059665408 -0.050011676 -0.12101122 0.042323466 0.13260196 0.034305107 0.09123943
0.10231171 -0.0230329 -0.15978374 -0.041292947 -0.03331015 -0.030288635 7.599646e-05 -0.103171416
-0.027026005 0.070614055 -0.13711163 -0.016541569 -0.11473851 -0.032045092 -0.13352098 0.11443096
0.090522505 0.041871842 0.01856568 -0.11322848 -0.017681342 -0.2130039 0.052262418 -0.18456388
0.11250535 0.03965056 0.005847063 0.0884547 0.1792725 0.0012704736 0.02978549 -0.080318645
-0.011171878 -0.013744722 0.025175313 0.09879505 -0.06435447 -0.12508297 -0.06784449 0.13323952
0.0075595244 0.034806166 -0.018251972 0.13482329 -0.13295822 -0.104574524 -0.0219206 0.02017566
-0.050159805 0.054706085 -0.008909944 0.0382885 0.09206691 0.05763762 0.053658623 -0.122464396
0.0069491514 0.0026538812 0.025278376 -0.100279905 -0.023226794 -0.086310394 0.066787206 -0.15488479
0.0241426 -0.2457722 0.17075147 0.15369628 -0.10605145 -0.20063534 0.10390353 -0.14117686
0.120636724 -0.09159978 0.010346073 0.024207184 0.011804982 0.027189288 0.022872914 0.10489143
-0.023940157 0.06925796 -0.103365324 -0.12299953 0.07149493 0.0047373693 -0.044377208 -0.029896367
-0.15425013 0.05753955 0.09132034 -0.13374242 -0.041412834 -0.014635549 0.08051755 0.09446268
0.10420691 -0.023723423 0.053730164 0.15051444 0.020475911 0.017387196 0.22349356 0.12291759
0.03128159 0.02229886 -0.08899351 0.08266971 -0.0075007654 -0.060426798 -0.29556656 -0.095326684
-0.014318286 -0.05578916 0.07290717 -0.016267618 -0.0071212063 0.15570104 -0.120670296 0.13794746
-0.08965044 0.15438871 0.00856531 -0.104663804 0.10739272 0.086599335 -0.03766243 -0.07792655
-0.09321556 0.0055954233 -0.035204556 -0.0629668 -0.0927276 0.004175999 0.19055685 -0.10069277
0.111531146 -0.10609158 -0.12792878 -0.050210938 -0.053952735 -0.1416622 -0.01206702 0.036914494
0.022142632 0.055982858 0.09050051 0.002205148 0.042605255 0.07808529 -0.20629676 0.027329504
-0.12646376 0.079637274 -0.23853026 -0.09428573 -0.05741278 0.05541828 -0.029516108 0.26032838
0.026104338 -0.08489335 0.06599142 -0.011962748 -0.040606804 0.053577203 -0.06176159 0.09291679
-0.09328851 0.05098876 -0.026281936 0.061548285 0.053246085 -0.014099032 0.09324426 -0.047736898
-0.1086653 0.058465254 0.1730196 -0.056344315 0.1770995 -0.086968146 0.06076211 -0.19050825
0.028994944 0.06855747 -0.11341996 -0.08633995 0.0015266862 0.055533405 -0.057915725 0.0320502
-0.041889615 0.005445166 -0.16219345 0.022584276 -0.119331606 0.025438774 0.093794286 -0.20541297
0.08905667 -0.07085072 0.026870824 -0.10321804 -0.09315327 -0.030238824 -0.14873911 0.0582129
0.15810995 0.17942773 0.051089242 -0.07763664 -0.021218175 0.13559423 -0.0028392978 0.02640875
0.03240325 -0.036768273 -0.019669252 -0.2222366 0.043063715 0.039580107 0.1497107 -0.05766536
0.09609186 -0.014484042 0.10115041 0.06715365 0.122924075 0.059912346 -0.17558354 -0.15723382

fc.bias f4 [30]
00000000: b153 773d 161d 4e3d 8cdd 8ebd 15c3 34bd
00000010: 4aca f7bb 05c6 8a3d afe0 45bb 87cf 143b
00000020: 59ce 733d 3434 ecbb e1a7 74bd 4ec7 773d
00000030: b8e9 56bc 8574 65ba 3b03 68bd a0a1 84bc
00000040: 1690 5f3d 4b60 3dbd 2c70 ccbc 2c46 7ebd
00000050: 510c 8f3d 23df 643d c5a2 bcbc 8729 d63c
00000060: 151b a6bd 2500 ebbc 9543 893d c896 183d
00000070: e00a 593d 5c67 14bc
0.06038255 0.050320707 -0.069758505 -0.044131357 -0.0075619565 0.067760505 -0.0030193736 0.0022706704
0.05952296 -0.0072083715 -0.059730414 0.060492806 -0.013117246 -0.00087530195 -0.056643706 -0.01619035
0.05458077 -0.04623441 -0.024955831 -0.06207864 0.06984771 0.055876862 -0.023026833 0.026142849
-0.08110634 -0.028686592 0.067023434 0.03725317 0.052988887 -0.009057846
