models/modello_lstm_20250507_0717.pth (torch, 81625 bytes, 6 tensors)

lstm.weight_ih_l0 f4 [256, 10]
000000 ed 32 18 3f ab a3 d7 3e 72 04 29 3f 2f 7e 10 3f
       0.59452707 0.42117056 0.6602241 0.5644254
000010 71 31 08 3e f1 a8 4c 3e 84 f5 37 bd 9c f1 b1 3d
       0.1330011 0.19986321 -0.044911876 0.086886615
000020 a9 14 ef 3d 53 ee f8 3c 2d 1c 21 3d 1e 24 0b 3e
       0.116738625 0.03038708 0.03933351 0.13587996
000030 ed f7 72 3e 1c 79 57 3d 96 5f bc 3d 91 48 a7 3d
       0.23727389 0.052605733 0.09197919 0.08168138
000040 00 57 48 3e 1c cd 74 3e 21 db bf 3d e3 f1 eb bd
       0.19564438 0.23906368 0.093679674 -0.115207456
000050 78 90 02 bc f1 33 76 3e b3 a2 48 3e 59 1f d7 3d
       -0.007969014 0.24043252 0.19593315 0.10504026
000060 a8 b5 46 bc ee 54 ac bc 73 0b 01 3e 99 22 25 3e
       -0.012128271 -0.021036591 0.12602024 0.16126479
000070 42 ed 02 3d b2 2f 21 3e 56 a6 1b 3e 44 58 ba 3d
       0.031964548 0.1574085 0.15200171 0.090988666
000080 ea 31 6b bb 76 99 c8 3d a9 90 af 3d c7 ad 5f be
       -0.0035887905 0.09794895 0.085725136 -0.21843635
000090 dc 62 88 bd 21 c1 ca bd 9e 95 25 be c9 de 09 3c
       -0.06659481 -0.09900118 -0.16170356 0.0084149325
0000a0 fc 5b d1 3e 08 d5 a8 bd 0f d6 09 3e a3 ee 92 3e
       0.4089049 -0.082437575 0.13460563 0.2869769
0000b0 3d dd 66 bd a8 21 84 3e 19 52 92 3e ca b2 a1 3e
       -0.056363333 0.25806928 0.2857826 0.31581718
0000c0 bd 99 64 3e 1a 78 94 3d b8 a4 e3 bc 7b 9f 37 3e
       0.22324272 0.0724947 -0.027788505 0.1793193
0000d0 0d 42 9b 3e 7f e1 70 3e 01 01 4f 3c e2 84 c5 3d
       0.3032383 0.2352352 0.012634517 0.09644486
0000e0 a4 ce a2 3d 22 d4 5d 3d 80 89 21 3e de 9f 87 bc
       0.0794957 0.054157384 0.15775108 -0.016555723
0000f0 a5 30 a7 3e 57 64 bf be 68 7d 56 3e 33 3e 82 bc
       0.326543 -0.3738124 0.20946276 -0.0158988
000100 33 62 1e be 1d 26 d4 3e fd 35 84 3c 4e 42 e1 3e
       -0.15467148 0.41435328 0.016139025 0.439959
000110 ed 4d fe 3e ba 1a b9 3c 96 a2 aa 3d 4e 1a 55 3b
       0.49668828 0.022595752 0.08331792 0.00325169
000120 88 c8 04 3d 67 09 09 bb db bb 8d 3c 64 80 af 3b
       0.032417804 -0.0020910145 0.01730149 0.0053558815
000130 91 9b d9 3c d6 e2 aa 3d 9d cb 0c 3e 3a f3 a6 3d
       0.026563438 0.08344047 0.13749547 0.081518605
000140 d0 33 cb 3d 90 cc eb 3d 73 16 7e 3e 53 d7 b2 3d
       0.09921992 0.115136266 0.24813251 0.08732476
000150 68 4c 8f bc 8d 11 7c 3e 80 55 24 3e 01 64 d4 bc
       -0.017492488 0.2461607 0.1604824 -0.025926592
000160 43 32 28 3e 1d b9 28 3e da fa 7f be 02 bc 3d 3e
       0.16425423 0.16476865 -0.24998036 0.1852875
000170 6b a6 a1 3e 41 b5 ed 3d 68 87 62 bd 7b 0c 60 3d
       0.3157228 0.11606837 -0.055304915 0.054699402
000180 e3 d5 d3 bd 45 db 49 3e 4c 3e 19 3e 38 16 cf 3d
       -0.1034353 0.19712551 0.1496517 0.1011166
000190 ca cb ef 3c ff 7e 20 bd 10 be 58 3d fb 78 15 3c
       0.029271979 -0.039183613 0.052915633 0.009123082
0001a0 af 82 d6 3d 9d 5a 23 3e 2a c5 7b 3e cb b5 51 3e
       0.10474145 0.15952535 0.24586931 0.20479505
0001b0 f9 c6 88 3e 74 81 9a bc 53 1d 94 be b2 5e bc be
       0.26714304 -0.018860556 -0.28928623 -0.36790997
0001c0 76 47 c7 be 5e 31 57 3d a4 cc 30 3d 28 e4 f0 bc
       -0.38921708 0.052537315 0.04316391 -0.029405668
0001d0 56 57 36 3b 1b d3 ca 3d 1b 49 88 3d 4e 59 1b be
       0.0027823052 0.099035464 0.06654569 -0.15170786
0001e0 89 be cd 3e f1 da 9a 3e aa 66 4c 3e fa 98 87 3e
       0.4018443 0.30245164 0.19961038 0.264839
0001f0 7c 06 14 3b af 0a c7 3e 70 1f e1 3d 5c 93 31 3e
       0.0022586873 0.38875338 0.10992324 0.1734137
000200 0f 9a a3 3e 0a 1d 3f 3e 3f 78 5f 3e 62 5c 64 bc
       0.31953475 0.18663421 0.21823214 -0.013938041
000210 22 4a 87 3e 3f d0 0e bd 47 07 44 be cd d2 a3 bc
       0.26423746 -0.034866568 -0.19143401 -0.019997979
000220 63 90 57 3e 49 cb 9c 3e 01 f8 7f 3e 8f 87 16 3d
       0.21051173 0.30623844 0.2499695 0.036750372
000230 66 8c 38 3e e4 dd 83 3e 59 56 2c 3e d1 59 9f 3d
       0.18022308 0.25755227 0.16829814 0.07780803
000240 09 b7 a0 3d 50 e9 08 3e 5b 96 d8 3d c1 80 ac bd
       0.07847411 0.13370252 0.10575553 -0.08422995
000250 03 23 2c bb 63 31 8b 3d c4 0d 06 3e da a0 94 3e
       -0.0026265986 0.06796529 0.13091189 0.2902897
000260 39 f4 1e 3e 1a be a5 3e bb e3 33 3e 14 2f 52 3d
       0.15522851 0.32371598 0.17567341 0.05131443
000270 45 46 3c 3e af 68 39 3e 84 f1 88 3d 52 51 26 3e
       0.1838618 0.1810634 0.066866904 0.16241959
000280 6c 7c a4 3e a5 1e 62 3e 66 af b4 3e aa 6d 9a 3e
       0.32126176 0.22082002 0.35290068 0.30161792
000290 30 c8 09 bb a0 b6 82 3d e2 8b 56 3d 04 f3 a5 3e
       -0.0021023862 0.06382489 0.052379496 0.3241197
0002a0 57 25 dd 3d 6e b1 cb 3d e2 97 ee 3d ed 13 ed 3d
       0.10798138 0.099459514 0.11650063 0.11576066
0002b0 51 20 c4 3e b8 6e 84 3e 50 e8 9f 3c 5d 88 61 3d
       0.38305905 0.25865722 0.019519955 0.055061687
0002c0 ea 88 31 3d 7d de a3 3e 0a 90 60 3e e4 52 94 bd
       0.043343462 0.32005683 0.21929947 -0.07242373
0002d0 a6 16 0a 3e db 12 92 3e c8 76 9b bd 69 d0 a7 3c
       0.13485202 0.2853001 -0.07591015 0.02048512
0002e0 be 56 4c 3e 62 7e 35 3e 6a 41 51 bd 30 eb 0a 3e
       0.19954965 0.17723992 -0.051087774 0.1356628
0002f0 86 e5 a5 3d 06 98 57 3d 58 80 c2 3d 14 9c a3 3b
       0.08100419 0.052635215 0.09497136 0.004992971
000300 ab a2 7e 3d bc 5f 39 3e b3 dc 48 bd b5 2f 94 bd
       0.06216685 0.18102926 -0.0490386 -0.07235662
000310 8e fd 11 be a3 27 bb bc 35 c0 b8 3c 49 51 9f 3d
       -0.1425688 -0.022846049 0.022552589 0.07779176
000320 f8 7a 3f bc 39 fd fe 3c ee 21 ee 3d d7 67 2f 3e
       -0.011687033 0.031126605 0.11627565 0.17129456
000330 ba 94 a8 3d dc c4 a4 3e 6b cc d6 3c 73 b4 9a 3e
       0.08231492 0.32181442 0.026220521 0.30215797
000340 a4 c6 a8 3e f2 b9 00 3e 96 f5 95 be 83 2a e0 3c
       0.3296405 0.12570933 -0.2928893 0.027364021
000350 6f 75 01 be 0d 57 a2 3d f9 bf ec 3d c2 a4 7d bb
       -0.12642454 0.0792676 0.115600534 -0.003870294
000360 06 c8 4f bd 9b f8 d8 3c 34 2f 1f 3d d4 e3 d3 3d
       -0.050727867 0.026485732 0.038863376 0.10346189
000370 a7 b0 c0 3d 86 ab 56 3e 0a 1a 92 3e 0b 64 98 3e
       0.09408694 0.20963868 0.2853549 0.29763827
000380 62 48 83 bd 72 a0 be bb d2 7d 99 3c 32 1d 33 3e
       -0.0641029 -0.0058174664 0.018736754 0.17491606
000390 6d 3d e2 3d 59 bb 08 3e 8f ed 6d 3e e4 7d 23 3e
       0.11046872 0.13352717 0.23235153 0.15965992
0003a0 ea f8 3f 3e f3 27 59 3e 87 eb 4d bd f1 44 99 3d
       0.18747297 0.21206646 -0.050273445 0.07483853
0003b0 e2 14 73 3d 76 8c 2a 3e ed 24 f0 3d 5a df 3e bd
       0.059346087 0.16655144 0.11725793 -0.046599723
0003c0 f3 d4 68 bd cb 1e f9 3d 8d 1c 92 3e 8d 28 27 3e
       -0.05684371 0.121640764 0.28537408 0.16324063
0003d0 60 db b4 3d ed 4d 95 3e 18 d3 c4 3d 69 de 70 3e
       0.08830905 0.29161015 0.096105754 0.23522343
0003e0 d5 9a 50 3e 1d af 47 bc 94 dd 90 be c0 b4 42 be
       0.20371564 -0.012187746 -0.2829405 -0.19014263
0003f0 eb 97 97 be 32 18 61 bd ac 86 ef 3d b2 61 1b 3e
       -0.29608092 -0.054954715 0.116956085 0.15173987

lstm.weight_hh_l0 f4 [256, 64]
000000 52 4f c2 3e b2 27 07 be ee 36 5b be da da 9d be
       0.37951142 -0.13198736 -0.21407673 -0.30831033
000010 c9 27 62 3b f4 cc fd 3d 84 e7 82 3e 73 55 cc bc
       0.0034508577 0.12392607 0.25567257 -0.02494309
000020 3b 72 e8 bd e4 dc 1f 3e af 63 e3 3e 28 1b eb 3d
       -0.11349913 0.15611607 0.4441199 0.11479789
000030 11 f2 c1 be a7 1d 0d 3d b6 3f 0d 3f d8 de 7a bd
       -0.37879995 0.034452107 0.5517534 -0.061247677
000040 85 b7 5c bc c5 4c 9d bd cc 9b 2e be 56 e3 0c 3d
       -0.013471489 -0.07680658 -0.1705162 0.034396492
000050 be 3f a3 3c db e7 ed bd 82 98 3e 3d 89 b2 93 3c
       0.019927856 -0.116164885 0.04653216 0.018029468
000060 bd bf 96 3b 2d 81 81 bd 4d 69 d9 3d 8b 85 e3 3d
       0.0046004937 -0.063234664 0.10615788 0.11109456
000070 3c 10 31 3e 21 75 35 3d 65 15 8c 3d c1 6e bf 3e
       0.17291349 0.044301156 0.06840018 0.37389186
000080 7b fd 2d 3e 79 89 db bd e9 9d 44 3d d8 d7 51 3e
       0.16991226 -0.1071958 0.048002157 0.20492494
000090 58 29 1b be 2e 59 f6 3d 16 4b c1 3e 71 47 e6 3d
       -0.1515249 0.120287284 0.377526 0.11244095
0000a0 8b 39 d6 3e a3 61 cb bd ee d9 99 bd be 84 c3 3d
       0.41840777 -0.09930732 -0.0751227 0.09546803
0000b0 6b 37 89 3e d1 41 5e bd 61 84 34 3e 25 8d a2 bd
       0.26800093 -0.054261986 0.17628624 -0.079370774
0000c0 83 42 e1 3e 9b ba 89 be e8 88 e9 bd f2 71 b0 bd
       0.43996057 -0.2690018 -0.11403066 -0.08615483
0000d0 55 cf 80 3e ee 11 a9 3d d0 27 d3 3c fc db e1 3d
       0.25158182 0.08255373 0.02577582 0.11028287
0000e0 1e 87 c7 be f7 5c 13 3e 1c 81 2b 3e fd e8 82 bb
       -0.38970274 0.14390932 0.1674847 -0.0039950595
0000f0 0f 5c 96 3e a5 19 f9 bc 86 a4 55 3b 34 3e 1d be
       0.2936711 -0.030407736 0.0032599284 -0.1535576
000100 2d 1f f3 bd 8b ec 19 be e4 7a 1f bd d1 4b 35 bd
       -0.11871181 -0.1503164 -0.038935557 -0.044261757
000110 dd f4 9b bc 9a ca 4a 3e 5f cd 0f 3e ef 5e fc bc
       -0.019037658 0.19803849 0.14043187 -0.030806987
000120 3b f2 b8 bd d0 94 b9 3d 19 5b 2f 3e 85 bd 0f 3e
       -0.09030577 0.09061587 0.17124595 0.1403714
000130 f9 7e 63 3b 41 fb 23 bd 41 68 86 3c 86 83 18 be
       0.0034713133 -0.040034536 0.016407134 -0.14893922
000140 1f 29 cc bd af 37 ee bc a9 bd 7c be b0 28 07 bb
       -0.09968781 -0.029079286 -0.24681725 -0.0020623617
000150 96 7c c5 3d 78 69 38 be 72 b7 44 be b0 ec bd 3d
       0.096429035 -0.18008983 -0.19210604 0.0927366
000160 af 59 58 3e 72 f4 d2 bd f3 96 c0 3d 1e ce bb 3d
       0.21127962 -0.103005305 0.09403791 0.09170173
000170 1a f2 3d 3d bc 25 a3 bd 17 64 3e 3e 71 11 43 3d
       0.046373464 -0.07966182 0.18592869 0.047624055
000180 fb b8 83 bd 49 16 32 be 43 6e 35 be 5c 6f 31 3d
       -0.064317666 -0.17391314 -0.17717843 0.04331909
000190 29 6f b3 bc 40 61 27 3e d1 86 d1 3d 41 94 a5 bd
       -0.021903591 0.16345692 0.10230792 -0.08084918
0001a0 47 b2 7a 3e dc 54 10 bb bb 0a b0 3c 19 51 06 bd
       0.2448207 -0.0022023236 0.021489492 -0.032792185
0001b0 70 a1 7c 3e a0 06 89 bd 9f da 0b 3d ae 61 0c be
       0.24670959 -0.06690717 0.03414404 -0.13709137
0001c0 70 1d f5 bc 28 fe 12 3e f4 8c 19 3d bd d3 95 3d
       -0.029921263 0.14354765 0.03748794 0.073157765
0001d0 a1 25 70 3e 3f f6 bf bd 6d 0b c6 3d 7d 9f 6d bd
       0.23451854 -0.093731396 0.09670148 -0.058013428
0001e0 e3 a4 b9 3d 27 d1 24 3d e0 0f 3c 3d 78 3f da bc
       0.09064653 0.040238526 0.045913577 -0.026641592
0001f0 b0 bf 9e 3d 9b fd 20 bd b3 2f ee bd 40 29 5a bd
       0.07751405 -0.039304357 -0.11630192 -0.053261995
000200 5a 34 d7 3c ab 8a 20 3d cb f0 44 bd 1b 99 e0 3d
       0.02627008 0.039194744 -0.0480812 0.109667026
000210 f2 86 b2 3d 16 7d d2 bd 2e d8 2c bd 17 f4 69 3d
       0.08717145 -0.102777645 -0.042198353 0.057117548
000220 5d e2 82 bc d5 d9 12 bc 45 94 b1 bd 1f 4f 03 be
       -0.015977079 -0.008963068 -0.08670858 -0.12823151
000230 31 29 8c 3d f2 3e 79 3d 23 1e e7 3d a4 53 7c 3d
       0.06843794 0.060851045 0.11285045 0.061603203
000240 2d a0 77 bd d7 62 19 3d 9d 08 4f 3e 32 74 af 3b
       -0.06045549 0.037447777 0.2021813 0.0053544277
000250 2c 72 88 bd 7e 84 13 bd 43 66 03 3e 8e 7b 94 bd
       -0.066624016 -0.036015026 0.12831978 -0.07250129
000260 51 db 9a 3c 47 21 20 bc 3b 43 15 3d bd 5c 4c 3c
       0.018903406 -0.009773559 0.03644107 0.012473282
000270 8f 9b 98 3c 04 58 cd 3d f5 f3 ac 3d 40 da 82 bd
       0.018628864 0.10026553 0.084449686 -0.06389284
000280 3a 54 a4 3d c2 aa 96 3d 11 6b dd 3d 5a d7 a0 bc
       0.080238774 0.07356788 0.10811437 -0.019633938
000290 c2 9f b6 bd a8 be e8 3d ed a4 12 be 7a bc 6c 3b
       -0.0891719 0.1136449 -0.14320727 0.0036123083
0002a0 be db 8e bd 27 92 10 3e 8e 10 0c be 7b fb ad 3d
       -0.06975506 0.14118253 -0.1367819 0.08495232
0002b0 11 e4 e8 bc cc 01 0b 3c fb 72 5d be c4 8d d7 bd
       -0.028429063 0.008484315 -0.21625893 -0.105250865
0002c0 7d a8 f4 3c c3 60 55 bd dd 14 be 3d 42 e3 bf bd
       0.029865498 -0.052094232 0.09281323 -0.09369518
0002d0 6f 4b 89 3d 77 04 3f 3d ed c9 0d 3d d9 bc e5 bc
       0.06703841 0.046635117 0.0346164 -0.028044151
0002e0 02 07 6c b8 67 34 89 bd 2b 19 f5 bd 92 18 bf 3d
       -5.627331e-05 -0.06699448 -0.11967691 0.09330858
0002f0 98 c7 89 bd e3 bd 51 3c 48 31 a5 3c 1c d7 d1 3d
       -0.067275226 0.01280162 0.0201651 0.10246107
000300 90 e1 78 3e 3b a8 0b 3e 01 9e fd bc 3f c2 95 3c
       0.24304795 0.13638394 -0.030959131 0.0182811
000310 1d 3c d2 bc 2e 5c bc bd ab f4 8e 3e de 50 01 3b
       -0.02566343 -0.091972694 0.27921042 0.0019732038
000320 3b 66 fb 3d dd 44 b2 bd ac 80 f3 bd 6c 2d 53 3d
       0.12275358 -0.08704541 -0.118897766 0.05155699
000330 fe 36 a7 3d c8 35 27 3e 5f af c6 bd 8d d1 60 bc
       0.08164786 0.1632911 -0.09701418 -0.013721836
000340 91 ab 62 3d 3a 55 9c bc 91 b5 d9 bd a2 46 bb bd
       0.0553394 -0.019083608 -0.10630334 -0.091443315
000350 ab cf ca bd 22 9f 14 be 19 17 b8 3b d0 bf a6 bc
       -0.09902891 -0.1451383 0.005617988 -0.020355135
000360 c0 c6 b3 bb 10 c7 2b 3e 6a 22 10 3e bc 2d 91 bd
       -0.0054863393 0.16775155 0.14075628 -0.07088801
000370 c4 60 18 be 20 3f f7 ba 98 db 38 be 7b 7d 8a 3d
       -0.14880663 -0.0018863417 -0.18052518 0.06762215
000380 f0 cb 95 3d 4b 6f 00 3e d3 e7 09 3d 10 87 08 bb
       0.073142886 0.12542455 0.03366835 -0.0020832457
000390 ce 83 38 3e 3f ed 6f bd e9 a7 cc bd fe 4b 6f 3d
       0.1801903 -0.058575865 -0.09992964 0.05842208
0003a0 ed 58 0a bd d3 ec d6 3d 0b 65 1e 3d 3f a9 92 3d
       -0.033776212 0.104943894 0.03867058 0.071611874
0003b0 6e 76 ea bd ed c5 0d 3d 5d 4c af 3d 82 e9 fd bd
       -0.1144837 0.034612585 0.08559487 -0.12398054
0003c0 ed e2 b4 3d f6 bf de 3c 25 f7 37 bd 38 85 42 be
       0.08832345 0.027191143 -0.04491343 -0.18996131
0003d0 f4 61 c5 3d 7e 60 13 3e f4 9e 11 be b0 c2 f0 3c
       0.09637824 0.14392278 -0.14220792 0.02938971
0003e0 e2 49 2b 3d 59 6f 42 be ee e1 b4 bd bb 45 ec bd
       0.041818507 -0.18987788 -0.08832155 -0.115367375
0003f0 42 15 e7 bd b4 48 eb bd a3 4c 2f 3e 99 f7 c5 bc
       -0.112833515 -0.114884764 0.17119078 -0.024165915

lstm.bias_ih_l0 f4 [256]
000000 46 ec 93 3b 5d 33 8e bd 7e 9b 24 3e 0c bf 47 3c
       0.00451425 -0.069433905 0.1607494 0.012191545
000010 32 5f b7 bc 65 a4 f0 bc ff 40 60 3d 17 cf b4 bc
       -0.02238426 -0.029375264 0.054749485 -0.022071404
000020 1d b9 9b 3d 77 9c bc bd f7 45 0d be c6 6a 7d bb
       0.07603667 -0.09209531 -0.1379622 -0.0038668378
000030 0e 4d 43 3d 91 98 42 bc 7c 72 35 3c e3 08 89 3c
       0.047680907 -0.011877195 0.0110746585 0.01672787
000040 8a cf 1e be cf c2 29 be 89 27 d8 3d 04 b7 be bd
       -0.15508857 -0.1657822 0.10554416 -0.09312251
000050 da 31 86 3c 98 4c f0 3d 72 d8 95 bc 99 34 0d bd
       0.016381193 0.11733359 -0.018291686 -0.03447399
000060 8b 81 27 3b b3 ae 09 3e 64 96 31 3c e4 4d 09 3d
       0.0025559391 0.13445549 0.010839079 0.033521548
000070 0c 47 5b bd 22 91 36 3d f2 55 2a 3e a6 f6 cd bd
       -0.053534552 0.044572003 0.16634348 -0.1005681
000080 7d d4 e4 bd 28 bd 76 bd 86 47 31 3c 7d 97 77 bd
       -0.111733414 -0.060238987 0.010820275 -0.060447205
000090 cf 6c 5e 3d 5d bf f9 bd ff 38 d4 bd 4b 59 9e bb
       0.054302987 -0.12194703 -0.10362434 -0.004832422
0000a0 d9 d8 0c be 17 ff 83 3c 99 23 38 bd f7 46 1e be
       -0.13754596 0.016112847 -0.044955824 -0.15456758
0000b0 e9 68 fa 3c fa c9 e5 bd 3e e7 24 3e 64 56 ec 3d
       0.030567603 -0.112201646 0.16103837 0.11539915
0000c0 91 f4 ea 3d e4 ea ad bc b5 cf ea bd de 6c 0d bc
       0.114724286 -0.021230169 -0.11465398 -0.008631913
0000d0 39 c5 e5 bb 25 9e 22 bd 61 3c 3d bd ad 98 c3 bc
       -0.007012036 -0.0397016 -0.04620016 -0.023876512
0000e0 a0 c9 54 bd 54 2a 85 bd 08 f6 38 bc 55 95 43 3d
       -0.051950097 -0.06502214 -0.011289127 0.047749836
0000f0 92 f7 19 be e6 b9 ae 3c d5 e9 2c 3d d4 f4 08 bc
       -0.15035847 0.021328878 0.042215187 -0.008359153
000100 a7 84 78 ba 4e f3 57 3d 63 3d 75 b9 46 17 c1 bd
       -0.0009480216 0.052722268 -0.00023387889 -0.09428267
000110 57 40 27 bd 72 30 02 be fe 05 4b 3e 14 d2 f4 bd
       -0.040832844 -0.12713793 0.19826505 -0.11954132
000120 64 e0 ef bd eb ed b4 bd 8d 7e 62 bd aa e8 82 bd
       -0.11712721 -0.08834442 -0.05529647 -0.063920334
000130 52 32 99 bd 0d 87 18 bd 70 18 54 3e 1b 45 12 bc
       -0.07480301 -0.03723817 0.20712447 -0.008927609
000140 90 0a bf bd 1f 7d 0d be 93 ae f3 3d ce 57 49 be
       -0.093281865 -0.13817261 0.11898532 -0.19662401
000150 38 e0 d1 bd 92 b5 ce bd 63 cb 49 bd 95 1e dc bd
       -0.102478445 -0.100932255 -0.04926623 -0.107480206
000160 00 78 35 bd a4 b3 8b bd cc da b6 3d da e5 f1 3d
       -0.044303894 -0.06821373 0.08928451 0.11811419
000170 df 88 48 bc 51 15 02 bc 1a 7e 94 3d ad 94 2d be
       -0.012239664 -0.007939653 0.072506145 -0.16951247
000180 17 c7 8e bd aa 70 85 bd 11 a2 f4 3c 4b 3a a1 bd
       -0.06971567 -0.065156296 0.029862436 -0.078724466
000190 b1 a8 c5 3d 14 ff f6 3b d2 60 35 be e9 82 21 bd
       0.09651316 0.007537732 -0.17712715 -0.039431486
0001a0 56 43 c6 bd 97 4d d5 bd 5f 81 a3 bc 6e 1d a3 bd
       -0.09680812 -0.1041519 -0.01995915 -0.07964598
0001b0 11 01 87 bd 7f c7 7b bd 18 c7 0e 3e 5a 82 df bd
       -0.06592 -0.06146955 0.13943136 -0.109135345
0001c0 9d bf 95 3d d1 38 ba 3b 67 9c 4f 3c 10 ef 16 bd
       0.07311938 0.0056830426 0.012671567 -0.03684908
0001d0 a6 5c bc bc 14 b1 c4 3a 64 77 ed 3d 8d aa 79 bd
       -0.022993397 0.0015006387 0.115950376 -0.060953666
0001e0 30 90 28 3d 63 9f 47 3d dc 91 dd bd d8 55 0b bc
       0.041153133 0.048735987 -0.10818836 -0.008504353
0001f0 c7 9f 5d bb 97 a5 8f 3d 89 90 f0 bd 1b 3e af bd
       -0.0033817159 0.07014006 -0.11746318 -0.085567676
000200 4b f1 b7 3d e8 a5 db 3d a6 f1 41 3c df 7f 01 3d
       0.0898157 0.107250035 0.011837399 0.031616088
000210 59 c6 00 3d 72 f6 18 3d d5 e8 05 be 5a 7b 51 3d
       0.03143916 0.037344404 -0.130771 0.051143028
000220 bc 29 93 bd 57 f1 00 be a7 f4 92 bd 1d 50 98 bd
       -0.071856946 -0.12592064 -0.0717557 -0.074371554
000230 ff fa c2 3c 97 09 8e bc db b4 36 bc 54 58 cc bd
       0.023801325 -0.017338557 -0.011151518 -0.09977785
000240 b0 e4 23 bc f6 42 77 3d cf e3 a4 bd 73 f5 2c bd
       -0.010003254 0.060366593 -0.080512635 -0.042226266
000250 6a 3a f0 bd de 97 14 bd 99 50 3b bd fb 37 16 3d
       -0.117298916 -0.036277644 -0.04573116 0.03667448
000260 ba c0 90 3c 0f e1 c2 3d fe 5c b3 bd 90 a2 a6 bd
       0.017670024 0.09515583 -0.08757971 -0.08136475
000270 c3 1b 2a 3d c1 17 a0 3d 24 17 fe bd 49 24 26 bd
       0.041530382 0.07817031 -0.124067575 -0.040561948
000280 b1 2a ee bd 7d 1f d3 3d 52 24 a5 bd 40 f1 a1 bc
       -0.116292365 0.1030874 -0.08063568 -0.019768357
000290 ac d8 d7 bc 66 9e c2 3d 52 d1 08 3d 05 3b 9e bd
       -0.026348434 0.09502868 0.03340275 -0.07726101
0002a0 55 f7 16 bd a3 20 20 bd c7 81 bc bd b6 ae 36 3d
       -0.036856968 -0.039093625 -0.092044406 0.04460021
0002b0 4f 2e 93 bd 06 a0 16 3d 62 b1 c8 bd 2d b9 57 bd
       -0.07186567 0.036773704 -0.09799458 -0.05266683
0002c0 ad f4 32 bd e5 92 91 bd d3 2a 84 bd b3 6c 96 3b
       -0.043690372 -0.07108096 -0.064534806 0.0045905947
0002d0 1e ce 09 be b3 ad 0c bd ec 09 ce bd e8 ce 2e bd
       -0.13457534 -0.03434534 -0.10060486 -0.04267779
0002e0 ae 45 9f bd 53 ff 40 bd ff bb 2b 3d 7a 0c c1 3d
       -0.07776962 -0.047118496 0.041927334 0.09426208
0002f0 3c 84 d4 bc 61 fc 7c 3d 73 34 ca bd 85 64 52 3c
       -0.02594196 0.061764125 -0.09873285 0.012841349
000300 9f 7f ab 3c e3 03 e9 bd 43 27 82 bd b5 8f 34 bd
       0.020934878 -0.113776945 -0.06355145 -0.044082362
000310 2f 8a 93 bd 9b 19 97 bd b1 ca bc 3d 6f 38 99 3d
       -0.07204091 -0.07377931 0.09218348 0.07481467
000320 cb bd 0a be 95 40 b8 bd 85 b6 22 be 13 ad 09 be
       -0.13548963 -0.08996693 -0.15889938 -0.13444929
000330 1c 30 33 bd 2b 5a f0 bd cb 6d 3d 3e 1f 27 57 3d
       -0.043747053 -0.11735948 0.18498914 0.052527543
000340 15 b8 10 be d2 26 ab bd df d4 25 3d db 36 7e bd
       -0.14132722 -0.08357014 0.040486213 -0.062064033
000350 67 e1 fc bd 80 20 dc 3b f4 02 a2 bd a3 2e 58 bd
       -0.123476796 0.0067177415 -0.079107195 -0.05277885
000360 68 b2 1f bd 0a 85 6e 3d 72 6d ee 3d 85 f0 aa 3d
       -0.0389885 0.058232345 0.11641969 0.08346657
000370 d2 0f bd 3d 76 3b c9 bd 39 8e 74 bd 9b 79 3d 3d
       0.09231533 -0.098257944 -0.059705947 0.04625855
000380 4a 08 82 3b eb 12 0a bd 6c a4 dc 3d 23 86 8c bc
       0.0039682733 -0.033709448 0.107735485 -0.017153805
000390 b1 26 e0 3c da 11 cb bd a5 39 52 be c1 05 53 bd
       0.0273622 -0.09915514 -0.20529802 -0.05151916
0003a0 a3 e4 bc bd 64 bd 8b 3d cb dd 0c 3d 59 1a 53 bd
       -0.092232965 0.06823233 0.034391206 -0.0515388
0003b0 7d 6c 8d 3d f1 89 3d 3a 72 87 d8 3d fb 61 60 bd
       0.06905458 0.00072303327 0.10572709 -0.05478094
0003c0 ad e2 da bc 8c d6 f0 bd 40 75 6d bd 08 44 84 bd
       -0.026719416 -0.117596716 -0.057973146 -0.064582884
0003d0 83 b2 30 3c 79 c4 3e bb d5 ee 86 bd 09 dc b7 3d
       0.010784748 -0.0029108806 -0.06588522 0.08977515
0003e0 2e 37 ac bd 9d e1 0e 3e 00 d3 e0 3b 1b 86 8f 3d
       -0.08408962 0.13953252 0.0068610907 0.070080005
0003f0 21 70 43 be 47 6d 12 bd c2 da ac bd 7a 40 96 3d
       -0.19085743 -0.035748746 -0.08440162 0.07336517

lstm.bias_hh_l0 f4 [256]
000000 dc 19 e0 bc 4b ee 26 3d eb ac bc bc f3 21 1e bd
       -0.02735608 0.040754598 -0.023031672 -0.038606595
000010 81 18 47 be 1c 5e 4d 3c de e7 b5 3d b8 87 2d 3d
       -0.19442941 0.012534644 0.08882116 0.04236576
000020 83 22 7d bd 9f b8 03 bd be eb 6f 3d 4c 66 ea bc
       -0.06180049 -0.03215849 0.05857443 -0.028613232
000030 ab 91 91 3d 07 6f 51 bb f6 7d 74 3e cf a2 89 bd
       0.07107862 -0.0031957047 0.23876175 -0.067205064
000040 1f 17 95 bc 61 9b 6a bc f8 5a 90 3d 63 75 71 bd
       -0.018199502 -0.014319272 0.07048601 -0.05894984
000050 d1 d9 fb bc 09 3d bb bd 0d b1 8e 3d c0 0d 63 bd
       -0.030743511 -0.09142501 0.069673635 -0.055433035
000060 d8 34 97 bd c8 ba 8d 3d b4 8e 95 3b c3 b2 5e bc
       -0.07383126 0.06920391 0.0045641307 -0.013592425
000070 f9 2f 1a bb 1b e4 a6 bb 44 ec 57 3d f5 da b1 3d
       -0.002352713 -0.0050931103 0.052715555 0.08684341
000080 30 7a e0 bc 3b 7c c9 3d c5 ec 51 bd a8 6e 14 bd
       -0.027402014 0.09838148 -0.05125119 -0.036238343
000090 ee b3 8a 3d e3 c6 dd bd 05 90 c5 bd 6b 55 d5 bd
       0.067726 -0.1082895 -0.0964661 -0.10416683
0000a0 7c 77 77 3d a0 96 76 bd 5d c9 07 be 3a 4f 70 bd
       0.060416684 -0.06020224 -0.13260408 -0.058669306
0000b0 de 59 67 bc d8 69 63 3d e5 78 15 3e ae 21 dc 3d
       -0.014120547 0.055520862 0.14596899 0.107486114
0000c0 71 4f b7 3b 5c e4 b6 3c c0 b1 3a bc c6 b4 da 3d
       0.005594187 0.022325687 -0.011394918 0.10679011
0000d0 d8 04 ad bc 32 38 97 3d 15 b7 d6 3d ee 79 e6 3d
       -0.021120474 0.07383765 0.10484139 0.11253725
0000e0 2c 6c 68 3d c5 b0 99 bd ae 8e ef bd da 9b 0f bd
       0.056743786 -0.07504419 -0.11697136 -0.03506074
0000f0 a6 b2 ff bd 35 a2 95 3d 1f d5 f7 3d b7 29 30 be
       -0.12485246 0.07306329 0.121011965 -0.17203413
000100 55 a1 cb 3c 60 50 1a bd a0 06 15 be f7 74 24 be
       0.024857203 -0.037674308 -0.14553308 -0.16060244
000110 8c ca e1 bd 52 25 9d 3c 53 6b bd 3d 50 a8 7f 3d
       -0.11024961 0.019182835 0.09248986 0.062416375
000120 4c a2 63 bd 13 d3 98 3d 58 85 3d bd ce 82 86 3d
       -0.0555747 0.07462134 -0.046269745 0.06567918
000130 91 b4 17 be e3 1a e7 3c 6a 64 48 3e 79 c0 21 be
       -0.14814974 0.028211063 0.19569555 -0.15796079
000140 a6 46 d7 bd 0f 8e a9 3c 8e 67 b1 3d d4 06 ef 3c
       -0.10511522 0.020697622 0.086623296 0.02917806
000150 72 3d 33 3d 75 a6 c0 bc 22 54 94 bd 90 bb fb 3c
       0.04375977 -0.023516873 -0.072426096 0.030729085
000160 b7 d7 19 3c 58 61 f1 3d d9 0d 1e 3e 5e 92 f4 bd
       0.009389809 0.11786145 0.1543497 -0.1194198
000170 b8 a9 9f 3d 44 72 9a bd 1d 1e 11 bc 42 45 e0 bd
       0.07796043 -0.07541326 -0.008857277 -0.1095071
000180 5b a1 18 be e2 54 c1 bc f2 38 4d 3d 4b e6 93 3d
       -0.14905302 -0.023600046 0.050103135 0.07221659
000190 25 46 c4 bd f8 44 30 3c 4e ab 14 bd 9e 26 ce bd
       -0.095836915 0.010758631 -0.03629618 -0.100659594
0001a0 df ec 43 3c 98 8e d3 bd 72 96 de bd b9 25 1b bd
       0.01195833 -0.10329932 -0.10868539 -0.037877772
0001b0 56 9b 09 bd 58 49 82 bc 85 4a c2 3c fc 4d 95 bd
       -0.033595406 -0.015904114 0.023717174 -0.07290265
0001c0 ae 8a 14 3e 3f 10 1a be 7b 3c ae bc 9a 5d 11 3e
       0.14506027 -0.1504526 -0.021269074 0.14195862
0001d0 43 3c e2 3b cc 65 b2 bc 96 a8 17 3c 95 60 df bc
       0.0069041564 -0.021777056 0.009256503 -0.027267734
0001e0 4e 3c 94 bd 56 54 8a 3d 27 53 b1 3c 91 bf e4 bd
       -0.07238065 0.06754367 0.021646095 -0.11169351
0001f0 96 d0 1d be 26 2b 58 bc f5 5c ba 3d 62 c4 2b bd
       -0.154116 -0.013193881 0.090997614 -0.041935332
000200 79 68 9a bd 10 8a 2b bd 5f 6e 41 bd 45 42 95 3d
       -0.07539458 -0.041879714 -0.0472244 0.072880305
000210 01 7a 44 bd b5 ee cb bd af e7 a7 3c a8 ab 50 3d
       -0.047967914 -0.09957639 0.020496218 0.050944954
000220 3d 6d 8e 3c f0 3c 3c 3d b4 82 2a 3d e5 02 92 bd
       0.017386073 0.045956552 0.041628554 -0.07129458
000230 59 30 11 bd 92 b3 25 3c fd 33 a3 3c 40 2c 89 bd
       -0.0354465 0.010113614 0.01992225 -0.06697893
000240 47 ce bd bc 3b c0 c9 3d 10 34 f4 3d d5 ec 86 3d
       -0.02316965 0.09851118 0.11923993 0.06588141
000250 75 3b f3 3c 0c 62 82 3d af b8 17 bd 37 bf 25 3d
       0.029691437 0.06366357 -0.037041362 0.04046556
000260 b8 6e 26 bd 27 da f0 bc d0 d8 c8 3d 36 69 eb 3d
       -0.040632933 -0.029400898 0.09806979 0.11494677
000270 cf ad 27 3d dc 70 1f 3d a0 64 52 bc 87 f5 57 bd
       0.04093724 0.03892599 -0.012841374 -0.052724387
000280 5c 76 ad bc 7d 31 a0 bd af 4d 53 3d 4f 00 b4 bc
       -0.021174602 -0.07821939 0.051587757 -0.021972803
000290 cf 1a c2 3d 28 02 24 3d 6f bc 2c bd 09 f4 62 bb
       0.094777696 0.04004112 -0.04217189 -0.003463032
0002a0 fd 8b 25 bd af c9 e1 bc 3e 70 1f 3d 07 c1 24 3d
       -0.040416706 -0.02756199 0.038925402 0.040223148
0002b0 5f 71 87 3d 80 eb ad bd e8 43 b3 3d 2f c0 ac 3d
       0.06613421 -0.08492184 0.087531865 0.084350936
0002c0 9e 15 ea 3d e0 7e 1e bd c6 c8 f8 bb 8e 3b e8 3d
       0.114299044 -0.038695216 -0.0075922934 0.11339484
0002d0 e1 74 75 3d 1c 1e d2 bc fa 31 63 3d 47 64 7f bd
       0.059925918 -0.025649123 0.055467583 -0.06235149
0002e0 f9 25 6b bd 46 f8 b5 3d 8d e2 9f 3d 64 06 fe bd
       -0.05740926 0.08885245 0.07806883 -0.12403563
0002f0 b4 b2 b0 bd 8f 0b c7 3c cb ac e0 3d 9f ca 3d 3d
       -0.08627835 0.024297504 0.10970458 0.046335813
000300 b9 42 1c be bb cc ed 3c 73 7c b5 3c 8c a3 1d be
       -0.15259828 0.029028287 0.022154069 -0.1539442
000310 94 e0 6b 3d f0 10 ca 3d 1e 83 83 bd 9d ef ab 3d
       0.05758722 0.09866512 -0.06421493 0.08395312
000320 73 3b 15 be 52 75 80 3d dd 9b e8 3c 02 1c be bd
       -0.1457346 0.06272377 0.028394634 -0.09282686
000330 20 35 82 be c9 a9 8c bc 82 93 6e 3e f5 52 ca ba
       -0.25431156 -0.017170804 0.23298457 -0.00154361
000340 3a 54 75 bd ba 10 cd bd 29 f4 18 3e 3b f7 a4 3b
       -0.059894778 -0.10012956 0.1493689 0.005034355
000350 d8 55 42 bd c4 e0 c8 bd 6a d0 18 bd 62 11 d4 bd
       -0.04744515 -0.09808496 -0.037308134 -0.10354878
000360 6d 62 bb bd 2b 23 b2 3d e1 d0 48 bd 52 9b 17 3d
       -0.091496326 0.08698114 -0.049027327 0.03701336
000370 17 e2 b9 3b fa ed 20 3d 48 00 52 bd ac b3 61 3d
       0.005672704 0.039289452 -0.0512698 0.05510299
000380 7b 36 f0 bd a4 23 e9 3a 90 6c c8 3d 16 a4 21 3e
       -0.11729141 0.0017787111 0.09786332 0.1578525
000390 f9 8b c5 bc 42 aa ba bd 32 91 0e be d5 81 0c 3c
       -0.024114596 -0.09114505 -0.13922575 0.008575876
0003a0 ed d1 4a bd 3e 3d 02 3e 62 aa 3f be 70 29 44 3d
       -0.049516607 0.12718675 -0.1871734 0.04789108
0003b0 66 ab b0 3d d7 cc 0f 3d a1 61 24 3d b5 35 6d bc
       0.08626442 0.03510746 0.04013217 -0.014478137
0003c0 a3 85 5c 3d 23 76 9e bd 35 de 9e bd 99 92 83 bc
       0.053838383 -0.077373765 -0.077572264 -0.016061114
0003d0 42 7d eb 3d 04 57 93 3d 66 84 ca 3c 8b 04 88 3d
       0.114985004 0.07194331 0.024721336 0.066414915
0003e0 01 fa 09 3e 85 a6 bc bb ed af b2 bd 72 fd ed bd
       0.13474275 -0.0057571554 -0.087249614 -0.116206065
0003f0 59 62 11 3c db 14 64 bd 84 04 e4 3d 92 3c d4 bc
       0.008873546 -0.05568395 0.11133674 -0.025907788

fc.weight f4 [6, 64]
000000 d7 9b da bd 78 cb 59 bd b5 ff 74 bd 31 68 bd bd
       -0.10674255 -0.05317256 -0.059814174 -0.092483886
000010 1a 45 86 bd 02 db 3f 3e 83 00 73 bd a9 28 9e 3d
       -0.06556149 0.18735889 -0.05932666 0.07722599
000020 89 1e 66 3d 59 88 99 3d 9a d1 83 bd 3b 6f e8 3c
       0.056181464 0.074967094 -0.06436463 0.028373351
000030 a1 2f 2d 3e ac 6d 17 be c7 e7 4b 3e 6b f7 9c 3d
       0.169127 -0.1478793 0.19912635 0.07664379
000040 7d 14 25 3d e5 e2 7d bd 91 e9 23 be a3 d7 f2 bd
       0.040302742 -0.06198396 -0.16007067 -0.11857536
000050 bd 08 6b 3d 3d 2a bc bd f2 ff c3 3c 37 98 41 3b
       0.05738138 -0.09187744 0.023925755 0.002954019
000060 2e 7d bf 3d 40 5f 1c be 45 7a e2 bc f8 bd 27 3e
       0.09350048 -0.1527071 -0.027646193 0.16381061
000070 68 4f 0c 3e 18 89 06 be 06 29 bf 3c 2d 57 6f bd
       0.13702166 -0.13138235 0.023334991 -0.058432747
000080 1d 04 25 bd 69 79 27 bd 3e e2 10 be 15 88 fc 3d
       -0.040287126 -0.04088727 -0.14148805 0.12330643
000090 cc c4 95 bd 50 fe dd 3c f1 50 3b bd cc a3 d6 bd
       -0.07312927 0.027098805 -0.04573149 -0.104804605
0000a0 e0 a0 5d 3d 38 d8 4a bd ce c3 a3 3d 2e 95 b4 bd
       0.0541085 -0.04952261 0.07996331 -0.08817516
0000b0 e3 26 4f 3e e2 3c c1 bd ea c4 13 3e 0d 1e bf 3d
       0.20229678 -0.094354406 0.14430586 0.093319036
0000c0 07 bf 2d 3d 4f 3c b7 3d c6 8c 1f 3e 86 64 32 3c
       0.042418506 0.0894705 0.15581045 0.0108882245
0000d0 87 59 8c 3d d1 be 27 3d a6 b4 9d 3d 1b 97 90 3d
       0.068530135 0.04095346 0.077004716 0.07060071
0000e0 ae c2 2d 3e 1a 80 aa bd f8 86 e2 bd 94 e6 1d 3d
       0.16968796 -0.08325215 -0.110608995 0.038549975
0000f0 80 b3 12 3e ca f9 db 3b d7 d3 1d bd 00 aa ea 3c
       0.14326286 0.006713127 -0.038532104 0.028645515
000100 1e c9 d5 bd 11 7f a1 bd d8 ad 1d be cb ee 79 bd
       -0.10438751 -0.07885564 -0.15398347 -0.061018746
000110 a3 52 8f bd 9e 5c c7 3d 08 f5 30 3d 36 4b d2 3d
       -0.069981836 0.09734462 0.04320243 0.102682516
000120 e4 43 e0 3d 55 08 94 3d f9 39 1f bc fe 53 fa 3c
       0.10950449 0.07228152 -0.009718412 0.030557629
000130 38 8e cd 3d a7 99 92 bd 2a a4 bc 3d e9 1c b4 bd
       0.10036892 -0.07158213 0.09210999 -0.08794577
000140 21 d8 e7 bb 1a 23 ec bd 3b 72 51 be fe dd 0f 3d
       -0.007075325 -0.115301326 -0.20453732 0.035123818
000150 0f 7e 02 3e 2b 9c 76 be 3f e3 0e be e1 91 d8 3d
       0.127434 -0.24083011 -0.13953875 0.10574699
000160 e2 e1 61 3d 39 48 cc bd 3b bd 39 bc 98 12 35 3d
       0.05514706 -0.09974713 -0.01133662 0.044207186
000170 b5 14 0b 3d a1 24 79 bd d3 00 de 3d fe be 88 3c
       0.033955295 -0.060825948 0.10840001 0.016692635
000180 58 bb b6 3c e4 78 8d bd 80 2f b9 bd cb 87 2d 3d
       0.02230613 -0.06907824 -0.09042263 0.04236583
000190 5f 38 ab bd 1d 5b 97 3a 89 ac e9 3b 66 9d f1 3d
       -0.08360361 0.001154754 0.0071311635 0.117975995
0001a0 64 f8 d2 3d 65 37 af bb a7 61 90 bd aa 66 f1 bc
       0.10301283 -0.0053471797 -0.07049876 -0.0294679
0001b0 db 33 0e 3e f1 5f d0 bd b9 6e 42 3e f5 8f b9 3d
       0.13886969 -0.10174549 0.1898755 0.09060661
0001c0 7f 83 c8 ba 02 e0 2d 3e 47 99 0f 3d 7d 2e b7 bd
       -0.0015297978 0.16979983 0.035058286 -0.08944414
0001d0 d8 87 35 bd 55 8e b7 3c 67 04 ec 3d fa 1e 24 3e
       -0.044319004 0.022406736 0.11524277 0.16027442
0001e0 3c 0c 3f 3e d4 cd a3 bd 60 d7 df bb 67 74 be 3d
       0.18657011 -0.07998243 -0.0068310946 0.09299546
0001f0 bb d2 9f bd 63 2c 24 be 59 9d 85 bd 95 4e b6 b9
       -0.078038655 -0.16032557 -0.06524152 -0.00034772293
000200 a8 2c 1e 3a 81 32 59 3d c0 76 38 be 00 6e d5 bd
       0.0006033876 0.05302668 -0.1801405 -0.104213715
000210 8f 85 f4 bd 41 0e 7b 3c 14 44 1d 3e fb 38 b5 3c
       -0.11939537 0.015323223 0.15358001 0.022121897
000220 69 54 a3 bd 56 50 50 3d c1 27 3c 3c b7 64 b2 3d
       -0.07975084 0.050857864 0.011484087 0.08710616
000230 79 37 89 bd 87 74 ae bd 8a ef 54 3d f0 e9 18 be
       -0.06700034 -0.085183196 0.051986255 -0.1493299
000240 16 65 61 bc b2 ee b7 bd 11 fb 05 be 52 45 80 3d
       -0.013757011 -0.089810744 -0.13084055 0.06263222
000250 bc f4 27 3d 69 e3 00 be 56 98 39 be 9b 02 80 bb
       0.04100488 -0.1258675 -0.18124518 -0.0039065606
000260 c0 d5 23 3e 1d 73 4c be 99 2b 12 be 94 79 33 bb
       0.15999508 -0.19965787 -0.14274444 -0.0027385699
000270 99 e2 5a 3e f2 12 22 be f1 b9 40 3d 20 5c bc bd
       0.21375503 -0.1582754 0.047052328 -0.09197259
000280 b3 dd b5 3d f4 26 ec bb fb d6 02 be bd b8 2e 3e
       0.088801764 -0.007206792 -0.12777321 0.1706266
000290 05 eb 9a 3c 92 1a 92 3d 38 58 ac 3d 28 67 3e bd
       0.018910894 0.07133974 0.08415264 -0.046485096
0002a0 70 06 43 bd cb 19 fd bd 3e 1a 84 bd 3f ac ca bb
       -0.04761356 -0.12358435 -0.06450318 -0.006185084
0002b0 8b 9f 43 3d 8a 80 87 3d e9 2a ee 3d e5 17 9a 3d
       0.047759574 0.06616314 0.11629278 0.07524089
0002c0 f4 67 50 bd 96 ea a7 3d aa be 16 bd de ac 85 ba
       -0.050880387 0.081990406 -0.036802925 -0.0010198613
0002d0 28 19 c6 bd 98 12 86 bd 00 f1 c0 3d 9e f0 1d bd
       -0.09672767 -0.06546515 0.09420967 -0.03855955
0002e0 41 54 a4 3d 93 7a 29 be 47 9b 9f bd 4a 24 07 bc
       0.08023883 -0.16550665 -0.07793289 -0.008248398
0002f0 45 a0 ed 3d 3f cd 19 3b 02 79 00 be c8 3c 97 bd
       0.116028346 0.0023468283 -0.12546161 -0.0738464
000300 86 b7 90 ba 54 f1 1f bd 03 69 a8 bd 47 bb c9 bd
       -0.0011041022 -0.039048508 -0.082231544 -0.098501734
000310 68 23 30 bd 8c 0e 0d 3d 28 90 8e 3d 75 71 d1 3d
       -0.043002516 0.0344377 0.069610894 0.10226718
000320 72 6e f4 bc 1f d3 4a 39 1c 89 0a 3c eb 29 a1 3d
       -0.02983782 0.0001934287 0.008455541 0.07869323
000330 d0 65 26 be 54 57 9a bd bd 07 af 3d 4a 94 ab 3c
       -0.16249776 -0.07536188 0.08546398 0.020944733
000340 ad aa 4f bc 6c 89 62 bc c0 84 9e bc c9 1e 1c bd
       -0.01267497 -0.013826709 -0.01935041 -0.038115297
000350 68 8c 32 3e a8 57 8a bd ae d1 c5 bd d6 95 64 3d
       0.17436373 -0.06755 -0.09659134 0.055806957
000360 c6 47 3e 3e b6 e6 24 be d3 05 13 be 00 68 22 3e
       0.18582067 -0.16103634 -0.1435769 0.15859985
000370 bb 5b 7f 3d d5 9c 1c be 73 0d fd 3c 89 05 9f 3d
       0.06234334 -0.15294202 0.030890202 0.077647276
000380 fc e0 05 be f1 2b 93 bc 7e 00 17 bd ac 3a 46 bd
       -0.13074106 -0.017965289 -0.036865704 -0.048395798
000390 29 99 2d be 79 8c cb 3d 92 26 ad bc 93 9b c3 bd
       -0.16952957 0.099389024 -0.021136556 -0.09551158
0003a0 e0 60 c1 3d 9d ca 34 be 20 fc d3 bc ec 57 f3 3c
       0.094423056 -0.17655416 -0.025877059 0.02970501
0003b0 f9 9b 0a 3e 94 ba cd bd e6 2c 52 3e 4b c6 d3 3d
       0.13536061 -0.100453526 0.2052494 0.10340556
0003c0 f3 c2 b2 3d 7c 1a 19 3e ed fb 73 3d 61 8c 1f 3c
       0.0872859 0.14951509 0.059566427 0.009738059
0003d0 e8 14 30 be 57 49 72 bd 88 05 29 3d b7 fb 9a 3d
       -0.17195475 -0.059151974 0.04126504 0.07567542
0003e0 e3 13 1c bd 15 df c3 bd e4 5f e5 bc 49 52 0c 3e
       -0.038104903 -0.09564034 -0.027999826 0.13703264
0003f0 2a 17 46 3d cc ea 84 bd b1 ad 44 bd 68 3e 8c bd
       0.048361935 -0.064900964 -0.048017208 -0.068478405

fc.bias f4 [6]
000000 af 83 8b 3d 77 66 93 3d 93 c5 2c 3d 7b cf b9 3c
       0.06812226 0.07197278 0.04218061 0.022681942
000010 06 52 01 3d bd b4 2c bc
       0.031572364 -0.010541138
