models/modello_lstm_20250623_2039.pth (torch, 88921 bytes, 6 tensors)

lstm.weight_ih_l0 f4 [256, 11]
0	0xbf000e9c	-0.5002229
1	0xbe08ef23	-0.13372473
2	0xbe83ef9c	-0.25768745
3	0xbe2454b8	-0.16047943
4	0xbd8b7af6	-0.06810562
5	0xbe16af21	-0.14715244
6	0xbe522ef0	-0.20525718
7	0x3d81aa4c	0.0633131
8	0x3e9812c2	0.2970181
9	0x3db4dbb5	0.08830968
10	0x3c7b12eb	0.015324335
11	0xbdcd5909	-0.10026748
12	0xbe9515ad	-0.291181
13	0xbe84a8cd	-0.25910035
14	0xbdd9a0db	-0.10626384
15	0xbd8a6933	-0.067583464
16	0xbd196470	-0.0374493
17	0x3b8c34d8	0.0042787604
18	0x3dce0d29	0.10061104
19	0xbdf6b2c5	-0.12045816
20	0xbd086fe7	-0.033309843
21	0x3d472ac5	0.048624773
22	0xbe31696f	-0.17325376
23	0x3e65ff78	0.22460735
24	0xbd2e4b05	-0.042552013
25	0x3e81265c	0.25224578
26	0x3e3c5eea	0.18395582
27	0x3d05ad53	0.032635998
28	0x3e519a29	0.20468964
29	0x3e1a5cce	0.15074465
30	0x3e044c10	0.1291964
31	0x3ea45109	0.32093075
32	0x3da3b036	0.07992594
33	0xbe211697	-0.15731274
34	0xbe1d14e6	-0.15340003
35	0xbe130a23	-0.14359336
36	0xbe4b9d42	-0.19884208
37	0x3de5b7db	0.11216708
38	0x3dad1951	0.08452094
39	0x3d959b86	0.07305054
40	0xbd464a66	-0.048410796
41	0xbdbe8786	-0.09303193
42	0xbdf72a2b	-0.1206859
43	0x3dcb6608	0.0993157
44	0xbd20cb2f	-0.03925627
45	0x3ea8c202	0.32960516
46	0x3f6bd78a	0.9212576
47	0x3f2c5aff	0.6732635
48	0x3d146fac	0.03623931
49	0xbc62e451	-0.01384838
50	0xbe9c3082	-0.3050576
51	0xbabfb265	-0.0014625309
52	0x3d747acc	0.05968742
53	0x3e04c99f	0.12967537
54	0xbe05b3bc	-0.13056844
55	0xbe78894d	-0.24271126
56	0x3d1e30ac	0.038620636
57	0x3e71e3bd	0.23622032
58	0x3e6d905a	0.23199597
59	0x3dcf1ba8	0.10112697
60	0x3e9c6255	0.3054377
61	0x3d3ead40	0.046551943
62	0x3d86d53d	0.06583641
63	0x3d044b8d	0.032298613
64	0x3e1e3232	0.15448835
65	0x3de2564f	0.11051618
66	0x3e8b785f	0.27240273
67	0x3e01c92c	0.12674397
68	0x3bcff37e	0.006346165
69	0x3e0de0d6	0.138553
70	0x3de19df4	0.11016455
71	0xbddb73f7	-0.10715478
72	0x3e54e963	0.20792155
73	0x3ceeeabc	0.029164664
74	0x3e3d85dd	0.18508096
75	0x3cc5a1af	0.024124948
76	0x3e0f190a	0.13974395
77	0xbdf2d985	-0.11857895
78	0xbe152fac	-0.14568967
79	0xbed3580e	-0.41278118
80	0xbec0aff7	-0.3763425
81	0xbd6a2988	-0.057168514
82	0xbe0674ea	-0.13130537
83	0xbda7ad54	-0.081873566
84	0xbd8fe6fe	-0.0702648
85	0x3d6448c2	0.05573345
86	0x3da9af4b	0.082853876
87	0xbd39ddd1	-0.045377556
88	0x3de9f7a2	0.11424185
89	0xbd3832e5	-0.04497041
90	0x3dad1b60	0.08452487
91	0x3dbc2c42	0.09188129
92	0xbcf95a2f	-0.03043851
93	0x3e290e3f	0.1650934
94	0x3e152b73	0.14567356
95	0x3e4e0fbf	0.20123194
96	0xbd98cbe5	-0.07460765
97	0x3df08359	0.117438026
98	0x3e1e9cd6	0.15489516
99	0xbe91edc0	-0.285017
100	0xbc0924d7	-0.0083706
101	0xbe4cdbc0	-0.20005703
102	0xbd7e916b	-0.0621504
103	0x3d80542e	0.06266056
104	0xbe8edaa9	-0.279012
105	0xbb240b34	-0.0025031092
106	0x3dca3ee0	0.09875274
107	0xbdb3579e	-0.08756946
108	0xbd89a4b6	-0.06720869
109	0x3d508f29	0.05091778
110	0x3e21714c	0.15765876
111	0x3e6b005e	0.22949359
112	0x3e6f7f0d	0.2338831
113	0x3e8123c4	0.252226
114	0x3e05db64	0.13071972
115	0x3e145bff	0.14488219
116	0xbd9a41bc	-0.07532069
117	0x3ce54b42	0.027989987
118	0x3e6efb23	0.23337989
119	0x3e037430	0.12837291
120	0x3e303e2d	0.17211218
121	0xbdd5a7b4	-0.104323775
122	0xbe7ea661	-0.24868156
123	0xbe477fb6	-0.19482312
124	0xbd44627c	-0.047945485
125	0x3e4b28cb	0.1983978
126	0x3dca6126	0.09881811
127	0x3e22910c	0.15875643
128	0xbdb035c3	-0.08604004
129	0x3dae1cf6	0.085016176
130	0xbdf26ed6	-0.118375465
131	0x3e09cd56	0.13457236
132	0x3b964ee6	0.004587042
133	0xbdad5bce	-0.08464776
134	0xbdc5f6b2	-0.09666194
135	0xbdd4de9d	-0.103940226
136	0xbd5d85f2	-0.05408282
137	0x3d038b82	0.032115467
138	0x3cbf8af6	0.023381691
139	0x3c799674	0.015233625
140	0xbda2d848	-0.079514086
141	0x3e4afc6d	0.19822855
142	0xbce73bb4	-0.02822671
143	0xbf2ac552	-0.66707337
144	0xbe99866d	-0.2998537
145	0xbeaa2b10	-0.3323598
146	0xbedf6898	-0.43634486
147	0x3e423dc5	0.18968876
148	0x3dfb9d4b	0.12285861
149	0x3e52e9b5	0.20596965
150	0xbd80393b	-0.06260916
151	0x3c84e479	0.016222226
152	0x3dca8aad	0.098897316
153	0x3dbdae26	0.09261732
154	0xbceb2f58	-0.028709099
155	0x3e9452d2	0.28969437
156	0x3dcee156	0.10101573
157	0x3d82c0c7	0.063844256
158	0x3e73bc88	0.23802388
159	0x3da4908b	0.08035382
160	0x3e2fe8fc	0.1717872
161	0x3d59564c	0.053060815
162	0x3d893c0c	0.06700906
163	0x3e67a66d	0.2262208
164	0x3dbfaba0	0.09358907
165	0xbd779e22	-0.06045354
166	0x3e871e8a	0.26390487
167	0x3d4bcb5d	0.04975449
168	0x3dd61fc8	0.104552805
169	0x3d2a9835	0.041649062
170	0x3e0c6c0a	0.13713089
171	0x3d08ea2b	0.033426445
172	0x3d8a0fd0	0.06741297
173	0x3d5fc6ba	0.05463288
174	0x3ce85563	0.028361028
175	0x3d415280	0.04719782
176	0x3cceaf7d	0.025230164
177	0xbdad852d	-0.08472667
178	0xbe57245c	-0.21009964
179	0xbdf63584	-0.12021926
180	0x3e0e8ca8	0.13920844
181	0x3e67d472	0.22639635
182	0x3ea99855	0.33124033
183	0x3dae4a0f	0.08510219
184	0x3e390b29	0.18070664
185	0x3d8312c0	0.06400061
186	0xbd6a4f06	-0.05720427
187	0xbe6982f8	-0.22803867
188	0x3dbe586e	0.092942104
189	0xbe2f2984	-0.1710568
190	0xbd137fa5	-0.036010403
191	0x3d199a66	0.03750076
192	0xbd11fb9c	-0.035640344
193	0x3e1e32e7	0.15449105
194	0xbde48739	-0.11158604
195	0x3e081c04	0.13291937
196	0x3e40b507	0.18819056
197	0x3d36e491	0.04465157
198	0xbdd482eb	-0.10376533
199	0x3e7c78b5	0.24655421
200	0x3c4aae6d	0.012370688
201	0x3cb46792	0.022022042
202	0xbd59f74b	-0.053214353
203	0x3ddc761a	0.107647136
204	0xbd829963	-0.063769124
205	0x3e363693	0.17794256
206	0x3e5dfa2e	0.21677467
207	0x3d752fbb	0.059859972
208	0x3d64d771	0.055869523
209	0x3dfc4c75	0.123192705
210	0x3e08c51d	0.13356443
211	0x3e85ff63	0.26171407
212	0x3e497eab	0.19677226
213	0x3d321e1c	0.043485746
214	0xbc1da8c4	-0.009622756
215	0xbd52e63a	-0.051489092
216	0xbce1a53a	-0.027544606
217	0x3d391fb8	0.045196265
218	0x3e063e1e	0.13109633
219	0x3e43e6e3	0.19131045
220	0x3ec4657d	0.3835868
221	0x3c0fa7d9	0.008768045
222	0x3ea45c52	0.32101685
223	0x3e51a82f	0.20474313
224	0xbe12faae	-0.14353439
225	0xbd96fddb	-0.07372638
226	0xbc74ad64	-0.014933918
227	0x3ca5c875	0.020237187
228	0xbe3b4948	-0.18289673
229	0xbcbbfd42	-0.022947911
230	0x3d197ba2	0.03747142
231	0xbd9fc866	-0.07801895
232	0xbe7574db	-0.23970358
233	0xbdbddf6a	-0.092711285
234	0xbecda368	-0.40163732
235	0x3e1232e5	0.14277227
236	0x3d99b673	0.075055026
237	0x3d010bbb	0.031505328
238	0xbdfd38aa	-0.123643234
239	0x3d8fac2e	0.070152625
240	0xbe4cc485	-0.19996841
241	0x3d9ba228	0.07599288
242	0x3e2ba53b	0.16762249
243	0x3e053ffd	0.13012691
244	0x3d57ba2c	0.05266778
245	0xbd7936ec	-0.060843393
246	0x3d7a9134	0.061173633
247	0x3e20af95	0.15691979
248	0x3e0ac957	0.13553368
249	0x3e43a0dd	0.19104333
250	0x3e744c3e	0.23857209
251	0x3e32461d	0.17409559
252	0x3ca018c4	0.01954306
253	0xbdaabff5	-0.08337394
254	0xbe80ec55	-0.25180307
255	0xbf067722	-0.5252553

lstm.weight_hh_l0 f4 [256, 64]
0	0x3e1df5b2	0.15425757
1	0x3bd56e8e	0.0065134233
2	0x3df36daa	0.11886151
3	0x3e5f36b2	0.21798208
4	0x3e150dd8	0.14556062
5	0xbe5c1c37	-0.21495138
6	0x3de7b9e9	0.113147564
7	0xbddd8ca8	-0.10817844
8	0x3bccc598	0.006249141
9	0x3d86a7f6	0.06575005
10	0x3bd699bf	0.0065490897
11	0x3e31c84b	0.17361562
12	0xbd262d42	-0.040570505
13	0x3ddf6c16	0.10909288
14	0x3e274425	0.16334589
15	0xbcee8283	-0.029114967
16	0xbdfcdec5	-0.123471774
17	0x3e0189bf	0.12650202
18	0x3cec97a6	0.028880905
19	0xbe249424	-0.16072136
20	0xbd23e167	-0.040009882
21	0x3db1bc3b	0.0867848
22	0x3b754f48	0.0037431289
23	0xbe8af985	-0.27143493
24	0x3d9608a0	0.07325864
25	0x3dba9fb9	0.09112496
26	0xbd30dd2d	-0.04317968
27	0xbc56fffb	-0.013122554
28	0x3e020c0a	0.12699905
29	0x3d83c1ab	0.064334236
30	0xbdb9040f	-0.09033977
31	0xbd9f22ad	-0.07770286
32	0x3d7e6b99	0.062114332
33	0xbd705792	-0.058677264
34	0xbcd80f8d	-0.026374603
35	0xbd4bdc5b	-0.049770694
36	0xbc4e5ddd	-0.012595621
37	0x3e197321	0.14985324
38	0x3da90177	0.082522325
39	0x3e2ac6f0	0.16677451
40	0xbb76c6dd	-0.0037655153
41	0x3e1fb32f	0.15595697
42	0x3e0147bd	0.12625022
43	0x3c9afb1f	0.018918572
44	0x3cc17ba0	0.02361852
45	0xbd84005b	-0.0644538
46	0xbc5ca7a3	-0.013467702
47	0x3df8232c	0.121160835
48	0x3db2d390	0.087317586
49	0x3d994917	0.07484644
50	0x3ca7edfe	0.020499226
51	0xbd9d7ec9	-0.07690198
52	0xbdc5fea5	-0.0966771
53	0x3da430ac	0.08017096
54	0x3d624d83	0.055249702
55	0xbe194b18	-0.14970052
56	0xbd839338	-0.06424564
57	0xbe2c7182	-0.16840175
58	0x3b024622	0.0019878228
59	0xbdaf0714	-0.08546272
60	0xbd437336	-0.047717296
61	0xbda0639c	-0.07831499
62	0x3db76951	0.089556344
63	0x3b9ab44e	0.004721201
64	0xbd559268	-0.052141577
65	0xbdcfae1e	-0.10140632
66	0x3d5cbee4	0.053892985
67	0x3d749c36	0.059719287
68	0xbe2a7541	-0.16646291
69	0xbe17dfdb	-0.14831488
70	0x3e1dc86a	0.15408483
71	0xbd03a8c1	-0.03214336
72	0xbd17b467	-0.03703728
73	0xbdcda5e3	-0.10041406
74	0xbb84e796	-0.0040559275
75	0x3cbc1305	0.022958288
76	0x3c42392d	0.011854452
77	0xbd5324cd	-0.051548768
78	0xbceafa37	-0.028683765
79	0xbe03b71f	-0.12862824
80	0xbe016e4e	-0.12639734
81	0x3d375b8f	0.04476505
82	0x3dcdda77	0.100514345
83	0x3b6e1217	0.00363267
84	0x3baf4758	0.005349081
85	0xbde78a2f	-0.11305653
86	0xbd388089	-0.045044456
87	0xbcb3fb18	-0.021970317
88	0xbe115a12	-0.14194515
89	0xbdc354c5	-0.09537653
90	0x3e33ca1c	0.17557567
91	0x3d80f1c0	0.0629611
92	0x3d371048	0.04469326
93	0x3d9e13c5	0.077186145
94	0xbd72338a	-0.059131183
95	0x3d23e78b	0.04001574
96	0x3d3e9f9f	0.046538945
97	0xbd206a69	-0.03916398
98	0x3cdc14c2	0.026865367
99	0xbd324201	-0.043519977
100	0xbd601911	-0.054711405
101	0x3e07ba5e	0.13254687
102	0xbd0bfa97	-0.034174528
103	0x3e96baad	0.29439297
104	0x3d8e0cf2	0.06936063
105	0xbc105383	-0.008808973
106	0xbd5cffc7	-0.053954866
107	0xbdcf2f4b	-0.10116442
108	0xbda7a007	-0.0818482
109	0xbe00bbe0	-0.12571669
110	0x3aed0ce0	0.0018085502
111	0x3dd63b5c	0.10460541
112	0x3e5351df	0.206367
113	0x3d00ccc8	0.031445295
114	0x3de598f4	0.11210814
115	0x3de8c0f8	0.11364931
116	0xbe1e13dd	-0.15437265
117	0xbdecd1cc	-0.11563453
118	0xbc242b49	-0.010020086
119	0xbe3f9c94	-0.18712074
120	0xbdc5532d	-0.09635005
121	0xbe0fe9ba	-0.14054003
122	0xbd111251	-0.03541786
123	0xbc1abd30	-0.00944452
124	0xbd5882a8	-0.05285898
125	0x3d82412d	0.063600875
126	0x3c8ce7d5	0.01720039
127	0xbe01285a	-0.12613049
128	0xbd13734c	-0.035998628
129	0x3c849972	0.01618645
130	0x3de692ff	0.11258506
131	0xbdae11db	-0.084994994
132	0xbe3e6c9d	-0.1859612
133	0xbe13b971	-0.14426209
134	0xbbff4597	-0.007790278
135	0x3ca91517	0.02063994
136	0xbd3e8ff6	-0.04652401
137	0x3e117aea	0.14207044
138	0xbd268a5a	-0.040659286
139	0xbda23045	-0.07919363
140	0x3d1d4ea9	0.038405094
141	0xbdf1b08b	-0.11801251
142	0x3e078ad4	0.13236552
143	0xbdde0164	-0.10840109
144	0xbe75934d	-0.23981972
145	0x3c4af9e6	0.012388682
146	0xbb6094a3	-0.0034268282
147	0x3d96b060	0.073578596
148	0x3d3c4930	0.045968235
149	0x3de5990c	0.11210832
150	0xbd038aa8	-0.032114655
151	0xbdf070eb	-0.117402874
152	0xbd99b39c	-0.07504961
153	0x3caedd51	0.021345766
154	0x3e2f2e2d	0.17107458
155	0x3d3178e2	0.043328173
156	0xbce06ac4	-0.02739466
157	0xbe06a76f	-0.13149808
158	0xbd61b0e5	-0.05510034
159	0xbc71ab09	-0.014750251
160	0xbd681032	-0.05665607
161	0xbdb356ca	-0.08756788
162	0xbc96c0e2	-0.01840252
163	0x3d2102d5	0.03930934
164	0xbe352c83	-0.17692761
165	0x3ab5577c	0.0013835276
166	0xbdae018e	-0.0849639
167	0x3e378181	0.17920496
168	0x3bb91154	0.0056478176
169	0xbce92973	-0.028462147
170	0x3e29b194	0.16571647
171	0x3db8495d	0.08998368
172	0x3e05abab	0.13053767
173	0x3d6135d6	0.054982983
174	0x3e1e8e98	0.15484083
175	0x3d8e1aa4	0.06938675
176	0x3d137e82	0.03600932
177	0x3cf0faa0	0.029416382
178	0xbd1f26e2	-0.03885544
179	0x3da9c9cc	0.08290443
180	0x3e1ffe00	0.15624237
181	0xbd958424	-0.073005944
182	0xbdec1696	-0.115277454
183	0xbdf746ae	-0.12074028
184	0x3d485155	0.04890569
185	0x3d078b58	0.033091873
186	0xbde71a2c	-0.11284289
187	0xbbc1e02a	-0.005916615
188	0x3c9aabb6	0.018880706
189	0xbd0ada0d	-0.033899356
190	0x3e10fcfc	0.14159006
191	0x3dbc2d42	0.0918832
192	0x3e0c0750	0.13674664
193	0xbd948eae	-0.072537765
194	0x3d3ebdda	0.046567775
195	0xbc4a9b12	-0.012366073
196	0xbe850d57	-0.2598674
197	0xbcdc7653	-0.02691189
198	0x3d12aa08	0.035806686
199	0x3dab4070	0.083619
200	0xbc3f3961	-0.011671395
201	0x3d27fa9d	0.041010488
202	0xbc8370f9	-0.01604508
203	0xbe369719	-0.17831077
204	0x3e044cba	0.12919894
205	0x3da6dac9	0.08147199
206	0x3e1b9522	0.15193608
207	0xbc26dd33	-0.010184574
208	0xbe76147a	-0.24031249
209	0x3dbd6ed9	0.09249658
210	0xbbb0778c	-0.005385345
211	0xbdb82277	-0.08990949
212	0x3e1330c2	0.14374068
213	0xbced7ef8	-0.028991207
214	0x3c85b727	0.016322685
215	0x3d91aef0	0.07113445
216	0xbd01b3ea	-0.03166572
217	0xbe13ac82	-0.14421275
218	0x3e21eb54	0.15812427
219	0xbe6a3dad	-0.2287509
220	0xbc0c3b0b	-0.008558999
221	0x3d9a55be	0.07535885
222	0xbce8a8fd	-0.028400892
223	0xbd513183	-0.05107261
224	0x3d9061c7	0.070498995
225	0xbce0a324	-0.027421542
226	0x3d6740fa	0.05645845
227	0xbc860492	-0.016359601
228	0xbe04186f	-0.12899946
229	0x3dd8d034	0.105865866
230	0xbc3843f9	-0.011246675
231	0x3e7cb7f1	0.24679543
232	0x3d04d3dc	0.032428607
233	0x39394e9a	0.00017672256
234	0x3d05d64d	0.032675076
235	0xbc98ce2b	-0.018652996
236	0x3bf7703a	0.0075512202
237	0x3dbb6a26	0.091511056
238	0x3d5a0fe9	0.05323783
239	0xbd8f7b2b	-0.07005914
240	0xbe01b50b	-0.12666719
241	0xbdacb5ee	-0.08433138
242	0xbd1d5697	-0.038412657
243	0xbc1082a8	-0.008820213
244	0x3c0188db	0.007906164
245	0xbde1ce6f	-0.11025702
246	0x3d154c41	0.036449675
247	0xbe0ea283	-0.13929181
248	0xbda8edad	-0.08248458
249	0xbe0fa904	-0.14029318
250	0xbd38b619	-0.045095537
251	0x3dbd9ee2	0.0925882
252	0xbe2610df	-0.16217373
253	0xbaa57c12	-0.0012625477
254	0x3e6afa0a	0.22946945
255	0xbd6e4da6	-0.05817952

lstm.bias_ih_l0 f4 [256]
0	0x3ba50a17	0.005036603
1	0x3d8c3e36	0.06847803
2	0x3dfeb319	0.12436504
3	0x3dc60ffb	0.09671017
4	0x3d9610dd	0.07327435
5	0x3e91c026	0.2846691
6	0x3e2b79f8	0.16745746
7	0x3e02dfb8	0.12780654
8	0x3e04f533	0.12984161
9	0xbd9703fd	-0.073738076
10	0xbd2054c9	-0.039143357
11	0xbd125ac6	-0.0357311
12	0x3ddc52d7	0.10757988
13	0x3d9edd17	0.07757013
14	0x3dd5b4d6	0.10434882
15	0x3de31fd8	0.11090058
16	0xbd36af49	-0.04460076
17	0xbd18c925	-0.0373012
18	0x3d3d5be0	0.046230197
19	0xbb58d28f	-0.0033084487
20	0x3e1262bf	0.14295481
21	0x3d27c67f	0.040960785
22	0x3bad49a7	0.005288321
23	0x3dc79bd6	0.0974652
24	0x3dba0479	0.09082884
25	0x3eed4519	0.4634178
26	0x3d2b6a26	0.041849278
27	0x3e3cd1e6	0.18439445
28	0x3d177bc8	0.03698328
29	0x3cac617d	0.02104258
30	0x3dbf04d5	0.093270935
31	0x3c57c892	0.013170378
32	0xbd546724	-0.051856175
33	0x3d4e34f7	0.05034348
34	0x3e163400	0.14668274
35	0x3dd69e90	0.10479462
36	0x3e75b6da	0.23995534
37	0x3da19247	0.07889228
38	0x3e8481ce	0.25880283
39	0x3de955bd	0.113933064
40	0xbd35340a	-0.04423908
41	0x3d728bf1	0.05921549
42	0xbce3dee1	-0.027816238
43	0xbcf137a0	-0.02944547
44	0x3d9b99c9	0.075976916
45	0x3dbba098	0.0916149
46	0x3c8444b3	0.01614604
47	0xbd58d3af	-0.052936252
48	0x3e0e4de4	0.138969
49	0x3da3b528	0.07993537
50	0x3deb93df	0.115028135
51	0x3e01cb07	0.12675105
52	0xbd9de92f	-0.07710492
53	0xbd152564	-0.03641261
54	0x3c8a5fab	0.016891321
55	0x3dfe057d	0.124033906
56	0xbcf0c7ab	-0.029392084
57	0x3e798eeb	0.24370925
58	0x3e00e8f8	0.1258887
59	0x3dbd20c1	0.09234763
60	0xbddc95fa	-0.10770793
61	0x3dd35858	0.103195846
62	0x3e6c81e5	0.23096426
63	0xbdbbc98d	-0.09169302
64	0x3e138b4f	0.14408611
65	0x3d532f7e	0.051558964
66	0x3d63b839	0.05559561
67	0x3cfe85b4	0.031069614
68	0x3d807462	0.06272198
69	0x3e055f6d	0.13024683
70	0xbd56f34c	-0.05247812
71	0x3e0a51eb	0.13507812
72	0x3dd72939	0.105059095
73	0x3d8d70da	0.0690629
74	0xbc112d10	-0.008860841
75	0x3d0f3fbf	0.034972902
76	0xbd8be603	-0.06830981
77	0x3dc6b0c2	0.097016826
78	0xbe05511e	-0.13019225
79	0x3d3cbd59	0.046079013
80	0xbd949d78	-0.07256597
81	0xbda5adff	-0.08089828
82	0x3e0edab8	0.13950622
83	0xbda01307	-0.07816129
84	0x3dcb02ad	0.0991262
85	0x3e106670	0.14101577
86	0x3dac1e07	0.08404165
87	0x3e0ff009	0.1405641
88	0x3d9232d9	0.07138605
89	0x3b142218	0.002260333
90	0xbd853a52	-0.06505264
91	0xbcee2df3	-0.029074645
92	0x3de50514	0.11182609
93	0xbdbe2d7a	-0.09286018
94	0x3dd0219e	0.10162662
95	0x3d9fcf37	0.07803195
96	0xbda09105	-0.0784016
97	0x3de0d102	0.10977365
98	0xbd213e15	-0.039365847
99	0x3db4104c	0.08792171
100	0x3dda9318	0.10672587
101	0xbe037dd3	-0.12840967
102	0x3dfc1270	0.12308204
103	0x3d77b157	0.06047186
104	0xbd7afab5	-0.06127425
105	0x3df75fa1	0.12078787
106	0x3b4cec85	0.0031268906
107	0x3dbdb062	0.09262158
108	0x3d9fdb4d	0.078055
109	0x3ce34262	0.027741615
110	0xbd164f00	-0.036696434
111	0x3de8c8c9	0.11366422
112	0x3ca1c335	0.019746402
113	0x3d07739f	0.03306925
114	0xbc79a3a4	-0.015236769
115	0x3e1b08f5	0.15140136
116	0x3dc483d7	0.09595459
117	0x3d8c5563	0.06852224
118	0xbc63e3df	-0.013909309
119	0x3dcaec49	0.09908349
120	0xbd9023e0	-0.070380926
121	0x3e4d7f9e	0.20068213
122	0x3e2798df	0.1636691
123	0x3e3b3bd3	0.1828454
124	0x3c620337	0.013794712
125	0x3e3d9ede	0.18517634
126	0x3cc8f8c3	0.024532681
127	0xbd8a8204	-0.0676308
128	0x3dd8be63	0.105831884
129	0x3d9e209a	0.07721062
130	0xbe08d6b2	-0.1336315
131	0xbcd7adfb	-0.026328078
132	0xbe19b68f	-0.15011047
133	0x3d843fc4	0.06457475
134	0x3c8c02b6	0.017091136
135	0x3d371228	0.04469505
136	0x3d347c76	0.044064008
137	0xbc680a75	-0.014162649
138	0xbcf2681b	-0.029590657
139	0xbcabbbaf	-0.020963518
140	0xbbb5a45e	-0.0055432757
141	0xbc8d3d72	-0.017241213
142	0x3cc489d5	0.023991505
143	0x3ceedb90	0.02915743
144	0x3da0dff7	0.07855218
145	0x3de69b94	0.11260143
146	0xbdd3253c	-0.10309836
147	0x3b305a21	0.002690919
148	0xbde95a85	-0.11394218
149	0xbd9dc669	-0.07703859
150	0x3c8227aa	0.015888054
151	0x3dc22dc7	0.094813876
152	0xbd0674a7	-0.032826092
153	0x3d39053c	0.045171008
154	0xbd52860c	-0.05139737
155	0xbd8956dc	-0.0670602
156	0x3deea696	0.116528675
157	0x3c3cbfa9	0.011520305
158	0x3de01637	0.10941737
159	0xbd705f49	-0.05868462
160	0xbdcf14ba	-0.10111375
161	0x3d984997	0.07435911
162	0xbd142a7d	-0.036173332
163	0xbda065a6	-0.07831888
164	0xbcc5a90b	-0.024128458
165	0x3d8a5d30	0.06756055
166	0xbc2b3396	-0.010449311
167	0x3ca020b4	0.019546844
168	0xbdbfec04	-0.09371188
169	0x3d4e66de	0.05039107
170	0x3dc2c0d4	0.09509435
171	0x3d9e40f2	0.07727231
172	0xbcc96f25	-0.02458913
173	0xbcfeae83	-0.031089073
174	0x3e140ebb	0.14458744
175	0x3d2c5fd2	0.04208357
176	0x3d6dbcbc	0.05804132
177	0xbd2f1bde	-0.042751186
178	0xbde38654	-0.111096054
179	0xbdaf6988	-0.0856505
180	0x3d4aaaa8	0.049479157
181	0xbd81abaf	-0.06331574
182	0xbd3a06cc	-0.04541664
183	0xbe091f86	-0.13390931
184	0xbd48317f	-0.04887533
185	0x3d658279	0.05603263
186	0x3d594739	0.05304644
187	0x3db47e5d	0.088131644
188	0x3dbdf99f	0.09276127
189	0x3d00422a	0.0313131
190	0x3ddf1f88	0.10894686
191	0x3d563237	0.052293982
192	0xbb05fc00	-0.0020444393
193	0x3dface8a	0.122464254
194	0xba3b3015	-0.00071406487
195	0x3d164562	0.036687262
196	0x3e1b63f1	0.15174843
197	0x3e061937	0.13095556
198	0x3e7f1581	0.24910547
199	0x3e13cd99	0.14433898
200	0x3d92bb7c	0.07164666
201	0x3d28e66c	0.041235372
202	0x3d8e9f48	0.06963974
203	0x3db35a75	0.08757488
204	0xbdc206c6	-0.09473948
205	0x3e4ed853	0.20199709
206	0x3e1805ba	0.14845935
207	0x3d653975	0.055963
208	0x3d19bad4	0.03753169
209	0x3d65dc2d	0.05611818
210	0x3ce7d4a0	0.02829963
211	0x3da45328	0.08023673
212	0x3d9c36a9	0.07627613
213	0xbd3c9a3e	-0.046045534
214	0xbc31c885	-0.01085103
215	0x3b374d7d	0.002796977
216	0xbd9e6372	-0.077338114
217	0x3ea6706b	0.32507643
218	0x3d074229	0.03302208
219	0x3dc4a33a	0.096014455
220	0x3c7ad88e	0.01531042
221	0x3bc5eaae	0.006039939
222	0x3d6fbbd6	0.058528744
223	0x3d447396	0.047961794
224	0x3d5a7a1e	0.053339116
225	0xbd917122	-0.071016565
226	0x3dd4f68d	0.10398588
227	0x3de43764	0.111433774
228	0x3e11e3f3	0.14247112
229	0x3d86d9de	0.065845236
230	0x3ec15ea7	0.37767527
231	0x3e15111d	0.1455731
232	0x3dd2282e	0.1026157
233	0x3d54430d	0.051821757
234	0x3d8d8d76	0.06911747
235	0xbd7ad68f	-0.061239775
236	0xbd7a266b	-0.061071794
237	0x3e26b42f	0.16279672
238	0xbc689ec3	-0.014198008
239	0xbd04a02a	-0.032379307
240	0x3deeaf34	0.11654511
241	0x3d558020	0.052124143
242	0xbdf86ffb	-0.121307336
243	0xbd02b99f	-0.031915303
244	0xb98f784b	-0.0002736471
245	0xbd504ef0	-0.05085653
246	0x3e26cec9	0.1628982
247	0x3d3bc8e0	0.045845866
248	0x3d57374a	0.052542962
249	0x3e8f2c1f	0.2796335
250	0x3dbd79f8	0.09251779
251	0xbd26e478	-0.04074523
252	0x3dbe44ca	0.09290464
253	0x3dd7e479	0.105416246
254	0x3e0bed22	0.13664678
255	0x3e14e19d	0.1453919

lstm.bias_hh_l0 f4 [256]
0	0x3e0342b5	0.12818415
1	0x3c0fbb24	0.008772645
2	0x3b97f447	0.0046372744
3	0xbca1534a	-0.019693036
4	0xbc8de96d	-0.01732322
5	0x3e9bff2f	0.30468127
6	0x3e753bf8	0.23948658
7	0x3d0e1d64	0.034695998
8	0x3da67a02	0.0812874
9	0x3ddfc781	0.10926724
10	0xbc7b9be8	-0.015356995
11	0xbd415f37	-0.047209945
12	0xbcedb673	-0.029017663
13	0x3e07cf2f	0.13262628
14	0x3e1d8045	0.15380962
15	0x3dafe6cc	0.08588943
16	0xbde2a613	-0.110668324
17	0x3ae9c527	0.0017835245
18	0xbd32a0e8	-0.043610483
19	0xbded0397	-0.1157295
20	0xbd7dad2a	-0.06193272
21	0xbd07d557	-0.03316244
22	0x3e2d01d5	0.1689523
23	0x3e149d54	0.14513141
24	0xbdb76a99	-0.08955879
25	0x3ee5b63f	0.44865605
26	0x3dd17ff4	0.10229483
27	0x3c85ef3d	0.01634943
28	0x3d6a05c7	0.057134416
29	0x3e1fd758	0.15609491
30	0xbd497051	-0.04917938
31	0x3d9153c2	0.07096054
32	0xbcdbb4f8	-0.026819691
33	0xbd815862	-0.06315686
34	0x3c53a8b4	0.01291864
35	0xbd4fc955	-0.050729115
36	0x3e3576ab	0.1772105
37	0xbd67ff59	-0.056640003
38	0x3e831e98	0.2560928
39	0xbcf7407e	-0.03018212
40	0xbd95c0bc	-0.07312152
41	0xbb975035	-0.0046177157
42	0x3e239c3e	0.1597757
43	0x3da787ff	0.08180236
44	0x3dd8a452	0.105782166
45	0xbd481c92	-0.04885537
46	0x3e2d27ed	0.16909762
47	0xbc723ffc	-0.014785763
48	0x3de3c905	0.11122326
49	0xbc726d5f	-0.014796584
50	0xbd34c46c	-0.044132635
51	0x3e31bd4d	0.17357369
52	0xbdade623	-0.08491161
53	0x3e02812c	0.12744588
54	0xbd0c4d00	-0.03425312
55	0x3de4b69d	0.11167643
56	0x3e0a68e4	0.13516575
57	0x3e01e9fc	0.12686914
58	0x3dfc56f2	0.12321271
59	0xbc3efcf9	-0.011656993
60	0xbdc57990	-0.09642327
61	0x3d202b5f	0.039103862
62	0x3daac67d	0.0833864
63	0x3ca6bbf2	0.020353291
64	0xbcbaf855	-0.022823492
65	0x3e1a51f7	0.1507033
66	0xbd06fc3c	-0.032955393
67	0x3e2709dc	0.16312355
68	0xbd65d1b5	-0.056108195
69	0x399430c2	0.00028265087
70	0x3e38c3a6	0.18043384
71	0xbdd5b5fa	-0.104351
72	0xbd911a67	-0.07085114
73	0x3de3755f	0.11106371
74	0x3d08b28b	0.033373397
75	0x3e2bba25	0.16770227
76	0x3c926c1b	0.017873814
77	0x3e2d36a6	0.16915378
78	0xbd84d1b4	-0.0648531
79	0x3dc0ef5a	0.09420653
80	0x3d87cfca	0.066314295
81	0x3ce19275	0.027535656
82	0x3ca834e0	0.020533025
83	0xbdc51381	-0.09622861
84	0x3d19b7dd	0.03752886
85	0x3dabb779	0.08384604
86	0xbd4da2c5	-0.050204057
87	0x3e7301ae	0.2373111
88	0xbd8f5e72	-0.07000436
89	0x3d203e38	0.039121836
90	0xbd66aba5	-0.056316037
91	0x3c05ecf3	0.008174169
92	0xbdc1e254	-0.09466997
93	0xbd97faac	-0.07420859
94	0x3d48c750	0.049018204
95	0x3e128b72	0.14311007
96	0xbc121b2e	-0.008917613
97	0x3d18c557	0.037297573
98	0xbb877e45	-0.0041349255
99	0x3d76a49b	0.060215574
100	0xbdba5ecd	-0.09100113
101	0x3c290af9	0.0103175575
102	0xbdc8ae3f	-0.0979886
103	0x3e2c1acb	0.16807096
104	0x3cbadb0a	0.022809524
105	0x3deaf343	0.1147218
106	0x3d53421e	0.051576726
107	0x3d8132a7	0.06308489
108	0x3d48bd88	0.049008876
109	0x3d7c6806	0.061622642
110	0x3e0d2ddf	0.1378703
111	0x3cd6f8c2	0.026241664
112	0x3e1a5fdf	0.15075634
113	0xbd9e0ccf	-0.07717287
114	0xbdaff905	-0.085924186
115	0x3d6f314e	0.05839663
116	0x3d9f40c9	0.07776029
117	0x3ca84d5c	0.0205447
118	0xbd4e3e01	-0.0503521
119	0xbb393baf	-0.0028264334
120	0x3c613fe4	0.013748143
121	0x3e82193e	0.25409883
122	0x3dddac6b	0.10823902
123	0x3d3905ad	0.04517143
124	0x3d8ba770	0.068190455
125	0x3d842a5f	0.06453394
126	0xbd71ab8b	-0.059001487
127	0x3da44836	0.08021586
128	0x3da3eed0	0.08004534
129	0x3db4d464	0.08829573
130	0x3d8e2c9a	0.06942101
131	0x3d6d6bf2	0.057964273
132	0xbd8d2640	-0.06892061
133	0xbde41d06	-0.11138348
134	0xbd4db44c	-0.050220773
135	0xbd9e84fc	-0.077402085
136	0x3ddea907	0.10872083
137	0xbd6783b8	-0.0565221
138	0x3db064ea	0.08612998
139	0x3daa8185	0.08325485
140	0x3df3162b	0.118694626
141	0x3d950812	0.0727693
142	0xbdcd2d26	-0.10018377
143	0xbdd494e4	-0.10379961
144	0xbc9ced83	-0.019156223
145	0xbce24bc7	-0.027624024
146	0x3a356fc4	0.00069212564
147	0xbdb5c117	-0.088747196
148	0x3db4ae2d	0.08822284
149	0xbda18cb9	-0.07888169
150	0xbce4a1a3	-0.027909106
151	0x3a46650e	0.0007568159
152	0xbd3c0f7f	-0.045913216
153	0x3d81246e	0.063057765
154	0x3d3264ad	0.043553043
155	0x3c7775e7	0.015103794
156	0x3da4363a	0.080181554
157	0xbd6922f4	-0.0569181
158	0x3dd7eab5	0.10542814
159	0x3d365cb3	0.044522
160	0x3d0996c9	0.033591066
161	0xbd6aa42c	-0.057285473
162	0xbd991c60	-0.07476115
163	0x3d6c76b1	0.05773038
164	0xbce1a960	-0.027546585
165	0xbd6984f2	-0.057011552
166	0xbd71f73f	-0.059073683
167	0xbbbb697c	-0.005719362
168	0xbda3f7d6	-0.08006255
169	0xbd1edcd2	-0.03878481
170	0x3ddd7568	0.10813409
171	0x3dc7c5aa	0.09754498
172	0x3daf0731	0.085462935
173	0x3da9280c	0.082595915
174	0x3d0db05c	0.034592018
175	0xbd1b2e36	-0.037885867
176	0x3da400e1	0.0800798
177	0xbd3e20ab	-0.046417873
178	0xbd965e68	-0.07342225
179	0x3e04e760	0.12978888
180	0x3c6cd7ff	0.014455794
181	0x3bb80d73	0.0056168376
182	0x3c909434	0.017648794
183	0x3d7608ed	0.060067106
184	0xbe077970	-0.13229918
185	0xbcb0079b	-0.021488002
186	0xbd557560	-0.05211389
187	0x3bd5df66	0.0065268753
188	0xbdd90fe0	-0.10598731
189	0xbdb5b35a	-0.08872099
190	0x3d86379b	0.06553575
191	0x3db96006	0.09051518
192	0x3df3daf1	0.11906994
193	0xbd85f488	-0.06540781
194	0xbd210d98	-0.039319605
195	0x3bad0307	0.005279902
196	0x3dfc53f9	0.12320704
197	0x3e89dd1b	0.26926503
198	0x3de34b3b	0.110983334
199	0xbcf09333	-0.029367065
200	0xbd443ae8	-0.04790774
201	0xbca1e682	-0.019763235
202	0xbba5b829	-0.005057354
203	0xbca1fc25	-0.019773552
204	0xbd87f36e	-0.066382274
205	0x3e01eb30	0.12687373
206	0x3e02e6f9	0.12783422
207	0x3db16fac	0.08663878
208	0x3ce6c4d7	0.028170032
209	0xbd365f99	-0.044524763
210	0x3d4a6aab	0.049418133
211	0x3ddf1299	0.10892219
212	0xbd1f0f2d	-0.038832832
213	0xbd6b99c3	-0.057519685
214	0x3e1fe26e	0.1561372
215	0x3e15c170	0.14624572
216	0xbd4d0a5f	-0.05005872
217	0x3e7f78e4	0.2494846
218	0xbd46db0d	-0.048548747
219	0x3dc23661	0.09483028
220	0x3d50b38f	0.05095249
221	0x3d28e5dd	0.04123484
222	0x3dec5f71	0.115416415
223	0xbb551f7a	-0.0032519982
224	0x3dc56214	0.096378475
225	0xbc54468c	-0.012956273
226	0xbd8bd86b	-0.06828388
227	0x3e3ced9b	0.18450014
228	0x3e65d2be	0.22443673
229	0xbd9f9bb4	-0.0779337
230	0x3ed8f800	0.4237671
231	0xbcf7021e	-0.030152377
232	0xbd0fb1ff	-0.03508186
233	0xbdeae1e9	-0.1146887
234	0x3dc150f2	0.09439267
235	0xbd7b06c7	-0.06128576
236	0x3dda3c26	0.10656004
237	0x3d45f962	0.048333533
238	0x3ddce682	0.107861534
239	0xbdbe405a	-0.09289618
240	0x3e0a65a4	0.13515335
241	0xbda00e21	-0.07815195
242	0xbd9c6065	-0.07635573
243	0x3d19546f	0.037434038
244	0x3d67f9df	0.05663478
245	0xbd262f72	-0.04057259
246	0x3e02f8f6	0.12790284
247	0x3e32e89d	0.17471547
248	0xbccc3188	-0.024925962
249	0x3df9a243	0.12189152
250	0xbdc974ae	-0.09836708
251	0x3d406acf	0.04697686
252	0xbd388bd1	-0.045055214
253	0x3d9316ec	0.071821064
254	0x3e31edce	0.17375872
255	0x3e0f45ec	0.13991517

fc.weight f4 [30, 64]
0	0x3c2b734a	0.010464499
1	0xbc3eb564	-0.011639927
2	0xbc8b9262	-0.017037574
3	0xbe266f7c	-0.16253465
4	0xbe499c53	-0.19688539
5	0xbdc21ef7	-0.09478562
6	0x3d4b121c	0.049577817
7	0x3dbe59ba	0.09294458
8	0x3d87456a	0.066050366
9	0xbcbd1f4d	-0.023086214
10	0x3b6c46e5	0.0036052999
11	0xbd9c220f	-0.07623684
12	0xbd866c49	-0.065636225
13	0x3d17a520	0.03702271
14	0x3e002f40	0.12518024
15	0xbc3c6497	-0.011498592
16	0xbe0188fb	-0.1264991
17	0x3dc44853	0.09584107
18	0xbe084489	-0.13307394
19	0xbd4db133	-0.05021782
20	0xbd87d694	-0.066327244
21	0xbd838b06	-0.06423001
22	0x3dc11570	0.09427917
23	0x3db6f976	0.089343
24	0xbc10a5f2	-0.008828627
25	0x3dc20cf4	0.09475127
26	0x3b86fbab	0.0041193566
27	0xbd9320b6	-0.071839735
28	0xbd64defa	-0.05587671
29	0x3d079147	0.03309753
30	0xbde3926b	-0.111119114
31	0xbe195bda	-0.14976445
32	0x3bc75f2c	0.0060843434
33	0xbd408509	-0.047001872
34	0x3dca370f	0.09873783
35	0xbe415c3e	-0.18882844
36	0x3d9d6de4	0.076869756
37	0x3cfa0173	0.03051827
38	0xbde25aaa	-0.11052449
39	0x3d680380	0.056643963
40	0xbd6585eb	-0.056035917
41	0xbbf981eb	-0.0076143644
42	0x3d5731fb	0.0525379
43	0xbd65086d	-0.05591624
44	0xbcbc93f5	-0.02301977
45	0x3dcbddc9	0.099544115
46	0x3e3f2345	0.18665798
47	0x3d2e6ec3	0.0425861
48	0xbdda683d	-0.10664413
49	0xbdd9744e	-0.106178865
50	0xbd8b668e	-0.0680667
51	0xbd855aa7	-0.06511431
52	0xbd4124ec	-0.047154352
53	0xbdcba093	-0.099427365
54	0x3db46356	0.08808009
55	0x3d09fc40	0.03368783
56	0x3dda5457	0.10660618
57	0xbdffdb66	-0.12493019
58	0xbddaf7c3	-0.10691788
59	0x3d002b12	0.031291075
60	0xbe27b7b6	-0.16378674
61	0x3c40eee2	0.011775704
62	0x3d530103	0.051514637
63	0x3e313d5a	0.1730856
64	0x3a80ea89	0.0009835522
65	0xbd17df43	-0.037078153
66	0x3da83ea0	0.0821507
67	0xbd8e50de	-0.06949018
68	0x3d932fb5	0.07186834
69	0xbd4bdc23	-0.049770486
70	0xbd7670cf	-0.060166176
71	0x3d157802	0.0364914
72	0xbdb78e61	-0.089627035
73	0x3dd33206	0.103122756
74	0xbd060924	-0.03272356
75	0xbd6ef322	-0.05833734
76	0x3e06a64d	0.13149376
77	0xbdd1ff3c	-0.1025376
78	0x3de4eb95	0.11177746
79	0xbe0de3fd	-0.13856502
80	0xbd7eb0e4	-0.062180415
81	0xbda753e5	-0.081702985
82	0x3d605791	0.05477101
83	0xbd07ba2d	-0.033136535
84	0xbda4063e	-0.08009003
85	0x3d5f32bf	0.054491755
86	0x3d15c21f	0.03656208
87	0x3e362564	0.17787701
88	0xbdd42476	-0.10358517
89	0x3d4f4e18	0.050611585
90	0xbc05f7b2	-0.008176731
91	0xbd4b6f11	-0.049666468
92	0xbd06d4e0	-0.032917857
93	0x3da56786	0.08076386
94	0x3dc2370c	0.094831556
95	0x3cb853c7	0.022500886
96	0x3d2d6749	0.04233483
97	0x3ca7acb8	0.0204681
98	0x3db71486	0.089394614
99	0x3d3e8de2	0.04652203
100	0xbddf60f8	-0.10907167
101	0x3d7a7eb9	0.06115601
102	0xbe4b76ee	-0.19869587
103	0x3e05589a	0.1302208
104	0xbe04ef72	-0.12981966
105	0xbc70d729	-0.014699736
106	0xbba1e8d7	-0.0049410868
107	0x3e021ad9	0.12705554
108	0x3d358fcb	0.044326585
109	0x3de6139b	0.11234208
110	0x3e08dfe6	0.1336666
111	0x3df13452	0.117775574
112	0x3db5737f	0.0885992
113	0x3daa3000	0.083099365
114	0x3d40732a	0.04698483
115	0x3c2740f0	0.010208353
116	0x3d29a8e9	0.04142085
117	0x3d1068e6	0.03525629
118	0xbdcffa63	-0.10155179
119	0xbe084c19	-0.13310279
120	0x3d578789	0.05261949
121	0xbe5d353d	-0.2160234
122	0xbdab491e	-0.08363555
123	0x3d9f10b3	0.07766857
124	0xbd9fb77b	-0.07798668
125	0xbdb7ea90	-0.08980286
126	0xbdb0b623	-0.0862849
127	0x3b693737	0.003558589
128	0x3e153a5f	0.14573048
129	0xbca4bba9	-0.020109015
130	0xbcf8f498	-0.030390069
131	0x3dd61af6	0.10454361
132	0xbdb046bc	-0.086072415
133	0xbd9816dd	-0.07426236
134	0x3d867911	0.0656606
135	0x3db661f4	0.08905402
136	0xbdca7666	-0.09885864
137	0x3d6b6979	0.057473633
138	0x3e25659b	0.1615204
139	0x3db91c90	0.09038651
140	0x3d918256	0.07104938
141	0x3d7ab8ce	0.0612114
142	0x3dd62dbf	0.10457944
143	0xbda78632	-0.081798926
144	0xbc3bbc8e	-0.011458529
145	0x3e145f9d	0.14489599
146	0xbdf3bbc1	-0.119010456
147	0xbdcc4e74	-0.09975901
148	0xbdcd2ad2	-0.10017933
149	0x3dee09c7	0.11622959
150	0x3d5ef0f1	0.054429
151	0xbd9632a6	-0.07333879
152	0x3c889632	0.016673181
153	0xbdc8c95e	-0.09804033
154	0x3d1ee83e	0.038795702
155	0xbbed72bf	-0.007246345
156	0x3e173eba	0.14770022
157	0x3da32a7e	0.07967089
158	0xbda5be80	-0.080929756
159	0xbdbd57e9	-0.09245283
160	0x3cae5f19	0.02128558
161	0xbd4b2f95	-0.049605925
162	0xbe1698b8	-0.14706695
163	0xbbbf871b	-0.0058449632
164	0xbdb1d08f	-0.086823575
165	0x3d9f76fd	0.07786367
166	0xbdae56a1	-0.08512617
167	0x3d27c5d7	0.04096016
168	0xbc98c55f	-0.018648801
169	0xbdd958e3	-0.10612657
170	0xbd313042	-0.043258913
171	0x3e01486f	0.12625287
172	0xbc09349e	-0.008374361
173	0xbe1242cc	-0.14283293
174	0x3d28ae08	0.041181594
175	0xbc1ec4c1	-0.0096904645
176	0xbdee9026	-0.11648588
177	0x3d13ca8e	0.036081843
178	0xbd14972b	-0.036276978
179	0xbd254451	-0.040348355
180	0xbd7fff44	-0.0624993
181	0xbe21b040	-0.1578989
182	0xbd387ebb	-0.045042735
183	0xbd3c2c24	-0.045940533
184	0xbe08ba12	-0.1335223
185	0xbe326361	-0.17420723
186	0xbd37397b	-0.044732552
187	0x3c692758	0.014230572
188	0xbdb84637	-0.089977674
189	0x3d6c3b2b	0.057673614
190	0x3b71c540	0.0036891252
191	0xbdbb8c69	-0.091576405
192	0x3e130dbc	0.14360708
193	0xbd8c1242	-0.0683942
194	0x3dda2972	0.10652436
195	0x3e3d2cc9	0.18474115
196	0x3dab1b6d	0.083548404
197	0xbcdd23af	-0.026994554
198	0x3e25709d	0.1615624
199	0xbbfbdaf1	-0.007686012
200	0x3d9d38b7	0.07676833
201	0xbcd1dcff	-0.025618074
202	0xbd6ddf32	-0.058074184
203	0xbd0b6283	-0.034029495
204	0x3dfa97f8	0.12236017
205	0xbe127a8d	-0.14304562
206	0x3df3e947	0.119097285
207	0x3bb67bd1	0.0055689593
208	0x3e39f7dc	0.18160957
209	0x3de835c7	0.11338382
210	0x3e43d4a8	0.1912409
211	0xbde63160	-0.11239886
212	0x3cfd44e9	0.030916648
213	0xbdc0d085	-0.09414772
214	0x3e179c42	0.14805701
215	0x3d8e6cd5	0.06954352
216	0xbc7354a6	-0.014851725
217	0x3e6274c0	0.22114849
218	0x3c53d87f	0.012930035
219	0x3e2ecdc1	0.17070676
220	0x3d952940	0.072832584
221	0xbc82ff75	-0.015990952
222	0xbde42f7b	-0.11141869
223	0xbe037d77	-0.1284083
224	0x3d939733	0.07206573
225	0x3db20cff	0.08693885
226	0xbdb3e8bc	-0.08784625
227	0xbd2c7312	-0.042101927
228	0x3dd27ad9	0.102773376
229	0xbde7738c	-0.11301336
230	0x3e47f713	0.19527845
231	0xbac4562d	-0.0014979296
232	0x3d9bb3f0	0.0760268
233	0x3a613780	0.0008591339
234	0x3c337d32	0.010955142
235	0x3d6d92bf	0.058001276
236	0x3d236a4b	0.03989629
237	0x3d1c1dd2	0.038114376
238	0xbe2b6df9	-0.1674117
239	0x3e0fc8b4	0.14041406
240	0x3e2c2db5	0.16814311
241	0xbd74888a	-0.059700526
242	0x3cfa5b49	0.030561106
243	0xbe1a7609	-0.1508409
244	0xbd762e6b	-0.06010286
245	0xbbe4bde0	-0.0069806427
246	0xbd853e9b	-0.06506082
247	0x3b48392e	0.003055166
248	0xbdf39e93	-0.1189548
249	0xbcc82882	-0.024433378
250	0xbe17a607	-0.14809428
251	0x3db152ee	0.08658396
252	0x3b49df9f	0.0030803455
253	0xbe0c591e	-0.1370587
254	0xbe704151	-0.23462416
255	0x3cdf970b	0.027293703

fc.bias f4 [30]
0	0xbd6bfb4f	-0.057612713
1	0xbd814bbf	-0.063132755
2	0xbd8d8dea	-0.069118336
3	0x3d0b5681	0.034018043
4	0x3da3ffe9	0.08007795
5	0x3a5137aa	0.0007981012
6	0xbd1b67f3	-0.03794093
7	0xbc885c49	-0.016645567
8	0x3d3a7477	0.045521226
9	0x3d20e126	0.03927722
10	0x3d651080	0.05592394
11	0x3d869613	0.06571593
12	0xbd889d93	-0.0667068
13	0x3d98ad47	0.07454925
14	0x3c1c45bd	0.009538111
15	0xbc836814	-0.01604084
16	0x3c6b07be	0.014345108
17	0x3d15ae43	0.036543142
18	0xbcf423c3	-0.029802209
19	0xbda47aa4	-0.08031204
20	0x3d7db5bb	0.06194089
21	0x3d546b04	0.05185987
22	0xbd9c881c	-0.07643148
23	0x3daeb0f3	0.08529844
24	0x3d329b8f	0.043605383
25	0x3c5ae6bd	0.013360676
26	0xb950d649	-0.00019916253
27	0xbbbacbb5	-0.0057005533
28	0x3cf65e37	0.030074222
29	0xbd29bed4	-0.041441754
