models/modello_modello_12_6_v1.pth (torch, 843864 bytes, 10 tensors)

lstm.weight_ih_l0 f4 [512, 10]
0.08282462 0.036140904 0.13527635 -0.09101123 -0.015195856 0.051404197 0.11509872 0.050075293
-0.08590582 0.015643092 0.07616539 0.13891223 0.2225443 0.14979973 0.0056572957 0.086903766
-0.06773901 -0.010981795 -0.058391653 0.09407712 0.054719605 0.064144656 0.026623188 0.013417278
-0.09582994 0.19695666 0.006506895 0.039516762 0.10077202 0.063663304 0.21980342 0.09717288
0.22214131 0.1966028 0.081103496 0.17452392 0.05202191 -0.00022350866 0.050797824 -0.008384073
0.074863374 0.010709593 0.104208514 0.03654769 0.016115015 0.17908725 0.020003181 0.16493134
0.13534369 -0.053525865 0.19111773 -0.04714916 0.19941582 0.08329578 -0.026333561 0.19587852
0.05805931 0.048468895 0.05152792 -0.09137142 0.13058801 0.08757421 0.18786983 0.03299057
0.10706513 0.13566114 0.062830836 0.028396916 -0.03097778 0.037053574 -0.013412128 0.11611701
0.14372933 -0.006667838 0.02190984 0.10183324 -0.041635554 0.060173385 -0.10042112 -0.05853122
0.16928206 0.12322213 0.31836653 0.11389477 -0.13306856 -0.053498566 -0.08995188 -0.032179225
-0.19367242 0.03743097 0.094372906 0.021186687 0.015300465 0.06964136 0.04952017 0.079342276
-0.047463354 -0.050311323 0.067338474 0.050071426 0.23846325 0.25558528 0.3414409 0.53137547
-0.011204442 0.090811945 -0.062344164 -0.030395772 -0.10320225 0.05166039 -0.20829608 0.20398599
-0.010472567 -0.008063126 0.018363435 0.042674225 0.01258991 0.04051195 -0.0470882 0.010295851
0.11218034 0.16267942 0.034674045 -0.019942738 0.08684413 0.047778763 0.0044282055 -0.078936644
0.06711465 0.036156323 0.14670973 0.08415044 0.040175237 0.028346213 0.012011571 0.14505203
0.103367016 0.09778537 0.08895186 0.06514817 0.34586456 0.20050833 0.46195763 0.42631197
0.004420484 -0.12997416 -0.17407976 -0.07057614 -0.11950152 0.07509017 0.12165034 -0.011018758
0.06735281 0.081810474 0.08872127 0.077768885 0.01755808 0.05138261 0.08492389 -0.023027165
0.18549536 0.22537877 0.11349424 0.11946095 -0.042167496 0.03313759 0.10356064 -0.008731837
0.049143124 0.07591497 0.19972973 -0.021353837 0.16124249 0.027878948 0.015885318 0.1866778
0.09771629 0.13270038 0.13863096 0.04722404 0.012664834 0.1046825 0.06358381 -0.018984826
0.078769684 0.096222974 0.08440562 0.07823765 0.06774137 0.09039915 0.005370589 0.08064761
0.17563418 0.16518717 0.02712875 0.07650437 -0.011025895 0.09228111 0.02663752 0.06726175
-0.06491565 -0.13711098 -0.06460235 -0.14912073 0.08007634 0.07691014 0.009597814 -0.06515102
0.04911935 -0.065188356 0.12190024 0.11814795 0.19818857 0.08596961 0.05952508 -0.029650701
-0.008921632 0.07837248 0.050423563 -0.03572151 -0.01908953 -0.041267302 0.0085987765 -0.022027273
0.14009473 0.09016859 -0.08354035 0.0021081707 -0.074299164 -0.10417217 -0.07491888 -0.10532356
-0.32969862 -0.20013018 0.028715875 0.023699136 0.02319056 -0.05846347 -0.016463643 -0.06214322
0.18654425 0.12630884 0.24240442 0.10415279 0.06524912 0.06020815 0.0017005668 0.11408721
0.111383215 -0.034249626 -0.007395936 0.16088086 -0.22219676 -0.23604472 0.12202382 0.06990417
00000000: f49f a93d 7c08 143d e285 0a3e 1964 babd
00000010: 0af8 78bc 358d 523d e1b8 eb3d c01b 4d3d
00000020: 64ef afbd f125 803c 9afc 9b3d 023f 0e3e
00000030: a7e2 633e 1a65 193e d660 b93b 9afa b13d
00000040: c0ba 8abd fdec 33bc 162c 6fbd 81ab c03d
00000050: aa21 603d 465e 833d df18 da3c 25d4 5b3c
00000060: 7d42 c4bd 02af 493e cb37 d53b 54dc 213d
00000070: 9061 ce3d e861 823d 2614 613e 9302 c73d
00000080: 0379 633e 3f52 493e 9719 a63d 66b6 323e
00000090: ed14 553d a65d 6ab9 6111 503d 5a5d 09bc
000000a0: f851 993d 4a77 2f3c 466b d53d 08b3 153d
000000b0: a303 843c a662 373e b6dd a33c c3e3 283e
000000c0: 8997 0a3e f03d 5bbd 5eb4 433e 7a1f 41bd
000000d0: a933 4c3e fa96 aa3d 7bb9 d7bc 6194 483e
000000e0: 99cf 6d3d 5287 463d f10e 533d f020 bbbd
000000f0: ddb8 053e 1b5a b33d f360 403e 1f21 073d
00000100: f644 db3d c1ea 0a3e 74ad 803d a6a0 e83c
00000110: 1dc5 fdbc 7dc5 173d 8bbe 5bbc c1ce ed3d
00000120: c82d 133e e17d dabb 447c b33c f28d d03d
00000130: 0b8a 2abd 5e78 763d 97a9 cdbd 6fbe 6fbd
00000140: 4758 2d3e e25b fc3d f000 a33e a941 e93d
00000150: 2043 08be 5021 5bbd b138 b8bd 5dce 03bd
00000160: 1052 46be 3851 193d 9546 c13d b48f ad3c
00000170: cdae 7a3c 21a0 8e3d a9d5 4a3d 347e a23d
00000180: ef68 42bd 3f13 4ebd c1e8 893d b217 4d3d
00000190: b62f 743e 13dc 823e 57d1 ae3e 3908 083f
000001a0: d692 37bc 9dfb b93d 985c 7fbd 8e00 f9bc
000001b0: b45b d3bd d899 533d 914b 55be b4e1 503e
000001c0: 2195 2bbc 341b 04bc ea6e 963c 2bcb 2e3d
000001d0: e945 4e3c dcef 253d 8edf 40bd eeaf 283c
000001e0: cebe e53d 6f95 263e 5f06 0e3d f45e a3bc
000001f0: 56db b13d aab3 433d 7b1a 913b 89a9 a1bd
00000200: 6873 893d a718 143d 133b 163e 1157 ac3d
00000210: ca8e 243d 5136 e83c 2ecc 443c 8588 143e
00000220: 16b2 d33d b243 c83d 652c b63d 676c 853d
00000230: 2915 b13e 0e52 4d3e b685 ec3e 9045 da3e
00000240: b5d9 903b f217 05be f741 32be 398a 90bd
00000250: 37bd f4bd e0c8 993d d023 f93d 0588 34bc
00000260: 45f0 893d 408c a73d 7fb3 b53d 4b45 9f3d
00000270: f6d5 8f3c 9276 523d 94ec ad3d 77a3 bcbc
00000280: 7ff2 3d3e b1c9 663e ab6f e83d f1a7 f43d
00000290: d3b7 2cbd 48bb 073d 9a17 d43d fb0f 0fbc
000002a0: 4d4a 493d 4f79 9b3d f385 4c3e 3eee aebc
000002b0: c01c 253e 6462 e43c ed21 823c 7728 3f3e
000002c0: 7a1f c83d 9ce2 073e 46f5 0d3e ff6d 413d
000002d0: 2a80 4f3c c763 d63d 3b38 823d 1186 9bbc
000002e0: 0052 a13d 8d10 c53d dbdc ac3d 103b a03d
000002f0: fdbb 8a3d 3123 b93d c4fb af3b 932a a53d
00000300: 72d9 333e d326 293e 1d3d de3c 53ae 9c3d
00000310: f5a5 34bc e1fd bc3d ee36 da3c 87c0 893d
00000320: 7ff2 84bd d266 0cbe 3d4e 84bd 1bb3 18be
00000330: 10ff a33d 1083 9d3d 2640 1d3c e66d 85bd
00000340: 5f31 493d 7981 85bd d5a6 f93d 8df7 f13d
00000350: f2f1 4a3e d610 b03d 92d0 733d 07e6 f2bc
00000360: 092c 12bc c081 a03d f088 4e3d b850 12bd
00000370: a561 9cbc e707 29bd e2e1 0c3c 8a72 b4bc
00000380: fe74 0f3e 4faa b83d 3417 abbd 3c29 0a3b
00000390: 292a 98bd 3858 d5bd 126f 99bd e1b3 d7bd
000003a0: 42ce a8be edee 4cbe 8e3d eb3c b124 c23c
000003b0: 21fa bd3c 6477 6fbd c3de 86bc e489 7ebd
000003c0: 7505 3f3e 1b57 013e dd38 783e 0f4e d53d
000003d0: 55a1 853d d29c 763d 8ee5 de3a 8ea6 e93d
000003e0: e21c e43d 5649 0cbd 9c59 f2bb f4bd 243e
000003f0: 8c87 63be b5b5 71be a0e7 f93d eb29 8f3d

lstm.weight_hh_l0 f4 [512, 128]
0.03711965 -0.026942031 -0.05500818 -0.08497415 -0.004542436 -0.03895253 -0.23277326 0.06281411
0.16903561 -0.10716837 0.045622453 -0.06711581 0.017443936 0.052807823 0.18370764 -0.02147598
0.09381068 -0.026316151 -0.14030421 -0.113427095 -0.1360303 -0.05623388 -0.11531707 -0.00045172125
0.03754278 -0.11157127 -0.05716522 -0.043291137 0.17282678 -0.011313589 -0.016961826 0.02096112
-0.025226044 0.021797126 0.10564454 0.031570747 0.014730199 -0.058302145 -0.022815494 -0.043245383
-0.0366298 -0.01852522 0.12181509 0.034163393 0.21244848 0.00609894 0.025684595 0.10155434
-0.11469971 -0.054191727 0.023260932 0.05146645 0.18447134 0.06661609 0.13884042 -0.07024314
0.07755203 0.09825641 0.13172048 0.121157356 0.081512846 0.08517832 0.0093090655 -0.11633714
-0.07231977 0.06300346 -0.09831066 -0.07846619 -0.10778331 -0.043871116 0.055876523 0.056052797
-0.04930605 0.05383492 0.13000664 0.12922692 -0.007815338 -0.10871145 0.050369382 0.07187448
-0.06827787 -0.0619327 0.03593261 -0.017081508 -0.1774774 -0.05269474 0.06737974 -0.013019926
-0.04126394 0.0007184004 -0.0006910031 -0.016852729 -0.027099049 0.048931565 -0.030543773 0.11971801
-0.037231624 0.052263696 -0.06672744 -0.08788394 0.08861672 -0.027318027 -0.027523112 -0.028800603
-0.1538281 -0.11128826 -0.10153724 -0.06408387 -0.025023662 -0.010562458 0.07733039 0.028656466
-0.06546336 0.008311831 0.012429602 0.07804129 -0.07551238 0.08964066 0.0017666958 0.020351734
0.022230694 0.09494064 -0.13904078 0.05611826 0.025071634 -0.09683961 0.073513255 -0.01620837
-0.10235363 0.062008083 0.08080537 -0.0110071525 -0.022192484 -0.010352554 -0.031516884 -0.1000353
0.00535851 0.0985637 -0.1431597 -0.037207276 0.050065488 0.088017605 -0.12226078 -0.046304
-0.060655348 0.034307152 0.00818128 -0.0101014795 0.13013427 0.027009223 0.11419085 -0.037062287
0.073559895 0.05741537 -0.06545978 -0.017520856 -0.03720897 -0.027458264 0.04591564 -0.01574444
0.027522167 -0.047870513 -0.049935233 0.089481145 0.045408458 0.053726792 0.0015568237 -0.059512433
-0.054982897 0.08255213 -0.039039396 0.04708768 0.01691555 0.053554427 0.027815465 -0.065436155
0.08326691 0.050204366 0.063782915 0.033976 -0.018751701 0.064154536 0.0920982 0.045585044
0.11245508 0.091294065 0.036692236 0.07606452 0.082183644 0.054646697 -0.039617244 0.06824442
0.09862139 0.079155296 0.08912547 0.035455856 0.060965262 0.026278824 0.008906513 0.041224655
0.03703027 0.059466828 0.00049083075 0.015784087 0.0070504057 -0.031513654 -0.108103245 -0.013608464
-0.022949511 0.10531774 0.08951478 -0.05618645 0.14500143 -0.038431637 -0.018989326 0.089326456
0.044690605 -0.018992675 0.019521985 0.10401643 0.013517323 0.113380335 -0.06742196 0.07216883
-0.067467794 -0.00027355133 0.036295164 -0.0847931 0.04239562 0.004982251 0.05377262 0.062310196
0.01539354 -0.042959046 -0.015962113 -0.034346025 0.05305617 0.049921185 -0.010146701 0.025074728
-0.056651495 -0.00041934082 -0.071891196 -0.045701507 0.07281922 -0.014457337 -0.06923447 -0.10360892
0.0016170259 -0.060410168 -0.05246683 -0.010989691 -0.04605284 -0.0046977284 0.023211844 0.053667255
00000000: c60a 183d 89b5 dcbc 4250 61bd ed06 aebd
00000010: b7d8 94bb b08c 1fbd 1d5c 6ebe afa4 803d
00000020: ac17 2d3e 177b dbbd 9cde 3a3d 0474 89bd
00000030: 96e6 8e3c 044d 583d db1d 3c3e 65ee afbc
00000040: d01f c03d f894 d7bc e8ab 0fbe 774c e8bd
00000050: 874b 0bbe 7f55 66bd 5b2b ecbd 00d5 ecb9
00000060: 75c6 193d 7a7f e4bd 1426 6abd 0c52 31bd
00000070: 81f9 303e a25c 39bc 87f3 8abc a8b6 ab3c
00000080: d9a6 cebc e38f b23c 2a5c d83d 5450 013d
00000090: ef56 713c 3bce 6ebd 8fe7 babc 1222 31bd
000000a0: 2109 16bd 34c2 97bc 317a f93d eaee 0b3d
000000b0: 188c 593e 9ed9 c73b 8068 d23c b9fb cf3d
000000c0: aee7 eabd 25f8 5dbd b68d be3c 7cce 523d
000000d0: 0ee6 3c3e 046e 883d 2f2c 0e3e a3db 8fbd
000000e0: 99d3 9e3d a83a c93d bce1 063e 5921 f83d
000000f0: 35f0 a63d f971 ae3d 0d85 183c 2b42 eebd
00000100: 631c 94bd f507 813d 1957 c9bd e2b2 a0bd
00000110: 7fbd dcbd 33b2 33bd c8de 643d 9e97 653d
00000120: 24f5 49bd 0182 5c3d 7620 053e 1054 043e
00000130: e70b 00bc 1ca4 debd 2050 4e3d ed32 933d
00000140: 45d5 8bbd 25ad 7dbd 132e 133d 85ee 8bbc
00000150: a3bc 35be 71d6 57bd 64fe 893d 8751 55bc
00000160: 6104 29bd 0953 3c3a 6f24 35ba bc0e 8abc
00000170: d3fe ddbc 776c 483d ef36 fabc b72e f53d
00000180: 3080 18bd 7512 563d 65a8 88bd 7ffc b3bd
00000190: af7c b53d 0eca dfbc 2678 e1bc 3eef ebbc
000001a0: 1d85 1dbe 19eb e3bd c2f2 cfbd 673e 83bd
000001b0: 6cfe ccbc 290e 2dbc 655f 9e3d f7c0 ea3c
000001c0: a711 86bd 592e 083c 88a5 4b3c 1dd4 9f3d
000001d0: 3ca6 9abd 8695 b73d 7990 e73a aeb8 a63c
000001e0: 251d b63c 3d70 c23d b560 0ebe 43dc 653d
000001f0: 0763 cd3c d853 c6bd 1e8e 963d 6ac7 84bc
00000200: c89e d1bd 30fc 7d3d 497d a53d 5857 34bc
00000210: 03cd b5bc c29d 29bc d917 01bd 4fdf ccbd
00000220: 7196 af3b c4db c93d 7598 12be a866 18bd
00000230: 7811 4d3d 9342 b43d dc63 fabd 43a9 3dbd
00000240: be71 78bd a885 0c3d c70a 063c ad80 25bc
00000250: eb41 053e 7242 dd3c e4dc e93d a0ce 17bd
00000260: 92a6 963d 612c 6b3d c70f 86bd e687 8fbc
00000270: 6f68 18bd 27f0 e0bc 0a12 3c3d 7cfa 80bc
00000280: 2b76 e13c df13 44bd e388 4cbd e441 b73d
00000290: 38fe 393d a010 5c3d 560e cc3a 4fc3 73bd
000002a0: bf35 61bd 1711 a93d c6e7 1fbd 03df 403d
000002b0: 7b92 8a3c e35b 5b3d 42dd e33c 6403 86bd
000002c0: d787 aa3d 18a3 4d3d 9ea0 823d 6b2a 0b3d
000002d0: 2b9d 99bc 7463 833d fb9d bc3d 62b7 3a3d
000002e0: d94e e63d 62f8 ba3d 994a 163d b7c7 9b3d
000002f0: e64f a83d 37d5 5f3d b145 22bd bbc3 8b3d
00000300: 03fa c93d 2c1c a23d 6a87 b63d 293a 113d
00000310: b6b6 793d b046 d73c a0ec 113c 2fdb 283d
00000320: 0dad 173d 7d93 733d 18ab 003a a14d 813c
00000330: 1707 e73b 7614 01bd 3c65 ddbd 09f6 5ebc
00000340: 9d00 bcbc d4b0 d73d 8653 b73d c323 66bd
00000350: 417b 143e 7e6a 1dbd 818f 9bbc caf0 b63d
00000360: 7f0d 373d 8796 9bbc 92ec 9f3c 9106 d53d
00000370: c377 5d3c f333 e83d 8614 8abd 40cd 933d
00000380: 8e2c 8abd 706b 8fb9 3daa 143d 01a8 adbd
00000390: 08a7 2d3d 2742 a33b ae40 5c3d fa38 7f3d
000003a0: 3035 7c3c d3f5 2fbd fac2 82bc 6bae 0cbd
000003b0: 6d51 593d 287a 4c3d 593e 26bc 8469 cd3c
000003c0: 660b 68bd f9da dbb9 b13b 93bd 8131 3bbd
000003d0: 3e22 953d 77de 6cbc cdca 8dbd ea30 d4bd
000003e0: 63f2 d33a a770 77bd 75e7 56bd 1b0e 34bc
000003f0: e7a1 3cbd 67ef 99bb c426 be3c 32d2 5b3d

lstm.bias_ih_l0 f4 [512]
0.029498737 0.06594198 -0.07775882 -0.033956964 0.0004241258 -0.085033774 0.16698696 -0.078093156
-0.043987017 -0.024006309 -0.02391068 0.12737769 0.05056651 -0.043077763 0.018314816 0.01654829
0.05989407 -0.08208516 0.06713692 0.0476138 0.047765236 0.041718144 -4.5491033e-05 -0.043745257
0.0666286 0.10087382 -0.068850555 -0.08171413 0.011143414 -0.089060225 0.042330254 -0.035881262
0.03278807 0.102548316 -0.07148268 -0.09551819 0.027298262 -0.062614165 -0.09242475 0.18643059
-0.046125762 -0.02625553 -0.0009486384 -0.11268785 0.09200431 -0.040310934 0.029560473 0.055637408
-0.0133788325 -0.012248925 0.008734901 -0.04349282 0.03049785 -0.05518451 0.019052004 -0.1095077
0.067063816 -0.08037196 -0.0735997 0.015210234 0.019012166 -0.10438698 -0.006895886 -0.11308669
-0.107926965 -0.008192726 0.07037714 -0.1132691 0.025437715 -0.009019953 0.042977374 0.05686884
-0.10618464 -0.04749925 -0.07201594 0.03533283 -0.045152664 0.10255432 -0.025506863 -0.0353732
0.0046583274 -0.009461436 -0.10139574 -0.02293382 -0.0011050791 0.034855682 -0.07407558 0.11236109
-0.024627682 -0.029259386 0.07396711 0.038314927 -0.02799783 -0.02198145 0.07839663 0.03381885
0.009884867 0.058585174 0.026676659 0.0043204576 -0.07611966 -0.01808468 0.024178153 0.051821116
-0.026882563 -0.10335494 -0.053997602 -0.05196136 0.009175066 0.044494282 -0.0486032 0.0019216347
-0.11306363 0.05949784 -0.015450451 0.07521538 0.10486089 -0.039192356 0.04785539 -0.03885765
-0.031139446 0.03426501 -0.005617861 -0.01611344 0.018465426 -0.06839876 -0.030681802 -0.01849574
-0.14193143 -0.0031452938 -0.018856782 0.050179668 -0.044183526 -0.008597843 0.13528873 -0.05756785
-0.11741881 -0.1364726 0.065229334 0.1053503 -0.12109753 -0.18750617 -0.06379786 0.017766008
0.018357808 -0.023551654 -0.09554534 0.029038152 -0.009810957 0.0113026155 -0.030558256 -0.118578576
-0.07442261 -0.10851717 -0.07775191 -0.1498149 -0.06446067 -0.08920674 -0.07466463 -0.13037534
-0.11089656 0.011994915 -0.10146782 -0.0049609602 -0.010428615 -0.057806958 -0.057349913 0.1693665
-0.05669528 -0.019676186 -0.031322125 -0.11925225 0.07524238 -0.038331345 -0.05539383 -0.03223952
-0.09435094 -0.14332303 -0.120364 -0.08052125 0.059028164 -0.0022359171 -0.0050067706 -0.11575232
0.012707638 -0.17053463 -0.09676876 -0.12901819 -0.06836899 -0.01678792 -0.100677274 -0.12362162
-0.048874084 -0.007366971 0.072310664 -0.060784645 -0.0069247647 -0.17681932 -0.088947855 0.0038799187
0.032726627 0.010873509 0.030951468 0.01666104 0.0016299839 0.043770775 -0.14855556 -0.10013818
-0.08343741 -0.0966526 0.09145815 0.0072669904 0.028581169 -0.078732304 -0.019192863 -0.027056288
-0.057865217 -0.04603373 0.036543276 -0.15634848 -0.09768395 -0.031571284 0.011398542 -0.0011190404
-0.052822307 0.06892342 0.034823656 -0.09004817 -0.08204291 -0.04086202 -0.00028262965 -0.12454284
0.004657437 -0.059747547 -0.043526035 -0.08955184 -0.014451594 -0.10256675 -0.06022233 -0.050345015
-0.11857334 0.04302846 -0.10786213 -0.03949605 -0.01459447 -0.0019960608 0.03202297 0.06756591
-0.12668794 -0.055757 -0.12808727 -0.088466145 -0.0339611 -0.079073645 -0.020349868 -0.10905246
00000000: 56a7 f13c 970c 873d 0440 9fbd 7516 0bbd
00000010: 345d de39 3026 aebd a1fe 2a3e 4eef 9fbd
00000020: bb2b 34bd e1a8 c4bc 55e0 c3bc 4c6f 023e
00000030: d41e 4f3d 4f72 30bd f408 963c 4890 873c
00000040: 7c53 753d 441c a8bd 157f 893d b006 433d
00000050: 7ba5 433d a5e0 2a3d a0cd 3eb8 3a2e 33bd
00000060: 9374 883d ef96 ce3d 8501 8dbd bd59 a7bd
00000070: de92 363c 3565 b6bd 7d62 2d3d 3bf8 12bd
00000080: c94c 063d da04 d23d 8365 92bd 0a9f c3bd
00000090: 9ba0 df3c db3b 80bd 3049 bdbd a9e7 3e3e
000000a0: 5eee 3cbd d615 d7bc 0cae 78ba e3c8 e6bd
000000b0: c16c bc3d 141d 25bd ce28 f23c 0de4 633d
000000c0: e432 5bbc b7af 48bc d51c 0f3c 8725 32bd
000000d0: a1d6 f93c 2709 62bd f312 9c3c 9345 e0bd
000000e0: c158 893d 0e9a a4bd 71bb 96bd 5834 793c
000000f0: 67bf 9b3c d7c8 d5bd e2f6 e1bb ff99 e7bd
00000100: d008 ddbd c93a 06bc e421 903d a1f9 e7bd
00000110: c162 d03c 6dc8 13bc 0b09 303d 4def 683d
00000120: 5577 d9bd 938e 42bd 187d 93bd 28b9 103d
00000130: 00f2 38bd 0008 d23d c5f3 d0bc 7de3 10bd
00000140: e2a4 983b 2404 1bbc 92a8 cfbd b5df bbbc
00000150: 4dd8 90ba d5c4 0e3d f0b4 97bd 921d e63d
00000160: febf c9bc 61b1 efbc 117c 973d 1df0 1c3d
00000170: b55b e5bc 7112 b4bc 6a8e a03d a285 0a3d
00000180: 23f4 213c 02f7 6f3d 0289 da3c a092 8d3b
00000190: a0e4 9bbd 5326 94bc 4311 c63c 6142 543d
000001a0: d238 dcbc c1ab d3bd 972c 5dbd 6fd5 54bd
000001b0: 0453 163c a33f 363d 2614 47bd 5cdf fb3a
000001c0: e88d e7bd 02b4 733d e323 7dbc 850a 9a3d
000001d0: 4ec1 d63d 2a88 20bd 0304 443d 3329 1fbd
000001e0: 2718 ffbc 7859 0c3d 0916 b8bb 5500 84bc
000001f0: ce44 973c a614 8cbd 6758 fbbc 6184 97bc
00000200: 7956 11be 4621 4ebb 8a79 9abc 3289 4d3d
00000210: c9f9 34bd f8dd 0cbc 2189 0a3e 44cc 6bbd
00000220: 4679 f0bd 79bf 0bbe f596 853d e6c1 d73d
00000230: fb01 f8bd 9e01 40be 74a8 82bd 058a 913c
00000240: 1d63 963c 66ef c0bc 46ad c3bd 6be1 ed3c
00000250: 23be 20bc 9b2e 393c 4f55 fabc 53d9 f2bd
00000260: e26a 98bd 403e debd 653c 9fbd 1469 19be
00000270: f503 84bd 06b2 b6bd c5e9 98bd 1d81 05be
00000280: bc1d e3bd 5286 443c 5cce cfbd 8d8f a2bb
00000290: c8dc 2abc fdc6 6cbd bee7 6abd 696e 2d3e
000002a0: 4f39 68bd f42f a1bc a14b 00bd 863a f4bd
000002b0: ad18 9a3d 5401 1dbd a4e4 62bd 960d 04bd
000002c0: 113b c1bd 46c3 12be 6781 f6bd 53e8 a4bd
000002d0: 84c7 713d 7788 12bb d60f a4bb 8d0f edbd
000002e0: b233 503c a1a0 2ebe b32e c6bd 581d 04be
000002f0: 0b05 8cbd d286 89bc e32f cebd 552d fdbd
00000300: 3130 48bd a266 f1bb 9d17 943d 52f9 78bd
00000310: 23e9 e2bb 2010 35be 4b2a b6bd 3c46 7e3b
00000320: 5b0c 063d cd26 323c ef8d fd3c bc7c 883c
00000330: 2fa5 d53a fc48 333d f31e 18be 3f15 cdbd
00000340: 3ce1 aabd ccf1 c5bd 694e bb3d ef1f ee3b
00000350: 0e23 ea3c 673e a1bd 5a3a 9dbc 26a5 ddbc
00000360: 1404 6dbd dd8d 3cbd 67ae 153d d119 20be
00000370: 860e c8bd e450 01bd f3c0 3a3c c4ac 92ba
00000380: 345c 58bd b927 8d3d 40a3 0e3d 2d6b b8bd
00000390: 1d06 a8bd ef5e 27bd e92d 94b9 5110 ffbd
000003a0: 6a9d 983b d8b9 74bd 5b48 32bd f566 b7bd
000003b0: 61c6 6cbc 840e d2bd b1ab 76bd 9336 4ebd
000003c0: 94d6 f2bd 9c3e 303d d2e6 dcbd 9cc6 21bd
000003d0: a51d 6fbc 58d0 02bb 852a 033d ff5f 8a3d
000003e0: 7cba 01be 7461 64bd 4f29 03be bd2d b5bd
000003f0: cb1a 0bbd 5df1 a1bd c4b4 a6bc e556 dfbd

lstm.bias_hh_l0 f4 [512]
0.0791689 0.009981944 0.019290375 -0.050967056 0.069455355 -0.042398326 0.0580614 -0.10873312
-0.116793424 -0.12714045 -0.036037754 0.0028627003 -0.10212876 0.005228898 0.02480831 0.054568585
-0.02162975 -0.007171462 0.021550873 0.017676309 0.009392194 -0.011909044 0.06738295 -0.09417668
-0.01840507 0.0068846243 -0.054895405 -0.121892706 0.036198802 -0.10171043 0.030940404 -0.0072151525
-0.078211404 -0.037781667 -0.04213203 -0.03503651 0.04472519 -0.031475235 0.022131184 0.15429716
0.0019388725 -0.056798417 0.06510661 -0.11639915 0.1453319 -0.060396522 0.038257323 -0.08070639
0.064587526 0.057785396 -0.03742706 -0.06932424 0.038916618 -0.0020142659 0.034359958 -0.13128425
0.049235724 -0.06922108 -0.1040333 -0.067048304 0.017098716 -0.028044602 -0.038404763 -0.0059076454
-0.07329193 0.050944045 0.033729892 -0.09342176 0.037700772 0.03262649 0.029278375 -0.007199864
0.014223381 0.010566668 -0.014035386 0.055435814 -0.053130098 -0.05285952 0.03847348 -0.08578251
0.08785648 0.06459875 -0.06815264 -0.012975393 0.09239951 0.05533448 0.051087722 0.14449869
0.0033664373 0.03217767 0.032777853 0.01719439 -0.08058149 -0.07937309 0.074958995 0.03310576
0.04949951 0.0092720315 0.06279806 -0.09766399 0.01758121 -0.026547616 -0.07093776 0.013911754
0.06662958 0.033120017 -0.0480606 -0.03293356 0.020047646 -0.06163856 -0.06465609 -0.06772238
-0.07745111 0.027339302 -0.046092946 0.0064437627 0.011945325 0.09044017 -0.08152543 -0.076147914
-0.09813443 0.088090144 -0.04618723 -0.077765934 -0.10611779 -0.04728577 0.05745592 0.008578613
-0.06695867 -0.07431877 -0.03016686 -0.09714104 -0.05762841 0.039697573 0.021493966 -0.006453351
-0.18830203 -0.009830837 0.08661602 0.09177776 -0.14206354 -0.12364452 0.01612972 -0.1099898
-0.094590805 -0.06595926 -0.069622986 0.08233635 -0.020931512 0.024603218 -0.048277266 -0.02279187
-0.027509008 -0.11311637 -0.0647034 -0.16576256 -0.07902991 -0.12832658 0.050688848 0.030732594
-0.014220869 0.0075414404 0.01662806 -0.05088191 -0.054774936 -0.0043144836 -0.09848214 0.15276952
-0.068079434 -0.05746415 -0.00080733217 -0.10103837 0.09245903 -0.046254728 0.04112707 -0.022702344
-0.07430993 -0.08834271 -0.0489585 0.02089637 -0.1056844 0.030070478 -0.033545237 -0.18333426
-0.07530756 -0.0687859 -0.103846215 -0.048178907 -0.041901506 -0.06488522 -0.0692296 -0.034930035
-0.15356505 -0.08183976 -0.04448343 0.019935833 -0.075833544 -0.026866376 -0.082033984 -0.016760249
-0.07309997 -0.07295819 -0.119384065 0.008350344 -0.07008208 -0.07939045 -0.008444949 0.009858358
-0.09203659 0.07278104 0.15137894 -0.021632146 -0.009256505 -0.110912286 -0.071066 0.008829825
-0.07518408 -0.052018754 -0.07353944 -0.109697424 -0.04764525 0.0005927646 0.09493883 0.045588702
-0.0011272395 -0.09084655 -0.011129583 -0.099172585 0.02093443 0.077692084 -0.08498657 -0.014910456
-0.044783667 -0.08890577 -0.107256524 -0.009228205 -0.11751733 -0.04997445 0.026751421 0.038272124
-0.06393876 -0.08860466 0.014830631 -0.08771347 -0.082147256 -0.15051158 -0.08201061 -0.005352579
-0.014368579 -0.07061158 0.001106509 0.039181933 -0.064651266 -0.03741866 -0.01054758 -0.036870603
00000000: 4e23 a23d 4f8b 233c d906 9e3c d5c2 50bd
00000010: 9c3e 8e3d dea9 2dbd cad1 6d3d 78af debd
00000020: 6431 efbd 1b31 02be 539c 13bd 249c 3b3b
00000030: e228 d1bd 2d57 ab3b cc3a cb3c 4f83 5f3d
00000040: e030 b1bc 95fe eabb 758b b03c e8cd 903c
00000050: b8e1 193c 271e 43bc 1200 8a3d b4df c0bd
00000060: 3bc6 96bc 6a98 e13b 01da 60bd e2a2 f9bd
00000070: 3245 143d 8f4d d0bd bb76 fd3c 166d ecbb
00000080: 4d2d a0bd f3c0 1abd a392 2cbd 7282 0fbd
00000090: c331 373d 2dec 00bd 754c b53c 1300 1e3e
000000a0: c421 fe3a 75a5 68bd 9d56 853d ad62 eebd
000000b0: e3d1 143e 5862 77bd b6b3 1c3d 6449 a5bd
000000c0: 7746 843d 61b0 6c3d 1e4d 19bd def9 8dbd
000000d0: 0867 1f3d c601 04bb 07bd 0c3d 616f 06be
000000e0: 66ab 493d c8c3 8dbd 690f d5bd 9f50 89bd
000000f0: 9b12 8c3c cbbd e5bc 504e 1dbd ec94 c1bb
00000100: 141a 96bd b4aa 503d 5b28 0a3d e853 bfbd
00000110: 206c 1a3d 5ba3 053d 34d9 ef3c d6ec ebbb
00000120: 2f09 693c d11f 2d3c adf4 65bc aa10 633d
00000130: f29e 59bd 3983 58bd 5e96 1d3d beae afbd
00000140: 19ee b33d 594c 843d 9c93 8bbd be96 54bc
00000150: f43b bd3d 68a6 623d 5c41 513d 77f7 133e
00000160: 729f 5c3b bccc 033d 1242 063d 40db 8c3c
00000170: e907 a5bd 5c8e a2bd 1a84 993d e899 073d
00000180: 00c0 4a3d b8e9 173c 459c 803d 0f04 c8bd
00000190: 7806 903c 637a d9bc d147 91bd 20ee 633c
000001a0: 1775 883d dba8 073d 31db 44bd 57e5 06bd
000001b0: f63a a43c b778 7cbd 6a6a 84bd 08b2 8abd
000001c0: b09e 9ebd acf6 df3c f5cb 3cbd 3326 d33b
000001d0: 53b6 433c b238 b93d cef6 a6bd 70f3 9bbd
000001e0: b4fa c8bd 9b68 b43d d22e 3dbd bf43 9fbd
000001f0: 4954 d9bd b9ae 41bd e656 6b3d 508d 0c3c
00000200: a121 89bd 7034 98bd 7e20 f7bc e2f1 c6bd
00000210: c50b 6cbd ec99 223d 1d14 b03c a276 d3bb
00000220: 3fd2 40be 8511 21bc bd63 b13d faf5 bb3d
00000230: 1b79 11be 5739 fdbd 7922 843c 5542 e1bd
00000240: d3b8 c1bd a615 87bd 7f96 8ebd f69f a83d
00000250: 9078 abbc b08c c93c 62be 45bd 04b6 babc
00000260: 925a e1bc 8ea9 e7bd 3783 84bd a9bd 29be
00000270: 6fda a1bd 0b68 03be 1c9f 4f3d ecc2 fb3c
00000280: a6fe 68bc 301e f73b 9237 883c 8d69 50bd
00000290: af5b 60bd 8360 8dbb 01b1 c9bd 9d6f 1c3e
000002a0: 3b6d 8bbd 875f 6bbd 25a3 53ba 34ed cebd
000002b0: 295b bd3d 9975 3dbd dc74 283d 44fa b9bc
000002c0: ce2f 98bd 06ed b4bd b588 48bd dd2e ab3c
000002d0: 1071 d8bd 5d56 f63c bb66 09bd fabb 3bbe
000002e0: da3a 9abd 9fdf 8cbd 53ad d4bd 3f57 45bd
000002f0: eaa0 2bbd 8be2 84bd 40c8 8dbd cc12 0fbd
00000300: 2840 1dbe 9b9b a7bd 4234 36bd 7950 a33c
00000310: 9e4e 9bbd e016 dcbc 6f01 a8bd ca4c 89bc
00000320: 70b5 95bd 1b6b 95bd a27f f4bd e2cf 083c
00000330: 3287 8fbd 7697 a2bd af5c 0abc f384 213c
00000340: ae7d bcbd 3a0e 953d 1503 1b3e e635 b1bc
00000350: 99a8 17bc fb25 e3bd 0d8b 91bd f8aa 103c
00000360: 1cfa 99bd 9e11 55bd d99b 96bd 0ba9 e0bd
00000370: aa27 43bd c263 1b3a 4a6f c23d 38bb 3a3d
00000380: e2bf 93ba c20d babd db58 36bc ff1a cbbd
00000390: af7e ab3c 071d 9f3d 700d aebd fc4a 74bc
000003a0: 146f 37bd 3a14 b6bd 4fa9 dbbd e631 17bc
000003b0: edac f0bd 02b2 4cbd cc25 db3c 3bc3 1c3d
000003c0: 53f2 82bd 5c76 b5bd 2dfc 723c 1fa3 b3bd
000003d0: d23c a8bd b51f 1abe 2ef5 a7bd b064 afbb
000003e0: 306a 6bbc ce9c 90bd 4808 913a 3c7d 203d
000003f0: e267 84bd 4f44 19bd c2cf 2cbc a105 17bd

lstm.weight_ih_l1 f4 [512, 128]
0.081879236 0.09056299 -0.011808308 0.06659375 0.06646161 0.012139627 -0.045708787 -0.031560015
-0.022221675 0.03263002 0.108959936 -0.09367335 -0.08797878 -0.06443818 0.09389592 -0.03147108
-0.084598966 0.04290913 0.021325383 -0.0054921014 -0.0612893 -0.07447629 -0.12364626 -0.107239865
0.06238644 0.09003722 -0.07765563 -0.0128954435 0.13852243 0.11805426 0.07498148 0.08219103
0.005230735 0.016433956 0.07912885 0.09169607 0.16884518 0.035251014 0.08407365 -0.053857844
0.0639653 -0.057911254 -0.00273101 -0.0069547384 0.20192203 -0.0037586025 0.05406123 0.05147774
0.078683496 0.039709467 -0.037191626 0.08836892 -0.01632873 -0.055151198 0.04334625 -0.027570294
-0.009507724 0.03925736 0.024696555 -0.013482202 0.04824505 0.04206882 -0.03619924 -0.05687706
0.07815411 -0.064607546 0.053985413 0.01922971 -0.05266506 0.102325514 -0.0665522 -0.0002091453
0.017838757 0.027015803 -0.015391758 0.021339966 0.048955593 0.016352657 -0.05653162 -0.08317188
-0.09515453 0.03158718 0.11959658 0.038871087 -0.049319282 -0.05105895 0.06509998 -0.026548024
0.030199425 0.001787194 0.042062722 -0.051416874 -0.040468175 -0.09417791 -0.09531632 0.06822878
-0.039774306 0.059412938 0.016987855 -0.07058824 0.09029305 -0.09769865 -0.01757937 -0.028546728
-0.11257099 -0.035926897 -0.060446408 -0.062210895 0.04273439 -0.0407913 0.0034392807 -0.036222663
0.01373718 0.03801106 0.06648795 0.08438296 0.036121726 0.09882591 -0.10264782 0.11645044
-0.07664237 0.06506007 -0.039759845 0.047246825 0.15027966 -0.08044102 0.073901534 0.08816924
-0.063127175 0.0923453 -0.028716855 0.043428104 -0.1014902 0.033894196 0.08312644 -0.041130897
-0.036016867 -0.06552665 0.09611245 -0.13680597 -0.0408432 0.0124102775 0.05248846 0.03440247
0.038843628 0.03209417 0.071910255 0.0034073887 0.0030917404 -0.023776358 -0.029555196 0.07810843
0.057519097 0.11218002 0.02140065 0.028457582 0.03202721 -0.025819 -0.114525296 0.00850316
-0.02359826 0.03141909 0.039426293 -0.02030904 0.034701165 0.049728923 -0.095972605 0.060550265
-0.068767965 -0.022225553 -0.078347914 0.074184924 0.09377847 0.018320572 -0.119645715 -0.005761194
-0.0797972 0.0358534 -0.023349378 -0.03406471 -0.033789773 -0.14726447 0.06378585 0.05424471
0.030136285 -0.075199515 0.03213615 0.07449398 -0.041259937 -0.0014970151 0.0007394803 0.024430957
0.04403379 0.0009462326 -0.08820915 0.011040872 -0.0084820045 -0.054311994 0.032612573 0.08283245
0.0979786 -0.056521717 0.09405608 0.009072855 -0.05085758 -0.0017941204 -0.026449243 -0.10791468
0.03246064 0.019268252 0.02966528 0.1356228 0.02333275 0.007138352 0.08382764 0.04307728
0.020201713 -0.065305546 -0.042703938 -0.03473569 0.053159848 -0.11469436 -0.045712758 -0.080091484
0.07719122 0.07590224 -0.014254641 -0.10281568 0.10203482 -0.019518292 -0.111386575 -0.023811858
-0.1017305 -0.043818388 -0.048862893 -0.026297793 -0.0013117873 0.03753598 0.037672974 -0.015217802
0.09614505 0.04721065 0.063365676 0.019409021 -0.07976949 0.004111819 0.04913625 -0.008772076
-0.10869725 -0.01114217 -0.030146236 -0.061027303 0.05466008 0.04999873 0.012344602 -0.03145075
00000000: 4db0 a73d 1779 b93d a277 41bc 4e62 883d
00000010: 061d 883d 49e5 463c 2339 3bbd 1345 01bd
00000020: 3b0a b6bc 0ea7 053d 6326 df3d d0d7 bfbd
00000030: 382e b4bd 2af8 83bd 814c c03d d2e7 00bd
00000040: 3942 adbd 7cc1 2f3d 92b2 ae3c 16f7 b3bb
00000050: 7d0a 7bbd 0687 98bd 403a fdbd 93a0 dbbd
00000060: ec88 7f3d 6f65 b83d ea09 9fbd 6947 53bc
00000070: d3d8 0d3e 6fc6 f13d e48f 993d c553 a83d
00000080: 9666 ab3b 81a0 863c 4e0e a23d 26cb bb3d
00000090: c0e5 2c3e 5e63 103d ce2e ac3d 0b9a 5cbd
000000a0: 3d00 833d 5a34 6dbd bffa 32bb 93e4 e3bb
000000b0: a6c4 4e3e e352 76bb 4f6f 5d3d 53da 523d
000000c0: d024 a13d 65a6 223d 3f56 18bd c4fa b43d
000000d0: d4c3 85bc 39e6 61bd d68b 313d 19db e1bc
000000e0: 49c6 1bbc 53cc 203d 6e50 ca3c 74e4 5cbc
000000f0: 9a9c 453d 5b50 2c3d a745 14bd ecf7 68bd
00000100: 430f a03d f650 84bd cf1f 5d3d a087 9d3c
00000110: 51b7 57bd 0a90 d13d 854c 88bd 044e 5bb9
00000120: 9622 923c 3f50 dd3c b62d 7cbc 27d1 ae3c
00000130: a985 483d 02f6 853c b38d 67bd 0556 aabd
00000140: 61e0 c2bd 8f61 013d 0def f43d 4a37 1f3d
00000150: 0403 4abd 3123 51bd 2353 853d 3e7b d9bc
00000160: c964 f73c 4840 ea3a f649 2c3d 809a 52bd
00000170: f5c1 25bd 59e0 c0bd 3435 c3bd 88bb 8b3d
00000180: 62ea 22bd fb5a 733d 1d2a 8b3c 9190 90bd
00000190: 90eb b83d 3b16 c8bd 9c02 90bc d4da e9bc
000001a0: 9f8b e6bd 1528 13bd a796 77bd dad0 7ebd
000001b0: 410a 2f3d c714 27bd 8e65 613b 375e 14bd
000001c0: e911 613c 7cb1 1b3d d62a 883d f9d0 ac3d
000001d0: 60f4 133d 3d65 ca3d 0539 d2bd 917d ee3d
000001e0: adf6 9cbd 373e 853d 38db 22bd e385 413d
000001f0: e9e2 193e 43be a4bd b059 973d 1392 b43d
00000200: d248 81bd 881f bd3d 9c3f ebbc abe1 313d
00000210: 18da cfbd a4d4 0a3d 323e aa3d df78 28bd
00000220: 6c86 13bd d632 86bd 9bd6 c43d dd16 0cbe
00000230: 334b 27bd 7a54 4b3c 24fe 563d 9be9 0c3d
00000240: 7f1a 1f3d 2d75 033d af45 933d 7f4e 5f3b
00000250: cc9e 4a3b a3c6 c2bc bd1d f2bc 50f7 9f3d
00000260: 2599 6b3d a3be e53d 6a50 af3c e01f e93c
00000270: f72e 033d 5e82 d3bc 3d8c eabd d750 0b3c
00000280: 2351 c1bc 4eb1 003d 777d 213d 255f a6bc
00000290: cf22 0e3d 8eb0 4b3d 498d c4bd 8e03 783d
000002a0: 38d6 8cbd 5d12 b6bc df74 a0bd 44ee 973d
000002b0: ed0e c03d 0615 963c d008 f5bd 66c8 bcbb
000002c0: b76c a3bd 04db 123d 3247 bfbc 7087 0bbd
000002d0: 2567 0abd 7fcc 16be 28a2 823d b32f 5e3d
000002e0: 5fe0 f63c 3402 9abd 32a1 033d 4d90 983d
000002f0: 2e00 29bd 7e37 c4ba afd9 413a 6e23 c83c
00000300: c65c 343d 980c 783a 00a7 b4bd c6e4 343c
00000310: 1bf8 0abc 4176 5ebd c394 053d 0fa4 a93d
00000320: 01a9 c83d 5183 67bd 79a0 c03d 50a6 143c
00000330: 0a50 50bd b128 ebba 15ac d8bc 5f02 ddbd
00000340: 73f5 043d 74d8 9d3c 9a04 f33c b4e0 0a3e
00000350: 5324 bf3c d6e8 e93b d3ad ab3d cd71 303d
00000360: 107e a53c eabe 85bd 53ea 2ebd 0347 0ebd
00000370: 24be 593d e0e4 eabd 4d3d 3bbd 0107 a4bd
00000380: 6e16 9e3d a272 9b3d 4c8c 69bc 0791 d2bd
00000390: a2f7 d03d d3e4 9fbc a51e e4bd 1611 c3bc
000003a0: 1558 d0bd e97a 33bd 7524 48bd 786e d7bc
000003b0: 47f0 abba 54bf 193d fa4e 1a3d 1654 79bc
000003c0: b2e7 c43d f45f 413d ddc5 813d abff 9e3c
000003d0: 305e a3bd 70bc 863b 1843 493d c1b8 0fbc
000003e0: aa9c debd a68d 36bc 3df5 f6bc c4f7 79bd
000003f0: 3fe3 5f3d 78cb 4c3d 0341 4a3c 80d2 00bd

lstm.weight_hh_l1 f4 [512, 128]
0.018379899 0.004713026 0.009703569 -0.06627718 0.04647467 -0.00097635656 -0.042431243 -0.0059467256
-0.02228316 0.038937133 0.06457319 0.13318293 0.059795793 0.029608114 0.004665147 -0.05583263
0.051458564 0.04931809 -0.085348345 -0.075990826 0.062478226 0.074700244 -0.048944477 -0.10057657
0.08701385 0.0021860034 0.07986859 -0.06291259 -0.000616438 -0.064283796 -0.052098013 -0.11220999
-0.03164618 -0.095447056 -0.019655688 0.06332518 0.047334816 0.083011 -0.050386246 0.031530797
-0.027375434 0.016466346 0.035231348 0.057889473 0.020392902 0.045607444 0.07480581 -0.06374456
-0.020313343 -0.04570969 -0.02812064 -0.05841808 -0.049693182 0.104108825 -0.019512968 0.022783482
-0.053653955 0.04300816 -0.027398465 -0.08340319 -0.0012152734 0.053250585 0.121853635 -0.039521866
0.097206324 0.044353135 -0.019405082 0.08031594 0.0733595 0.06584097 0.03152733 0.051496025
-0.05964441 0.09841663 0.08600478 -0.09886825 -0.053691417 0.030386493 -0.057737593 0.11290122
-0.006384326 -0.062026568 0.0873292 -0.017056067 -0.03526239 0.02407589 -0.07565622 -0.0812245
-0.10353315 -0.007995328 0.039864033 0.037570704 -0.075360954 -0.021092467 0.09325913 -0.02380489
-0.0011105865 -0.17064661 0.031427577 0.0017104113 0.07898282 0.057410337 -0.125678 0.106712386
-0.037549566 0.06965698 0.083847746 -0.084760405 -0.069052674 0.04289129 0.120112255 0.092307806
0.06775925 0.04366438 0.14249557 0.006167277 -0.026253669 0.07425541 0.03345877 -0.06735811
0.008112384 0.041010536 0.11350994 0.044906747 0.07058198 -0.024608241 -0.008312677 0.0046033813
-0.064819545 -0.06313586 0.096820846 -0.049861614 -0.00736134 0.037084468 -0.08743298 0.033060245
-0.056888666 -0.045857616 0.073757276 0.033878002 -0.06321087 -0.037896782 -0.08375464 -0.038594984
-0.056525156 0.0115279695 0.05656607 -0.0527723 -0.03964087 0.013830397 -0.10429603 -0.011625998
-0.040295605 0.10735986 0.004604971 -0.00010615982 0.013312003 -0.06641279 0.06360472 -0.15351179
-0.028738214 -0.038784135 -0.07740608 0.047752175 0.011472436 0.03310748 -0.04349467 -0.017820045
0.07295076 -0.020429218 -0.13074283 0.12641233 -0.026914135 -0.11584046 -0.0044733286 -0.067358695
0.05011555 -0.0010762656 0.119471446 -0.0017492117 -0.0073590693 -0.07574165 -0.015440701 -0.019296309
-0.02231627 0.060518537 0.030665008 0.00038237384 0.061228804 0.06965193 0.048681024 -0.08238663
0.048518017 -0.06274541 0.07285602 -0.036145493 -0.00646904 0.010880963 0.08964633 0.004813368
-0.09825377 -0.073397815 0.092092894 -0.12066925 -0.015720248 0.048131038 -0.06450627 -0.005592612
-0.059306808 0.04875399 0.08389161 0.076087214 0.032358374 0.08559428 -0.07091148 -0.012990526
-0.041423604 -0.08404122 -0.017071621 0.12351543 -0.0054434594 -0.036744844 -0.002730761 -0.11496167
-0.065075524 -0.10501738 -0.0346195 0.16493478 -0.005721676 0.060077213 -0.055525035 0.00769488
0.091028765 -0.12476939 0.003199047 -0.15678169 -0.11206528 -0.03794065 -0.00766234 -0.077844195
-0.12305022 0.09905385 -0.017832255 -0.029464917 -0.05757147 0.055903804 -0.08165096 0.068576336
-0.13955045 0.086258024 0.041837953 0.074983634 -0.013957685 0.055444017 0.017371561 -0.012790835
00000000: 7191 963c ba6f 9a3b b8fb 1e3c 55bc 87bd
00000010: 395c 3e3d 2ef2 7fba 62cc 2dbd c0dc c2bb
00000020: 2c8b b6bc 8b7c 1f3d f33e 843d 1b61 083e
00000030: 6fec 743d b78c f23c 17de 983b c1b0 64bd
00000040: 37c6 523d c401 4a3d 1dcb aebd 14a1 9bbd
00000050: 2be9 7f3d 71fc 983d 017a 48bd 17fb cdbd
00000060: 5134 b23d 0d43 0f3b 2592 a33d 51d8 80bd
00000070: 7498 21ba 39a7 83bd ba64 55bd 5ace e5bd
00000080: 6d9f 01bd bf79 c3bd f704 a1bc a2b0 813d
00000090: 27e2 413d ac01 aa3d cf61 4ebd 7026 013d
000000a0: 7242 e0bc 6ee4 863c bf4e 103d 831d 6d3d
000000b0: 040f a73c dfce 3a3d ca33 993d 828c 82bd
000000c0: 2b68 a6bc 153a 3bbd 425d e6bc cc47 6fbd
000000d0: 148b 4bbd 0237 d53d a9d9 9fbc 6da4 ba3c
000000e0: 40c4 5bbd 5329 303d bf72 e0bc 4bcf aabd
000000f0: cf49 9fba 491d 5a3d 668e f93d aee1 21bd
00000100: 1c14 c73d a2ab 353d 68f7 9ebc af7c a43d
00000110: 813d 963d a1d7 863d cd22 013d 7fed 523d
00000120: b24d 74bd a88e c93d 4623 b03d 707b cabd
00000130: 88eb 5bbd 18ed f83c 417e 6cbd c138 e73d
00000140: 9c33 d1bb 920f 7ebd a7d9 b23d 2ab9 8bbc
00000150: 4c6f 10bd cd3a c53c a6f1 9abd 0859 a6bd
00000160: 3009 d4bd d6fe 02bc 7848 233d bde3 193d
00000170: d856 9abd 1cca acbc a5fe be3d 7902 c3bc
00000180: 1991 91ba fcbd 2ebe 34ba 003d e12f e03a
00000190: bfc1 a13d 1a27 6b3d bcb1 00be 068c da3d
000001a0: 93cd 19bd 52a8 8e3d 5eb8 ab3d dd96 adbd
000001b0: 7d6b 8dbd c7ae 2f3d 6afd f53d e00b bd3d
000001c0: 5dc5 8a3d 6cd9 323d 5cea 113e df16 ca3b
000001d0: ef11 d7bc 3813 983d 100c 093d 0cf3 89bd
000001e0: cee9 043c aafa 273d e677 e83d 23f0 373d
000001f0: 498d 903d 3997 c9bc e531 08bc f6d7 963b
00000200: 1cc0 84bd 604d 81bd 024a c63d b13b 4cbd
00000210: 6537 f1bb e2e5 173d 1010 b3bd 2e6a 073d
00000220: 1704 69bd 32d5 3bbd 0e0e 973d a9c3 0a3d
00000230: b374 81bd a839 1bbd 8d87 abbd c615 1ebd
00000240: ec86 67bd cfdf 3c3c d3b1 673d c427 58bd
00000250: 775e 22bd e498 623c 2899 d5bd f87a 3ebc
00000260: 010d 25bd 7cdf db3d 4ce5 963b 1fa2 deb8
00000270: 961a 5a3c 6e03 88bd 3143 823d 3232 1dbe
00000280: 676c ebbc 1ddc 1ebd 1487 9ebd c997 433d
00000290: e2f6 3b3c b59b 073d 7827 32bd 58fb 91bc
000002a0: 3567 953d 2d5b a7bc 73e1 05be 3c72 013e
000002b0: 087b dcbc c33d edbd 0095 92bb 5bf3 89bd
000002c0: f745 4d3d 7b11 8dba 72ad f43d ce45 e5ba
000002d0: 5924 f1bb 701e 9bbd fefa 7cbc 4b13 9ebc
000002e0: 9cd0 b6bc 49e2 773d 2f35 fb3c 5979 c839
000002f0: 0ecb 7a3d aca5 8e3d c165 473d 52ba a8bd
00000300: d4ba 463d aa80 80bd 8935 953d 4c0d 14bd
00000310: 3efa d3bb 1146 323c 7f98 b73d 75b9 9d3b
00000320: 4639 c9bd 9851 96bd 339b bc3d 7121 f7bd
00000330: c0c7 80bc 0d25 453d dd1b 84bd 3b42 b7bb
00000340: b2eb 72bd 44b2 473d 5dcf ab3d 9dd3 9b3d
00000350: 378a 043d 0e4c af3d 0a3a 91bd 37d6 54bc
00000360: ccab 29bd ce1d acbd c9d9 8bbc a8f5 fc3d
00000370: 0c5f b2bb c381 16bd 91f6 32bb 0671 ebbd
00000380: 5146 85bd 5a13 d7bd 2dcd 0dbd aae4 283e
00000390: e67c bbbb 8613 763d 386e 63bd 5525 fc3b
000003a0: 4a6d ba3d 1887 ffbd 1aa7 513b 618b 20be
000003b0: 7b82 e5bd a867 1bbd 5e14 fbbb c76c 9fbd
000003c0: c101 fcbd bfdc ca3d f314 92bc 6960 f1bc
000003d0: 10d0 6bbd 63fb 643d 9e38 a7bd c071 8c3d
000003e0: 50e6 0ebe 0ca8 b03d 465e 2b3d 0591 993d
000003f0: c6ae 64bc 4419 633d ce4e 8e3c a790 51bc

lstm.bias_ih_l1 f4 [512]
-0.02997342 -0.09887981 0.020206373 -0.04621679 -0.03470722 -0.1344333 -0.061655086 0.02962544
-0.0745596 -0.021398941 -0.0045152996 -0.034754734 -0.03253681 -0.09288484 -0.018731706 -0.10390035
-0.042119354 -0.0014822098 0.0017064876 -0.059659965 0.0024226354 -0.038899355 0.0012460987 -0.047233112
-0.02459313 -0.11673658 -0.06544236 0.040176056 0.0075955093 -0.023768447 0.059806492 0.025497178
0.03030743 -0.084144175 0.0027778484 0.06651877 -0.007484965 -0.02548056 -0.04951058 0.049449816
-0.007711212 -0.06975819 0.07525135 -0.011821896 0.0131273875 0.02906266 -0.09958809 0.07583202
0.0167595 -0.07874481 -0.06406025 0.06124518 -0.017828777 -0.079854466 0.020117281 -0.09934407
5.7002217e-05 0.018884197 0.02028482 -0.0020456563 0.08792426 -0.11496763 0.01815921 0.034571502
-0.099345505 0.025475034 -0.05119498 -0.06971875 -0.00759672 -0.07385886 -0.056078654 -0.094410315
-0.14168729 0.022567868 -0.095743656 -0.007206926 0.02296044 -0.014667611 0.020795664 -0.033138193
-0.09538876 0.010829063 0.007842055 0.022183103 -0.104905985 -0.06707292 -0.052247733 -0.0967224
-0.029585406 -0.0008230036 -0.0308317 -0.05265249 -0.069550075 -0.042177882 0.06429105 -0.0370306
0.00076059136 -0.108899735 -0.032598354 -0.12647077 -0.1768959 -0.092528895 0.052206688 -0.08368222
-0.04582211 -0.01869335 -0.099588044 0.04569073 0.054473735 -0.0483236 -0.09335902 0.029768126
-0.04146912 -0.02513285 0.014133382 0.021390308 -0.015013355 0.017526453 -0.08419108 0.0035093348
0.0036055038 -0.029825665 -0.03506174 -0.08392191 -0.056665365 0.024735343 0.007973216 -0.038368084
0.013955748 -0.106014915 -0.05335869 -0.044487264 0.06941197 -0.029522087 0.0003595128 -0.13352568
-0.020209258 0.05799967 -0.012367353 -0.082956396 0.016641537 -0.084043935 -0.032623723 -0.06557969
-0.10237342 -0.031027427 -0.054597452 -0.11171872 -0.059479114 -0.10061985 0.047195107 -0.10417296
-0.0026053817 -0.04972085 0.04121623 -0.06736709 -0.084490605 -0.04651087 0.11382303 -0.0045717866
0.037992645 -0.019460663 -0.03071993 0.01789663 -0.04464448 0.04119415 -0.14348988 -0.062031385
-0.010239842 0.016180346 -0.10187028 -0.021051025 0.086366184 -0.056618866 -0.0033625038 -0.078427345
-0.039544504 -0.071689785 -0.05530443 -0.11573601 -0.07655049 0.00246497 0.01451868 -0.053722
0.049537063 0.030507594 -0.01703197 0.025510726 -0.04319989 -0.12017796 -0.023264294 0.08669158
-0.063178085 -0.022204999 -0.08011673 -0.0068617687 -0.12748645 -0.0385513 -0.053555563 -0.1642734
-0.0907928 -0.036007725 -0.085595235 0.039971225 -0.0905289 -0.04576491 -0.107651286 -0.092144966
-0.040193446 0.061528098 0.07205147 -0.05887218 -0.124805234 -0.13094425 -0.037540507 0.025239361
-0.07083652 0.017531166 -0.061250392 0.06472843 -0.1325661 -0.009232749 -0.07787678 0.059424665
-0.108298495 -0.002839513 -0.11214534 0.004202913 0.013579666 -0.039809976 -0.027377216 -0.08304707
-0.12393389 -0.16595049 -0.09478112 0.040134795 0.024696596 0.040554393 0.03794043 0.032246754
0.06161329 -0.10285284 -0.044023894 -0.022247927 -0.0027483325 0.006186167 -0.039205957 -0.10211849
-0.07750877 -0.057033997 -0.08707226 0.014431635 -0.05113914 -0.04987873 -0.14475027 -0.12869918
00000000: d18a f5bc 7f81 cabd d687 a53c d14d 3dbd
00000010: 2829 0ebd e2a8 09be 0b8a 7cbd 0db1 f23c
00000020: b4b2 98bd d54c afbc 14f5 93bb fb5a 0ebd
00000030: 5145 05bd 683a bebd 3c73 99bc b5c9 d4bd
00000040: 5885 2cbd b546 c2ba 39ac df3a 025e 74bd
00000050: 14c5 1e3b ee54 1fbd 2254 a33a 8277 41bd
00000060: 8877 c9bc 9713 efbd a506 86bd a68f 243d
00000070: c0e3 f83b 0cb6 c2bc a7f7 743d 75df d03c
00000080: 4a47 f83c c853 acbd 900c 363b fe3a 883d
00000090: 7044 f5bb 9bbc d0bc 9bcb 4abd e48b 4a3d
000000a0: 56ae fcbb 62dd 8ebd 611d 9a3d a0b0 41bc
000000b0: 4114 573c d114 ee3c d7f4 cbbd d14d 9b3d
000000c0: 384b 893c f544 a1bd 0532 83bd 3adc 7a3d
000000d0: a80d 92bc bd8a a3bd ffcc a43c e774 cbbd
000000e0: aa15 6f38 08b3 9a3c 5a2c a63c 6b10 06bb
000000f0: a211 b43d 2674 ebbd a0c2 943c d99a 0d3d
00000100: a875 cbbd 05b1 d03c d4b1 51bd b4c8 8ebd
00000110: e8ed f8bb 5043 97bd bbb2 65bd 325a c1bd
00000120: 7916 11be 40e0 b83c 4015 c4bd 1428 ecbb
00000130: 8817 bc3c 6b50 70bc ab5b aa3c eabb 07bd
00000140: 2f5b c3bd 626c 313c f67b 003c 57b9 b53c
00000150: f3d8 d6bd 875d 89bd b801 56bd 6516 c6bd
00000160: 185d f2bc d6be 57ba c392 fcbc 23aa 57bd
00000170: 4570 8ebd b7c2 2cbd 07ab 833d 66ad 17bd
00000180: 6c62 473a d306 dfbd da85 05bd 8e81 01be
00000190: 3324 35be ca7f bdbd aed6 553d 9561 abbd
000001a0: f7af 3bbd cc22 99bc d1f4 cbbd 3426 3b3d
000001b0: da1f 5f3d f8ee 45bd 0433 bfbd 49dc f33c
000001c0: 86db 29bd 68e3 cdbc b38f 673c ba3a af3c
000001d0: 93fa 75bc a393 8f3c 5f6c acbd defc 653b
000001e0: 514a 6c3b f454 f4bc e69c 0fbd 40df abbd
000001f0: f119 68bd c6a1 ca3c 17a2 023c da27 1dbd
00000200: a6a6 643c 591e d9bd a48e 5abd 4738 36bd
00000210: dd27 8e3d 4ed8 f1bc fe7c bc39 f5ba 08be
00000220: e38d a5bc 1091 6d3d 70a0 4abc 0be5 a9bd
00000230: d553 883c 3a1f acbd 74a0 05bd a54e 86bd
00000240: 28a9 d1bd 3b2d febc 94a1 5fbd c9cc e4bd
00000250: 5fa0 73bd c811 cebd a84f 413d a258 d5bd
00000260: 0dbf 2abb 17a8 4bbd 59d2 283d c2f7 89bd
00000270: 6909 adbd 2f82 3ebd 0c1c e93d edce 95bb
00000280: 2d9e 1b3d f86b 9fbc 5da8 fbbc f49b 923c
00000290: 21dd 36bd 32bb 283d 03ef 12be 9f14 7ebd
000002a0: 03c5 27bc a58c 843c 5ea1 d0bd 3373 acbc
000002b0: c1e0 b03d 2fe9 67bd 745d 5cbb 849e a0bd
000002c0: 6bf9 21bd 18d2 92bd e686 62bd 0007 edbd
000002d0: 81c6 9cbd 568b 213b c2df 6d3c 9a0b 5cbd
000002e0: 60e7 4a3d 10eb f93c a186 8bbc dffb d03c
000002f0: 5ef2 30bd dd1f f6bd c394 bebc 5b8b b13d
00000300: 8363 81bd 42e7 b5bc 3d14 a4bd b0d8 e0bb
00000310: cf8b 02be f8e7 1dbd 145d 5bbd 4937 28be
00000320: 93f1 b9bd d67c 13bd 8e4c afbd deb8 233d
00000330: 3767 b9bd fc73 3bbd 4778 dcbd 80b6 bcbd
00000340: e2a1 24bd e304 7c3d b98f 933d f423 71bd
00000350: e399 ffbd 4016 06be 13c4 19bd c7c2 ce3c
00000360: bd12 91bd 859d 8f3c b1e1 7abd 5790 843d
00000370: 68bf 07be f544 17bc dc7d 9fbd 4767 733d
00000380: 9acb ddbd 1f17 3abb 75ac e5bd 97b8 893b
00000390: 3f7d 5e3c c90f 23bd 2f46 e0bc 9514 aabd
000003a0: 0dd1 fdbd edee 29be 9b1c c2bd 6264 243d
000003b0: 8450 ca3c 5d1c 263d 6d67 1b3d 2c15 043d
000003c0: 385e 7c3d 83a4 d2bd 6652 34bd 4941 b6bc
000003d0: 5e1d 34bb 54b5 ca3b 6d96 20bd 8023 d1bd
000003e0: ebbc 9ebd 7b9c 69bd f152 b2bd aa72 6c3c
000003f0: 4677 51bd a44d 4cbd 6a39 14be b8c9 03be
