models/modello_24_6_v1.pth (torch, 843624 bytes, 10 tensors)

lstm.weight_ih_l0 f4 [512, 10]
000000 d6 3d 83 3c b6 e4 cd 3d aa da 1c 3e fa fb 00 3c
       0.016020697 0.10053389 0.15317789 0.007872576
000010 8a 95 c5 3d 23 8a 8d 3d ec e0 09 3e 7f 17 02 bc
       0.09647663 0.06911113 0.13464707 -0.007940172
000020 b4 6a fe 3b b5 df 56 3d d4 45 ff 3d 26 05 21 3e
       0.007764185 0.052459437 0.124644905 0.1572462
000030 cc fa f9 3d 98 74 87 3d 3a 23 c7 3c 89 32 37 3e
       0.12206039 0.06614035 0.02430879 0.17890371
000040 2d 29 02 bc 8a 44 e2 3d c8 2f f0 3c 13 4e cf 3d
       -0.007944387 0.11048229 0.029319659 0.10122313
000050 02 92 a6 3e 8a 8e 6e be ca a5 66 3e 4c 61 a3 bd
       0.3253327 -0.23296562 0.22524181 -0.07977542
000060 40 33 19 3a 5e 7e f7 3c 56 c2 94 bd 75 a4 ab 3d
       0.00058441237 0.030211624 -0.07263629 0.08380977
000070 20 8d a1 3d c7 e9 a0 bc f4 7e 9d 3d 29 1f f9 3d
       0.078882456 -0.019642724 0.0769023 0.121641465
000080 58 80 ec bc 1d de c5 3d 8e ab 40 3c 6c 83 81 3d
       -0.028869793 0.09661505 0.011759652 0.06323895
000090 33 8c bd bd 62 ee ae bd fa 2e 4f bd 7e 14 b5 3d
       -0.092552565 -0.08541562 -0.05058191 0.08841799
0000a0 c2 6e 3d 3e 54 4f ea 3d 16 ca 82 3e 98 76 6d 3d
       0.18499282 0.11440912 0.25544804 0.057974428
0000b0 20 6a bc 3c b9 3c 87 3d fb be d6 3d a8 45 d3 3d
       0.022999823 0.06603379 0.104856454 0.1031602
0000c0 b4 29 e2 3c 98 b5 40 3d 53 2c 1b 3e 82 5e 17 3e
       0.027607776 0.04704818 0.15153627 0.14782146
0000d0 89 ac 80 3d f7 23 1d 3d 21 59 fc bc a9 5a 02 3e
       0.062829085 0.038364377 -0.030804219 0.12729897
0000e0 9d ed cd 3c 7b e3 93 3d 0f ac 19 bd 65 ad f8 bd
       0.025137717 0.07221123 -0.037517603 -0.121424474
0000f0 ff 31 d3 3d 5e d4 3b bd 5e af ee 3d bd 22 d6 bd
       0.103122704 -0.045856826 0.116545424 -0.104558446
000100 d0 51 3a 3d b2 45 2d 3e 8c 90 57 3d cd e5 fa 3c
       0.04548818 0.16921118 0.052628085 0.030627156
000110 c4 e0 5b 3d 85 8a b5 3c 86 e0 92 3e 38 e5 84 3d
       0.05368115 0.022160778 0.28686923 0.064890325
000120 4d ae e5 3e 81 4e e3 3e 75 86 3f bc a6 e7 f9 3c
       0.44859543 0.4439583 -0.011689772 0.030505966
000130 5a 10 97 bd 4e 10 26 3d ac 54 a8 bc ee 17 d1 3d
       -0.07376166 0.040542893 -0.020548187 0.10209642
000140 1a 8a 3b 3d 34 70 02 3e bc 6d 8b bc 84 5f 0b 3e
       0.045786 0.12738115 -0.017020099 0.13610655
000150 9e b6 4e bd c4 c5 ad 3b dc b0 79 3d ba fe 05 3e
       -0.050467126 0.0053031165 0.060959682 0.13085452
000160 a5 95 03 3e 2e fc 1d bc dd 66 2b 3e 7b d6 71 bc
       0.12850054 -0.009642644 0.16738458 -0.014760609
000170 6e dc e7 bc 9a f3 97 3d 83 59 bc 3d c4 42 90 3d
       -0.028303351 0.0741951 0.091967605 0.070439845
000180 49 48 82 3d 40 90 fe bc 89 62 42 bd 25 84 30 3c
       0.063614435 -0.031074643 -0.04745725 0.010773693
000190 39 50 07 3d e0 82 8a bb f3 58 21 bd 20 41 b2 bd
       0.03303549 -0.0042270273 -0.03939147 -0.08703828
0001a0 00 a2 f6 3d 79 43 47 3e 1c db 06 3e eb e0 4c 3d
       0.12042618 0.19459333 0.13169521 0.050019186
0001b0 32 76 a6 3d ea 76 05 3e 32 eb e1 bd d6 0f 42 3d
       0.08128013 0.13033643 -0.11031188 0.047378384
0001c0 71 51 6d 3d 76 12 13 bd 08 13 0c 3d 52 7c 88 3d
       0.057938997 -0.035906278 0.034197837 0.06664337
0001d0 43 a9 12 3c c5 8c 2e 3e 42 72 e8 bc e9 e2 78 bd
       0.008951488 0.17045887 -0.028374795 -0.060763273
0001e0 61 bc 8e 3d c0 6a 1e 3e 94 da 67 3e 51 24 82 3d
       0.06969524 0.1547041 0.22641975 0.06354583
0001f0 20 eb 18 3d fc f9 c4 3d 3c 2d 6c 3d fd 1b 73 bd
       0.037333608 0.09617993 0.057660326 -0.059352864
000200 a2 3b ff 3c 1e ed f2 bb dd 2b 1b 3e 7d c1 85 3d
       0.031156365 -0.0074135205 0.15153451 0.065310456
000210 8a 14 61 3b a5 a0 d1 3d 3c 89 87 3d 42 89 88 3d
       0.0034344518 0.10235719 0.06617972 0.06666805
000220 67 05 9f 3c 8d 74 7c 3d cc dc 8c bb dc 3a 34 3c
       0.019411756 0.06163459 -0.004298782 0.011000361
000230 ce 24 68 3d 57 61 14 3e 12 aa 00 3e 43 47 15 3e
       0.056675725 0.14490257 0.12564877 0.14577965
000240 81 cc 47 3d e7 5a d1 3c d7 8e 93 bb db 67 3b 3c
       0.048779014 0.02555604 -0.004503112 0.011438335
000250 ef db 00 3d f9 99 b0 bd 7e dd 37 3e 55 4f da 3c
       0.031459745 -0.08623118 0.17955586 0.026649157
000260 c3 ce 02 3f 62 bb 95 3e b2 28 a0 3c 70 bc 0c 3e
       0.51096743 0.29244524 0.019550655 0.13743758
000270 b8 48 58 bd 16 a5 09 3d c0 71 f5 bc 92 84 0d bd
       -0.052803725 0.033604704 -0.029961467 -0.034550257
000280 5f 33 3b 3e 37 59 9d bd 4a 23 f8 3d 5d 11 22 3d
       0.18281315 -0.07683032 0.12116106 0.03956734
000290 94 f5 ae 3d 27 a5 1b 3e 53 91 92 3d 91 f7 0a 3e
       0.08542934 0.1519972 0.07156625 0.13571002
0002a0 26 a0 ef 3d 07 e7 e7 bd b3 06 45 be a4 bf 49 bd
       0.11700468 -0.11323362 -0.19240837 -0.04925503
0002b0 7f 7a fc bc 27 c5 d7 bc a0 2d ac bd 29 cd 76 3d
       -0.03082013 -0.026339127 -0.0840714 0.06025425
0002c0 a4 42 39 bc 88 86 50 3d 82 4f 8d 3d e3 24 6d bc
       -0.011307392 0.05090955 0.068999305 -0.0144741265
0002d0 ba 26 e6 3c 69 53 96 bd a7 e6 44 3e 3c 58 37 bd
       0.028094638 -0.07340128 0.19228612 -0.04476188
0002e0 7f 5e 1d be 3c a9 50 bd 6b 9a 09 be ca b2 1e bd
       -0.15368079 -0.050942644 -0.13437812 -0.038744725
0002f0 ed 5b c5 bd 6b 96 92 3d f9 6a 91 3e a4 4a 80 3e
       -0.09636674 0.07157596 0.28401926 0.25056946
000300 68 4e a8 3e cb 94 98 3e 1e 1a 48 bc d6 e7 88 3d
       0.3287232 0.2980102 -0.012213258 0.06684844
000310 72 70 92 bd e0 73 e1 bc 74 29 86 3d 33 05 a6 bd
       -0.071503535 -0.027521074 0.06550875 -0.081064604
000320 d8 a7 be be fd d6 5a bd a6 7c 60 bd 0d bb 0b 3e
       -0.3723743 -0.053427685 -0.054806374 0.13645573
000330 ea 37 60 bc ea cc b1 bc ca d1 1d 3c 23 80 63 bc
       -0.013685206 -0.021704156 0.009632537 -0.013885531
000340 ea d7 b2 3a 14 fb 0d 3e ff cb e3 3d 06 11 91 3e
       0.001364467 0.1386531 0.111228935 0.283333
000350 57 bf 54 3e 97 94 e7 3d 62 2c ae 3d 7f 21 c8 3d
       0.20776115 0.11307638 0.08504559 0.09772014
000360 73 32 b0 3d 85 0b fa 3d 59 8d 6e bd c8 46 23 3d
       0.086033724 0.122092284 -0.05824027 0.039862424
000370 08 48 95 3d d8 6a 86 3e 8a 6a f8 3e 32 4e ea 3e
       0.072891295 0.2625339 0.48518783 0.45762783
000380 64 b3 22 3e 3a 4d 19 be 45 ea 30 be 33 29 4b bd
       0.15888745 -0.14970866 -0.17276867 -0.049599838
000390 da be d6 bd b0 c5 f8 3c 00 89 08 3e d5 0a b9 3c
       -0.10485621 0.030367702 0.13333511 0.022588173
0003a0 b9 a5 66 3e aa bb 0a 3e 1c 82 cf bd c9 42 03 3b
       0.22524156 0.1354815 -0.10132238 0.002002882
0003b0 7e 83 82 bd 65 e1 c0 bc 86 73 b9 3d a8 af d7 bd
       -0.063727364 -0.023544976 0.090552375 -0.10531551
0003c0 7a 63 15 3e 06 12 b0 bd eb 72 80 3c 08 ae 25 3e
       0.14588729 -0.08597188 0.015679797 0.16179669
0003d0 1f 5d 0a 3d 7e 70 0d 3e fe 8a 4f bb bd 97 73 bb
       0.033780213 0.13812444 -0.003166854 -0.00371693
0003e0 b9 6a 7b bd a2 3a 80 bc e3 ac 4b 3e 8a e7 10 3e
       -0.061381076 -0.015652958 0.1989017 0.14150825
0003f0 0f 34 7b 3d 4d 8b e3 bc 88 0a d8 bd 5f 69 35 3e
       0.061328944 -0.027776385 -0.10548884 0.17715977

lstm.weight_hh_l0 f4 [512, 128]
000000 99 c5 4d bc 3f 4f 9b 3c 1b 1f 4d bd 20 27 d1 bb
       -0.012559318 0.018958686 -0.050078493 -0.006382838
000010 c7 8e 8f bd f1 dc d3 3d 37 07 a9 3d 7f f3 cf 3a
       -0.070096545 0.103448756 0.08253329 0.0015865414
000020 20 56 4a 3c 90 c0 68 3d 4d 43 8b 3c 63 50 31 bc
       0.012349635 0.056824267 0.016999865 -0.010822388
000030 8a 1a ea bc 1b 60 05 3d 3c 6d 05 3d 38 7e 05 bd
       -0.028577108 0.032562356 0.032574877 -0.032591075
000040 ee 13 50 bd d5 a1 2c bc 4d f4 87 bb f9 fb 49 bc
       -0.050800256 -0.010536631 -0.004148996 -0.012328141
000050 cb b6 2b 3d ae 18 33 3d a1 6f 3d be 5a 22 9f bc
       0.04192237 0.04372471 -0.18499614 -0.01942556
000060 7a fb 78 bd 96 23 1f bd 1f 22 66 3d f0 bc 8d bd
       -0.0607867 -0.038852297 0.056184884 -0.069208026
000070 68 64 5a bd 37 ed 64 bd e2 31 46 3d ad 7a e9 bd
       -0.05331841 -0.05589029 0.048387416 -0.11400352
000080 ef d1 4b bd a7 d9 8d bc f1 90 6a bd 7d 4d 9a 3d
       -0.049760755 -0.017315699 -0.057267133 0.07534311
000090 de e0 74 3d 9a f4 42 3c be 40 c4 bc 28 6a 0f 3c
       0.059784763 0.011899138 -0.023956653 0.008753337
0000a0 a4 fc e9 bd ea d3 2a bd 15 ae 28 bd c2 e4 9f 3d
       -0.114251405 -0.041706003 -0.041181643 0.07807304
0000b0 17 5f 50 3d 5c 19 da 3c e0 cb a7 3d 19 ac 80 3d
       0.050871935 0.02662342 0.08193183 0.06282825
0000c0 9f 83 89 3c bb be 53 bd 21 41 be bd 97 21 bc bc
       0.016786395 -0.051695567 -0.09289766 -0.022965236
0000d0 18 18 9c bd 12 50 78 3d 28 21 cc bb 9e b5 b2 3d
       -0.07621783 0.060623236 -0.0062295385 0.08726047
0000e0 9e ab a0 bd 7e 21 b7 bd 54 84 21 3e d7 c9 8b 3c
       -0.078452334 -0.08941935 0.15773135 0.017064018
0000f0 0e 8f 2e bd 5e 99 b4 bd 33 ca c6 bd 1e 40 b7 3c
       -0.042616896 -0.08818315 -0.09706535 0.02236944
000100 58 7e a2 3d 81 15 ad ba ca 5f 99 3d 88 4b 82 3d
       0.079342544 -0.0013205261 0.074889734 0.06362063
000110 c6 42 0a ba bc 22 3a 3d 7e ee fd bd 17 0f 9f 3d
       -0.0005274232 0.04544328 -0.123990044 0.0776655
000120 2f 8e 51 bd 2e 9f 4b bc 55 c9 02 be 22 1a 5b be
       -0.051160987 -0.012428088 -0.12772115 -0.21396688
000130 20 c2 aa 3a f9 0b 6e 3c db 56 9b 3c 98 26 08 be
       0.0013027824 0.014529222 0.018962314 -0.13295972
000140 68 2b 9a bd 17 c9 f8 bc 55 10 04 3e e9 ab 38 3d
       -0.0752781 -0.030369325 0.12896855 0.04508582
000150 cd 1f 21 bd 7d c0 fd bd 24 52 10 3d 92 ec 0a 3d
       -0.03933697 -0.1239023 0.035234585 0.033917017
000160 b4 73 35 bd b4 50 11 bd f8 6c 3e bd a7 dd 61 bd
       -0.044299796 -0.035477355 -0.04649064 -0.055143025
000170 f7 e6 ad 3d 53 d9 25 3d 00 65 0c 3d 34 c3 89 3d
       0.08491319 0.04049046 0.03427601 0.06726685
000180 37 5f f5 3c 0a 37 8e bd 97 01 53 3e fd 23 ca bc
       0.029952629 -0.069440916 0.20606075 -0.024675364
000190 c4 24 e8 3c ee 67 ee 3b 87 85 61 bd ce 98 a3 3d
       0.028337844 0.007275573 -0.055058982 0.079881296
0001a0 5b 27 02 bd 29 31 ed bc d0 05 5b bd 27 d6 98 3d
       -0.031775814 -0.028954105 -0.05347234 0.07462721
0001b0 71 fd 1e bd 63 dd 88 bd c1 69 ea 3d 92 69 d8 3d
       -0.03881592 -0.06682851 0.11445952 0.10567011
0001c0 33 5c 86 bd a8 d0 05 bd cf 09 9a 3c 5f 88 27 bd
       -0.06560554 -0.032669693 0.018803505 -0.040901538
0001d0 38 98 a8 bd e4 1e 6d bd 05 d7 a5 3d b5 44 4f 3d
       -0.082321584 -0.057890788 0.08097652 0.050602634
0001e0 71 25 de 3c 9d 6b d1 bd 3c c7 7f 3d 58 d8 73 3d
       0.027117463 -0.10225604 0.062445864 0.059532493
0001f0 73 4e b5 3d 79 9d 99 3b 51 be 2b 3d e4 9b 0a be
       0.088528536 0.0046879617 0.041929547 -0.1353603
000200 b6 4c 00 3e dc cc 49 3d cb c5 8a 3d 46 1a 8e bd
       0.12529263 0.049267635 0.06776007 -0.06938605
000210 6f 0e 06 3e 8a ba 62 3d 9c 73 86 3c a8 93 41 3c
       0.13091443 0.05535368 0.016412549 0.011814989
000220 25 b9 ea bd 3f c4 cf 3d 26 6e 32 3d e6 69 b7 3d
       -0.11461095 0.10144853 0.043562077 0.089557454
000230 94 9d 1a bd c6 fb a6 3d ca 66 10 bd 54 b5 c8 3b
       -0.037747934 0.08153491 -0.035254277 0.0061251316
000240 a9 37 4f bd 44 01 80 bd 50 31 3e bd 80 1d 95 bd
       -0.05059019 -0.062502414 -0.046433747 -0.07281017
000250 57 cf 5e 3d 5f 4d 0a 3e 28 d7 48 be 3d 91 8c 3d
       0.054396953 0.13506077 -0.19613326 0.068636395
000260 c6 a8 ad bd c8 5d 89 3c f6 df 55 3c ab cf 8e 3d
       -0.084794566 0.016768351 0.013053885 0.06973203
000270 8b 15 38 bc 28 36 98 3d 58 8a a6 bd fa b2 01 be
       -0.011235605 0.074322045 -0.08131856 -0.1266593
000280 48 c1 0e 3d bd 40 b9 3d bb c0 0d bd 9b 8b a4 3d
       0.034852296 0.09045551 -0.03460763 0.0803444
000290 53 f8 8c 3d 7b 53 99 3d 3f a8 21 bd ba 89 7f bc
       0.068833016 0.07486626 -0.039467093 -0.015596801
0002a0 a4 4b 93 bd 6b 3f 8d 3d da 8a f0 3d f9 7f fd 3d
       -0.07192162 0.06896862 0.11745234 0.123779245
0002b0 b2 fe c5 3c 24 93 cc 3c 7d d2 11 bd a0 0a 90 3c
       0.0241693 0.024972506 -0.035601128 0.017583191
0002c0 9e 3f ae 3d ac 15 de 3d a1 49 43 3b 4f 68 5c 3c
       0.08508228 0.10843977 0.0029798525 0.0134526035
0002d0 2f 3a 89 bc f2 ea ab bd b7 67 24 bd 4a 06 03 3e
       -0.016751377 -0.08394422 -0.040137973 0.12795368
0002e0 05 ee 7b bc 44 30 4a 3d d6 ee 0f 3e 42 ca e3 bb
       -0.0153765725 0.049362436 0.14055952 -0.0069516012
0002f0 1c eb 38 bd 30 b4 87 3d 7a 02 37 3c ee bb 21 3d
       -0.045146093 0.06626165 0.011170024 0.039485864
000300 d5 3c ce 3d df 51 9b 3c e4 2f 8c 3c da 4c ae 3d
       0.100701965 0.018959938 0.01711268 0.08510752
000310 a8 10 53 bd 46 6b 3b bc 42 47 29 be 38 d9 3b 3d
       -0.051529557 -0.01143915 -0.16531089 0.045861453
000320 3d e7 b5 3d 66 d8 1f 3d 9b e7 b4 bd 4f 23 66 bd
       0.08881996 0.039024733 -0.08833238 -0.056186017
000330 da fe 9a bc 3d b4 1d bc d4 f1 45 3d 99 a7 c4 bc
       -0.01892035 -0.009625492 0.04832633 -0.024005698
000340 cf 7d 85 bc 5d 5c c5 bd 49 24 11 3e 35 a7 90 3d
       -0.016295342 -0.096367575 0.14173998 0.07063142
000350 08 a2 6f bd e6 17 5a be 7f 2a cb 3d 8b 14 89 bd
       -0.058504134 -0.21298179 0.09920215 -0.066933714
000360 c8 05 16 bb eb 61 b9 bd 12 fe 21 bd 7f 59 0a 3e
       -0.002289163 -0.090518795 -0.03954894 0.13510703
000370 4f 0c 99 ba b7 7e e9 bb 84 46 23 3c ee c1 8d 3c
       -0.0011676642 -0.0071257013 0.009965543 0.017304387
000380 40 67 30 3c 26 4b 00 3c 94 a8 03 3e 46 f5 99 3d
       0.010766804 0.007830417 0.12857276 0.07517485
000390 2d 80 ee 3c 24 db 59 bd da 42 ba 3d 31 08 b2 3d
       0.029113853 -0.053187504 0.09094782 0.08692969
0003a0 9a 08 64 3d ef f8 8f bd 3e 2a 15 bd 58 3e 6f 3d
       0.055672266 -0.07029902 -0.03641724 0.058409065
0003b0 fe da a3 ba 30 9e ba bd 1b 5c 51 bb 4a 51 ac 3c
       -0.0012501178 -0.09112203 -0.0031945768 0.021034855
0003c0 07 b3 b0 bd 0a c4 fe 3c 27 eb 67 bb 59 2f a9 3c
       -0.08627897 0.031099338 -0.0035387964 0.02065246
0003d0 85 d9 9f bc 27 bb 83 3d 86 ce d6 3d 25 e2 bb bd
       -0.019512901 0.06432181 0.1048861 -0.09173993
0003e0 e5 8d a6 bb a0 f9 17 bc bf 31 1a 3d 28 d2 75 bd
       -0.005082833 -0.009275824 0.037645098 -0.060014874
0003f0 bd 6a 56 bd ac 8d 7a 3b 7b de 3c bc 6a 36 5e bd
       -0.052347887 0.0038231416 -0.011527653 -0.054251112

lstm.bias_ih_l0 f4 [512]
000000 a9 30 d0 3c ca 97 be bd 12 8a ad bd 6f 3f 93 bc
       0.025413828 -0.09306295 -0.084736004 -0.017974583
000010 fb 57 30 3d a9 45 a5 bc 13 80 bc bb 2a d8 e0 3d
       0.043052655 -0.020174818 -0.0057525723 0.1097873
000020 99 d6 d0 3b 98 e0 85 3d e4 c8 08 3c ae b5 38 3b
       0.0063732383 0.065369785 0.008348677 0.0028184461
000030 f7 50 a9 bd 96 ce 95 3d 05 58 b8 bc a9 e9 74 bd
       -0.08267396 0.07314794 -0.022502908 -0.05979315
000040 e1 db 64 3d 25 be 44 bc 90 43 3d bd 6f a7 f5 bd
       0.055873755 -0.012008225 -0.04620701 -0.11994826
000050 d5 39 c7 3d a3 80 b0 bd 05 fe bf 3d ec 2b 83 bd
       0.097278275 -0.086182855 0.09374622 -0.06404862
000060 e8 e3 d4 bc e1 dd 42 3d 36 02 3d 3d 4d 1d 6d 3d
       -0.02598758 0.04757488 0.046144687 0.05788927
000070 26 0c 19 3d a3 fe e3 bd 6d 3f bf 3d 78 4f 54 3d
       0.0373651 -0.111325525 0.093382694 0.0518336
000080 c1 1e 0d bc db e1 8b 3d 5f 7a 0c bd ce 6d ba bd
       -0.008613289 0.06830188 -0.03429639 -0.09102975
000090 7c 71 3a 3d 66 a3 3a bd 99 bb 9a bc 72 0c 87 bd
       0.045518383 -0.045565985 -0.018888282 -0.06594171
0000a0 dd 8d 00 bd ec 7f 74 3d f4 c9 27 bd bf b1 93 3c
       -0.03138529 0.05969231 -0.040964082 0.018029092
0000b0 df 72 4c bb c5 15 0e 3d a0 97 f4 bc cd 6a f3 bb
       -0.0031196398 0.03468873 -0.029857457 -0.007428503
0000c0 6f 1a d4 bc fa b0 88 bd 63 00 5f 3d c5 b4 86 bc
       -0.02589151 -0.066743806 0.05444373 -0.01644362
0000d0 1f af 95 3b ef 8d fa 3d d0 df 85 bd 7e a8 a0 bd
       0.004567995 0.12234103 -0.065368295 -0.07844637
0000e0 23 ab 23 bd 0c 47 25 3c 31 69 bc bd b7 55 01 3e
       -0.03995813 0.01008774 -0.09199751 0.12630354
0000f0 a5 45 bb bd c2 b2 23 bc 62 b6 08 bd fd 70 9d bd
       -0.09144143 -0.00999135 -0.03337706 -0.076875664
000100 b4 76 c5 3d 9e 7b 25 3d df 5d 93 3d 4a 13 0a 3d
       0.096417814 0.040401094 0.07195639 0.0337098
000110 9d 07 54 3d af fd 8a bd d4 64 60 bd 49 ae aa bd
       0.051765073 -0.067866676 -0.054783657 -0.083340235
000120 92 a7 bc b9 c1 a8 51 bd 7c 66 dc bb 74 0b 5c bb
       -0.00035983004 -0.051186327 -0.0067260843 -0.0033576163
000130 5c 21 7e bd 70 d3 75 bb ca 33 d1 3d e8 a3 17 bd
       -0.062043533 -0.003751006 0.10214956 -0.037021548
000140 6a 73 8c bd 5a e2 81 bd 37 d4 2d bc 08 77 2c bd
       -0.06857951 -0.06342001 -0.010609678 -0.042105705
000150 18 3c 47 3d 3c 72 b4 3c a4 6d cc 3d 44 10 e2 bd
       0.048641294 0.022027127 0.0998185 -0.11038259
000160 72 1b 05 3d 8a 21 fc bd 1e ee 80 bb 37 73 20 bd
       0.032496877 -0.123110846 -0.003934636 -0.039172377
000170 e9 83 02 bd 94 45 8b bd 0e 13 43 3d 66 ff 31 bd
       -0.03186408 -0.0680038 0.047625594 -0.043456458
000180 94 a3 bc bc 37 ee 5c bc 35 cb be bd fd e2 5d 3d
       -0.023027219 -0.013484529 -0.093161024 0.05417155
000190 da 90 ea 3d 64 27 07 3d c3 b9 58 3d 0b 08 cb bd
       0.114534095 0.03299655 0.05291153 -0.099136434
0001a0 29 d5 cf bd ad 60 12 3d 77 c0 84 bd 1d 47 c0 3d
       -0.10148079 0.03573673 -0.06482022 0.09388564
0001b0 c3 8d cd 3c 39 25 2f bd b9 d2 a8 bd 03 9a 78 bd
       0.025092011 -0.042760108 -0.08243317 -0.060693752
0001c0 61 24 2b 3b bb a3 8a bd 5f 65 e1 3d 3f 7a 37 bd
       0.0026114213 -0.0676951 0.11005663 -0.044794317
0001d0 cc 99 cb 3c 58 63 f0 bc 11 bc 77 bc dc 25 95 3d
       0.02485361 -0.029344246 -0.015120522 0.07282612
0001e0 ee 5e 90 bd 9f 9d 18 bd d4 cb 99 bc 2c d3 14 3d
       -0.070493564 -0.037259694 -0.01877395 0.0363342
0001f0 c9 9d 11 bd 11 9b e8 bd 59 01 4d bd 49 2f 81 3d
       -0.035550866 -0.113577016 -0.050050113 0.06307847
000200 66 1b 2a 3d 4f 91 d2 bd 5d db 19 be 92 f8 01 3c
       0.041530035 -0.10281622 -0.15025087 0.007932799
000210 78 7c 5b bd e3 e2 0d be 71 37 c3 bd d2 81 d2 bd
       -0.0535855 -0.13856082 -0.09532059 -0.102786675
000220 94 58 e3 bd 47 5d e6 bc fb 4b de 3b c2 a0 13 be
       -0.11100879 -0.02812065 0.00678396 -0.14416793
000230 3a d8 cc bd dc 6c 6e bc cf 8e 03 3c 45 dc 0d be
       -0.100021794 -0.014552321 0.008029654 -0.13853557
000240 04 e3 6d 3d 98 ed 97 3c 3c bf b9 bd 16 08 21 be
       0.058077827 0.01854591 -0.09069678 -0.15725741
000250 2e de 1a 3d c5 42 0e bb b9 a5 cc 3d c0 aa 0f be
       0.037809543 -0.0021707278 0.099925466 -0.1402998
000260 22 9d d4 bd d2 dc 33 bd ca b5 15 3d 6f f2 cb bd
       -0.10381533 -0.043911763 0.03655032 -0.0995835
000270 4e 18 ab bd 46 02 b4 bd 80 b9 9c bd df 45 48 ba
       -0.08354245 -0.08789496 -0.07652569 -0.0007639806
000280 dd 70 ed bd 5d 45 85 bd d2 c4 02 3a c8 7b 17 be
       -0.115937926 -0.065073706 0.0004988435 -0.14793313
000290 53 8e 40 bd 90 66 67 bd ef d4 bb bd b8 8d 68 bd
       -0.04701073 -0.056494296 -0.09171473 -0.05677578
0002a0 10 1f 9f bd 4d 7f 08 be 9b 9f 2b bd c1 71 f7 3c
       -0.077695966 -0.13329811 -0.04190026 0.03020561
0002b0 ee 9a 2c be b8 6a 8c bc 68 3a ac bd b8 be f5 bb
       -0.16855976 -0.017140731 -0.084095776 -0.007499542
0002c0 2c 43 51 bd 0c cf 2b be 71 65 0a 38 73 63 1a bd
       -0.05108945 -0.16778201 3.299624e-05 -0.0376925
0002d0 8b 8b af 3b 3d 8e 00 3d e8 57 cf bc ec 1f 1a be
       0.005357211 0.03138565 -0.025310472 -0.1505124
0002e0 5e 90 1d 3d 89 51 5d bd 27 0f b4 bd dc 16 c0 bd
       0.038467757 -0.054032836 -0.087919526 -0.0937936
0002f0 94 f3 0f be c0 cf 15 be 9b 5c 14 be 20 11 28 bd
       -0.14057761 -0.14630032 -0.14488451 -0.041031957
000300 75 a4 36 3d ba 35 00 bb 4a 1e 12 3d 8c f3 20 bb
       0.044590432 -0.0019563274 0.035673417 -0.0024559228
000310 af 0a 8b bd c4 1e 90 bd cc 24 c6 bd c7 a5 12 3d
       -0.06789147 -0.07037118 -0.09674987 0.03580263
000320 a6 5c 37 bc 04 7f 86 bd ad eb 2e 3b 02 b1 b7 3d
       -0.011191523 -0.06567195 0.0026690767 0.089693084
000330 56 a9 bc bd 16 03 81 bd cb ff 82 bd ad 41 dc 3d
       -0.09211986 -0.06299417 -0.06396445 0.10754714
000340 98 72 41 be a2 56 05 be 90 54 99 3b 7c 4f be bd
       -0.1889137 -0.13021329 0.00467927 -0.09292504
000350 b2 13 a4 bd 14 85 70 3d e8 ea ab bc 90 9c 3b be
       -0.08011569 0.058720663 -0.020986035 -0.18321443
000360 08 fa 12 be 36 5f b9 3c 86 c0 12 be 03 4e 30 3d
       -0.14353192 0.022628408 -0.14331254 0.043043148
000370 ea c5 72 bd 09 8f 11 be 9c 03 b7 bd 7f cc 40 bd
       -0.059270777 -0.1421472 -0.08936235 -0.047070023
000380 c3 6a bd bc aa 76 a0 bc f5 9d aa bb b5 7d b5 3c
       -0.023122197 -0.019587833 -0.005206818 0.022154668
000390 92 e9 9c ba ff 2b 60 bd f2 25 e5 bc ca 68 c2 bd
       -0.0011971465 -0.054729458 -0.027972195 -0.09492643
0003a0 37 bc 82 bd b7 2b 69 bd 50 39 b3 bc da 3c 01 be
       -0.063835554 -0.056926455 -0.021877915 -0.1262087
0003b0 8b 5a c7 bd 3e f9 ce bd 03 1a 16 be d7 52 b9 bc
       -0.097340666 -0.10106133 -0.1465836 -0.022622509
0003c0 f0 9b 28 be b9 03 03 be e7 e3 b2 bd 59 b8 52 be
       -0.16465735 -0.12794389 -0.08734875 -0.20578136
0003d0 e3 c5 3b be d0 e0 fb bc 41 04 e2 3d ea 9e 68 bd
       -0.18337207 -0.030746847 0.110359676 -0.056792177
0003e0 42 f9 06 bd a7 93 1d bd d5 15 a7 bd 6f 64 02 be
       -0.032952555 -0.03847089 -0.08158461 -0.12733625
0003f0 bb e1 92 bd 56 ad fc bd 03 89 89 3d ba 9b 9f bd
       -0.07171961 -0.12337749 0.06715586 -0.07793374

lstm.bias_hh_l0 f4 [512]
000000 55 cc a5 bd 18 df b0 bd 71 84 bf bd ee 27 8e bc
       -0.08095614 -0.08636302 -0.09351433 -0.017353024
000010 9d 15 2c 3d 2d c5 a9 3c a9 0f 9b 3c 44 ce 7a bd
       0.0420128 0.020723904 0.018928366 -0.061231866
000020 27 47 10 be c0 22 a7 bd 05 94 71 3c d5 97 90 3d
       -0.14089642 -0.08160925 0.014744763 0.0706021
000030 11 32 6b bd 7c dc 87 3c 83 65 99 bd 94 d6 8c 3d
       -0.057420794 0.016584627 -0.07490065 0.06876865
000040 37 65 31 3d db c4 e7 3b f5 1c d4 bd 25 67 9f bd
       0.043309417 0.0070730275 -0.103570856 -0.07783345
000050 fb 7c e7 3c 7d 96 ec bc 28 34 83 3d b2 47 0d bd
       0.028257838 -0.028880352 0.064064324 -0.034492202
000060 44 db 6e bd 58 0c 6f bd 08 b9 c0 bc 45 fe 48 bd
       -0.058314577 -0.05836138 -0.02352573 -0.049070615
000070 a8 2b 1e bd d6 51 44 bd 45 ed 81 3d b9 14 72 3d
       -0.038615853 -0.047929607 0.06344084 0.059101794
000080 5f 42 15 bc 3f 62 81 3d b8 45 38 bd c0 91 95 3a
       -0.009110062 0.06317567 -0.044988364 0.0011411235
000090 e1 d7 fa bb 64 04 a7 bd 19 b5 96 bc 7d 4c c8 3c
       -0.0076551293 -0.08155134 -0.018396901 0.024450535
0000a0 80 e0 0e 3d e4 ef f1 bc ce 84 13 3d a9 08 4a 3b
       0.03488207 -0.029533334 0.036015324 0.0030827916
0000b0 6f 1e 34 3d 55 36 4a bd eb 73 70 bb cc 55 6f 3d
       0.043974336 -0.04936822 -0.0036690186 0.05843143
0000c0 96 80 63 3d 77 31 7d bd bb d0 0f 3d ae f1 75 3d
       0.05554255 -0.06181475 0.03511117 0.060044937
0000d0 09 3f 47 bc 8b ad ed bc f9 c3 b9 bd 8b 58 3b bd
       -0.012161025 -0.029013416 -0.09070582 -0.045738738
0000e0 96 ae 7a bb 4b b5 5d 3c 34 6c 79 bc 16 97 01 3e
       -0.0038251034 0.013531993 -0.015223552 0.12655291
0000f0 79 c9 d0 bd 92 c1 f8 bc 15 8b 25 3d 8b 33 47 bd
       -0.10194678 -0.030365739 0.040415842 -0.04863314
000100 f5 71 3b bd 89 91 96 3c ae 7c 6e 3d 56 7d dc bd
       -0.045762975 0.018379943 0.058224373 -0.107660934
000110 5f e8 74 bd 23 71 97 bd 39 04 d2 bb 34 d9 6f bc
       -0.05979192 -0.07394626 -0.006409195 -0.014639188
000120 2a 03 65 3d f5 78 37 bd 20 cb 39 3d d2 0a 72 ba
       0.05591122 -0.044793088 0.04535973 -0.000923318
000130 9b f4 0b be f6 8d 90 bb 96 5f cd bb f8 7e c8 bc
       -0.13667528 -0.0044114543 -0.0062674982 -0.024474606
000140 d7 9a 80 bd 96 fa e1 bd 2b 52 12 bd 9d 59 e0 bd
       -0.06279533 -0.110341236 -0.035722893 -0.109545924
000150 fc bf 5b bd 9c 44 13 bc ca 6e bb 3d a0 2c 1e 3c
       -0.053649887 -0.008988526 0.09151991 0.009654194
000160 65 66 b7 3c c8 ef a8 bd e6 44 9d 3b ce 10 a3 3d
       0.022387693 -0.0824886 0.004799473 0.079621896
000170 89 4e 8b bc 4f 80 39 3c 9b d7 70 bc dc 39 f7 bc
       -0.017005222 0.011322095 -0.014699842 -0.030178957
000180 61 b4 1e 3d fc fa 91 bd 91 0a 9f 3d 49 c6 01 3c
       0.03874624 -0.071279496 0.07765687 0.00792081
000190 8a 73 3b 3d 61 8b 06 bc 87 19 a8 bd 71 d0 a1 bd
       0.045764484 -0.008211941 -0.08207994 -0.07901085
0001a0 bd a7 42 3d 40 c7 c5 bd 42 85 bc bd 28 4d 37 3d
       0.04752325 -0.096571445 -0.092051044 0.044751316
0001b0 3f 54 40 3d ce 40 6b 3d 51 e8 16 be 29 4b de 3c
       0.046955343 0.05743485 -0.14737059 0.027135449
0001c0 3e 87 d8 bd d2 60 8a 3d c2 50 d8 3c 4a b2 e8 bd
       -0.105726704 0.06756748 0.026405696 -0.11362131
0001d0 5c 52 51 bd b7 39 00 3c ff 4e c1 bc 50 7a d6 bc
       -0.051103935 0.00782626 -0.023597239 -0.02618137
0001e0 2e 3f f9 3c 23 f7 99 3d 6e 6b d5 bd 5d 73 de bc
       0.030425634 0.07517841 -0.10420881 -0.027154619
0001f0 ee 42 94 bc 34 bb 0d be aa 4f 1f 3c 8c 66 8b bd
       -0.01809832 -0.13840944 0.009723583 -0.06806669
000200 5b 66 99 3d 05 63 84 bd e6 e5 f7 bd 7e 93 7e bd
       0.07490226 -0.06464199 -0.121043965 -0.06215238
000210 36 4d f4 bc 65 1d f6 bd 84 63 a5 bb 81 17 46 bd
       -0.029821973 -0.12017325 -0.0050472636 -0.04836226
000220 ed fb e5 bc ed 79 a1 bd d7 04 41 3d c2 6e 94 bd
       -0.02807423 -0.078845836 0.047123756 -0.07247688
000230 c5 00 e0 bd 63 8c eb bd b9 b7 7f 3c 14 92 0d bd
       -0.10937647 -0.11501386 0.015607768 -0.03456314
000240 79 ea e3 bd 1c bd ce bd 07 1e 58 bd f9 4b af bc
       -0.111287065 -0.100946635 -0.05276301 -0.021398531
000250 46 2f 3e 3d 80 ed 91 bd 0d bc 3a bc 00 8c e4 bd
       0.046431802 -0.07125378 -0.011397374 -0.111595154
000260 76 b5 27 be bb 92 84 3c 74 18 84 bd 6f 06 96 3c
       -0.16377816 0.016183248 -0.064499766 0.018313615
000270 d8 ee fd bd 33 f1 9b bd 20 ee d4 bd 27 d1 40 3c
       -0.123990715 -0.076143645 -0.10396981 0.011768616
000280 af e5 ca 3c 74 f3 ac bd 1f f7 06 3c 58 39 c9 bd
       0.024767725 -0.084448725 0.008237629 -0.098253906
000290 bb bd 16 bd 0f 19 03 be 11 78 c7 bd 03 17 a8 bd
       -0.036802035 -0.12802528 -0.09739698 -0.08207514
0002a0 47 9d e3 bd 1a 3d f0 bd 3b 53 53 bc 97 af 20 3e
       -0.11113983 -0.11730404 -0.012898262 0.15691982
0002b0 8c a5 06 bd fb e2 64 bd 84 47 86 bd 01 32 7c bd
       -0.03287272 -0.055880528 -0.06556609 -0.061571125
0002c0 c5 7a a8 3c bc 1c 2e be 8e 20 4a bd d1 02 3e bd
       0.020566354 -0.17003149 -0.049347453 -0.046389405
0002d0 61 b5 90 bd 3c 20 07 be 74 c4 c2 bd 95 77 07 be
       -0.07065845 -0.1319589 -0.09510127 -0.1322921
0002e0 bc 20 3b bd 69 f5 51 bd f4 47 08 3d 2a 61 05 bc
       -0.045685515 -0.051259432 0.033271745 -0.0081408415
0002f0 20 26 19 3c 39 33 59 be e8 62 08 be 08 6d a4 bd
       0.009347469 -0.21210946 -0.1331898 -0.080286086
000300 d7 4e 9c bd 7a 80 56 ba c2 d4 e5 3c cc b4 07 bd
       -0.07632225 -0.00081825966 0.028055552 -0.033131406
000310 75 ae fa bd 1c cd c0 bb 84 f1 5c bd 29 b4 36 bd
       -0.12240306 -0.005883826 -0.053941265 -0.044605408
000320 9a e8 fd bd f9 7c e0 bc e3 5e a7 3d cd 82 3a 3d
       -0.12397881 -0.027403342 0.08172395 0.045534898
000330 1e d7 c7 bd 88 3b f1 bc 1f d5 bf bd 33 f2 9b 3d
       -0.09757827 -0.029447332 -0.093668215 0.07614555
000340 d6 6e 87 bd 84 dc 70 bc f8 a9 a1 39 ba c7 cc bd
       -0.06612937 -0.0147010125 0.0003083495 -0.09999032
000350 16 28 bb 3c ff 94 b8 3d 3a 57 b2 3c 94 e6 ad bd
       0.022846263 0.09012794 0.021770108 -0.08491245
000360 f3 42 10 bd 35 61 c6 bd a2 52 56 bc e5 7c d8 bd
       -0.035220098 -0.096865095 -0.013081225 -0.10570697
000370 34 32 50 bd 7f d7 c9 bd ae 28 a8 bd a2 66 c1 bd
       -0.050829127 -0.09855556 -0.08210884 -0.09443404
000380 38 83 7d 3d e0 06 49 bd ac b0 d5 3c 44 bf 9c 3b
       0.061892718 -0.049078822 0.02608522 0.004783543
000390 dc 06 56 bc 4e c7 a4 bd 86 64 ce bd b6 4e ed bc
       -0.013063159 -0.08045827 -0.10077767 -0.028968196
0003a0 59 22 aa bd 23 be 2b 3c f8 81 93 bd 11 c9 a9 bc
       -0.083073325 0.010482344 -0.07202524 -0.020725759
0003b0 1c 41 9b 3b 2a 46 91 bd f1 37 f3 bd 0c c5 d2 bd
       0.0047379863 -0.07093461 -0.11875904 -0.1029149
0003c0 51 ae 1a be 61 dd e6 bd 4e 68 25 3c 7a ba 9b bd
       -0.15105559 -0.112726934 0.010095669 -0.07603927
0003d0 2a ac 24 bd d7 fd a9 bd de 86 83 bd 00 bb 5b bd
       -0.04020325 -0.08300369 -0.06422208 -0.053645134
0003e0 17 6f e6 bc fd 63 c8 bc f2 90 7e bb 75 24 f8 3c
       -0.028129144 -0.02446174 -0.0038843718 0.030290822
0003f0 d9 4d 8a 3c 79 72 0d be 8f 2b ea 3c 52 4f 44 be
       0.016882824 -0.13813199 0.028585223 -0.19170883

lstm.weight_ih_l1 f4 [512, 128]
000000 64 11 36 3d 38 52 e3 3d ea d0 c9 bc cf 65 9d 3c
       0.04445018 0.11099666 -0.02463575 0.019213585
000010 b2 9b 38 3e ab 40 c0 bd 31 26 c9 bd 33 59 44 3e
       0.18028143 -0.093873344 -0.098217376 0.19174652
000020 2a 41 ee bc 94 76 87 bd c4 d2 00 3d 16 ca ed bb
       -0.029083807 -0.06614414 0.031451 -0.0072567565
000030 44 80 d0 3c f1 d2 cc bc 92 81 24 3e 36 a4 19 3e
       0.025451787 -0.025002928 0.16065052 0.15004048
000040 da e4 a9 3d 8c 32 40 bd 97 27 cf 3d f2 e2 4e be
       0.08295603 -0.046923205 0.10114973 -0.2020376
000050 b2 e9 04 3e 8e ec 3b 3d b9 b5 b1 be 19 e1 23 be
       0.12979773 0.045879893 -0.34708956 -0.16003837
000060 5b df 1e be d8 84 04 be f7 1c c2 3d 44 dc c0 3d
       -0.15514891 -0.12941301 0.09478181 0.09417012
000070 94 63 d6 bd 9d 95 00 3e cd 64 1a bb c7 75 51 be
       -0.10468212 0.12557073 -0.0023558617 -0.20455085
000080 3e b5 5c be 3c 10 f6 3d 4c 20 1c 3e f3 06 15 3e
       -0.21553513 0.12014815 0.15246695 0.14553432
000090 ff 72 39 3d 06 be c3 3c 47 fc a3 bd 53 be 46 3d
       0.045275684 0.023894321 -0.080071025 0.04852135
0000a0 70 d4 e8 bb 01 11 dc 3d a6 03 1f 3d 0e 4c e4 bb
       -0.0071054026 0.10745431 0.03882184 -0.0069670742
0000b0 00 67 12 be 24 cf 0e 3e 9e 49 21 3e 98 00 40 3d
       -0.14297104 0.13946205 0.15750739 0.046875566
0000c0 3f 29 a2 bd a7 d0 14 3c ba 06 b9 3a 49 21 02 bb
       -0.07918023 0.00908295 0.0014116385 -0.0019856265
0000d0 86 2f 82 3d ea 31 db bd 3d 15 f0 3d 45 dc fa 3d
       0.063567206 -0.1070288 0.11722801 0.12249044
0000e0 43 9f 54 3e f1 0b 4c be 83 2b be 3d ec 72 1b 3e
       0.20763879 -0.1992643 0.09285643 0.15180558
0000f0 de 8b 76 bd 0a ab 12 3e cf 4f 59 3e 54 98 fb bc
       -0.06019198 0.14323059 0.21221851 -0.030712284
000100 8d d2 d4 3d 54 00 94 3d d9 70 8e bd bb dd dd bd
       0.10391722 0.07226625 -0.06955118 -0.10833307
000110 fe 83 e4 bd 0f 5d 46 be bb c9 21 be 8e e1 3a bd
       -0.11157988 -0.19371437 -0.1579961 -0.045625262
000120 e2 aa 76 3e 92 76 eb bd 67 c3 dd 3d 8f 32 8e bd
       0.24088624 -0.11497225 0.10828286 -0.06943237
000130 0b 30 ba 3d 4b b9 1f 3e 88 8a 3a 3e e5 91 39 3d
       0.09091195 0.15598027 0.18216908 0.04530515
000140 9a 70 62 3d 1c 62 07 bd 22 85 9e 3e 42 86 59 3d
       0.055283166 -0.03305255 0.30960947 0.053106554
000150 7d 91 e0 bc 65 26 af be 89 5c 00 3e 51 3a 68 be
       -0.027413124 -0.3420898 0.125353 -0.22678496
000160 b4 a4 29 3e db 0d 88 bd 89 8b 1f 3e e6 af 8e 3d
       0.16566736 -0.06643268 0.15580572 0.06967144
000170 9b 6b ce 3d 5c f3 97 3d 30 35 40 bd 35 46 88 bd
       0.10079118 0.07419464 -0.046925724 -0.06654016
000180 95 3c 00 3e af 2c bd 3d 8a c6 99 3c 54 8c 26 3e
       0.1252311 0.09237038 0.018771429 0.16264468
000190 49 69 8e 3d bb ed e6 bc 59 32 d3 3c 46 b0 ec bb
       0.06953675 -0.02818953 0.025780844 -0.007223162
0001a0 56 08 1d 3e 9e 8f 2b be 23 00 4c bd af 28 7c 3d
       0.15335211 -0.16754004 -0.049804818 0.061562236
0001b0 28 08 ab bd 23 12 a7 bc 8d 94 82 bd 72 fa 3a be
       -0.08351165 -0.02039439 -0.0637599 -0.182596
0001c0 ed 84 a9 bd da 17 82 3d eb 40 ca 3c 66 22 18 3d
       -0.08277307 0.063522056 0.024689158 0.03714218
0001d0 78 e1 20 bd cb d3 ab bd 5b c6 3d 3c d6 05 ee bd
       -0.039277524 -0.08390006 0.011582936 -0.11622207
0001e0 57 54 31 be e7 18 c7 39 27 df ce bd d0 db d4 bd
       -0.1731733 0.00037974791 -0.10101157 -0.103934884
0001f0 cb 16 28 be dc 48 f1 bd 65 fe d5 bc e9 09 8d 3c
       -0.16414945 -0.11781475 -0.026122281 0.01721664
000200 8e c5 b2 3b d3 4e 5b 3d b7 c0 d9 bd 12 f3 99 3d
       0.0054556793 0.05354197 -0.106324606 0.07517065
000210 8c ad 5a be 07 c7 25 3d ef 74 2d bd 55 ad 48 3c
       -0.21355265 0.04047301 -0.042347845 0.012248357
000220 d5 9d 33 bd 66 49 39 bd 15 2d 6f be f8 11 5c be
       -0.043851692 -0.045236014 -0.23357041 -0.2149123
000230 ad 8d a4 bd 76 e5 f2 bd 88 bc fa bd fb 36 9a bc
       -0.08034835 -0.118601725 -0.12242991 -0.018825045
000240 84 54 99 bd 4c 70 5f 3d 5d f5 d6 bd ac a4 ef bd
       -0.07486823 0.054550454 -0.10496018 -0.117013305
000250 80 ad 6f 3d 35 6d 2e bd fd a7 03 be 6a 2b 1a 3e
       0.058515072 -0.042584617 -0.12857051 0.15055624
000260 5a dc 6a bc 2c 6b 81 bd 57 62 9a bd be 8f eb bd
       -0.0143347625 -0.063192695 -0.07538288 -0.11502026
000270 29 9e 7a bd ba 6d 6c 3c 16 79 ed bb bb 32 52 be
       -0.06118599 0.014430458 -0.0072471006 -0.20527165
000280 3d 3e 22 3e ad f3 7d bd a8 aa 8d bd c0 71 a9 3b
       0.15844055 -0.061999965 -0.06917316 0.0051710308
000290 55 05 3b bd 07 6d 0d be fd f5 e7 3d 6a 1b 19 bc
       -0.045659382 -0.13811122 0.113262154 -0.009344915
0002a0 3c e9 d0 3d 7f 1b c9 bd fa fd cc bc 95 4a b0 3c
       0.10200736 -0.098196976 -0.02502345 0.021519938
0002b0 10 96 5d 3d e6 7b fc 3d 7c 44 48 3d 34 12 0f bc
       0.05409819 0.12328319 0.048893437 -0.008732367
0002c0 83 bc 2d 3e 97 7b 29 bd 87 58 1f 3c 81 1d d2 3d
       0.16966443 -0.04137763 0.009725696 0.10259534
0002d0 79 61 a4 bd f4 0f 92 bd 5b 7b 32 3d 72 21 77 3d
       -0.08026404 -0.07131949 0.043574672 0.06033463
0002e0 6b 47 d9 bd 0e 5b cf bd 66 8e 84 bd 42 8c 02 be
       -0.10609325 -0.10124789 -0.06472473 -0.12748817
0002f0 d9 fe 98 bd 42 dc 51 bc d8 a7 9c 3d d9 80 51 3d
       -0.07470483 -0.012808861 0.07649201 0.05114827
000300 24 c4 87 3c 55 6e 3d 3e 5f 4f 82 3d cb 91 07 3e
       0.01657302 0.1849912 0.06362795 0.1323921
000310 bb 9c cb 3d 09 5f fe 3d 16 00 b0 3c 2d 81 b3 bd
       0.09942003 0.1242047 0.021484416 -0.08764873
000320 e5 55 39 bc a9 4d 0b 3e 5d 92 b2 3c e4 33 88 be
       -0.011311983 0.13603844 0.021798307 -0.2660209
000330 c4 03 31 bd 19 66 99 3d a2 16 9c bd 35 b1 c9 bc
       -0.04321648 0.07490177 -0.07621504 -0.024620632
000340 d7 03 80 3d 06 37 b3 3c 38 e2 42 3d 4b 53 8f 3c
       0.062507324 0.021876823 0.04757902 0.017495772
000350 86 9c 42 3d 41 28 14 bd 3e 14 2c be a0 2c a6 3d
       0.047512554 -0.0361712 -0.16804597 0.0811398
000360 31 2b b3 3c f8 5d 19 bc f1 8b 1b be 46 dc 73 3d
       0.021871181 -0.009360783 -0.15190102 0.05953624
000370 08 72 13 be 23 73 00 be 04 fd af 3d 3a 83 95 bd
       -0.14398968 -0.12543921 0.08593181 -0.0730042
000380 81 05 b1 bd a0 a6 83 bd 8e 04 9d bd 37 04 f6 bd
       -0.08643628 -0.064282656 -0.07666884 -0.12012523
000390 cc 8a 08 be 76 cc 12 3d 0f a5 47 bd 57 a4 86 3d
       -0.13334197 0.03583952 -0.048741397 0.06574314
0003a0 4b 0f d6 bc da 32 37 3d bb f9 9b bd 50 e3 7e 3e
       -0.02613034 0.04472623 -0.07615992 0.248914
0003b0 3a 4e 01 3e 6c 7b 45 bd fd 2e 45 bd 3c 8f 78 bd
       0.12627497 -0.048213407 -0.048140515 -0.060683474
0003c0 75 55 8c 3d 64 3a 5a 3c 72 7f b3 bc e5 b3 26 be
       0.06852237 0.0133195855 -0.021911357 -0.16279562
0003d0 52 48 d5 3d c1 99 91 3d 1d d2 e0 3d b4 75 0f be
       0.10414185 0.07109404 0.10977576 -0.14009744
0003e0 5b ae 2e bc 81 a0 69 3b 48 4e af 3b 8f 1a 03 3e
       -0.010661687 0.0035648646 0.005349908 0.128031
0003f0 72 c8 bb 3d 53 d7 00 bd ff 1a cf bd 08 18 5f bd
       0.09169091 -0.03145535 -0.10112571 -0.054466277

lstm.weight_hh_l1 f4 [512, 128]
000000 f0 63 bc 3c 2b b8 41 3e 79 e3 4a bd 17 0e 87 bd
       0.022996873 0.18917911 -0.04953334 -0.06594484
000010 5d d7 33 bd e1 d8 0d be 16 0b e3 3d f3 65 58 3b
       -0.04390656 -0.13852264 0.11086099 0.003301975
000020 be 74 15 bb 0f 32 23 3e ff 1e cd bd 5e 66 16 3e
       -0.002280518 0.15937065 -0.10015678 0.14687487
000030 f8 44 ce 3d 17 80 f3 3a 42 a5 2b b9 2c e4 e9 3d
       0.100717485 0.0018577602 -0.00016369394 0.114204735
000040 6e 26 43 bc 2d ad aa bd 87 8f d3 bc 3e 0e 3b bd
       -0.011911018 -0.08333812 -0.025825275 -0.04566788
000050 6a d4 fb bd 46 d9 88 3c dd 1a 8a bd 41 61 69 3d
       -0.12296374 0.016705167 -0.06743405 0.056977514
000060 28 f7 c4 3d 41 25 71 3d f6 a7 8a 3d 30 21 a6 bd
       0.09617454 0.05887342 0.06770317 -0.08111799
000070 55 a9 c2 3d 32 e8 23 3d 66 4f b9 bd 58 87 b3 bd
       0.09504954 0.04001636 -0.09048347 -0.08766049
000080 19 33 81 3d 71 dd ee bd 83 6c fc bd ab 9a 2c bd
       0.06308574 -0.1166333 -0.123253845 -0.04213969
000090 83 be 11 be d2 f0 1b 3d e0 e5 20 bd 17 5a 0b bd
       -0.1423283 0.03807146 -0.039281726 -0.034021463
0000a0 d3 97 fe 3d 61 88 0a 3e 19 32 6b be a1 e6 d7 bd
       0.12431302 0.13528587 -0.2296833 -0.10542036
0000b0 ee 48 9b bc 9b 94 21 3c bf b9 15 3c d9 75 34 bd
       -0.018955674 0.00986209 0.009138524 -0.0440577
0000c0 47 e1 ee 3c 42 d0 a9 3c 02 6c 11 be 28 fc 7e bd
       0.029160155 0.020729188 -0.14201358 -0.062252194
0000d0 bd 91 30 be 9b f5 79 3b 22 81 2d bd 3d 2a a6 bc
       -0.17243095 0.0038140777 -0.04235948 -0.020283813
0000e0 d3 7c e3 3b d9 00 d4 3d 1d d8 64 3e 48 54 b3 bd
       0.0069423704 0.10351724 0.22348066 -0.0875631
0000f0 f2 63 e0 bd 9b fd e1 3d b2 23 a1 3c 27 e5 02 3e
       -0.10956563 0.110346995 0.019670341 0.12782727
000100 f2 54 29 3d 00 ad ce bd 89 08 68 3d d3 85 f1 bd
       0.041340776 -0.10091591 0.056648765 -0.11793103
000110 00 e7 f0 3d c8 15 b1 3d 16 36 55 bc 48 a6 d6 bd
       0.1176281 0.086467326 -0.013013383 -0.104809344
000120 07 9e 26 3d 10 c5 29 be d3 01 32 bd 95 45 0b 3d
       0.04067805 -0.1657908 -0.04345877 0.034001905
000130 28 0a 24 3c 0d a6 37 bd ce 66 ed bc 72 2c 18 3d
       0.010012187 -0.044836093 -0.028979685 0.03715176
000140 9d 4e 16 bd 1a a8 34 3c b3 c7 e1 3c 3f 3e 12 bd
       -0.036696065 0.011026407 0.027561044 -0.035703894
000150 52 ac 82 3d f2 39 b3 ba e4 95 a3 bd 75 7f 17 be
       0.06380524 -0.0013673885 -0.07987574 -0.14794715
000160 19 ce 92 bc fd 7e 9c bd dc 73 92 bd 4c 89 2b 3d
       -0.01792054 -0.076414086 -0.07151005 0.041878983
000170 c2 5f 47 3b c2 a0 94 3c 33 70 c6 3d a1 09 dc bd
       0.0030422066 0.018143062 0.09689369 -0.10744024
000180 7c 0e e4 3c e6 5b 48 be 8a f0 90 bd b3 f1 21 3d
       0.027838938 -0.19566306 -0.07077129 0.039537143
000190 dd a8 6a 3d a0 9f c7 bc 04 6a 5d bc 1e d3 f4 3c
       0.057289947 -0.024368107 -0.013514046 0.029885825
0001a0 c1 f9 10 bc bc e1 37 3d b1 73 0b bd d8 07 0d 3d
       -0.0088486085 0.04489301 -0.03404588 0.03443131
0001b0 27 16 64 3a f7 e1 33 3e da dc 78 3c 5b 7b 78 3c
       0.0008700811 0.17566667 0.015189374 0.015166129
0001c0 26 57 0e 3e 03 f7 a0 3d 54 75 07 bd 6f 02 f6 bc
       0.13900432 0.07859614 -0.033070877 -0.030030457
0001d0 96 c3 e2 bd 8d 47 b6 3b 86 33 e0 3d 55 5d 13 bc
       -0.11072461 0.0055627287 0.10947327 -0.00899442
0001e0 11 da 83 bc 7f d6 cf 3d 51 c2 e7 3c e2 3b df bc
       -0.016095193 0.10148334 0.0282909 -0.027250234
0001f0 ba 20 83 bd fd 8c 9e 3d 28 06 40 3e 82 19 7a 3d
       -0.064027265 0.07741735 0.18752348 0.061059482
000200 11 0d a1 3b 2b e7 9d ba b0 0d f7 bc a0 c8 22 be
       0.0049148877 -0.0012047043 -0.030157894 -0.15896845
000210 ed 7c 86 3c 7b cd a9 bc 09 7b cc bd e9 7e a1 bc
       0.016416991 -0.020727864 -0.099844046 -0.019713836
000220 59 10 8e 3c ce c6 65 bd 79 db 9a bd bd 07 d2 bd
       0.01734178 -0.056097798 -0.07561392 -0.10255382
000230 ec 49 8c bc ad fa 6a bd 06 49 8f bd 0e 91 00 3d
       -0.017125092 -0.05736797 -0.0699635 0.031388335
000240 ff df 12 3d 81 a7 a3 bd e2 ae 1f 3c 0d 4a 94 3c
       0.03585815 -0.07990933 0.009746285 0.018101716
000250 d7 eb 46 3d 16 e7 17 3d 1c 3e 28 3c b0 35 a5 3d
       0.04856476 0.037085615 0.010268714 0.08066881
000260 ed 1b c4 3d 7d e6 16 3d b5 06 44 bd c7 28 de bd
       0.09575639 0.036840905 -0.04785796 -0.108476214
000270 d9 09 a0 bd 90 3e 92 bd 5f b6 86 3d 86 d6 34 bd
       -0.07814378 -0.07140839 0.06577753 -0.044149898
000280 08 18 42 3e 37 06 45 3d ca a8 36 bd 80 1f 8d 3d
       0.1895448 0.04810163 -0.044594564 0.06890774
000290 48 33 e0 3c af cd 0d bd 18 d9 8f b9 25 4e 35 3c
       0.027368203 -0.034619983 -0.00027436833 0.011065994
0002a0 1f 2e 0c be 39 6d 3a 3d da 18 29 3e 77 7e 14 3d
       -0.13689469 0.04551432 0.16513386 0.03625342
0002b0 41 ad 8f 3c ad 8a 01 be 58 87 52 bd f9 f7 2e bb
       0.017538669 -0.12650557 -0.051398605 -0.0026698096
0002c0 33 96 ae bc 5b 65 08 3e 61 00 87 3e 8f ee 1d 3b
       -0.021311855 0.13319914 0.26367477 0.002409849
0002d0 e2 ea 18 3e a3 0a 36 3d c7 b8 a3 bd f3 0a 8f 3d
       0.1493335 0.044443738 -0.07994228 0.0698451
0002e0 a1 28 0e 3e dc 27 16 be dc 4d 9b 3d e3 d6 de 3d
       0.13882686 -0.14663643 0.0758321 0.1088083
0002f0 8b 79 15 3e 50 24 5a 3c f7 76 97 3d 9f 40 94 3c
       0.14597146 0.013314322 0.073957376 0.01809722
000300 71 96 ab 3d 55 cf 0c 3d 52 50 d4 bd c6 a7 ab 3d
       0.08378304 0.034377415 -0.103668824 0.083816096
000310 d0 90 8c 3c 88 29 28 be 04 fc 83 bc b2 ea f7 3a
       0.017158896 -0.16422093 -0.016111381 0.0018914549
000320 14 6f 47 be 11 2e 33 bc 13 14 d3 38 06 b4 e4 3d
       -0.19475967 -0.010936276 0.00010065003 0.11167149
000330 d0 b8 4d 3d 6b 94 d0 3d c4 3a bd 3d e6 08 e8 bc
       0.05022508 0.101845585 0.09239724 -0.028324556
000340 43 8d f6 3c 24 81 ed bd 70 70 57 bd ef 5b ea bd
       0.030096656 -0.11596897 -0.052597463 -0.11443316
000350 36 8b 16 be ac 94 e7 3b b6 eb 20 3c 98 ab 24 3d
       -0.14701542 0.0070672836 0.009821823 0.040202707
000360 ec c3 54 3d 2a 24 24 be 8e 6b f3 bd 01 bc e4 3c
       0.05194466 -0.1602942 -0.11885749 0.027921678
000370 2b aa 25 be d0 3c 1f bd ba 47 6d 3c 0a 5c fe 3d
       -0.16178195 -0.038876355 0.014482433 0.12419899
000380 9b dc 04 be 57 92 b7 3c cf 68 ae bd 1e c6 71 bd
       -0.1297478 0.022408647 -0.085160844 -0.05902683
000390 f6 ad 1b 3e 15 a3 dd 3d 3a 58 7e bd 05 ab b0 bd
       0.1520308 0.10822121 -0.06209586 -0.086263694
0003a0 43 39 06 3d ac b5 6b bd 08 7e 85 bd 4c d7 0c 3e
       0.032769453 -0.057546303 -0.06518179 0.13754004
0003b0 24 38 93 3c 93 45 1e 3d 36 bd ee bd 1e 02 01 be
       0.017971106 0.03864057 -0.11657183 -0.12598464
0003c0 dd 04 ac 3b 89 b9 d0 bd a5 57 dc 39 c7 e4 c3 bc
       0.005249603 -0.10191638 0.0004202697 -0.0239128
0003d0 48 d9 05 3d 7d 03 2b bd 6f 67 2f bc fa 0e 5c bd
       0.03267792 -0.041751374 -0.010705813 -0.05372522
0003e0 6e f9 83 3d 39 c9 ef bc 6b a6 50 be 1b 2d 82 bc
       0.06444059 -0.029270755 -0.20375983 -0.015890649
0003f0 d0 28 37 be 46 c1 d4 be f1 db e0 3c 3d ed 3c bd
       -0.17886662 -0.41553706 0.027448626 -0.046124686

lstm.bias_ih_l1 f4 [512]
000000 29 fe d6 bd ab 37 fe bd b3 15 f0 bd 02 a3 2f 3e
       -0.10497696 -0.124129616 -0.11722889 0.17152026
000010 2c 43 7d bd e1 83 3d be 22 f1 09 bc 0c 77 40 be
       -0.06183164 -0.18507339 -0.008419307 -0.18795413
000020 17 d8 b4 bc 65 3c 0c be b7 87 3c bc ac e2 d9 bd
       -0.022075696 -0.13694914 -0.011506966 -0.10638937
000030 f3 95 8d bd 59 2e a4 3c fd 88 dc bd 19 8a 5c 3d
       -0.06913366 0.020041632 -0.10768316 0.053842638
000040 e3 e7 35 3d 04 af a6 bd 68 5d 17 3d 47 6d 9f bd
       0.044410598 -0.0813885 0.036954314 -0.07784515
000050 91 8e 82 be ab b4 ef bd d2 4d 46 bd 81 a2 a8 bd
       -0.25499395 -0.117043816 -0.04841406 -0.0823412
000060 3b c8 a6 bd 20 9b 77 bd 7f 8d 1b be 37 1a 20 bd
       -0.0814366 -0.060450673 -0.15190695 -0.0390875
000070 78 e2 1e be 14 f2 8f bd da 86 06 be d0 11 37 bd
       -0.15516078 -0.070285946 -0.1313738 -0.04469472
000080 a4 42 e6 bd 6b 69 00 bd 07 c7 4a be a3 97 27 be
       -0.112431794 -0.031350534 -0.19802485 -0.16366439
000090 71 51 fe bc f9 09 96 bc 3d cc 55 3c 2b 62 0e bd
       -0.031044694 -0.018315302 0.0130491825 -0.03476159
0000a0 63 1b 6e bd cc c7 1e be aa 80 e5 bd 81 45 85 3c
       -0.058131587 -0.15505904 -0.11206181 0.016268494
0000b0 ce 43 6f bd 1c 16 47 3d 9f cb a3 bc 5d d8 d2 bd
       -0.058414273 0.04860507 -0.019994555 -0.10295174
0000c0 6d f3 9d 39 97 7f 86 3d 23 9c bf 3d 74 e5 b4 bb
       0.0003012674 0.065673046 0.093559526 -0.005520517
0000d0 07 63 48 bd 9d 21 1c be 0a d2 ab bd 72 a0 c4 bd
       -0.048922565 -0.15247197 -0.08389671 -0.09600915
0000e0 b9 ba 49 bd 99 21 e0 bb ee 1e 11 be d6 df 18 be
       -0.04925034 -0.0068399427 -0.14171955 -0.14929137
0000f0 e9 f2 39 bd 97 e9 e0 3c 9d c9 73 bd d6 21 06 bd
       -0.045397673 0.027455134 -0.059518445 -0.032747112
000100 05 3d bb 3d a2 0d 9e bd 91 61 40 be a8 16 b5 3c
       0.09142498 -0.07717444 -0.18787219 0.02210553
000110 46 a9 8b bb ad af a9 bd d0 a7 9d 3c 78 bf 8c bd
       -0.0042621223 -0.082854606 0.019245058 -0.06872457
000120 92 57 90 bd a6 30 33 bd a9 98 c3 bd 5d 35 e3 bd
       -0.07047953 -0.043747567 -0.09550602 -0.110941626
000130 bf 3e bd bd b1 43 52 3d db cc f0 bd 2d 74 48 3d
       -0.092404835 0.051334087 -0.11757823 0.04893892
000140 30 5b 21 ba 37 c6 25 3d ba 54 93 bd 34 1d a9 bc
       -0.00061552506 0.040472236 -0.07193895 -0.020643808
000150 9e 42 20 bd 48 f9 3a 3d 53 7a cf 3d f9 4e 4d 3d
       -0.03912603 0.04564789 0.10130753 0.050124142
000160 21 86 de bd cd 42 6c 3d 9e bd 46 be a4 59 39 bc
       -0.10865427 0.057680894 -0.1940827 -0.011312876
000170 71 55 03 be 7c b2 99 bc 1d b1 d6 3c 82 f8 b3 bd
       -0.12825562 -0.018761866 0.026207501 -0.087876335
000180 a1 22 0f bc cb 08 ba bd 87 76 b6 bd 81 6f 3b bc
       -0.0087362835 -0.090837084 -0.08909326 -0.011440159
000190 f2 6c 93 3c 0d 1a 2f 3d 35 b6 e7 bd 77 85 d2 3b
       0.017996285 0.042749453 -0.1131405 0.0064246017
0001a0 75 52 ee bd f6 ab 3a be bc e0 01 be 68 b7 ea bd
       -0.11636821 -0.1822966 -0.12683386 -0.11460763
0001b0 9d db e2 bd 05 16 1a 3d 9c 27 c3 bd cd 96 ba bd
       -0.11077044 0.037618656 -0.09529039 -0.09110794
0001c0 31 60 6f bd 20 8d ef 3c 46 e4 03 bd 31 0c f7 3b
       -0.058441345 0.029242098 -0.03220012 0.007539295
0001d0 88 60 87 bc 66 dc be bd 3f 10 c1 3c de 39 aa bd
       -0.016525522 -0.093193814 0.023567317 -0.083118185
0001e0 21 13 81 3c a1 41 08 bd e2 25 f9 bd 2b 4f 99 bd
       0.015756192 -0.033265714 -0.12165429 -0.07485803
0001f0 0b b1 2b be e8 24 78 3d 68 a8 43 bd 05 27 f2 bb
       -0.16766755 0.06058207 -0.047768027 -0.0073899054
000200 f4 b1 7a bd 18 f8 49 3c 75 63 ba 3b 44 b1 81 3e
       -0.061204866 0.012327217 0.0056881257 0.25330555
000210 21 18 c6 bd e3 eb 71 bd a0 28 d4 bd 0e 52 24 be
       -0.09672571 -0.05906285 -0.10359311 -0.16046926
000220 21 77 1e be 68 b9 6e bd 6a 30 84 3d d4 53 cd bd
       -0.15475132 -0.058282286 0.06454547 -0.100257546
000230 49 31 53 bd 8c 1c bb bc b4 0a 0f bd 31 66 b2 3d
       -0.051560674 -0.02284076 -0.034922317 0.08710898
000240 f4 a8 02 3d b2 43 92 bd ff 02 98 bd 9f ee 8b b8
       0.031899408 -0.07141818 -0.074224465 -6.672483e-05
000250 cd ad 49 be bd 34 d0 bd 46 24 b2 3c 16 84 10 bd
       -0.19695206 -0.10166309 0.021745812 -0.035282217
000260 8e d3 c7 bd a5 01 00 ba 2d 5f d0 bd 61 a9 f6 bd
       -0.09757148 -0.00048830576 -0.10174403 -0.12044025
000270 d7 38 00 be 37 c7 64 3c bc 9c 51 3a 8e 35 e6 3c
       -0.12521683 0.013963512 0.00079960725 0.028101709
000280 59 8f fe bd 4b d8 9d bd b3 b5 91 bd a8 00 b9 bd
       -0.12429685 -0.0770727 -0.071147345 -0.09033328
000290 13 58 ac bd 91 a5 f4 3c c4 19 e9 bd 0a 7b c0 ba
       -0.08415236 0.029864104 -0.113818675 -0.0014685106
0002a0 8e 01 ea bb 5e 4f 8e 3c 26 be fa bd db 92 07 3d
       -0.0071412986 0.01737183 -0.12243299 0.033099037
0002b0 cf 17 bf 3b 6b 12 ba bc 51 29 ae 3d b0 c7 d5 bd
       0.0058316956 -0.02271386 0.08503974 -0.10438478
0002c0 2b e3 1d bc 76 c4 60 bd 94 a4 70 3d 23 d2 b5 3c
       -0.009636681 -0.05487486 0.058750704 0.022194928
0002d0 62 7e 80 3d 1a 76 e8 bd 44 30 24 3e 95 8f b6 bd
       0.062741056 -0.11350651 0.16034037 -0.08914105
0002e0 1f 0f 1e 3d 86 9c 6b bd 8e ad 66 3d da bd 03 be
       0.03858864 -0.05752232 0.05631786 -0.12865391
0002f0 1a cb 07 be 01 30 3a bc 9a e9 89 3d ec b7 3d 3d
       -0.13261071 -0.011363984 0.06734009 0.04631798
000300 5e 73 80 3d b7 b7 10 be a9 fb 1f be 09 cd 08 bd
       0.062720045 -0.14132582 -0.15623344 -0.03339866
000310 4b 39 96 3c bb 69 e0 bc ef 7b 82 3d dc 40 fa 3a
       0.018337866 -0.027394166 0.06371295 0.0019092816
000320 53 7e 46 3d 4f fe fa bd 6d 89 35 3e 37 a7 c4 bd
       0.048460316 -0.12255537 0.17728205 -0.09602206
000330 6d 48 f1 bd 87 4b 2c bd 96 32 bf bc 5f 2d 85 3a
       -0.11781392 -0.042064216 -0.023339551 0.0010160616
000340 59 d2 b5 bc 6c bc 1a bd 0f 76 b8 bc 59 97 07 3d
       -0.022195028 -0.03777735 -0.022517232 0.03310332
000350 77 d4 23 b9 2a e5 75 3d af 59 a1 3e 3a 51 c3 bb
       -0.0001562404 0.060033 0.31513736 -0.0059606107
000360 8d 46 0e be 5d 6b 0f be a0 b6 20 be 6d 59 6b bc
       -0.138941 -0.140058 -0.15694666 -0.0143645825
000370 72 c3 c3 bd 08 c9 3c bd e4 b3 23 3c e6 e3 3b 3d
       -0.095587626 -0.046090156 0.00999162 0.045871638
000380 29 cc 0b 3e 99 be bb bd 60 d1 f9 bd ac c7 65 be
       0.136521 -0.09167213 -0.12198138 -0.2243945
000390 08 6f 1b 3d cf cd ae bd 27 5b bf bd c3 59 4e 3d
       0.037947685 -0.085353486 -0.09343558 0.050378572
0003a0 7f 7e 37 be 8d 6c 9f bd b2 6f 19 bd 40 52 0e bd
       -0.17919348 -0.07784376 -0.037460037 -0.03474641
0003b0 30 96 b1 bd 03 87 78 bd ea 1f 1c be 40 30 a5 bd
       -0.08671224 -0.060675632 -0.15246549 -0.080658436
0003c0 67 41 98 3c 3a 32 4c bd 43 ef 44 3c b7 38 e6 bb
       0.018585874 -0.049852587 0.012019935 -0.007025804
0003d0 17 4b 92 bd 85 e8 96 bd 32 a3 36 bd 72 8d cf 3d
       -0.071432285 -0.07368568 -0.04458923 0.101344004
0003e0 f1 aa 0d bd 9f f3 46 bd 7f 46 ac bd a4 a7 90 3d
       -0.03458685 -0.04857218 -0.084118836 0.07063225
0003f0 60 35 72 be 8b b0 b2 3d 54 0e d8 bd 06 5b 9c bd
       -0.23653173 0.08725079 -0.10549608 -0.07634549
