models/modello_seq2seq_20250801_1755.pth (torch, 566646 bytes, 20 tensors)

encoder.lstm.weight_ih_l0 f4 [256, 57]
00000000: 0017 25bb f2fd 8c3d cf4c 553d e8b8 eb3c
00000010: 5f99 aabd dc4d 673d af49 06be c90c 263e
00000020: 900f dd3e 944a 9a3e c7ac ec3e 6add ae3d
00000030: 17c2 a1bd 1689 e5bd b2bb b93d e312 75bd
00000040: f480 3dbd 8067 2f3d 6c39 343d b46a f13d
00000050: ce0a babd 2f04 3c3e 405c 7a3d cac4 cdbc
00000060: 0e5f 7abe 8f0b 33be 7547 823c 78b2 94bd
00000070: 81b3 7d3d fd07 153e e0d9 2d3e b1d1 4a3e
00000080: 8b8b 983c 8682 353e 629b 43bc 01f2 b23d
00000090: 2968 2c3e d11b d13d cf42 d23d f4c6 97bd
000000a0: 49ff e4bd 088a d43d 8bd3 ae3d 7996 0f3e
000000b0: b4b6 603e e168 443e 355b 1d3e a757 283e
000000c0: 61a3 583c fdd4 98bd f075 c73c 022b 563e
000000d0: 61c4 3b3d 9003 f53b 6536 38bd 3519 2c3d
000000e0: 0e9c 213d 4884 8ebc 52a7 a2bd 0b90 0f3e
000000f0: 7314 84be 27b1 4a3d 115e 403d 6882 6d3e
00000100: b667 dc3c a9c3 2f3e 56a5 173e 20ea 193e
00000110: bfd9 2fbd e532 03be b3c7 99bd 88f3 e53c
00000120: 8bb5 b33d 842f 823c 165f 903d 90e6 3c3d
00000130: 988a ba3c d426 643c 64ce 303d 1a87 513d
00000140: fbfa 493d 8407 743e 011b 7b3e a70d 403e
00000150: a5b9 e23d 9e92 8d3d b841 edbc 5c70 973d
00000160: 63b1 5e3d 01cd 08be 92f5 613e ccf4 463e
00000170: a3ad 173e 5a98 573e d7df 953c 5463 073e
00000180: 854d 8abd 5352 93bd 0fde 7d3d 7f51 e1bd
00000190: 7832 cabd 13ad 4c3e 417a fd3d 6630 2e3e
000001a0: 50a5 023e 9aed 303e bf14 e8bd 0070 eabb
000001b0: 21b8 0d3e d1ba 913d 1240 bc3d c24e 1d3e
000001c0: 7abf cebb 04c6 883d 9882 8c3c 311b 2d3e
000001d0: 0f42 18be ee99 893d fbd1 203e ec76 f8bc
000001e0: d2bd d23e 1e8f d23a 9411 463b e817 573d
000001f0: ce00 15bd 2f33 263e a22c 923a e171 cc3d
00000200: be53 253c 173b a53d f9e7 e53d e5d7 d03d
00000210: 3b2c 06be 0964 f43d 8876 2e3e 09c8 b93b
00000220: 78bb 863d 8d17 5b3e fe1d cf3e b332 a33e
00000230: bf57 e63e 1f65 983e c1f7 5cbc dc80 05bb
00000240: b9d4 513e f2c9 ebbb d8b7 7dbe e08b 50bd
00000250: 5da4 bd3d bf01 1c3e b404 57bc 1d6d 603d
00000260: 3f31 49bd 6c43 02be 8f04 9abd 8f8c cabc
00000270: d0b8 c7bd 300d 87bd b8c4 c43d 99db 063e
00000280: b21d 7e3e c249 cc3e 40fd 793e 02e3 0d3d
00000290: 66eb 29bd c9b8 d0bd beca e8bd 3c0b e93d
000002a0: b806 013e ac7e 933e bc44 b23d 80f2 de3c
000002b0: ab28 63be 7bd6 6ebe adca bcbd cacd 31be
000002c0: ea02 bfbd 3bb8 96bd 9199 d3bc 8588 243e
000002d0: de79 fb3c 8e5b a13e fc22 443d 3b71 1f3d
000002e0: 27eb 3abc 20db ff3d f5b5 273c cb6b 963d
000002f0: 217a 023d 18a0 c0bd edbb 6dbc 32d0 4bbd
00000300: bdac 323e b680 f23c aadd 883e 4d80 fabd
00000310: 0bd5 6cbe 8327 a4be 77a9 52be 0de0 663e
00000320: c294 9dbd dd66 88be f644 69be 9555 64be
00000330: 24e6 b53d 203f c23d 20c0 e03d ab18 3c3e
00000340: 75eb 523d 8f26 313e 312a abbc 2990 30be
00000350: e2f8 4b3d 0280 91bc bbf0 dc3d 78fa 743e
00000360: ca05 103e 2d78 74bd 1e23 aebd 95c6 a63d
00000370: 956d 35be a916 b73e a956 2a3d df8d be3d
00000380: b1ed 8d3e 94f4 12bd 8328 8fbc 5031 e7bd
00000390: 5a95 bf3d a505 a43d abe1 c13c 67b8 733d
000003a0: df8c cd3d 247f 61bd 29a0 9e3d 6a00 b13d
000003b0: b234 a53c 5437 053e b4e2 243e 2727 4abd
000003c0: cca8 ff3d 30bb f53c 9d1e c33b 4b24 833d
000003d0: 23a9 753c 8083 333e 828c 483e 74c4 e23c
000003e0: a9b2 1b3d 2f8e 453e 03cb ba3d 78c5 133d
000003f0: f22a 8bbc c7f0 733d e68f 293d bbf2 043e
-0.002519071 0.06884374 0.052075204 0.028774694 -0.083300345 0.056470737 -0.13114046 0.16215815
0.43175936 0.30135024 0.4622557 0.08538325 -0.07898348 -0.11207788 0.09069003 -0.059832465
-0.046265557 0.042823315 0.044000074 0.1178793 -0.09084092 0.18360971 0.061123133 -0.02511825
-0.24450323 -0.17484878 0.015903214 -0.07260603 0.061938766 0.14553829 0.16977644 0.19806553
0.018621227 0.17725572 -0.011938902 0.08737565 0.16836609 0.10210384 0.10266649 -0.07410994
-0.11181504 0.1037789 0.08536442 0.14022245 0.21944696 0.19180633 0.15366824 0.16439687
0.013222546 -0.07462499 0.02434823 0.20914844 0.04584158 0.0074772313 -0.04497375 0.042016227
0.039455466 -0.017397061 -0.0794207 0.14019792 -0.25796852 0.049485352 0.04696471 0.23194277
0.026904922 0.17164482 0.14809164 0.15030718 -0.04293227 -0.12812383 -0.07508793 0.028070226
0.08774861 0.015891798 0.07049386 0.04611832 0.022771165 0.013925273 0.04316558 0.051154234
0.04931162 0.23830992 0.2452202 0.18755208 0.11070565 0.06912731 -0.028962001 0.07394478
0.054368388 -0.13359453 0.22066334 0.1942932 0.14812331 0.21054211 0.018295212 0.13221484
-0.06753067 -0.071934365 0.06197935 -0.11001872 -0.098729074 0.19987898 0.12376834 0.1701065
0.12758374 0.17278138 -0.11332082 -0.0071544647 0.13839771 0.071157105 0.09191908 0.15362075
-0.006309447 0.066783935 0.017152116 0.16904904 -0.1486895 0.06718813 0.15705101 -0.030330144
0.41160446 0.0016064381 0.003022288 0.052513033 -0.03637772 0.16230462 0.0011152218 0.09982658
0.0100907665 0.08067911 0.11225886 0.101974286 -0.1310281 0.11933143 0.17037404 0.005669598
0.065787256 0.21395703 0.4045257 0.31874618 0.4498882 0.2976465 -0.0134868035 -0.0020370996
0.20491304 -0.0071957046 -0.24777162 -0.050914645 0.092598654 0.15235041 -0.01312368 0.05479156
-0.04911923 -0.12721032 -0.07520401 -0.024725227 -0.09752047 -0.06594312 0.096078336 0.13169707
0.24816015 0.39900023 0.24413013 0.03464032 -0.04148426 -0.10191495 -0.11366795 0.11379096
0.12600219 0.2880758 0.08704516 0.027215242 -0.22183482 -0.23324005 -0.09218345 -0.17363659
-0.09326728 -0.07359358 -0.025830062 0.16067703 0.03069776 0.31515163 0.047884926 0.038926344
-0.011408604 0.12492967 0.010236253 0.073447786 0.031854752 -0.094055355 -0.014510137 -0.049759097
0.17448707 0.02960239 0.26731616 -0.12231503 -0.23128144 -0.32061395 -0.20572458 0.22546406
-0.07694389 -0.26640978 -0.22780213 -0.22298272 0.088817865 0.094846964 0.10974145 0.18368785
0.05149408 0.17299865 -0.020894142 -0.17242493 0.0497979 -0.017761234 0.10788103 0.23923671
0.14064708 -0.05968492 -0.08502792 0.08143345 -0.17717583 0.35759476 0.04158655 0.093044035
0.27720407 -0.03587778 -0.017475372 -0.112887025 0.093546584 0.08008889 0.023667177 0.05950203
0.10036635 -0.05505289 0.07745392 0.08642657 0.020166729 0.13009387 0.16102105 -0.049353745
0.12483367 0.029996485 0.005954577 0.06403407 0.014993939 0.17530632 0.1958485 0.027681567
0.03801218 0.1929252 0.09120753 0.036076993 -0.016988251 0.059555795 0.041396998 0.1298322

encoder.lstm.weight_hh_l0 f4 [256, 64]
00000000: a5fd f33b 3500 74bd 78b7 563e 5041 b2bd
00000010: d72f 353e 5a8a 583d 4528 83bd c403 693d
00000020: 6a5b 1ebe 06d1 963d 8468 a53d 11ed b53d
00000030: 8285 bcbd 2d51 683d 2cb7 5cbd 02a3 78bc
00000040: 775e 573d 9065 013e 89d9 dcbc b442 f6bd
00000050: af4b c93d 90c2 873d 5a2a bbbd 5698 66be
00000060: e75c 803e bb9d 713b f2ed f7bd 6585 3b3e
00000070: 55e0 823d 157f 10be 185b f83d c3ee 043e
00000080: 5c35 c8bd 694c 043e 2d00 593d 3744 a43d
00000090: 2d51 fc3c 7d9e 02be 285a 0ebe f805 503c
000000a0: 97b5 90bd b159 c03d cfa1 ef3d 9d8a 8b3d
000000b0: 15f9 183c 4a04 32bd c658 86be 23a4 95bc
000000c0: a9bf 68be d82c 1dbd 7eec 8dbd 122b 24bd
000000d0: d97f 27be c411 98b9 f1f6 623c 0052 25be
000000e0: a7dd b7bd bb4d 033d 43a3 ef3d 69ce 6fbd
000000f0: 80a6 fabc 2121 703d dd44 cfbd dcfe 50bb
00000100: 110e 77bd f2b6 893c fe07 5c3d 97c0 8cbd
00000110: 9b32 98bc ce67 b03d 7927 003e 9488 8cbd
00000120: 6362 c4bd 149e 96bd 7362 053e a3f2 47be
00000130: 6b84 283d 3e25 1bbe 4b4c 08be fdf2 f03d
00000140: bc80 263d e412 093e 9db1 4ebd 4e3f a03d
00000150: b13b 7e3c cc93 933d cf2d a33c d8ba d43c
00000160: 3cf9 86bd c5d9 a1bd 224f 8c3d aebc 1d3e
00000170: 6636 fe3d 7cd1 113e c557 553e 8624 ae3c
00000180: 0e1c 62bc 942e 0a3d 6e75 a23c 448e bf3d
00000190: 0821 de3e d744 f7bd 56d1 c2bd 3954 923d
000001a0: 6e22 81bd d4a6 37be ffc1 60bd 3126 c23d
000001b0: 48a8 243e 5c1f e0bd 623b 50bc 82d4 4dbe
000001c0: ca7b 42bd 0ab1 4d3d bf7b 143c dbdb d93d
000001d0: 2a5e 14be 0766 363c f174 373d 7ffe dbbc
000001e0: 64e9 0bbe 3da1 b53d ec98 6ebd f4ac 333e
000001f0: ff0e 583e c9b9 12be 05bd 003b 9c76 2abe
00000200: 1ee0 903d 65d5 3b3e d332 23be f9c7 e8bc
00000210: 11f7 68bd a4de 3a3e 4965 7bbd 06a0 97be
00000220: 2e0e 30bd fb25 b03d 18fb 2abd 3392 ddbd
00000230: cf9a 0a3e e58c 113e 2b16 593d 84b4 503d
00000240: 9202 34bd 974f 65bd 37ba 273c 7a57 eebd
00000250: d572 ad3d a5cc a03d d6d1 5abd b728 abbc
00000260: 7bad 06be ecc5 643d 22a3 cabd d666 f23d
00000270: acfa 8b3d f240 253e 14ce e63d f5ae d8bd
00000280: 65a6 a1bd 72ec 923d a526 13be 161b 813e
00000290: 9c0b 973e 799b 6fbe 4ea6 333e 9596 de3c
000002a0: d402 e23d 1129 f13c 2407 c9bd 4eca b6bd
000002b0: 27ab 08bd 8668 1c3e c7c9 803d 0b4b b4be
000002c0: 8034 613e 2ae1 13bc 5374 ae3d 7dc9 893d
000002d0: 9c5c c3bd 550f 103e e744 efbd b462 873d
000002e0: e5ca fc3c c49e 9c3d 0492 bebd 2132 b2bd
000002f0: 06ea ce3d 337b 0cbb 7f28 483b 06d4 a23d
00000300: a4aa ddbd f88a b3bd 7985 cd3d 2cf2 9dbd
00000310: 2111 d13d f26e 133e dafa 4fbc 3707 1d3d
00000320: b1b4 75be 614d 93bd 89ce 253e 1e2b 5fbe
00000330: 3030 1ebe 613b 9ebd ceb7 90bd 45dd b13d
00000340: 57f1 f53d 7029 943b 4213 00be 3b6e 58be
00000350: 03da 9c3d 0305 163d 410e acbe c229 6a3d
00000360: 3a0e 2a3e e3e2 f9bc 01ff 13be 4112 583e
00000370: 74d9 e93d 0d93 263d 1f47 b6bb 2c1e 3dbd
00000380: a232 7f3b d712 b03e 6086 4f3e 5652 85bd
00000390: f695 54be 2ab0 5cbe e9b0 88be f5cf b13d
000003a0: 4c79 32be 22af c83c 2621 303b 67cb 353e
000003b0: 2d0c 6dbd 3efd be3d 5466 85bc 6707 a0bd
000003c0: 1de2 21be 6e2c 51be 2067 4fbe 5893 0abe
000003d0: ef4e a9be eec3 633d b285 0c3e 94a1 acbe
000003e0: 0609 54be 3d71 8c3e 08c5 03bd 5568 8d3d
000003f0: 8fa8 073e 5085 2b3d aea1 89bd bf33 b33d
0.0074460083 -0.05957051 0.20968425 -0.087038636 0.1769403 0.052866317 -0.06404165 0.056888357
-0.15464559 0.07364087 0.080765754 0.088831075 -0.09205152 0.05671804 -0.053885624 -0.015175583
0.052580323 0.126364 -0.026959198 -0.12024441 0.098288886 0.06628907 -0.09138937 -0.22519049
0.2507088 0.0036867696 -0.12105931 0.18312605 0.06390444 -0.14110978 0.1212675 0.12981705
-0.097758025 0.12919773 0.052978683 0.080208234 0.030800426 -0.12755771 -0.1390158 0.012696736
-0.070658855 0.09392107 0.117007844 0.06813548 0.0093367295 -0.04346112 -0.26239604 -0.018266743
-0.22729363 -0.038372844 -0.06929873 -0.040080138 -0.16357364 -0.00029004936 0.013852821 -0.16144562
-0.08977824 0.03205655 0.117010616 -0.058546457 -0.030596972 0.058625344 -0.101205565 -0.003189019
-0.06031615 0.016810868 0.05371856 -0.06872671 -0.018578818 0.08613549 0.12515058 -0.06861988
-0.09589078 -0.0735437 0.13025837 -0.19526152 0.04114191 -0.15150926 -0.13310353 0.11765096
0.040650114 0.13386112 -0.050462354 0.078245744 0.015517161 0.072059244 0.019919304 0.025968
-0.065905064 -0.07902864 0.06851031 0.15404007 0.124127194 0.14240068 0.20834263 0.02125765
-0.013800634 0.033735827 0.019831385 0.09353307 0.43384576 -0.12073677 -0.09512584 0.071449704
-0.06305395 -0.17934734 -0.05487251 0.09479941 0.16079819 -0.10943481 -0.0127094705 -0.20100597
-0.047481336 0.050217666 0.0090627065 0.10637637 -0.14489046 0.011132724 0.04478926 -0.026854752
-0.1366325 0.088686444 -0.058251306 0.17546445 0.2109947 -0.14328684 0.0019643914 -0.16646808
0.07073997 0.18343122 -0.15937357 -0.028415667 -0.056876246 0.18248993 -0.06137589 -0.29614276
-0.042982273 0.08600994 -0.041743368 -0.10818901 0.13535617 0.14213903 0.052999657 0.050953403
-0.043947764 -0.055984106 0.010237268 -0.116377786 0.08469168 0.07851533 -0.05342277 -0.020893438
-0.13152115 0.055852816 -0.09894396 0.11836021 0.06834921 0.16138056 0.11269775 -0.105802454
-0.07893065 0.071740046 -0.1437021 0.25215977 0.29501045 -0.23399152 0.17543909 0.027171412
0.11035696 0.029438527 -0.09815815 -0.08925305 -0.03336635 0.15274248 0.06288486 -0.35213503
0.21992683 -0.009025851 0.08518281 0.06727884 -0.09539148 0.14068349 -0.11683064 0.06610623
0.030858466 0.0764747 -0.09305194 -0.087009676 0.1010323 -0.0021435737 0.0030541716 0.079505965
-0.10823563 -0.087667406 0.100352235 -0.07712206 0.10208345 0.14397791 -0.012694085 0.03833696
-0.2399471 -0.07192493 0.16192068 -0.21793792 -0.1544807 -0.077261694 -0.07066308 0.08684782
0.120089225 0.0045215413 -0.12507346 -0.211358 0.0765877 0.036625873 -0.33604625 0.05716873
0.1660699 -0.030503696 -0.14452745 0.21100713 0.11418429 0.040667582 -0.0055626775 -0.046171352
0.0038940092 0.34389374 0.20266104 -0.06509845 -0.2076033 -0.21551576 -0.26697472 0.08682243
-0.17429084 0.024497572 0.0026875227 0.17753373 -0.05787294 0.09325646 -0.016284145 -0.07813912
-0.15808912 -0.20427105 -0.20254183 -0.1353277 -0.33068034 0.055606775 0.13722876 -0.33717024
-0.20706567 0.27430144 -0.032170326 0.069046654 0.13247894 0.041875184 -0.06720291 0.08750104

encoder.lstm.bias_ih_l0 f4 [256]
00000000: deb4 593e e9d1 423d 6dfa b93d ed0e ecbd
00000010: 86f4 fcbd c8a4 01bd e581 dbbd bd9a b1bd
00000020: d723 123e b811 fabd eeec 0abe 180c 9bbd
00000030: 4c9b d4bb 797b e43c 37b6 bdbd b046 5dbd
00000040: d823 ad3d b108 ccbd c056 903d b3c6 30bd
00000050: 6abf 9dbd 7f19 84be 4dbe 503e 92c8 64bc
00000060: b423 113e 2842 d53c 9d59 dabd c843 463d
00000070: 3da5 033c 9f65 a23d f437 853c 5ada 1bbe
00000080: 1e6f 67bd be72 e1bc 9ef7 22be d49f 9dbd
00000090: 8180 0cbe 433d 4abe d546 0ebd 6244 4c3d
000000a0: 0d8f 5fbe 2f7b 0e3e ef51 bcbd 14bc 08be
000000b0: b7f2 adbd 001e 81bc 099e 88bc e5ee 0ebe
000000c0: 6853 003e 23ea 1abe 51d6 37be 84e3 18bd
000000d0: 4ef6 f43d 9586 81be 1318 2e3e 937c 143e
000000e0: 4360 c13b 49d4 81bd b51e 51ba 1704 c6bd
000000f0: b63f cc3d e57d 003e ccbc a1bd 3560 a3bd
00000100: c581 06be 7711 8dbe f9ad 7cbe 557f 53be
00000110: 625a 12be afef 9d3d e073 47be b14f 9c3c
00000120: 0fa8 bfbd 9dc3 89be 45e0 92be 674b 013c
00000130: a168 31be caf8 2cbe a719 a23c 4b0f 6fbd
00000140: 85fa c9bd 96e0 20be 5944 37be dd82 9dbd
00000150: c43e 2cbd 4842 d1bd 5b34 15be 051f 5fbe
00000160: 493e 81be cac1 c1bc 8dd4 4ebd c374 c7bd
00000170: 3b7d d9bd a31f 39be f43c 46bd 5660 5abe
00000180: 485e aebd 3762 d63c 291e 20be 69c7 cbbd
00000190: 8df9 03be d091 1cbd 1ed8 36be a19c b1bd
000001a0: 6a5f 80be f768 b7bb be8d 30be 94a0 503d
000001b0: 5468 53be a0ae 29be dcb8 b3bd b326 1dbe
000001c0: 6d17 c4be 83d9 5cbd 23a6 ecbc 94e8 e3bd
000001d0: 8d8a e6bd a030 aabe 9436 94be d068 3cbe
000001e0: 93e0 a03c ddd1 2fbe 10a6 3abe 9afd 19be
000001f0: 6e92 2dbd b226 50bd 05de f03a 0145 adbd
00000200: a018 47bd dc47 3a3d 5495 f0bd 00cc 4b3d
00000210: 8f3c 0fbe 6067 153e 7ec4 4a3d 2575 953d
00000220: f968 38bd 19a2 f9bc 1888 54bd 5106 7c3c
00000230: ead9 f5bb e16c 823c 6f5c 9a3d fbae 49bd
00000240: 819b d0bc 2981 b1bd 1a3c e13d e0f0 943d
00000250: f507 c0bd 2fc3 973c 0333 123e 87b6 d73d
00000260: 99a8 0bbe 6e8e 3dbd b7a2 5b3c 2e8e d9bd
00000270: 4a1a 663d 378a febc 7953 a1bd 907d e43c
00000280: cc21 61bc 546b 163c 4ba5 7cbd a158 ba3b
00000290: 0e70 4fbd a3ce 953b 804d cd3c 27e9 7fbd
000002a0: 0511 4e3d e578 a43b 6b11 dc3d 3117 68bd
000002b0: 936b bbbd 1d39 46bd 7fe7 923c d57e 7bbd
000002c0: 409d 403b 4da6 913c a8e5 62bd 11d5 073d
000002d0: 7c20 dfbd 64d4 6ebd d13a da3c f105 19bd
000002e0: 192b cb3d a7df 98bd 1f97 03bd 7b20 42bc
000002f0: f7b9 dfbd 7c95 8cbd fd38 07bd 61b5 dcbd
00000300: c2b7 ba3d 4fd3 bb3d fefc bdbc 748c 9f3d
00000310: 3408 14bd c573 92bd 25d4 203d 3f2d 23bd
00000320: 4213 1f3a 1471 4fbe 54cb 7dbe 2443 97bd
00000330: 0e6f 943c 92b0 04bd 72ca 7f3b d62a 213d
00000340: 2c79 dcbb 911b 6abe a527 013e b6fc bf3c
00000350: cade d3bd 5e5a a5bd 6d4f 1f3e e6bf 4ebe
00000360: b99e 393d c375 1dbe 3ccf c3bd ebc2 5fbd
00000370: c18f f0bd 6f9b 813d 821c 023d 5da2 cfbd
00000380: e6a7 6cbe 88e1 06be fe88 083c 00b8 b23d
00000390: a96a e2bd b003 10bd 7db5 943d 4b38 223c
000003a0: c300 52be a566 623d 9f22 1abe 3c9e 9e3c
000003b0: 4e0e 91bc e0fd 293d fa58 f93d 169e 30be
000003c0: 8b58 123e c870 e53c 89c8 8cbe 7800 c6bb
000003d0: a22e 263e 1198 17be 9c1d 753d a4a4 843d
000003e0: 7344 f1bd 66e6 10be 9976 0ebd 0cb7 83bd
000003f0: 3359 183d 5f02 8b3d 4fc2 aabd 00cf 63be
0.21260402 0.047563467 0.09080968 -0.11526284 -0.12351327 -0.03165129 -0.10718135 -0.08672092
0.14271484 -0.12210411 -0.13566944 -0.07570666 -0.0064882394 0.027890908 -0.0926327 -0.05402249
0.08454102 -0.09962595 0.07047796 -0.043158244 -0.07702525 -0.25800702 0.20385094 -0.013963835
0.14173776 0.026032522 -0.106616236 0.048404485 0.008035001 0.07929539 0.016262032 -0.15220013
-0.056502454 -0.027520534 -0.15914771 -0.076965004 -0.13720895 -0.19749932 -0.03473552 0.049869902
-0.21831913 0.13914178 -0.09195315 -0.13352996 -0.0849356 -0.015761375 -0.01667692 -0.13958319
0.12531817 -0.15128379 -0.17952849 -0.03732635 0.119610414 -0.2529799 0.17001371 0.14500646
0.005901368 -0.06339318 -0.0007977293 -0.09668749 0.099730894 0.12548025 -0.07897338 -0.079773344
-0.1313544 -0.27552387 -0.2467574 -0.20654042 -0.14292291 0.07711732 -0.19477797 0.019080969
-0.093582265 -0.26907054 -0.2868673 0.0078915125 -0.17325069 -0.1689178 0.019787623 -0.058364194
-0.09862236 -0.15710673 -0.17897166 -0.07690976 -0.042052045 -0.1021772 -0.14570753 -0.21789177
-0.25242832 -0.023651976 -0.050495673 -0.097390674 -0.10619589 -0.18078475 -0.048397973 -0.21325812
-0.085140765 0.02616988 -0.15636505 -0.09950144 -0.12888165 -0.038224995 -0.1785588 -0.08672453
-0.25072795 -0.0055972296 -0.1724157 0.05093439 -0.20645267 -0.1657052 -0.087754935 -0.15346794
-0.38299122 -0.053918373 -0.028887814 -0.11128345 -0.11256895 -0.33240223 -0.2894789 -0.18399358
0.019638335 -0.171699 -0.1822741 -0.15038148 -0.042375974 -0.050818153 0.0018376714 -0.08460427
-0.04860747 0.045478687 -0.11747232 0.049755096 -0.13987945 0.14590216 0.049503796 0.07297734
-0.045021985 -0.030472802 -0.0518876 0.015382365 -0.007502784 0.015921058 0.075371616 -0.04923914
-0.025464775 -0.086672135 0.109977916 0.07272506 -0.09376518 0.018525688 0.14277272 0.10532861
-0.13638534 -0.04627841 0.013405493 -0.10622822 0.056177415 -0.031071765 -0.07877249 0.027891904
-0.013740968 0.009180862 -0.061681073 0.005686835 -0.050643973 0.004571752 0.025061369 -0.06247821
0.0503092 0.0050192946 0.1074551 -0.056662742 -0.091513775 -0.04839431 0.017932652 -0.061400253
0.0029390603 0.017779494 -0.0553948 0.03316218 -0.10894868 -0.05830802 0.026639374 -0.03735918
0.099203296 -0.07464533 -0.032126542 -0.011848564 -0.10924142 -0.068644494 -0.033013333 -0.10776783
0.0911708 0.09171163 -0.023191925 0.07790461 -0.036140636 -0.071509875 0.039264817 -0.039838072
0.0006068238 -0.2025798 -0.24784595 -0.07385853 0.018119361 -0.032394953 0.003903058 0.039347492
-0.006728312 -0.22862078 0.1261278 0.023435932 -0.10345228 -0.08073877 0.15557642 -0.20190391
0.045317385 -0.15376954 -0.09561011 -0.054629248 -0.11746169 0.06328475 0.03176547 -0.1013839
-0.23110923 -0.13171971 0.008333443 0.087265015 -0.110555 -0.035159767 0.07261179 0.009901117
-0.20508103 0.05527367 -0.1505227 0.019362561 -0.017707016 0.04150188 0.12175174 -0.17247805
0.14291589 0.02800788 -0.27496746 -0.0060425363 0.16228727 -0.14804102 0.05984269 0.06476715
-0.11780634 -0.1415039 -0.034781072 -0.06431398 0.037194442 0.067875616 -0.08337843 -0.22246933

encoder.lstm.bias_hh_l0 f4 [256]
00000000: 34d6 213e e40b bfbd d3de 9bbd 5ba5 b2bd
00000010: fd56 aa3d 8808 c53d f4af 07be 0374 e23d
00000020: d5ea 62bd 1227 44bd 1441 07be d22a df3d
00000030: 879b b73d 8acd 8ebd c4c1 a8bd f738 273c
00000040: 4321 de3d c3cf c4bd ac71 963d 30e3 1f3e
00000050: 63f1 cb3c a2dc 9cbc 614c 693c 7b8b e4bd
00000060: 93b2 c13c 0b81 cdbd 6ab4 febd f89d f73d
00000070: ffed 803d ea27 e9bd 2afa 81bd cec1 61be
00000080: 0964 4f3d 7c32 4bbe d47e 403d a8a2 39bd
00000090: 24b6 27be 1ceb 4fbe e46e 81bc 1d33 8fbd
000000a0: b079 46be ad2f ee3b 85ca e1bd 6044 0dbe
000000b0: 1525 883c 5092 44be f044 cebd 23c0 41be
000000c0: df66 233d b82d f5bd b174 33be 4e6f b7bd
000000d0: 5736 493e 362f dbbd 08d8 b83c 66dd 5d3d
000000e0: eaee 98bd a573 a2bc 2ff4 1cbc c29d 09be
000000f0: ec04 523d d9aa 9bbd b634 ae3d 1524 4cbe
00000100: 55a4 52be 68f3 b8be b165 2dbe 071a 8abe
00000110: 864d b0bd e591 fb3d 8216 08be e805 5ebc
00000120: 2f2f 3fbe 31b0 44be 44f3 0abe d7a0 e4bd
00000130: ddc6 cbbd 0ce0 debd 2f82 b5bd 568f 4dbe
00000140: 9af6 63be 2c8d 4ebe 3db1 55be a3fe 6b3d
00000150: 4ba4 a6bc 6268 1abe 7f56 0cbe bcb7 79bd
00000160: 9b70 91be 4dfa 9cbb 6117 88bd 3c46 ccbd
00000170: f12d c2bd 135d 31bd 53e7 02bd da3c 8cbd
00000180: ebd4 3dbd fc65 a9bd 1eb8 80be 91fd 01be
00000190: 8a3c 90bd ee0c 40bd 03b3 afbe 1435 09be
000001a0: f374 82be c08a 483c 0ef0 5dbe 7433 9a3c
000001b0: 7381 a5be ff3a cfbc a295 1cbe c22b 2dbe
000001c0: 8ae7 2fbe d27c 76be 0137 3fbc b08a 57be
000001d0: 8b86 b43d 360a 8ebe 9aa9 3bbe 2568 1cbe
000001e0: 70bc aebc 5162 d2bd a4b0 dbbc eb05 6bbe
000001f0: ac5a f2bd c1ae 00be 72ce f9bd 800e 97bd
00000200: d2be ca3d 0032 8ebc 4c46 e9bd 7704 0e3b
00000210: f7d8 e1bc c647 90bd a156 01be 46ad 813d
00000220: 1c1a 933d fb93 c63d cb0c 1fbd b070 003e
00000230: 8cc3 88bc 97eb cb3d 4d46 25bd 983a 3ebd
00000240: 084c 1d3d 9fba 8dbd 701e 56bd 63e2 e23d
00000250: f7b0 293c c896 c7bd 699e ae3d 9317 313d
00000260: fb82 053a d63e 183e 8828 33bd 5654 c4bc
00000270: 5eef 01be 926c d83d ff37 dbbc b111 5d3d
00000280: a0da 223d 58d7 00be 7087 bcbc c019 0c3e
00000290: 09eb 223d e84a 883c 84cf df3d 3507 053e
000002a0: e1a4 593d 0465 b03d 35cb 033c b31b afbd
000002b0: e7a8 4c3d 0d8b 943d ecd1 22bd 2564 1b3c
000002c0: cc5a d43c 3241 6a3c 03cb 5a3d a3d4 bd3d
000002d0: 2a44 9b3d 7c34 053e 309e d03c cf03 0a3e
000002e0: 376d d13c ed8f bd3c 11f8 fb3c 5191 113e
000002f0: 519f 493c 483b df3d dbe4 f5bc cbfa dcbd
00000300: 5cde 92bd fd93 413d 6e0d 7abc 5462 e4bd
00000310: 9f06 a4bd f3cd a5bd 00a1 ef3c 6fda 82bd
00000320: 212b 183e ac01 33be 4916 e5bd b04a 223e
00000330: 3cdb dcbd 9bdf f9bc 5b37 cc3c 6101 e3bb
00000340: 3543 0dbd 44de 7bbe c91a 293e 60d5 dd3d
00000350: 5a64 663d cd03 94be 141a 443e bf55 0abe
00000360: 4b90 7c3d 4d62 433d c5fd 9dbd e951 04bd
00000370: 5f76 0a3c f7ae 9fbc 9ee8 e93d 2e74 62be
00000380: b933 d1bd 8e73 67be 4998 19bd 5676 10be
00000390: 462b 15be 2c22 55be 2fcf 633d f914 853d
000003a0: b5d1 05bb 5ab2 27bd 32d3 91bd 87aa 083d
000003b0: e466 17bd 69d3 d0bd 1a9a 013e dd88 d8bd
000003c0: b298 ee3c ab8a 03be 80f8 92be 29f1 1ebc
000003d0: 7f5b 1a3e 804b 42bd 50fd 493d 3003 0dbd
000003e0: 03f6 48bd d2fe d6bd ffda 3dbe eae1 f53b
000003f0: 42a0 29bd 0f64 1abc 057e 89bd 9c4c afbd
0.15804368 -0.0932844 -0.0761086 -0.08722945 0.08317373 0.09620768 -0.13250715 0.11057284
-0.055399735 -0.047888823 -0.13208419 0.10896839 0.08965211 -0.06972797 -0.08240083 0.010206453
0.10846188 -0.0960994 0.073459 0.15614009 0.024895376 -0.019148175 0.014239402 -0.11159416
0.023644721 -0.100343786 -0.12436755 0.12090677 0.06295394 -0.11384566 -0.06346543 -0.22046587
0.05063251 -0.19843477 0.046995953 -0.045321137 -0.16378075 -0.20304531 -0.015799947 -0.06992171
-0.19382358 0.007268867 -0.11024956 -0.13795614 0.016619245 -0.19196439 -0.100717425 -0.1892095
0.039893027 -0.11971611 -0.17524983 -0.089567766 0.19649635 -0.10702364 0.02256395 0.05416622
-0.07467444 -0.019830534 -0.009579702 -0.13439086 0.051274225 -0.07600946 0.085061476 -0.19935639
-0.205705 -0.36123204 -0.16933323 -0.26972982 -0.086085364 0.122836865 -0.13289836 -0.013551213
-0.18670343 -0.19207837 -0.13569361 -0.1116349 -0.099500395 -0.10882577 -0.08862721 -0.2007421
-0.2226204 -0.2017104 -0.20868392 0.057615887 -0.020342013 -0.15078881 -0.1370487 -0.06096624
-0.28406224 -0.0047905804 -0.06645084 -0.09974334 -0.09481419 -0.043301653 -0.03195889 -0.06847544
-0.046345633 -0.08271405 -0.2514047 -0.12694384 -0.07042797 -0.04688733 -0.34316263 -0.13399154
-0.2547985 0.012240112 -0.21673605 0.018823363 -0.32325324 -0.025296686 -0.15291455 -0.16911224
-0.17178169 -0.24071053 -0.011670829 -0.21048999 0.088147245 -0.27742165 -0.18326417 -0.15274103
-0.021330088 -0.102726586 -0.026817627 -0.22951476 -0.118337005 -0.12566663 -0.121975794 -0.073758125
0.09899677 -0.017357826 -0.11390361 0.0021670142 -0.027569277 -0.0704494 -0.12630703 0.063318774
0.07182714 0.09696194 -0.03883056 0.12542987 -0.016694807 0.099570446 -0.040350247 -0.046442598
0.038402587 -0.06920361 -0.05227512 0.11078336 0.010357133 -0.09745556 0.08526308 0.043235373
0.0005093065 0.1486772 -0.043739825 -0.023965996 -0.12688968 0.10567583 -0.0267601 0.05397195
0.03975928 -0.12582147 -0.0230138 0.13681698 0.03977493 0.01663728 0.10928252 0.1299103
0.053135756 0.08613017 0.008044054 -0.08550205 0.049965765 0.07253084 -0.03975098 0.009484326
0.025922202 0.01429777 0.053416263 0.09269073 0.07581361 0.13008302 0.025466055 0.13478015
0.025564773 0.023139918 0.030757936 0.1421559 0.01230605 0.10899979 -0.030016353 -0.107900225
-0.07171318 0.047260273 -0.015261991 -0.11151567 -0.080090754 -0.08095922 0.029251575 -0.06389319
0.14860202 -0.17481107 -0.11185891 0.15848804 -0.10784003 -0.030502131 0.02492874 -0.0069276546
-0.03448792 -0.24596506 0.16514124 0.10831714 0.056248046 -0.2890915 0.19150573 -0.13509272
0.061661046 0.04770117 -0.07714418 -0.032304678 0.008451073 -0.01949261 0.11421321 -0.22114632
-0.102149434 -0.22602674 -0.037498746 -0.14107642 -0.14567289 -0.20813817 0.055617508 0.06498141
-0.0020419185 -0.040941574 -0.071203604 0.033365753 -0.03696336 -0.10196573 0.12656441 -0.105729796
0.029125545 -0.12845866 -0.28705215 -0.009701052 0.15073965 -0.047435284 0.049313843 -0.034426868
-0.04906274 -0.10497822 -0.18540572 0.0075037377 -0.0414126 -0.00942327 -0.067134894 -0.08559534

encoder.lstm.weight_ih_l1 f4 [256, 64]
00000000: 1bfa 8ebd b99e 373d 5a02 1e3d 05e3 a0be
00000010: 8b67 b63c ca01 96bd e3e5 95bd e4ee a23b
00000020: 8290 3a3d fbf4 d1bb 9bd5 d63a 0a3f debd
00000030: e9ec 18be c6f9 9a3d f97a f3bd ff03 02bd
00000040: 7a5a 593e 5c6b ab3d 336e babd b3b9 9fbd
00000050: e602 053e 4b3e 903d 8098 743d 16d0 f43b
00000060: 7769 123d 6746 a3bd b2b6 413d fe72 613d
00000070: 42c1 0b3d f360 0bbe ddf4 e9bb 6322 e33d
00000080: 0ad3 093d e002 103e dd1e b2bc b742 0bbe
00000090: 332b 773d abf6 55be 73aa 41be cad5 bcbd
000000a0: 3050 4fbe 09f6 b9be c613 c4bc 8f41 8d3d
000000b0: 805a 913e 8866 733d 0115 7cbd 6955 0cbe
000000c0: b3d1 c23d bc43 38be e04f adbd 1a52 ec3c
000000d0: c5b6 863d 85c0 1ebe 88e0 9ebd 2b96 4cbe
000000e0: 6226 c23b 3f10 6f3c 180c 1abd ee22 1e3e
000000f0: e32b bf3d d674 d7bd 3e0c 003e 663a b83d
00000100: b487 043e 076e 183e 3e48 aebd 5008 31be
00000110: 559c b0bd ae2a 473d 2752 54bd 787f a7bc
00000120: 2e3b e13d b4a9 2c3c e0c6 85bd 9247 4ebd
00000130: 1139 6d3d 4423 edbc c24a 0f3d ba22 b73d
00000140: b4e9 b5bd 426c e43c dc00 16bc e7ea d6bd
00000150: 90c7 a9bc ba97 91bd 74cd 1d3c 47ce 80bd
00000160: 6b66 023c 541f 063e e872 9e3c 5253 0d3e
00000170: 4f1e 473c 1d87 f8bd 887f 67bd d45c 1cbd
00000180: 69eb a23d 653f 6dbd b393 993d 4d80 173c
00000190: 0185 943d 44ed c2bc 76bf 8d3d f272 88bd
000001a0: 449d 23be c6b1 08be 8e27 a33d 0858 883d
000001b0: 752f ff3d 02bd 8a3d 6e12 503d cfa9 823d
000001c0: e357 423d f328 43be dc5a 653c df11 07be
000001d0: 0ce1 41bc c018 18be 4970 1abe bc38 b9bd
000001e0: 29f8 e23c c93a 03be f33a 133e ecef eb3c
000001f0: 6435 65bd 4243 a63c 5009 e0bd a2ff 5dbd
00000200: b8a0 643d 96c9 1dbe 6d5f 283e 8a8d 12be
00000210: 6c28 9cbd c791 0bbe 0c6d 253e fda4 9e3d
00000220: f5ad e23d 62fa 0abe 2bcc f3bd 272f 53be
00000230: f289 cdbd d360 1e3e c0f0 08be 7896 263e
00000240: ba79 81bd 55d9 35bd 5aa3 05be 4def bc3d
00000250: f120 163d e211 9a3d 9f1d 22be e6af 31be
00000260: 8971 483e 144b 6cbc bd0c 743d 2427 8a3e
00000270: 68c5 303e 54e9 c3bd 368a 243c 9d3a 843d
00000280: 1e10 333e 0fa2 0dbd 0688 5a3e e955 073e
00000290: e35d 803e 0aad 8c3c 8816 03be 8fc3 6cbe
000002a0: 8121 08be 6428 22bc fd40 673d 3059 6e3e
000002b0: 28b9 e33d fe4a 043d d119 c2bd cee3 f7bd
000002c0: 0581 bb3c 91c2 18be f5d5 083d a365 83bd
000002d0: 13e4 cfbd 53fe f3bd eb5a 86bd f0a8 f83c
000002e0: 670a 323d 9315 96bc 337c 283e f36c 61bd
000002f0: d942 dabc ef7a f03d d6d8 c7bd e3bf 193a
00000300: 1ea6 b4bc 082c 87bb b3f6 b0bd 683b 97bc
00000310: 50f5 5bbd d60d a6bd 09b9 9e3c 4932 26be
00000320: 5ed6 c83c 504c a5bd a5af acbb 9b61 83bd
00000330: febd 61bd 1034 323c 104c 88bd 2f9e fcbc
00000340: b549 3c3d 05e2 4a3d 4681 b8bd f00b e33b
00000350: 8727 7c3d 56e3 d73b fcd7 d33d e02a 9cbd
00000360: c00c dbba df4e 173d 7e81 ccbd 4a3b 66bd
00000370: e93f b9bd 3e84 aebd 5add 0d3e 3aeb 6d3d
00000380: 3208 e6bd c5b8 b33b 93a7 adbc 953a 283e
00000390: c72a d33d e967 28be 6d75 a9bd db16 25bd
000003a0: 3e0a 51be 87ad cbbd d002 8e3c 6aab 503e
000003b0: 08da 833d 2740 0abd ca07 9b3c 67f3 f7bc
000003c0: f6d9 ba3d a118 fe3a 14e7 033e 1d2b a03d
000003d0: 85c5 303d d7ef fbbd 8970 2dbe 8b2d 0c3d
000003e0: 1454 023e ef13 91bd 62af ca3d 1539 053e
000003f0: 4da9 93bb c520 f3b9 a05d ac3d 63da 183c
-0.069812976 0.044829104 0.03857646 -0.31423202 0.02226617 -0.0732456 -0.07319238 0.0049723256
0.04554797 -0.006407378 0.0016390564 -0.108518675 -0.14934124 0.07567172 -0.118886895 -0.031742092
0.2122592 0.083700866 -0.0910305 -0.07799091 0.12989387 0.070431314 0.059715748 0.007471095
0.03574511 -0.079724126 0.047293372 0.055041306 0.034119852 -0.13611202 -0.0071397857 0.11090543
0.03364853 0.14063597 -0.021743232 -0.13599668 0.060343932 -0.20894878 -0.18912677 -0.092204645
-0.20245433 -0.36320522 -0.02393521 0.0689727 0.2838936 0.059423953 -0.06154347 -0.13704456
0.09512653 -0.17994589 -0.084625006 0.028847743 0.06577829 -0.15503128 -0.0775767 -0.1997916
0.0059249857 0.014591276 -0.03760919 0.15443012 0.093345426 -0.105203316 0.1250467 0.089955136
0.12942392 0.14885722 -0.08509873 -0.17288327 -0.08623568 0.048624687 -0.05183616 -0.020446524
0.10997616 0.010538507 -0.06532073 -0.050361224 0.05791575 -0.02894748 0.034983404 0.089421704
-0.08882466 0.027883653 -0.009155478 -0.10494023 -0.020725042 -0.07109018 0.009631503 -0.06289344
0.007958989 0.13097888 0.019341901 0.13801315 0.012153222 -0.12135146 -0.056518108 -0.038174465
0.07955057 -0.057921786 0.074988745 0.009246898 0.07251931 -0.023794778 0.06921284 -0.06662549
-0.15977961 -0.13349065 0.07966529 0.06657416 0.124602236 0.06774332 0.050798826 0.06380045
0.047447097 -0.1905859 0.013998713 -0.13190411 -0.0118334405 -0.14853191 -0.15081896 -0.09044024
0.027706223 -0.12815394 0.14377956 0.028800927 -0.05595912 0.020295743 -0.10939276 -0.05419887
0.055817336 -0.1540893 0.16442652 -0.14311805 -0.07624897 -0.13629828 0.1615488 0.07746313
0.11068336 -0.13572076 -0.11904176 -0.20623456 -0.100360766 0.15466623 -0.13373089 0.16268337
-0.063220456 -0.044396717 -0.13050595 0.092253305 0.03665251 0.07522942 -0.15831612 -0.17352256
0.1957456 -0.014422197 0.05958246 0.26982987 0.17262805 -0.09565988 0.010042718 0.06456492
0.17486617 -0.03457838 0.21340951 0.13216366 0.2507163 0.017172355 -0.12801564 -0.23121475
-0.1329403 -0.009897325 0.056458462 0.2327621 0.111193 0.03229808 -0.0947758 -0.12103997
0.02288867 -0.14917971 0.03340717 -0.0641587 -0.101509236 -0.11913743 -0.0656031 0.030353993
0.04346695 -0.018320834 0.16453628 -0.055035543 -0.026643204 0.11742198 -0.09758155 0.000586508
-0.022051867 -0.004125122 -0.08640804 -0.018460944 -0.053700745 -0.08108108 0.019375341 -0.1623012
0.02451628 -0.08071196 -0.005269962 -0.06415101 -0.05511283 0.0108766705 -0.06655133 -0.030837147
0.04596873 0.049531955 -0.09009032 0.0069289133 0.061561134 0.00658838 0.1034393 -0.07625365
-0.0016712174 0.03694045 -0.09985636 -0.056208886 -0.09045393 -0.08521317 0.1385397 0.058085658
-0.11232032 0.0054846727 -0.02119807 0.16428597 0.103108935 -0.16445889 -0.0827435 -0.040305
-0.20414063 -0.09945207 0.017335325 0.2037789 0.064380705 -0.033752587 0.018924613 -0.03026743
0.09123604 0.0019386002 0.12881118 0.07820723 0.04315712 -0.12301605 -0.1693746 0.03422312
0.12727386 -0.0708388 0.09896733 0.13010056 -0.004506266 -0.00046372987 0.08416295 0.009329411

encoder.lstm.weight_hh_l1 f4 [256, 64]
00000000: 34ae c8bd 04c8 26bd 520b 39bd 0641 043e
00000010: 3c6a 843d 7c07 bd3c 6a53 10be 24e6 d4bd
00000020: daaf 1bbd 11a1 f6bd 0d2d c03d e5ba 903d
00000030: f75c 19bc c680 47be 53dc f93d 5ce7 953d
00000040: bca9 a3bd 65fd 94bc f380 c3bd 0683 893d
00000050: d8bc fe3d 1aea dd3d 00dc 9c3c d9ac 89bd
00000060: 7349 e03c a351 c33a 8c90 35be af49 bdbd
00000070: c8b2 083e 04fb 4ebc 193b b2bb ac98 783d
00000080: 362b f9bc 463f 633d 172b 02bd 697e d1bd
00000090: bd24 6c3d 7a4b 87bd 97a6 1a3d f2b6 0e3d
000000a0: dc10 a73c e67b 0abe 50b9 d0bd c462 013e
000000b0: 7a23 213c a90b 1f3d efbf 223d 155d 233e
000000c0: 669a 973d 1714 f7bc c06b 063e 2f14 1c3c
000000d0: 4b07 883c 1d40 b6bc 9bdc 123e e026 46be
000000e0: 8520 8cbd 7d72 f43c 4c3b a23d 399d 623d
000000f0: 7c57 0abd 5398 39bb b777 eabd 4136 1a3d
00000100: bfba 6f3d da67 c0bd 1aae 69bd 5e32 6ebd
00000110: aafc f63c 7e46 17bc 781e 4dbd 151e ae3c
00000120: a57b eb3c 5d20 233d 47ac 8a3d 76c9 ad3d
00000130: 3e46 433c 4598 a0bd f4a2 1cbc 7e44 083c
00000140: 82c9 173e b041 03be 7883 ba3d 0804 9dbd
00000150: 39b9 563c 8940 cc3c af1b f6bd 6e17 b3bd
00000160: 54d4 f2bd fa13 a43d 29ef febd efe1 3d3e
00000170: 924e c63b 6dab 583d 64d0 bc3d 316d 43bd
00000180: df3e e03d a546 f2bd 31fa bb3d 898c 133e
00000190: cf87 32be 72c8 9b3d f0e3 093e 485a adb9
000001a0: aa7c cfbd cd2d 4bbe 4822 1bbd e0eb 213e
000001b0: b375 46bd a41c 0abe 6299 d53d d430 763e
000001c0: dd6b 03bd 4125 733d aaf4 aebd 0a4d e0bd
000001d0: d84e 8f3d 4988 8bbb 3f85 04be c481 e3bd
000001e0: 1b14 da3d 55aa a7bd 8eae cc3d fa99 73bd
000001f0: daea e1bd 56cb 8dbd af78 123e 7475 ff3b
00000200: 541e 41bc 6c67 933d 2d09 ba3c e697 70bd
00000210: df83 0b3e 823b d83d a66a b6bd 2143 2c3c
00000220: daa6 66bd f965 25be 9b45 863c d7c9 e53c
00000230: 2194 54bd e117 3bbe 881e 4d3d 487d 253d
00000240: 9f4c 9bbd 3f5d 9bbd c994 3ebe f2f2 9abd
00000250: d1f8 ddbc 650e 10be a4b6 1cbe 2481 c83c
00000260: d1bd a8bd 9d0b e9bc daa4 19be dd90 b0bd
00000270: 2f8a 92bd ddeb 9dbd 2535 a63b 3b6f ea3d
00000280: 4d93 fb3d 49a0 31be 4417 d03d 59f2 bdbc
00000290: 6e7f 2abc 2d30 a7bd 9e33 983d 7f30 1c3e
000002a0: e9ba 673d 3416 90bd 0a7a 6ebd 6b04 b33c
000002b0: 4ab4 84bd a5fe f8bd 44c2 c23d 05ed e63d
000002c0: 9a10 cc3d 35e7 6b3d a7f4 5b3e 92d9 3fbe
000002d0: 7775 1d3e 621e 123e 1989 0e3e 93a1 43be
000002e0: 13cc e43d 41a0 11be fddf a33d aaf5 f93c
000002f0: f8c5 d5bd d17f 70be 4598 033e 225a 2ebe
00000300: 52ff dc3d 41a5 053d 69ef 103e a984 d8bc
00000310: ca5e 413e c5db 3a3e 2d05 8f3c 6ed3 843d
00000320: bc69 283d aa01 013e 2cb7 c6bb 34bf 963b
00000330: 3efb b83d 522c 59bd 478c c93d e02f 173e
00000340: f884 bb3d 43ca cabd 5bfd 7cbd a380 053e
00000350: 504f d83d 0002 7dbc 7372 843d e1b1 04be
00000360: 6e5a 73bd 8972 573b 54dc a0bd d245 a6bc
00000370: 25a8 dfbd 78c3 883d ea2d 953d d06c bc3d
00000380: 9ced f93d 12d0 1b3d 4e84 90bd 31fa 1dbd
00000390: c7ae b4bd 2b0a 8fbd c59a 263d 6d44 763d
000003a0: 29b4 fe3a 4c89 c2ba 4a21 efbc 9488 103e
000003b0: 54ab 8a3d 26fc 64be 98c7 2c3d 178f 3d3e
000003c0: 5c81 903d efe1 33bd 2f79 0c3e 3bfb abbd
000003d0: be0e 9abc 1948 1f3e a4cb c03d 5271 093d
000003e0: ece6 c9bd e91e 953d 9bfe bbbd 6d3e 463d
000003f0: 1707 bebc 77de 6fbd b416 903d e5b8 afbd
-0.097988516 -0.040718094 -0.04517681 0.1291543 0.06465575 0.023074858 -0.1409432 -0.10395458
-0.038009502 -0.1204244 0.09383593 0.07066897 -0.009360543 -0.19482717 0.12200227 0.07319519
-0.07991359 -0.018187234 -0.095460795 0.06714444 0.12438363 0.10835667 0.019147873 -0.06722421
0.027378773 0.0014901649 -0.17730922 -0.0924257 0.1334945 -0.012633089 -0.005439174 0.060692474
-0.030416112 0.055480264 -0.031779375 -0.10229189 0.057652224 -0.06606193 0.03775653 0.03484244
0.020393781 -0.13523826 -0.101915956 0.12635332 0.009835118 0.03882948 0.039733823 0.15953477
0.07402496 -0.030160947 0.13127041 0.0095262965 0.01660504 -0.022247368 0.14341967 -0.19350767
-0.0684214 0.029839749 0.07921466 0.05532572 -0.033774838 -0.0028319552 -0.11448615 0.037649397
0.058527704 -0.09394808 -0.0570508 -0.058153503 0.030149776 -0.009233115 -0.050077885 0.021254579
0.028745482 0.039825786 0.067711405 0.08485691 0.0119186025 -0.07841543 -0.009560335 0.008317111
0.14822963 -0.12818027 0.09107107 -0.076667845 0.013105684 0.024933117 -0.12016999 -0.08744703
-0.118569046 0.08011623 -0.1244796 0.18543218 0.006051847 0.05289786 0.09219435 -0.047711555
0.10949492 -0.118298806 0.091785796 0.14409079 -0.1743462 0.07606591 0.13465858 -0.00033064396
-0.101312 -0.1984169 -0.03787449 0.15812635 -0.04845209 -0.13487488 0.10429646 0.24042064
-0.03208529 0.0593617 -0.0854276 -0.10952194 0.0699746 -0.00425819 -0.12941454 -0.11108735
0.10648366 -0.08186785 0.09994231 -0.059473015 -0.110311225 -0.06923549 0.1430385 0.007795984
-0.011787016 0.071974605 0.022709453 -0.05873861 0.13624524 0.10558225 -0.0890706 0.010514052
-0.056311466 -0.1615218 0.016390612 0.028050346 -0.05189908 -0.18270828 0.050077945 0.04040268
-0.07582974 -0.07586145 -0.18611445 -0.075658694 -0.027096184 -0.14067991 -0.15304047 0.024475642
-0.082393296 -0.02844792 -0.15004292 -0.086213805 -0.07155263 -0.07711003 0.0050722533 0.11446997
0.12283955 -0.173463 0.101606876 -0.02318685 -0.010406358 -0.08163486 0.0743172 0.15252875
0.056574736 -0.07035485 -0.058221854 0.021852693 -0.064797 -0.121579446 0.095097095 0.11275677
0.09964104 0.057593543 0.21480046 -0.1873534 0.1537684 0.14269403 0.13919486 -0.19104604
0.111717366 -0.14221288 0.08001707 0.03051265 -0.1043815 -0.23486258 0.12851055 -0.1702657
0.10790886 0.0326283 0.14153828 -0.026430445 0.18883815 0.18247898 0.017458523 0.064856395
0.04111646 0.12598291 -0.0060643163 0.00460043 0.09032296 -0.053020783 0.09841209 0.14764357
0.09156221 -0.099018596 -0.061765056 0.13037352 0.10562003 -0.015442371 0.06467142 -0.1295848
-0.059412412 0.0032874665 -0.07854524 -0.020296965 -0.10920743 0.06677908 0.07284148 0.09200442
0.122035235 0.03804023 -0.07056485 -0.03856868 -0.08822399 -0.06984361 0.040674943 0.06012385
0.0019432354 -0.0014841943 -0.029190678 0.141146 0.067709595 -0.22361812 0.042182535 0.18511616
0.07055923 -0.04391664 0.13718103 -0.08397528 -0.018805858 0.15554847 0.09413841 0.033555336
-0.09858498 0.07281286 -0.091794215 0.048399378 -0.02319674 -0.05856177 0.0703558 -0.08580188

encoder.lstm.bias_ih_l1 f4 [256]
00000000: 7bb9 5ebe 4b7a c5bc 5bc8 03be cdf6 08be
00000010: 8ba4 1ebe d932 7bbe ebfd 2cbe 9ea8 4abe
00000020: 92c0 e3bd 3dc2 7fbe db96 09be cabf ffbd
00000030: 3407 623c bb9f 9bbe fdf4 71bd d214 3abe
00000040: cd28 ebbc 4b8b 88be 374a 80bd 380b 0fbe
00000050: 25cb 573c 0d27 afbe c21a 47be 3093 a5bd
00000060: 118d e4bd c0a6 aabe ee7c 5bbd 2ede aabd
00000070: 75e8 9abe a56e 66be 63df 9fbd 0f43 15be
00000080: 4ec0 293d 5f99 11be 1a2f 3ebe cb8a 0bbe
00000090: 7d0f 7bbc 2326 adbe 0ab5 afbe c224 6fbe
000000a0: e6b7 58be bde4 85be b926 d33c 8398 90bd
000000b0: 2cd4 59bb 01dd c3bd d86c d4bd 5104 a2be
000000c0: 8602 16be 9c23 85be e886 25be 1504 12be
000000d0: c660 8fbe b87f 3bbe 3ecf 15be 9462 dbbd
000000e0: 521a 4abe e942 e3be 87ee 35be 13c1 85bd
000000f0: d713 39be f202 87be addd 3cbe 1378 3d3d
00000100: a875 09be 2876 35be c123 ea3c be50 15bd
00000110: ea9c a1bd 2678 f9bd 920f 85bd 2317 b0be
00000120: 6d0e 2bbe 264a b0be 06ca fbbd d3d0 2ebe
00000130: f6a3 55be d150 52be c8c8 40be 1b73 bebd
00000140: 30fa 653d 576d 39be 2fca b73d 0929 80bd
00000150: 4cdb ae3c bc2f 13be bd6b 79be 61c9 b63d
00000160: 3a6f 2dbe adac d6bd 86a7 bdbd d22f 9d3c
00000170: 8fdd b6be 6432 dbbd 752e fdbd d995 19be
00000180: 6e53 93bd 8157 233a febd 48be ec9d 83be
00000190: b4d4 15be e6e1 edbd e72f 9abe 8846 abbe
000001a0: 5a5b 98bd 437a 3bbe 8751 9cbd 8bce 04bd
000001b0: 3fbe 81bd e150 6a3d cb51 db3c 3f7a 52be
000001c0: 1e90 edbc 0a88 87be 204b a7bd a3c0 0cbe
000001d0: 912f 24be 3f23 a03c 91cb 2abe beba 20be
000001e0: 5376 eebd 2fa1 bcbe ed6f 45be 360b 2bbe
000001f0: af7a 1dbe 5bb9 a0bb eb00 91be 1b45 d83d
00000200: 8b94 d93d 9f17 abbd e387 003d c34e bebc
00000210: 358b 16bd 996d 35bd 4ec7 22bd 02ce 253d
00000220: d6e6 353d 1e30 ac3d 4f84 7939 2029 42bd
00000230: 58e3 ccbb a750 943b 0198 73bd 7bb5 8fbd
00000240: fe25 cfbd d9db ef3d fcfe 7a3d 935a b93a
00000250: 4507 55bd 11f8 883d cbe3 b13d a3c6 a43d
00000260: 40b9 c8bc 8b16 87bd b024 0bbd 07bd 99bd
00000270: e248 edbc 18f4 c5bc 43e1 fdbc 0265 3dba
00000280: 6477 893c 925a a3bd d9a3 d33c 85ef 34bd
00000290: f885 06bd 2bf8 ba3d 70d9 a13c 4c98 1b3a
000002a0: 9f7b 413c 7dfd 29bd fae5 b73d e440 92bd
000002b0: e4e6 da3c 177f dc3d 42f5 a53d 7fb9 0e3c
000002c0: 5b53 57bd 1a55 4b3b 349e 303c df26 2fbd
000002d0: 86fa d83c d5e9 ab3d 43a8 50bd 743f f2bd
000002e0: ca03 41bb 2f44 6cbd 9d84 08bc 85be f4ba
000002f0: e586 a6bd 416e dcbd 6d79 a23d 3efb f83d
00000300: 25c5 bdbd 0ed5 25be a0dd bcbd 5b01 45be
00000310: c451 0abe c9ff 253c da5f a7bd c5d3 91be
00000320: 4962 93be e80d 92be ff50 a8bd 2c2b 71bd
00000330: 8a3f 6dbd 1f9f acbd c96f 06be 7999 24be
00000340: 53dc 0b3c 9726 89be a64b 3e3d 8799 57be
00000350: ad01 fe3d a92a 87be 6324 36be 9083 9ebe
00000360: 75f1 abbe 86a3 23be b536 05be 3cbd 13be
00000370: b482 e3be 9349 95be ddde f8bd 0d6f b2be
00000380: 1084 8abe e267 adbc ec87 62be f511 35be
00000390: abe7 d3bd a87a b0be 509e 18be 46ef 9abe
000003a0: d574 cebd bbb3 dcbe 6a29 d9be b60e f5bd
000003b0: ba36 62be 4c00 3bbe 537c c3bd 16f8 12be
000003c0: e2f4 18be b0e5 8bbe 1d98 7dbe 602b 3dbe
000003d0: 80a8 5cbe 3f53 33be cc66 62be dad0 cabd
000003e0: 7f28 fcbd 819c 8dbe 1042 00be 485d 25bd
000003f0: 9675 94be cf39 083d bfc6 85be 9f30 12be
-0.21750443 -0.024106165 -0.12869398 -0.13375397 -0.15492456 -0.24531116 -0.16893737 -0.19790885
-0.11120714 -0.2497644 -0.13436453 -0.12487753 0.013795663 -0.30395302 -0.05907153 -0.18172005
-0.028705979 -0.26668772 -0.06264155 -0.13969123 0.013170992 -0.3420948 -0.19443801 -0.080847144
-0.11159719 -0.33330345 -0.05358594 -0.08343159 -0.30255476 -0.22503145 -0.078062795 -0.14576362
0.04144316 -0.14218663 -0.18572655 -0.13627164 -0.015323517 -0.33818159 -0.3431781 -0.23353866
-0.21163902 -0.26151076 0.0257753 -0.07060339 -0.0033238037 -0.095636375 -0.10372323 -0.31643918
-0.146494 -0.2600373 -0.16164744 -0.1425937 -0.2800352 -0.1831044 -0.14629838 -0.10712162
-0.19736603 -0.44386986 -0.17766772 -0.065309666 -0.18073975 -0.26369435 -0.18443938 0.04625709
-0.13423789 -0.17720854 0.028581502 -0.036453955 -0.07891257 -0.121811196 -0.064971104 -0.34392652
-0.16704722 -0.3443157 -0.12294392 -0.17071848 -0.20863327 -0.20538642 -0.18826592 -0.092992984
0.0561468 -0.18108116 0.0897411 -0.06257827 0.021344803 -0.14373678 -0.24357505 0.08925129
-0.16936961 -0.10482154 -0.09260468 0.019187842 -0.3571591 -0.107029706 -0.123623766 -0.14998569
-0.07193647 0.00062309956 -0.19603726 -0.25706422 -0.14631921 -0.11615352 -0.30114672 -0.3345225
-0.07439299 -0.18308358 -0.076327376 -0.032423537 -0.06335115 0.05720604 0.0267724 -0.20554446
-0.028999384 -0.26470977 -0.08168626 -0.1374536 -0.1603377 0.019548057 -0.16679217 -0.15696236
-0.11643662 -0.36841723 -0.19280978 -0.16703495 -0.15378831 -0.0049049086 -0.28321013 0.10560056
0.106240354 -0.08354115 0.03137959 -0.023230916 -0.036753852 -0.044293974 -0.039740853 0.040479667
0.044409595 0.08407615 0.00023795779 -0.0474025 -0.0062526874 0.004526216 -0.059471134 -0.070170365
-0.10114668 0.117118545 0.06127833 0.0014141373 -0.052008886 0.0668794 0.08686026 0.080456994
-0.024502397 -0.065960966 -0.033970535 -0.07506757 -0.028965417 -0.024164245 -0.030991202 -0.0007224829
0.016780563 -0.07976259 0.025834965 -0.044173736 -0.032842606 0.091293655 0.019757003 0.0005935475
0.011809259 -0.04150151 0.089794114 -0.07141283 0.026721425 0.10766428 0.0810342 0.008711218
-0.05256973 0.0031026066 0.010779906 -0.04276168 0.026486646 0.08394209 -0.050941717 -0.11828509
-0.0029451721 -0.057682212 -0.008332399 -0.0018672502 -0.08131198 -0.10763217 0.079333164 0.12157296
-0.09266118 -0.16194555 -0.09221959 -0.19238798 -0.13507754 0.010131785 -0.08172579 -0.2848188
-0.28785923 -0.28526235 -0.08218574 -0.058879063 -0.057921924 -0.084287874 -0.1312858 -0.1607417
0.008536416 -0.26787254 0.046458863 -0.2105466 0.124026634 -0.26399735 -0.17787318 -0.3095975
-0.33582655 -0.15980348 -0.1300915 -0.14427656 -0.44435656 -0.29157695 -0.12151883 -0.3485035
-0.2705388 -0.0211677 -0.22122163 -0.17682631 -0.103469215 -0.3446858 -0.14904141 -0.30260676
-0.10080878 -0.43105873 -0.4241441 -0.119656965 -0.22091189 -0.18261832 -0.09545197 -0.1435245
-0.14937165 -0.27323675 -0.24765058 -0.18473577 -0.21548653 -0.17512225 -0.22109526 -0.099031165
-0.123124115 -0.27658466 -0.12525201 -0.040372163 -0.2899596 0.033258256 -0.26128194 -0.1427636

encoder.lstm.bias_hh_l1 f4 [256]
00000000: 53b8 b9bb 571e 4cbd 636c 8ebd 515b 5cbd
00000010: e1f4 1cbe 481e 3fbe 8844 e7bd 9007 25be
00000020: 4d00 00be 8983 b7be fc33 09be 7c41 5ebe
00000030: f2e2 30bc 9611 42be 6265 4dbe 8ff8 c7bd
00000040: 5e0b 333d 06d4 15be 5bb9 9d3d 6321 8abe
00000050: 076f 753d 8b3f a8be f5f6 07be 2d2d 1fbd
00000060: d930 aabd dc46 b5be 4c79 ebbd c7b4 2ebe
00000070: d610 9fbe 2b8b 103c 6f88 41be 8111 1bbe
00000080: 15b9 033c c04d afbc a3c5 9dbc 22c2 96bd
00000090: 117c c9bd c76c 0ebe 51ff a6be 052f 87be
000000a0: d9be 9ebe 410f a3be 1db2 d9bd 1bd1 9c3c
000000b0: 1875 a8bd 9623 1abd 0daa f4bd 14c2 17be
000000c0: 5894 e9bc 9c5a 95be e616 afbe 5351 d5bd
000000d0: 3813 7dbe 2e2d f7bd 4b56 6ebe 49ee 8cbe
000000e0: b5b1 8fbd 47d6 e6be 478e 2fbe c5fc 16be
000000f0: ddb5 6abe d530 99be c77c d2bd 7c6c ea3d
00000100: c515 77be 6c02 38be 482f c33d 5d52 03be
00000110: 8dd8 c33b 89e6 2dbe 8897 063d a401 88be
00000120: a323 aebe a75f f7bd a2e4 dbbd 3825 77bd
00000130: f966 13be ac55 aabe ac6d 0cbe 13ac 83be
00000140: d9d2 143d c2e0 d5bd 3eab b33b 2b40 36bd
00000150: 955e f23d 306f a1be b048 38bd ac04 b73c
00000160: e3c5 71be a378 9dbe 7203 44be 96a2 6bbd
00000170: 64a2 c0be 1d66 71bd 7f97 f9bd 6c39 a1be
00000180: 8514 02be 01bf 0cbe d65a e3bc 4e46 80be
00000190: f98d 6bbe 1ce7 3dbe 5713 9abe a44c 17be
000001a0: 55a2 1fbe 8ba3 8dbe 30da bcbd 96ea 06be
000001b0: 381e d9bd 0963 38bd c061 eb3c c5bd 6fbe
000001c0: 667b 173d c0ed b5be c643 dbbd a2bb 24bd
000001d0: 1e3d 24be 8f7c 31be ec74 25be df5a 2abe
000001e0: 4bdb 3fbe f58f cabe b450 d5bd 0412 a4bd
000001f0: 3158 8fbe 4ad4 9c3c 566c 99be 5158 183e
00000200: 054c dcbd d589 af3d c2f5 8c3c 37ea 163b
00000210: e02a 10bc 9386 453d 6300 ca3c 2aa0 14bd
00000220: a812 66bd f5bb bcbd 9e69 56bd e70a 4e3d
00000230: 00c6 e9bb a40a 003d 83a5 6e3d b714 3d3d
00000240: 4036 c43c f4f3 b3bd e5d5 9fbd 2f49 903c
00000250: 59f9 173d 64ee 7bbd 6dc6 d3bd 1828 f53c
00000260: 29a3 e43c e553 ae3d 07ab 203d 1fb6 143c
00000270: 24b1 cb3b 7a4f 3dbd 89dc 6c3d 7f24 d3bc
00000280: b7ea 6ebd c099 5d3d 5538 89bd d705 a43c
00000290: 3c40 cd3c c70c b0bd ccf4 2bbd 09d4 1b3d
000002a0: b8b9 563c 2669 6b3d 02f0 87bd 96dd 923d
000002b0: 7c2c 70bd 99a3 7f3d 8128 00bd b519 2cbd
000002c0: b90d 98bd 7be2 babc 3871 0cbc 147d b53d
000002d0: a2bf fabc 57c7 c8bd ffd5 e53c 4aaa d33d
000002e0: 54b8 f0bc 4431 5e3d 9a07 58bd 0c09 ee3b
000002f0: 3236 793d 8b2c ef3d b333 c7bd b86f 3d3c
00000300: bfbb 97bd fad7 49be a4a6 c2bd d054 22be
00000310: f221 44be 75a5 00be 8f0e 95be 40c5 46be
00000320: 426f 3ebe 6e86 1bbe 1bb2 d1bd aa48 1fbd
00000330: f879 a9bd 858c 5abe 6496 cfbd 89d3 50be
00000340: 4017 00be d061 a0be 25b4 d9bd 0b0c 82bd
00000350: e15b 113b b01b 86be 937f f0bd 692c 4bbe
00000360: 1010 cfbe 3d48 40be 8a4f 52bd 1a2b 9ebe
00000370: a712 ccbe e577 b0be cf82 20be 1b1f 06be
00000380: 15ba 36be e9d4 65bd 9da9 86bd b5f2 06be
00000390: f8e2 23be 282e aabe 8564 b0be de21 a4be
000003a0: 56ac 52be 885c a3be 7d14 a1be 7efc dfbd
000003b0: d364 99bd c44d 09be 10a5 c5bd 1663 45be
000003c0: 92e4 3ebe a51a 59be c0ce 9abe e56b fbbd
000003d0: 8152 34be 4611 acbe 668b bfbd 3727 05be
000003e0: c6ff aabd c611 a6be 7f89 4cbe a5d4 32be
000003f0: ba60 cbbd 1925 18be f845 70bd 83b1 ccbd
-0.005667725 -0.04983362 -0.06954267 -0.053798024 -0.15327789 -0.18663895 -0.11292368 -0.16116166
-0.12500115 -0.3584254 -0.13398737 -0.21704668 -0.0107962955 -0.18952021 -0.20058206 -0.09764206
0.043712012 -0.14631662 0.077013694 -0.26978597 0.059920337 -0.3286098 -0.132778 -0.038861442
-0.08310098 -0.35405624 -0.11497745 -0.17061149 -0.31067532 0.008822243 -0.18899702 -0.15143396
0.008039732 -0.021399379 -0.01925928 -0.07361247 -0.09838117 -0.13908683 -0.32616666 -0.2640306
-0.3100498 -0.31847575 -0.106296755 0.019142678 -0.08225459 -0.037631594 -0.11946497 -0.14820129
-0.028513119 -0.29170692 -0.34197158 -0.10415902 -0.24714363 -0.12069164 -0.23275106 -0.27525547
-0.07016317 -0.45085356 -0.17144118 -0.14744861 -0.22920938 -0.29920068 -0.10277706 0.11446473
-0.24129398 -0.17969674 0.095305026 -0.12824388 0.0059767426 -0.16982473 0.032859355 -0.26563752
-0.34011564 -0.12078791 -0.107369676 -0.06033823 -0.1439475 -0.33268487 -0.13713712 -0.2571722
0.036333892 -0.1044326 0.00548306 -0.04449479 0.11834446 -0.31530142 -0.044991195 0.022341095
-0.23610644 -0.307561 -0.1914194 -0.0575281 -0.37623894 -0.058935273 -0.12187099 -0.31489122
-0.1270314 -0.13744737 -0.027753275 -0.25053638 -0.23003377 -0.18545192 -0.3009288 -0.1477533
-0.15589269 -0.27663836 -0.092213035 -0.13175425 -0.10601467 -0.045016322 0.028733134 -0.23412235
0.036982916 -0.3553295 -0.10706286 -0.040218003 -0.1603894 -0.17332672 -0.16157883 -0.16636227
-0.18735997 -0.39562955 -0.104157835 -0.08011249 -0.27996972 0.019144196 -0.29965466 0.1487744
-0.10756687 0.08571211 0.01720703 0.0023027787 -0.008799285 0.048224043 0.024658388 -0.036285557
-0.056170136 -0.092155375 -0.05234682 0.050303366 -0.007134199 0.031260148 0.058263313 0.046162333
0.02395165 -0.08786765 -0.07804469 0.017613022 0.03710303 -0.061506644 -0.10340581 0.029926345
0.027909832 0.08512095 0.039225604 0.009076624 0.006216185 -0.046218373 0.057827506 -0.025774239
-0.05832931 0.054101706 -0.067001976 0.020022316 0.025055043 -0.08596187 -0.041981503 0.03804401
0.013105802 0.057473324 -0.06637575 0.071711704 -0.058636174 0.06241188 -0.031288628 -0.042016704
-0.074244924 -0.022813072 -0.008571915 0.088617474 -0.030608956 -0.09803646 0.028056143 0.103352144
-0.02938477 0.054246202 -0.052741624 0.007264262 0.0608427 0.11678418 -0.09726658 0.01156228
-0.074088566 -0.19711295 -0.095044404 -0.15852666 -0.19153574 -0.12563117 -0.2911267 -0.19411182
-0.18597129 -0.15188 -0.10239049 -0.038887657 -0.08275217 -0.21342666 -0.101361066 -0.20393194
-0.12508869 -0.31324625 -0.10630063 -0.06349953 0.0022180008 -0.26193 -0.11743083 -0.1984116
-0.40441942 -0.18777557 -0.051345386 -0.3089226 -0.3985798 -0.34466472 -0.156749 -0.13097803
-0.17844422 -0.05611125 -0.0657532 -0.13178523 -0.1600455 -0.3323834 -0.3445169 -0.3205709
-0.20573553 -0.31906533 -0.31460944 -0.10936831 -0.07489934 -0.13408571 -0.09650624 -0.1927608
-0.1864188 -0.2120157 -0.30235863 -0.122764386 -0.17609598 -0.3360693 -0.0935276 -0.1300324
-0.08349566 -0.32435435 -0.19974326 -0.1746393 -0.099305585 -0.14857902 -0.058660477 -0.09994795
