models/modello_seq2seq_20250723_1608_posttrained_20250723_1615_posttrained_20250723_1628.pth (torch, 154656 bytes, 9 tensors)

encoder.lstm.weight_ih_l0 f4 [256, 10]
-0.11063045 0.07219024 -0.025583392 0.13364066 0.06958162 0.11025008 -0.08304794 0.086511075
0.04315009 -0.1119638 0.27968562 -0.15901698 -0.15601183 -0.04544865 0.018194046 0.32967657
0.013223361 0.2948718 0.041497953 -0.06335917 -0.5146581 -0.35621175 -0.15982927 -0.18039559
-0.025558142 0.20015295 -0.30422243 0.11925622 0.23056844 0.13324611 0.020332076 0.014975609
0.07487852 0.10783593 -0.1003965 0.0859062 0.027327614 0.5085301 0.2262817 -0.094609566
-0.191861 0.2586981 -0.012373892 0.24448563 0.08095989 -0.004251128 0.162701 -0.13671027
0.03189774 0.03537638 0.06488979 0.04971379 0.36132056 0.14994131 0.16324162 0.11860912
-0.016521074 0.055504456 0.08433495 0.08542851 0.06943881 0.022280885 -0.1686252 0.037740763
-0.06208034 0.0064595714 0.30885282 0.20103408 0.25281766 -0.08934221 0.27021384 0.241382
0.18304498 0.11563009 0.11054501 0.28933564 0.041608807 0.13160814 0.19896612 -0.04780102
-0.016766382 0.18665375 0.34380412 0.15181608 0.068159655 0.044166382 0.022921117 -0.14848511
0.09324436 -0.06941652 -0.060604133 0.26614738 -0.28550598 -0.0018847673 -0.082758084 -0.20745364
-0.1260861 0.1788544 0.16381963 -0.07849181 0.13361968 0.14642487 0.24295016 0.16749169
-0.03292834 0.1459667 0.0658601 0.027084831 0.06387151 -0.0023253248 0.041374598 0.18303223
0.40895614 0.32064766 0.055034723 -0.009491608 -0.06635538 -0.064160645 0.07722 0.06722539
0.36076012 0.22973794 0.29546663 0.033801287 0.00674271 0.13343488 -0.28227398 -0.014564437
-0.05333434 -0.08614581 0.20785159 -0.08710648 0.30557206 0.19321935 0.06653186 -0.07677186
0.032389827 -0.06663594 0.0049915668 0.061992306 -0.06863916 -0.07415109 0.2940516 0.26923725
0.0036446229 0.14594053 0.1034163 0.2048222 -0.0064340075 -0.045863055 0.12086996 0.14741968
0.16567372 -0.07858046 -0.09350598 0.2899776 0.11666443 0.5683622 0.37615582 -0.07709844
-0.12171417 0.106225595 0.13267939 0.05359939 -0.11701672 0.07027671 0.19103251 0.29420653
0.1087919 -0.02927246 -0.2443627 -0.33966726 0.14521739 -0.16326272 0.025587661 0.1476984
-0.36486757 0.109494604 0.18104951 -0.06752351 -0.09359296 -0.02259732 0.15133962 0.24777347
0.090861574 0.26073152 0.01807138 0.1625124 0.07668947 -0.040029366 0.078537695 -0.026561875
0.23603605 -0.014555149 -0.06734647 0.17402135 0.0108572105 -0.05673616 0.12724556 0.103295
0.1300117 0.24080224 0.012676536 0.051869057 -0.05204047 0.062503934 0.002802957 0.04943588
-0.042029087 -0.05980055 -0.054024868 0.070430614 0.036101148 -0.036356617 -0.01489218 0.1300846
0.2935656 0.06923305 0.24015278 0.05384484 0.16063116 -0.023616582 0.085242085 0.18567896
0.045404676 -0.0005552536 0.07095356 0.110974535 0.07965718 0.017235437 -0.06613451 0.15286274
0.061861627 0.08536298 0.02089772 0.07615149 0.026593244 0.10048121 0.0057768086 -0.02523065
-0.1637515 0.08476304 0.35456836 0.07405225 0.05875989 0.09927007 0.034743305 0.043979537
0.05663697 0.022022141 -0.13558742 0.08143818 0.09213987 -0.01678602 0.17420974 0.25483394
00000000: 3892 e2bd 7ad8 933d 4394 d1bc 19d9 083e
00000010: cf80 8e3d cbca e13d 0a15 aabd b82c b13d
00000020: 26be 303d 474d e5bd f432 8f3e 59d5 22be
00000030: 91c1 1fbe 5d28 3abd ae0b 953c 5ecb a83e
00000040: cca6 583c 70f9 963e c2f9 293d 74c2 81bd
00000050: a2c0 03bf 6361 b6be 49aa 23be 9fb9 38be
00000060: 4f5f d1bc e5f4 4c3e 0bc3 9bbe 9b3c f43d
00000070: 221a 6c3e ab71 083e 748f a63c 425c 753c
00000080: e959 993d 16d9 dc3d ae9c cdbd 97ef af3d
00000090: 29de df3c 072f 023f 64b6 673e a9c2 c1bd
000000a0: 3677 44be 1474 843e ddbb 4abc 715a 7a3e
000000b0: 4cce a53d 0c4d 8bbb 179b 263e c7fd 0bbe
000000c0: 34a7 023d d3e6 103d f0e4 843d b0a0 4b3d
000000d0: 02ff b83e 378a 193e d028 273e 57e9 f23d
000000e0: 3457 87bc a458 633d cdb7 ac3d 25f5 ae3d
000000f0: ef35 8e3d 6786 b63c 16ac 2cbe 0f96 1a3d
00000100: f447 7ebd d0aa d33b f521 9e3e e1db 4d3e
00000110: 5171 813e 0cf9 b6bd 7859 8a3e d82c 773e
00000120: 2570 3b3e 78cf ec3d 6c65 e23d cd23 943e
00000130: ff6d 2a3d 49c4 063e c6bd 4b3e 01cb 43bd
00000140: a759 89bc 2922 3f3e 1807 b03e ad75 1b3e
00000150: 4a97 8b3d cfe7 343d 11c5 bb3c 7b0c 18be
00000160: e6f6 be3d 402a 8ebd 0a3c 78bd 7844 883e
00000170: d72d 92be 4c0a f7ba 127d a9bd ba6e 54be
00000180: b71c 01be 9c25 373e 55c0 273e 50c0 a0bd
00000190: 99d3 083e 67f0 153e edc7 783e f182 2b3e
000001a0: dedf 06bd 4b78 153e a9e1 863d 02e1 dd3c
000001b0: 11cf 823d 7a64 18bb 6978 293d cd6c 3b3e
000001c0: b362 d13e ee2b a43e 176c 613d b082 1bbc
000001d0: 54e5 87bd a866 83bd 8525 9e3d 77ad 893d
000001e0: 8db5 b83e 6c40 6b3e 6747 973e 3873 0a3d
000001f0: f3f1 dc3b 27a3 083e 3786 90be ad9f 6ebc
00000200: 1c75 5abd 376d b0bd 0cd7 543e e264 b2bd
00000210: f173 9c3e 4bdb 453e db41 883d 913a 9dbd
00000220: 32ab 043d 6c78 88bd 4c90 a33b a5eb 7d3d
00000230: b092 8cbd 87dc 97bd ee8d 963e 77d9 893e
00000240: a0da 6e3b 6f71 153e edcb d33d e9bc 513e
00000250: 5ed4 d2bb e6da 3bbd ab8a f73d 2ff5 163e
00000260: 5fa6 293e cbee a0bd 1080 bfbd f277 943e
00000270: c3ed ee3d 2f80 113f 7f97 c03e c9e5 9dbd
00000280: 4745 f9bd ce8c d93d 1bdd 073e 098b 5b3d
00000290: 76a6 efbd 3ced 8f3d 079e 433e 3da2 963e
000002a0: 4ace de3d cccc efbc 373a 7abe dee8 adbe
000002b0: deb3 143e 582e 27be 379d d13c 403e 173e
000002c0: eccf babe b53e e03d 0b65 393e c449 8abd
000002d0: aaad bfbd 041e b9bc c6f8 1a3e 54b8 7d3e
000002e0: a215 ba3d 9a7e 853e 6e0a 943c a769 263e
000002f0: 5e0f 9d3d d5f5 23bd 5fd8 a03d 4a98 d9bc
00000300: 6fb3 713e b878 6ebc f2ec 89bd a732 323e
00000310: 71e2 313c 2d64 68bd a94c 023e 548c d33d
00000320: c921 053e dd94 763e 3fb1 4f3c a674 543d
00000330: 6328 55bd 1002 803d d1b1 373b 477d 4a3d
00000340: b126 2cbd 6cf1 74bd 2e49 5dbd ed3d 903d
00000350: ccde 133d adea 14bd 55fe 73bc e634 053e
00000360: 3b4e 963e 0fca 8d3d 9cea 753e 688c 5c3d
00000370: 7f7c 243e 9077 c1bc 6793 ae3d a022 3e3e
00000380: 41fa 393d 708e 11ba 1a50 913d 9e46 e33d
00000390: 4e23 a33d 5531 8d3c 8871 87bd 0d88 1c3e
000003a0: 9e62 7d3d c9d2 ae3d b231 ab3c 50f5 9b3d
000003b0: 13da d93c 18c9 cd3d 624b bd3b 82b0 cebc
000003c0: 79ae 27be 3f98 ad3d fc89 b53e b5a8 973d
000003d0: 36ae 703d 1b4e cb3d ff4e 0e3d e323 343d
000003e0: 2bfc 673d c767 b43c 6ed7 0abe 0fc9 a63d
000003f0: d4b3 bc3d d682 89bc 0a64 323e 9879 823e

encoder.lstm.weight_hh_l0 f4 [256, 64]
0.13794957 -0.0012543902 -0.013203749 -0.016394295 -0.08713221 -0.14584076 0.0063111116 -0.020061301
0.074709736 0.07431624 0.0059713474 0.051840037 -0.0074056913 0.006572411 0.011804558 -0.11086157
-0.0662573 0.072425045 0.11593763 -0.056737624 0.05781652 -0.039623566 0.0066961064 -0.083807945
0.086615026 -0.027676716 0.058475383 0.0013423268 -0.14516382 0.068255804 0.0072491397 -0.004318846
0.016740713 0.08871545 -0.012436065 -0.15567608 -0.016582455 0.13824317 -0.092081025 0.13920966
0.060813725 -0.052944325 0.04398958 0.051444467 0.0096386 -0.13780515 0.065702744 -0.06450606
-0.10753296 -0.15979 -0.085550725 0.07661593 0.00788809 -0.017570967 -0.05850974 0.11948712
0.008035564 -0.09167257 0.100949205 0.04764975 -0.009760051 0.18978126 0.08717209 0.040986102
-0.1349121 0.06012495 -0.1615534 0.047124084 0.09400726 0.0506855 0.07558582 -0.3152711
0.056594215 -0.12589476 0.12601835 0.11810987 0.038593248 0.23143187 0.07928345 0.08124714
0.13777253 0.019663012 -0.10483229 -0.044128533 -0.15581466 0.088332646 -0.033902522 0.05741215
-0.010039665 0.2832895 0.07525598 -0.0011079602 0.07192961 0.04195278 -0.16781606 0.19317265
0.3203555 -0.11199073 -0.103235 0.16068399 0.0996219 0.29601455 0.015953453 -0.030272981
-0.05288405 -0.06477665 -0.20745067 -0.08444215 -0.22401959 0.020481322 -0.1715824 -0.18211927
0.12498808 -0.09698514 0.084832616 -0.03855275 -0.29211992 0.15236133 0.030396882 -0.017725358
0.031711023 0.14968283 -0.022970727 -0.21785827 0.10032701 -0.15321526 -0.058406085 -0.010447315
-0.008351406 0.028011972 0.06781056 0.09469551 -0.16712199 0.013750931 -0.07881438 -0.39043212
0.031508494 0.013430165 0.30776742 -0.09988199 -0.07283424 -0.007243819 -0.011670782 0.16799323
0.20747347 0.13644712 -0.012628574 0.0055866954 -0.04157807 0.040361144 0.10156267 -0.02487573
0.24181879 -0.23405573 0.1915145 -0.08903806 0.3199914 0.20611939 -0.117003605 -0.18435836
-0.12040206 0.09989788 0.119105 -0.072249815 -0.15357815 0.074400894 -0.14558543 0.1359209
0.041435987 0.056447525 -0.004625878 -0.017275732 0.04094156 -0.11064488 -0.07905736 0.0006405562
0.10143782 -0.076217026 -0.10662156 0.05292159 -0.012286203 0.14700209 0.09758668 0.19825932
0.034543104 0.036131687 -0.34681103 0.122641765 -0.032788962 0.1126445 0.04879408 0.03180058
-0.10394276 -0.11235834 0.010664745 0.08243207 0.037836544 0.23927338 -0.04737843 -0.3140106
0.17489402 0.07596926 0.13641371 0.12518358 0.10835404 -0.12639432 -0.057258647 0.24096702
0.050909705 -0.21472958 -0.198119 0.019110067 -0.09523332 0.1741021 0.1546935 -0.15773514
0.115633324 -0.088069685 0.24678198 -0.015663916 0.09440735 0.32801193 -0.26614544 -0.18387423
0.13945158 -0.22474575 -0.096588895 0.037521787 0.010483165 0.19470304 0.025572214 -0.18168606
0.24970788 -0.1621622 0.113326594 0.039483387 -0.22383635 -0.025333218 -0.09359506 -0.17407313
0.1264278 -0.04177718 -0.24688412 0.046166882 0.16873004 0.0531651 0.33117363 0.09479756
0.29778653 0.23126683 0.083935045 0.03772838 0.10138284 -0.23748359 0.33971363 -0.0863974
00000000: a742 0d3e 5a6a a4ba 8a54 58bc 544d 86bc
00000010: 5f72 b2bd 4857 15be 71cd ce3b 9957 a4bc
00000020: 6b01 993d 1d33 983d 4bab c33b 3856 543d
00000030: 71ab f2bb 615d d73b e867 413c 640b e3bd
00000040: e8b1 87bd 9553 943d b570 ed3d b665 68bd
00000050: 04d1 6c3d 524c 22bd 036b db3b 80a3 abbd
00000060: 3863 b13d 48ba e2bc e283 6f3d 03f1 af3a
00000070: d3a5 14be b3c9 8b3d 318a ed3b 1b85 8dbb
00000080: d223 893c 72b0 b53d a3c0 4bbc 8d69 1fbe
00000090: eed7 87bc 9e8f 0d3e fa94 bcbd fa8c 0e3e
000000a0: d017 793d 26dc 58bd 6b2e 343d 6fb7 523d
000000b0: 38eb 1d3c cb1c 0dbe 298f 863d c11b 84bd
000000c0: 3e3a dcbd fd9f 23be 3835 afbd d0e8 9c3d
000000d0: 0c3d 013c fdf0 8fbc e9a7 6fbd aab5 f43d
000000e0: 99a7 033c d4be bbbd 75be ce3d 622c 433d
000000f0: 9fe8 1fbc 0556 423e 4887 b23d 0be1 273d
00000100: 6626 0abe 9445 763d 416e 25be 2f05 413d
00000110: e186 c03d 999b 4f3d bdcc 9a3d 376b a1be
00000120: 56cf 673d 8eea 00be f40a 013e 96e3 f13d
00000130: f413 1e3d 7afc 6c3e 5d5f a23d e764 a63d
00000140: 3e14 0d3e 5314 a13c 50b2 d6bd 1fc0 34bd
00000150: e18d 1fbe bfe7 b43d 5fdd 0abd 0129 6b3d
00000160: 687d 24bc 520b 913e cf1f 9a3d fa38 91ba
00000170: d54f 933d aed6 2b3d f9d7 2bbe 0dcf 453e
00000180: a305 a43e 655b e5bd df6c d3bd 588a 243e
00000190: 9106 cc3d 388f 973e d1b0 823c 0bff f7bc
000001a0: f29c 58bd 9fa9 84bd f36d 54be 02f0 acbd
000001b0: 6465 65be 72c8 a73c 4cb3 2fbe 797d 3abe
000001c0: c0f9 ff3d 25a0 c6bd b9bc ad3d 7de9 1dbd
000001d0: be90 95be 9c04 1c3e e202 f93c c534 91bc
000001e0: 6be3 013d 7546 193e 1b2d bcbc 3d16 5fbe
000001f0: 3f78 cd3d 76e4 1cbe 383b 6fbd 372b 2bbc
00000200: 56d4 08bc 5d79 e53c 43e0 8a3d b8ef c13d
00000210: 0722 2bbe 964b 613c 6f69 a1bd b8e6 c7be
00000220: 0d0f 013d 320a 5c3c b193 9d3e ee8e ccbd
00000230: 1e2a 95bd 8f5d edbb cf36 3fbc 6b06 2c3e
00000240: ed73 543e cbb8 0b3e 14e8 4ebc 9910 b73b
00000250: c44d 2abd ba51 253d 1700 d03d 30c8 cbbc
00000260: 589f 773e 4eac 6fbe 611c 443e 9659 b6bd
00000270: ead5 a33e f610 533e 969f efbd 70c8 3cbe
00000280: 5b95 f6bd 4297 cc3d 52ed f33d b6f7 93bd
00000290: 9743 1dbe 7f5f 983d 5914 15be d92e 0b3e
000002a0: c8b8 293d 8535 673d ad94 97bb d685 8dbc
000002b0: 56b2 273d c899 e2bd d3e8 a1bd 00eb 273a
000002c0: a2be cf3d ac17 9cbd 685c dabd 4fc4 583d
000002d0: 124c 49bc b787 163e 86db c73d 7e04 4b3e
000002e0: 127d 0d3d d2fe 133d 3791 b1be 9b2b fb3d
000002f0: b84d 06bd 29b2 e63d 4ddc 473d 5341 023d
00000300: f1df d4bd 211c e6bd 2fbb 2e3c 25d2 a83d
00000310: 7efa 1a3d 1504 753e e20f 42bd ffc5 a0be
00000320: 6b17 333e c595 9b3d 09b0 0b3e 2030 003e
00000330: b9e8 dd3d 836d 01be 0b88 6abd 0fc0 763e
00000340: b286 503d 12e2 5bbe b5df 4abe b78c 9c3c
00000350: b009 c3bd d247 323e f967 1e3e 5285 21be
00000360: 2ad1 ec3d e15d b4bd 6ab4 7c3e 9d51 80bc
00000370: a458 c13d 2ef1 a73e 3744 88be 8749 3cbe
00000380: 65cc 0e3e c023 66be 66d0 c5bd 72b0 193d
00000390: 95c1 2b3c 3c60 473e d27c d13c e90b 3abe
000003a0: 6cb3 7f3e d90d 26be c617 e83d 55b9 213d
000003b0: 5b35 65be 9c87 cfbc c4ae bfbd 3a40 32be
000003c0: 4a76 013e 8c1e 2bbd 31cf 7cbe 7c19 3d3d
000003d0: 91c7 2c3e a6c3 593d 978f a93e 3925 c23d
000003e0: 7a77 983e 36d1 6c3e 23e6 ab3d 1389 1a3d
000003f0: cea1 cf3d e62e 73be f2ee ad3e 1ff1 b0bd

encoder.lstm.bias_ih_l0 f4 [256]
-0.071338244 0.009554913 0.14622645 0.009559805 0.07104635 0.21623011 0.14075804 0.10943171
-0.04741059 -0.02004086 0.016028553 0.113204695 -0.063292235 0.09084407 0.1279255 -0.013294264
-0.13513003 -0.1032906 0.08750342 -0.014978686 -0.013764895 -0.041701507 0.037661977 0.01400222
-0.0036707127 0.09227183 0.13677551 0.12978567 0.21477546 0.15377915 -0.017150156 -0.0500275
0.080365784 -0.04737629 0.07963382 0.1348669 0.072902314 0.037539672 0.03212869 0.19240639
0.051684294 -0.12788549 0.061106894 -0.021138916 0.005167576 0.07820129 -0.13649993 -0.049467843
-0.009624802 0.2710081 0.057766914 -0.063690335 0.07968982 -0.020851575 0.005519201 -0.016879639
0.05930803 -0.07927476 0.19202392 -0.012939579 0.1599662 -0.0239829 -0.101846516 -0.1052132
0.12715583 -0.021804556 0.1122585 -0.15673041 -0.030132739 0.076381505 0.12600088 0.0745991
-0.11853223 -0.10135857 0.050925236 -0.083204836 0.046966046 -0.0023791406 0.025557414 -0.031613193
0.032769743 -0.1360152 -0.085650645 -0.08953374 0.07238459 -0.04488629 -0.002699407 -0.12137281
0.10851623 -0.015897337 0.11343841 0.15318148 0.15558188 0.28163585 -0.02143626 0.0978489
0.044772733 0.02995113 0.044043843 -0.054756694 -0.14341459 -0.13062929 -0.026992757 -0.046214465
0.094779104 -0.1534338 0.18469806 0.08080981 0.023984771 0.056614008 0.07130856 0.098132595
-0.053601936 0.0069322176 -0.12997732 -0.12590177 -0.096218824 -0.00853684 0.0410951 0.051899806
-0.079023 -0.040471096 0.05163806 0.020184154 0.065162495 -0.005934193 -0.03600166 -0.011313946
-0.027072787 0.066084 0.06877352 0.009985149 -0.030122796 0.073975384 0.08481852 0.0075203325
0.027163811 -0.04158909 0.05832213 -0.06643047 -0.10756168 0.0445414 0.0006648077 -0.018352825
0.048657965 0.023370385 -0.06082779 -0.048173822 -0.006659983 0.0045379917 -0.0064510563 -0.047384117
-0.060896777 -0.020964295 -0.13228384 -0.039884035 0.08723306 -0.10158704 0.043681633 -0.0031426654
-0.07265546 0.06429809 0.09467564 -0.05142615 -0.044685334 0.060508195 -0.07127547 0.033437762
0.07442729 -0.057941753 -0.010746955 -0.043812916 -0.0015141871 -0.030014412 0.1154003 0.023070727
-0.11254886 -0.023701811 -0.08576712 -0.12142235 -0.038060494 0.006372838 0.07364608 0.0016172276
-0.045982964 -0.09133486 -0.07979832 0.051369883 -0.08659755 0.08106174 0.009568763 -0.06897743
0.08515092 -0.12907398 -0.026396804 0.08699701 -0.09437719 -0.023740731 -0.07172141 -0.020068541
0.120407 -0.023879245 0.038931 0.07498786 -0.16797628 -0.064415544 -0.16500308 0.05688192
-0.06990494 0.059556052 -0.13272797 -0.11262264 -0.048746336 -0.07913645 0.054582935 0.053257897
-0.06483937 0.021155108 0.060740218 0.07961927 0.16646634 0.11727617 -0.013939721 0.094796576
-0.063723356 0.056320082 0.09179107 0.14418994 0.02462942 -0.0024397736 -0.08121359 0.12094479
0.06655981 0.050963353 -0.06853284 0.07723831 -0.12354374 0.00718081 0.016431855 0.12810092
-0.038595602 -0.056818455 -0.0690056 -0.0376692 -0.11940602 0.11075137 -0.15813193 -0.13504124
-0.05144116 0.057208445 0.007973244 0.07602976 0.10804826 -0.001239699 0.017970031 -0.01641547
00000000: c919 92bd 368c 1c3c 63bc 153e baa0 1c3c
00000010: c080 913d 6d6b 5d3e e022 103e bb1d e03d
00000020: 9b31 42bd bb2c a4bc 504e 833c ddd7 e73d
00000030: 5c9f 81bd 750c ba3d e7fe 023e 2fd0 59bc
00000040: 875f 0abe 068a d3bd fe34 b33d 2a69 75bc
00000050: 2786 61bc 33cf 2abd 7243 1a3d 9169 653c
00000060: 5790 70bb 03f9 bc3d e10e 0c3e 89e6 043e
00000070: 19ee 5b3e 4878 1d3e 7c7e 8cbc a3e9 4cbd
00000080: d196 a43d a40d 42bd 0e17 a33d 8c1a 0a3e
00000090: cf4d 953d 33c3 193d 6099 033d 2e06 453e
000000a0: e9b2 533d 6af4 02be 394b 7a3d 852b adbc
000000b0: c554 a93b ff27 a03d a3c6 0bbe cb9e 4abd
000000c0: 58b1 1dbc 93c1 8a3e 009d 6c3d 1470 82bd
000000d0: 6b34 a33d ecd0 aabc 6ada b43b 2b47 8abc
000000e0: faec 723d ce5a a2bd eba1 443e 8700 54bc
000000f0: 2ece 233e c977 c4bc e894 d0bd 057a d7bd
00000100: 2335 023e 789f b2bc c9e7 e53d f07d 20be
00000110: efd8 f6bc e86d 9c3d 6006 013e 6ac7 983d
00000120: 07c1 f2bd 1595 cfbd fb96 503d 4c67 aabd
00000130: 785f 403d 5beb 1bbb c85d d13c d67c 01bd
00000140: 9139 063d 9247 0bbe 9b69 afbd 775d b7bd
00000150: 5f3e 943d b0da 37bd 89e8 30bb 4f92 f8bd
00000160: c23d de3d 223b 82bc 6652 e83d 9bdb 1c3e
00000170: db50 1f3e 9332 903e 189b afbc 0165 c83d
00000180: 9d63 373d 125c f53c 5167 343d 8e48 60bd
00000190: 46db 12be afc3 05be ea1f ddbc 614b 3dbd
000001a0: 8c1b c23d c01d 1dbe 7d21 3d3e 9d7f a53d
000001b0: b67b c43c 17e4 673d 390a 923d bef9 c83d
000001c0: b48d 5bbd a827 e33b c618 05be 65ec 00be
000001d0: 600e c5bd 1ade 0bbc 5653 283d e494 543d
000001e0: d0d6 a1bd 05c5 25bd 6e82 533d 3d59 a53c
000001f0: ea73 853d 9e73 c2bb 7a76 13bd 215e 39bc
00000200: c0c7 ddbc 0c57 873d 22d9 8c3d c098 233c
00000210: 15c4 f6bc 6880 973d 55b5 ad3d 1f6d f63b
00000220: a486 de3c 5259 2abd 30e3 6e3d b30c 88bd
00000230: 4c49 dcbd 0b71 363d 7d46 2e3a aa58 96bc
00000240: 934d 473d 4073 bf3c 9026 79bd ea51 45bd
00000250: fd3b dabb 6fb3 943b 6263 d3bb d915 42bd
00000260: e66e 79bd 50bd abbc 6a75 07be 715d 23bd
00000270: 3fa7 b23d de0c d0bd 83eb 323d 2df5 4dbb
00000280: 63cc 94bd b8ae 833d 4de5 c13d 3aa4 52bd
00000290: f807 37bd 71d7 773d e0f8 91bd 09f6 083d
000002a0: 566d 983d 5554 6dbd ff13 30bc 2c75 33bd
000002b0: b077 c6ba c9e0 f5bc fe56 ec3d d2fe bc3c
000002c0: 0480 e6bd 4d2a c2bc aca6 afbd 48ac f8bd
000002d0: 52e5 1bbd 3dd3 d03b c2d3 963d 27f9 d33a
000002e0: a258 3cbd c50d bbbd 4d6d a3bd 3a69 523d
000002f0: 0e5a b1bd b303 a63d 4dc6 1c3c 0a44 8dbd
00000300: 9b63 ae3d f82b 04be 1c3e d8bc 7d2b b23d
00000310: d448 c1bd ec7b c2bc ade2 92bd c866 a4bc
00000320: f297 f63d 689e c3bc 1d76 1f3d 3c93 993d
00000330: f901 2cbe 4cec 83bd 91f6 28be 04fd 683d
00000340: 522a 8fbd 0cf1 733d d7e9 07be b3a6 e6bd
00000350: 3daa 47bd 4b12 a2bd 5b92 5f3d f424 5a3d
00000360: 81ca 84bd 7a4d ad3c bcca 783d 6e0f a33d
00000370: 2776 2a3e 7d2e f03d 6d63 64bc b524 c23d
00000380: 6481 82bd e3af 663d f5fc bb3d 87a6 133e
00000390: a3c3 c93c 9ce4 1fbb 5053 a6bd e7b1 f73d
000003a0: 8250 883d f3be 503d f25a 8cbd 1e2f 9e3d
000003b0: 8004 fdbd 004d eb3b 199c 863c e32c 033e
000003c0: 6c16 1ebd 78ba 68bd cf52 8dbd 054b 1abd
000003d0: 258b f4bd 9dd1 e23d 56ed 21be 4048 0abe
000003e0: f7b3 52bd 6753 6a3d 36a2 023c 7eb5 9b3d
000003f0: 6848 dd3d 657d a2ba e335 933c bc79 86bc

encoder.lstm.bias_hh_l0 f4 [256]
-0.08179722 -0.04795109 -0.033985596 -0.02224009 -0.07319943 0.08483516 0.061733063 -0.1252136
0.015291817 0.024778308 0.10284552 0.025808245 0.06873189 -0.050041635 0.0060011297 0.048082616
-0.081866704 0.05577076 0.05727976 0.08697636 -0.030265227 0.08467806 0.084876515 -0.023416843
0.0174929 -0.028813662 0.13220212 0.1425568 0.04440566 0.0027905987 0.04881951 -0.08756348
0.09754294 0.010132448 0.050596245 0.13623652 -0.056096748 -0.01554729 -0.08500848 0.02576628
-0.0027065312 -0.011907695 0.08738788 0.15194911 0.10159152 -0.008342166 -0.09886132 0.029467437
0.1733972 0.120566 -0.025185134 0.011902023 -0.044928584 -0.10030306 -0.08587076 -0.0073395674
-0.051734917 0.042779207 0.17019753 0.1787645 -0.050678246 0.04756272 -0.07109868 -0.09517586
0.06222975 -0.12572373 0.050651383 -0.09559525 -0.1465476 0.06991665 -0.014358505 -0.09947342
0.02428504 0.07460797 -0.009054641 0.020399597 -0.09215056 0.06316548 0.02598516 -0.027793838
0.023913648 0.06569588 -0.04423958 -0.082369536 0.06456968 -0.06700246 0.060848217 -0.006452961
-0.06626023 0.09265473 0.22057043 -0.034466833 0.1672979 0.12002273 0.027644096 0.1850776
0.15480551 0.09853467 -0.05369579 -0.021467743 -0.080694124 -0.12028422 0.035049085 0.026176233
-0.04845137 0.05642787 0.086571164 -0.059098314 0.033337247 -0.04253651 0.0417125 0.09702991
0.008987817 0.0053178575 -0.02545096 -0.08361914 -0.1129555 -0.06888988 -0.12371293 -0.06766796
0.0032608118 -0.086818516 0.23488127 0.12157251 0.05736019 0.21259008 -0.11155406 0.03330872
-0.05205587 -0.06043991 -0.060470857 0.05630021 -0.054415904 -0.083354846 0.10843341 0.009014699
-0.037855044 -0.020416873 -0.10098141 -0.0016437408 -0.104125045 0.02354752 -0.038388252 0.07168168
-0.0040292777 0.04202021 0.09828475 0.087114565 0.05362171 0.05359093 0.06832482 -0.01897434
9.187261e-05 -0.02369875 0.070921525 0.024091434 -0.050203465 0.10147354 -0.057667054 -0.028802823
-0.11708041 0.1076296 0.018889938 -0.030398237 0.056637164 -0.12793165 -0.07280202 0.07966895
-0.0023207297 -0.027076542 0.002152414 -0.0020915759 0.047495354 0.03547081 -0.02321875 0.13779432
0.054119546 -0.0037049744 0.039763346 0.015758246 0.12147379 -0.06164295 -0.08862209 0.050646886
0.07229195 -0.09479473 0.051978067 0.04516556 -0.0836512 -0.018529275 0.038092524 0.047737427
0.06882614 -0.06803466 -0.068665795 -0.036820993 -0.13783896 -0.000113815426 0.065846466 -0.11222746
-0.099251 0.018025652 0.07951726 -0.026120527 -0.13430275 0.1045934 -0.06967693 0.03173199
0.075437166 0.012673622 0.07424164 0.056897543 -0.0847526 0.092237435 -0.030919392 -0.09779781
0.020281585 0.046858463 0.058906008 0.090136975 0.12702186 0.25619525 0.09797406 -0.086491436
-0.0014252111 0.052172687 -0.025625085 0.08538335 0.01928995 -0.07467336 0.07266822 0.053120848
-0.064834274 -0.11454294 0.08581927 0.015264774 -0.10987806 -0.07697996 0.081200466 -0.08678152
0.090301074 -0.01679781 -0.069533005 -0.102992974 0.10163044 -0.009456551 -0.021439947 -0.018194176
-0.062804215 0.013751693 0.03732248 0.1622164 -0.018287297 -0.037451483 -0.027755952 -0.030810604
00000000: 4d85 a7bd 5d68 44bd 7b34 0bbd d930 b6bc
00000010: 95e9 95bd 0ebe ad3d cfdb 7c3d fe37 00be
00000020: 878a 7a3c e1fb ca3c aca0 d23d d06b d33c
00000030: 4ec3 8c3d 75f8 4cbd 20a5 c43b 47f2 443d
00000040: bba9 a7bd e16f 643d 2e9e 6a3d a920 b23d
00000050: c8ee f7bc b16b ad3d bdd3 ad3d aed4 bfbc
00000060: 454d 8f3c a10a ecbc fe5f 073e 69fa 113e
00000070: b6e2 353d 7ae2 363b f7f6 473d 7b54 b3bd
00000080: 98c4 c73d 9102 263c 023e 4f3d 9681 0b3e
00000090: b4c5 65bd 10ba 7ebc ed18 aebd ce13 d33c
000000a0: 0f60 31bb 7e18 43bc 6bf8 b23d 8c98 1b3e
000000b0: 370f d03d 95ad 08bc ce77 cabd b265 f13c
000000c0: 098f 313e 4feb f63d 0e51 cebc b400 433c
000000d0: 0907 38bd b16b cdbd 02dd afbd c180 f0bb
000000e0: fee7 53bd 4039 2f3d 4348 2e3e 0b0e 373e
000000f0: fe93 4fbd 20d1 423d 2f9c 91bd 90eb c2bd
00000100: 9fe4 7e3d b9bd 00be d377 4f3d 71c7 c3bd
00000110: 9310 16be 7630 8f3d ef3f 6bbc b8b8 cbbd
00000120: 6cf1 c63c 10cc 983d eb59 14bc 0e1d a73c
00000130: 6fb9 bcbd e75c 813d d5de d43c e7af e3bc
00000140: 8ee6 c33c 908b 863d 9034 35bd 5cb1 a8bd
00000150: 1c3d 843d 9638 89bd fb3b 793d 5c73 d3bb
00000160: 72b3 87bd c3c1 bd3d 37dd 613e 182d 0dbd
00000170: 2450 2b3e 7ace f53d df75 e23c fb84 3d3e
00000180: 5685 1e3e 8ccc c93d 1ef0 5bbd 1fdd afbc
00000190: f642 a5bd 9357 f6bd a18f 0f3d 8a6f d63c
000001a0: f274 46bd e920 673d 394c b13d 1311 72bd
000001b0: a38c 083d c33a 2ebd bada 2a3d 9eb7 c63d
000001c0: a341 133c 6c41 ae3b 887e d0bc 8340 abbd
000001d0: 3755 e7bd 2316 8dbd 345d fdbd 8095 8abd
000001e0: 58b3 553b e8cd b1bd b784 703e 02fb f83d
000001f0: 85f2 6a3d 37b1 593e 7476 e4bd b96e 083d
00000200: 8938 55bd d78f 77bd 4ab0 77bd 0d9b 663d
00000210: 36e3 5ebd f2b5 aabd 5612 de3d 63b2 133c
00000220: e40d 1bbd 4941 a7bc 57cf cebd ca72 d7ba
00000230: 833f d5bd bbe6 c03c 003d 1dbd d8cd 923d
00000240: 0808 84bb 621d 2c3d 8449 c93d 1f69 b23d
00000250: 70a2 5b3d 2a82 5b3d e2ed 8b3d 1370 9bbc
00000260: bbab c038 e223 c2bc 4e3f 913d 665b c53c
00000270: 26a2 4dbd 5cd1 cf3d 4a34 6cbd e6f3 ebbc
00000280: dbc7 efbd e86c dc3d 12bf 9a3c b905 f9bc
00000290: 5ffc 673d 8400 03be 3a19 95bd 7929 a33d
000002a0: 6217 18bb a0cf ddbc 840f 0d3b d212 09bb
000002b0: 7d8a 423d d749 113d 3f35 bebc f419 0d3e
000002c0: 75ac 5d3d 28cf 72bb e4de 223d 7017 813c
000002d0: 40c7 f83d 517d 7cbd 807f b5bd 1c73 4f3d
000002e0: cd0d 943d bd23 c2bd f4e6 543d 86ff 383d
000002f0: 5251 abbd b5ca 97bc e806 1c3d 5288 433d
00000300: b8f4 8c3d c155 8bbd a7a0 8cbd 9cd1 16bd
00000310: a825 0dbe 31b0 eeb8 83da 863d 83d7 e5bd
00000320: 1c44 cbbd 88aa 933c f2d9 a23d b7fa d5bc
00000330: a986 09be 1135 d63d c7b2 8ebd 67f9 013d
00000340: cd7e 9a3d 06a5 4f3c 000c 983d 660d 693d
00000350: c592 adbd fbe6 bc3d aa4a fdbc 384a c8bd
00000360: 9125 a63c a9ee 3f3d 6d47 713d bc99 b83d
00000370: 0512 023e 062c 833e a0a6 c83d 6c22 b1bd
00000380: 26ce baba 07b3 553d b3eb d1bc 77dd ae3d
00000390: f505 9e3c 59ee 98bd 13d3 943d 3f95 593d
000003a0: d5c7 84bd 7d95 eabd 03c2 af3d 1a19 7a3c
000003b0: c007 e1bd aba7 9dbd 6e4c a63d 82ba b1bd
000003c0: c5ef b83d 909b 89bc 5267 8ebd fbed d2bd
000003d0: 9f23 d03d a6ef 1abc d4a2 afbc f40b 95bc
000003e0: 7f9f 80bd c84e 613c 75df 183d 0e1c 263e
000003f0: 3ecf 95bc ba66 19bd 7360 e3bc 8566 fcbc

decoder.lstm.weight_ih_l0 f4 [256, 5]
0.026367059 -0.42603794 0.2027104 0.14012879 -0.15201162 0.20678437 -0.23122923 0.15945552
0.12828891 -0.11754012 -0.03986045 -0.41589835 0.5764488 0.2208271 -0.042877764 0.14661887
-0.26647443 0.31963125 0.12621242 -0.115735166 0.27309528 0.09644383 0.011367298 0.2975024
-0.13318759 0.18559594 0.116439514 0.13771307 0.0043580765 -0.12326 0.12073184 -0.41400436
0.08831383 -0.046659436 0.020944346 0.0959731 0.061103582 0.39906257 0.20067413 0.06935358
0.1294388 0.057496868 0.21310551 -0.024482073 -0.049398247 -0.1996383 0.353475 0.11843552
0.50465685 -0.031796418 0.15418874 -0.025728935 0.17494203 0.058569804 0.03387261 0.19101134
-0.01196205 0.255266 0.14905469 0.061917696 0.2765974 -0.4956864 -0.30192167 -0.45855713
-0.17650607 0.16478544 -0.16916311 -0.24358483 -0.09715473 -0.017294604 0.1529978 -0.2794084
0.28277957 0.12126393 -0.12578763 0.16138516 -0.10784973 0.31624466 0.042599116 -0.08980738
0.14308582 0.09552224 0.22855878 0.037731122 -0.03303456 0.051728785 -0.25775135 0.1575135
-0.2633614 0.019705942 0.09255374 0.13145451 0.28894913 0.18032496 0.06096696 0.21109281
-0.018088637 0.39147443 0.15068956 -0.008558795 0.054402277 -0.0048246477 0.2966891 0.019529479
0.0870431 0.10878346 -0.14646454 0.1906086 0.14584431 0.07490432 0.11001332 0.10765086
0.045456808 -0.043669064 -0.020295918 0.29169446 -0.16135633 0.43020838 0.14015977 0.0056597916
0.12975971 -0.24982734 0.67986715 0.08778636 0.07538198 0.09998866 -0.17096378 -0.20529391
-0.09946409 -0.03738531 0.32015094 0.017390745 0.2773035 -0.020749956 0.07228673 0.17069082
0.16565633 0.11662156 0.07793743 -0.025317255 0.15708522 0.29912823 -0.21551234 0.014638271
-0.20992032 0.026606347 0.13841149 0.1090039 -0.10788733 -0.095732495 -0.040681817 -0.017073557
0.18086629 -0.040597267 0.022762554 0.1904195 -0.1282326 -0.028320227 0.0033342512 0.011930717
0.079525396 -0.10335438 0.13576338 0.15397365 -0.16571796 0.07068801 -0.003237681 0.3247524
0.16267551 -0.100447506 0.0035023768 0.15871166 0.23285152 0.02266678 0.060830075 -0.2719798
-0.18782714 -0.1317963 -0.16292928 -0.08957535 0.33781198 -0.15126337 0.219259 0.09249686
-0.09849785 0.21167983 -0.108445056 0.34456795 0.17850593 0.06813496 -0.45524102 -0.9128135
0.05953599 -0.4442856 -0.09175595 0.15062056 -0.23923513 0.817613 0.31895012 -0.090836
-0.040387254 -0.09641352 -0.18176237 -0.36941645 -0.16676788 0.2627353 -0.031887412 0.47075883
0.23572372 0.011967493 0.063849464 -0.4112263 -0.12359036 -0.50768894 -0.07159269 -0.2754467
-0.019161435 -0.0070133097 0.057881385 -0.084753536 0.058610003 0.078926094 0.25144348 0.10868923
-0.09860148 -0.07262742 0.26377925 -0.06227357 0.121990696 -0.049321715 0.07919825 0.224434
0.36286402 0.12747264 -0.06995933 0.07683623 0.13188215 0.23361808 0.1181266 0.048492845
0.06699402 -0.041164443 0.33523545 0.12520757 -0.07901183 0.007898409 0.0052516074 -0.051119503
0.121648796 -0.11255142 0.10146768 -0.19682392 0.462349 0.33572695 -0.11543936 0.24083051
00000000: bbff d73c a521 dabe 5193 4f3e ec7d 0f3e
00000010: efa8 1bbe 48bf 533e 5bc7 6cbe 4f48 233e
00000020: 2b5e 033e e0b8 f0bd b644 23bd a1f0 d4be
00000030: 2692 133f 8020 623e 98a0 2fbd 4223 163e
00000040: 566f 88be b5a6 a33e d43d 013e 8f06 edbd
00000050: 25d3 8b3e 5884 c53d e73d 3a3c 3c52 983e
00000060: 5462 08be dd0c 3e3e d777 ee3d a804 0d3e
00000070: 32ce 8e3b bd6f fcbd 4142 f73d 61f8 d3be
00000080: e2dd b43d f71d 3fbd 7a93 ab3c 8b8d c43d
00000090: c047 7a3d ee51 cc3e 857d 4d3e 4009 8e3d
000000a0: 9b8b 043e d681 6b3d 5538 5a3e a18e c8bc
000000b0: d155 4abd fc6d 4cbe adfa b43e 528e f23d
000000c0: 3131 013f f63c 02bd a7e3 1d3e 7dc5 d2bc
000000d0: 0124 333e e4e6 6f3d 02be 0a3d 7a98 433e
000000e0: 79fc 43bc 3ab2 823e cba1 183e 699d 7d3d
000000f0: 2d9e 8d3e 9cca fdbe 7a95 9abe 00c8 eabe
00000100: 02be 34be 84bd 283e 1839 2dbe 4d6e 79be
00000110: 0ff9 c6bd 6aad 8dbc 75ab 1c3e 9e0e 8fbe
00000120: 7cc8 903e 3959 f83d 79ce 00be 2742 253e
00000130: 52e0 dcbd d2ea a13e 697c 2e3d efec b7bd
00000140: 1785 123e 2aa1 c33d 500b 6a3e f38b 1a3d
00000150: 3f4f 07bd 90e1 533d fcf7 83be 384b 213e
00000160: 4ed7 86be 5b6e a13c d18c bd3d 039c 063e
00000170: 24f1 933e 1ba7 383e 7eb8 793d b728 583e
00000180: 9f2e 94bc 566f c83e 5d4e 1a3e 303a 0cbc
00000190: ecd4 5e3d 1418 9ebb a2e7 973e 49fc 9f3c
000001a0: a743 b23d ddc9 de3d cdfa 15be e72e 433e
000001b0: 3658 153e 7067 993d aa4e e13d 0e78 dc3d
000001c0: eb30 3a3d 55de 32bd a043 a6bc fa58 953e
000001d0: 983a 25be 4644 dc3e 0b86 0f3e c675 b93b
000001e0: bbdf 043e bdd2 7fbe c60b 2e3f 56c9 b33d
000001f0: de61 9a3d dbc6 cc3d 2111 2fbe 9138 52be
00000200: d4b3 cbbd 5721 19bd d3ea a33e 0977 8e3c
00000210: b9fa 8d3e d0fb a9bc 110b 943d 93c9 2e3e
00000220: d0a1 293e 49d7 ee3d a99d 9f3d 2266 cfbc
00000230: f3da 203e 5627 993e 44af 5cbe 5cd5 6f3c
00000240: 5af5 56be 8ef5 d93c bebb 0d3e 703d df3d
00000250: 08f4 dcbd 660f c4bd faa1 26bd d8dd 8bbc
00000260: 0335 393e 5249 26bd 8978 ba3c 54fd 423e
00000270: 684f 03be d2ff e7bc 7483 5a3b 0e79 433c
00000280: 36de a23d 76ab d3bd 8e05 0b3e 45ab 1d3e
00000290: f8b1 29be e0c4 903d 462f 54bb f245 a63e
000002a0: 6994 263e 6cb7 cdbd 2288 653b 4f85 223e
000002b0: a170 6e3e afaf b93c f528 793d f040 8bbe
000002c0: c255 40be 9cf5 06be efd6 26be 4873 b7bd
000002d0: b1f5 ac3e c9e4 1abe 6e85 603e fe6e bd3d
000002e0: 3eb9 c9bd 99c2 583e 7118 debd 366b b03e
000002f0: 42ca 363e 588a 8b3d 5a15 e9be 25ae 69bf
00000300: 03dc 733d 6779 e3be 8bea bbbd 473c 1a3e
00000310: 0efa 74be 164f 513f 6e4d a33e 3a08 babd
00000320: 1b6d 25bd 7474 c5bd ea1f 3abe 2724 bdbe
00000330: 33c5 2abe 3e85 863e 609c 02bd 4d07 f13e
00000340: 8f61 713e 4e13 443c 82c3 823d 418c d2be
00000350: f11c fdbd e7f7 01bf 309f 92bd 5a07 8dbe
00000360: 71f8 9cbc e8cf e5bb 0815 6d3d 4393 adbd
00000370: 0b11 703d 01a4 a13d 33bd 803e 7698 de3d
00000380: 93ef c9bd afbd 94bd 130e 873e 9212 7fbd
00000390: 42d6 f93d 9105 4abd b132 a23d 07d2 653e
000003a0: 50c9 b93e 3088 023e d646 8fbd 505c 9d3d
000003b0: 1d0c 073e 9439 6f3e 5cec f13d 6fa0 463d
000003c0: 2934 893d 0c9c 28bd fba3 ab3e 6a36 003e
000003d0: f4d0 a1bd 5468 013c ad15 ac3b af62 51bd
000003e0: 0123 f93d 5c81 e6bd 49ce cf3d 368c 49be
000003f0: 02b9 ec3e 67e4 ab3e 796b ecbd 469c 763e

decoder.lstm.weight_hh_l0 f4 [256, 64]
-0.11175819 -0.05897539 -0.031947747 -0.052237783 -0.057664923 0.12940845 -0.0757467 -0.1133388
-0.032539275 0.09243367 0.09075788 -0.088553466 0.20167822 0.0148303965 -0.09835868 0.10084429
-0.0054694875 0.21028055 -0.07997969 0.011419815 -0.08405466 0.042206272 0.0771422 0.0601102
-0.006278462 -0.03912356 0.08787163 -0.061501414 0.01216773 -0.14049655 0.05227923 0.01579701
-0.055373196 -0.08681955 -0.09563177 -0.047539532 -0.10102292 0.037234258 0.06539703 -0.03528926
0.058551535 -0.057492305 0.038105693 0.19067916 -0.038642976 0.016247619 -0.047183327 0.0075353156
0.12589484 0.06962004 -0.033261836 0.04621395 0.055818357 0.120045386 0.16201232 0.006586486
-0.016230801 0.14739914 -0.035722837 -0.047245186 0.055988584 -0.008334541 -6.185387e-05 0.18222532
-0.061574627 -0.050321147 -0.2705148 0.07358328 -0.10845183 0.031084556 -0.0049206535 -0.024285674
-0.010090351 0.09430875 0.016488208 -0.08816405 0.25795648 0.026774978 -0.09741765 0.16627464
-0.013550106 -0.038933083 -0.0030988404 -0.07263212 -0.008154341 -0.013695617 0.013254505 -0.055241223
0.040030308 -0.02600802 0.10665351 -0.12119402 -0.014147915 -0.097615704 0.0698257 -0.08379837
0.1140145 -0.03179889 -0.07437936 -0.07052147 -0.048586886 0.08495679 -0.03922205 -0.14746171
0.04272801 -0.12651101 -0.04336255 0.065059885 0.02228857 -0.031395778 0.003620752 -0.053510617
-0.01783228 -0.09171308 -0.049182333 0.19486366 -0.1304826 0.13013926 0.092963055 0.14779265
0.05416006 0.1393957 -0.12628101 0.12044054 0.025941137 0.013761538 0.10058902 0.06472318
0.096020214 0.043756984 -0.009433519 0.003938868 0.0019342569 0.04916023 0.01943393 -0.093268834
-0.043432396 0.1465638 -0.036655143 -0.0124388905 0.112463705 0.067289315 -0.10476738 -0.082600355
0.09896036 0.12054147 0.024811609 0.018621407 0.10708903 0.04316866 -0.08993894 -0.038002852
0.03663704 -0.1048692 0.3177863 -0.12828255 -0.029274764 -0.015725778 -0.09038964 -0.1426436
0.033919193 0.06705191 -0.029394109 -0.21521716 -0.009426557 -0.009727768 -0.17034118 -0.05508423
0.26833132 -0.02401559 0.029818868 -0.06633329 0.09496783 -0.10632479 -0.10549636 -0.13750002
-0.062698744 -0.008868783 -0.08730519 0.3027121 0.15498069 0.053761195 0.23430529 0.06814339
-0.09344499 -0.061089776 -0.19527012 0.020158757 -0.06669901 -0.14870799 0.16233607 0.3029758
-0.096885964 -0.1156978 0.025692798 0.06333877 0.029139727 -0.020160908 -0.021916544 0.010939384
-0.06634861 -0.08479282 0.103778265 -0.0056337765 -0.043360624 -0.047237653 0.108045764 0.05301084
0.08773249 0.10998095 -0.11545528 0.051723935 0.08682211 0.04916217 -0.06279693 -0.044402625
0.071748205 0.005592324 0.1375472 0.032510895 0.20551135 -0.1818589 0.08469021 -0.1561073
0.082067885 -0.014605166 -0.042424552 -0.24392506 0.059248608 -0.018000834 -0.04595357 0.028863817
0.12927113 0.024893032 0.2139515 -0.10422406 -0.12390626 -0.140045 -0.16781428 -0.1291409
0.08868267 0.02327171 0.0087064095 0.021725304 0.0012488901 0.02835875 0.20006272 0.13303624
0.16454218 -0.03165581 -0.052614756 -0.05127436 -0.08221294 -0.07673581 0.14504091 0.106633574
00000000: 7ae1 e4bd 2e90 71bd a4db 02bd 49f7 55bd
00000010: 0e32 6cbd a683 043e 1621 9bbd 2c1e e8bd
00000020: e747 05bd dd4d bd3d 44df b93d 855b b5bd
00000030: bc84 4e3e 31fb 723c 4770 c9bd 7387 ce3d
00000040: 6339 b3bb c953 573e 64cc a3bd 2d1a 3b3c
00000050: d924 acbd 7ce0 2c3d bbfc 9d3d 1d36 763d
00000060: 8ebb cdbb 0740 20bd 0bf6 b33d e8e8 7bbd
00000070: 295b 473c 54de 0fbe bf22 563d bb68 813c
00000080: 01cf 62bd 73ce b1bd 97da c3bd d0b8 42bd
00000090: 1be5 cebd f382 183d e1ee 853d 798b 10bd
000000a0: bcd3 6f3d 0d7d 6bbd b714 1c3d 6641 433e
000000b0: 1948 1ebd ba19 853c 4e43 41bd cfea f63b
000000c0: 94ea 003e f494 8e3d 903d 08bd d74a 3d3d
000000d0: caa1 643d 5bda f53d 8fe6 253e 73d3 d73b
000000e0: 75f6 84bc cdef 163e 1c52 12bd 2b84 41bd
000000f0: 4954 653d 998d 08bc 8bb7 81b8 4699 3a3e
00000100: ad35 7cbd 8c1d 4ebd ea80 8abe d5b2 963d
00000110: fe1b debd 0aa5 fe3c 6f3d a1bb c0f2 c6bc
00000120: 0052 25bc f224 c13d 4712 873c 5a8f b4bd
00000130: df12 843e 3357 db3c e882 c7bd e643 2a3e
00000140: 4401 5ebc 4c78 1fbd ea15 4bbb 26c0 94bd
00000150: c999 05bc 9563 60bc 6c29 593c 9f44 62bd
00000160: d2f6 233d c50e d5bc 286d da3d 9234 f8bd
00000170: a8cc 67bc beea c7bd c700 8f3d 7b9e abbd
00000180: 6f80 e93d 8e3f 02bd 3554 98bd 8f6d 90bd
00000190: 0b03 47bd d3fd ad3d 4da7 20bd 3400 17be
000001a0: 9103 2f3d 1a8c 01be ee9c 31bd 1e3e 853d
000001b0: 8596 b63c dc98 00bd 234a 6d3b f32d 5bbd
000001c0: 0015 92bc 11d4 bbbd 6a73 49bd 578a 473e
000001d0: 3b9d 05be 3a43 053e 6a63 be3d f556 173e
000001e0: f0d6 5d3d bfbd 0e3e cf4f 01be 88a9 f63d
000001f0: 8282 d43c 1378 613c 9e01 ce3d 968d 843d
00000200: 3fa6 c43d 863a 333d 0c8f 1abc 9f11 813b
00000210: e486 fd3a 3d5c 493d e833 9f3c bb03 bfbd
00000220: 2be6 31bd d214 163e b423 16bd 7dcc 4bbc
00000230: 5f53 e63d fbce 893d 4890 d6bd 602a a9bd
00000240: bbab ca3d 72de f63d b741 cb3c ec8b 983c
00000250: 7e51 db3d 9fd1 303d e831 b8bd e1a8 1bbd
00000260: b910 163d aac5 d6bd e3b4 a23e 805c 03be
00000270: a1d1 efbc 59d3 80bc 341e b9bd 2a11 12be
00000280: daee 0a3d 8352 893d eacb f0bc e361 5cbe
00000290: d971 1abc 3761 1fbc eb6d 2ebe 00a0 61bd
000002a0: b962 893e 58bc c4bc b346 f43c bfd9 87bd
000002b0: 7e7e c23d d0c0 d9bd 7a0e d8bd cecc 0cbe
000002c0: 3368 80bd 5f4e 11bc 10cd b2bd 15fd 9a3e
000002d0: 42b3 1e3e b334 5c3d baed 6f3e c38e 8b3d
000002e0: 1660 bfbd 4639 7abd e4f4 47be fa23 a53c
000002f0: 7e99 88bd e846 18be 6d3b 263e a51f 9b3e
00000300: 266c c6bd f8f2 ecbd b479 d23c c2b7 813d
00000310: 70b6 ee3c 7d28 a5bc 538a b3bc 1a3b 333c
00000320: c8e1 87bd dca7 adbd b389 d43d 8b9b b8bb
00000330: e99a 31bd 457c 41bd 1947 dd3d e521 593d
00000340: 17ad b33d b13d e13d d173 ecbd 7adc 533d
00000350: cacf b13d 465e 493d ad9b 80bd 87df 35bd
00000360: b9f0 923d d03f b73b 2cd9 0c3e 252a 053d
00000370: 9171 523e 3839 3abe 1072 ad3d 98da 1fbe
00000380: 3513 a83d 824a 6fbc 5ec5 2dbd 7ec7 79be
00000390: abae 723d 7c76 93bc d039 3cbd d073 ec3c
000003a0: a75f 043e 79ec cb3c 1a16 5b3e 6d73 d5bd
000003b0: 91c2 fdbd f567 0fbe 82d7 2bbe 833d 04be
000003c0: 429f b53d 50a4 be3c 54a5 0e3c 44f9 b13c
000003d0: ccb1 a33a 9c50 e83c 3edd 4c3e a73a 083e
000003e0: bf7d 283e 86a9 01bd 9282 57bd 1005 52bd
000003f0: 425f a8bd aa27 9dbd 9b85 143e b462 da3d

decoder.lstm.bias_ih_l0 f4 [256]
-0.017885387 -0.1073086 0.033706427 -0.04707925 -0.09006634 0.028399898 0.088708185 -0.06223176
-0.03890247 -0.03251588 -0.0005170576 -0.07886672 -0.05729942 0.07258937 -0.08675993 -0.03831675
-0.0027892536 -0.23322217 0.08463751 0.04930022 -0.0669418 -0.022513691 -0.06302865 0.06904132
-0.12807414 0.07537099 -0.0029563936 -0.010826496 0.021373224 -0.052113935 -0.09362248 -0.08377003
0.03895355 -0.1436856 -0.10321496 -0.09024102 -0.040715616 -0.15471143 0.075584084 -0.05686638
-0.11431008 -0.064663514 -0.13632509 -0.059360243 0.06479426 0.031804577 -0.0012046873 -0.1523295
0.015709776 0.047554173 -0.09215689 0.0027307358 -0.10603092 -0.07401977 -0.050915517 -0.09262634
-0.028186446 0.022025429 -0.1284277 0.08240095 -0.12212436 -0.0064929845 -0.039710447 -0.11086801
-0.065378696 0.078411035 -0.112286694 -0.10560728 -0.11013328 0.052527506 0.13078469 -0.07946527
-0.026580527 -0.08984518 0.103471614 -0.049245246 0.08695999 0.061428737 0.08534989 0.001130314
0.15262927 0.05231984 0.051465556 -0.08262238 -0.03261056 0.1179266 -0.10785342 -0.12728979
0.08576175 0.01666363 0.028033875 0.011383862 -0.024741065 -0.112173915 0.035842597 0.04474998
-0.062160123 -0.047282875 -0.06880833 0.11130762 -0.0065782964 -0.10991415 -0.022713877 0.031363677
0.090063564 0.13173299 0.025221622 0.02112266 -0.00645934 -0.05090706 -0.08313786 0.026388207
0.06376512 -0.036323845 -0.027182635 0.1309946 0.113076895 0.050591215 0.07437985 0.028444085
-0.08409593 -0.016704194 -0.06523414 0.026947558 0.09036721 -0.09181317 0.039509077 0.017092442
0.0070878016 -0.031609576 0.033565752 -0.07237987 0.009048998 5.442918e-05 0.07129556 -0.06710062
0.04650825 -0.015932845 0.08974452 -0.07951942 -0.030027151 0.035391226 0.051022995 -0.052929714
-0.037241805 -0.047987945 -0.05760097 -0.030177275 0.03571296 -0.11977757 0.11042299 0.09673602
-0.08017833 0.071239166 -0.04065321 0.027706487 -0.061121006 -0.04322702 -0.03719719 0.06947526
0.12773424 -0.0051297126 -0.007107806 0.024688013 0.070865616 -0.0064708083 -0.026040532 0.10261006
-0.04537466 0.06719337 -0.08996075 -0.088073626 0.03944216 0.0660079 -0.024621587 -0.10095622
-0.015615674 0.011190807 0.08306119 0.03172995 -0.091282226 -0.02147899 -0.032069642 -0.061573602
-0.048859894 -0.049962513 0.11894328 0.008129059 0.0044563576 0.029706243 -0.12188829 -0.11072248
-0.15866987 0.022191193 -0.1335928 0.039377514 -0.10102943 0.022048054 0.06706696 -0.09882327
-0.16932149 0.04287494 -0.056991667 -0.004867321 0.074708425 -0.013773492 0.05363715 -0.026582912
0.057092503 -0.049886286 0.11853344 -0.111527264 -0.11173637 0.04416579 0.049046315 0.0598843
-0.11671608 -0.018941687 -0.06085665 0.0023166325 -0.013979771 -0.15913373 0.097615264 -0.10162075
-0.1107935 -0.1248497 -0.019061284 0.077241614 0.0065455367 -0.14364414 0.01957205 0.05336186
-0.11400065 -0.043294407 -0.2389371 -0.073697925 -0.068537965 -0.085060306 0.054343916 -0.012601343
0.16046043 0.034047533 0.013140215 0.003263207 -0.03903374 -0.123964936 0.054791413 0.09122676
-0.06433932 -0.070848614 -0.095098905 -0.09548502 -0.10679318 -0.029051792 0.10470122 -0.13724028
00000000: 6084 92bc 9cc4 dbbd c00f 0a3d 2cd6 40bd
00000010: b474 b8bd e7a6 e83c a3ac b53d bbe6 7ebd
00000020: 3258 1fbd 5f2f 05bd 268b 07ba e084 a1bd
00000030: ccb2 6abd bca9 943d 31af b1bd 06f2 1cbd
00000040: e9cb 36bb cbd1 6ebe 6e56 ad3d 07ef 493d
00000050: c818 89bd a26e b8bc 2a15 81bd 8965 8d3d
00000060: de25 03be 1b5c 9a3d 0ec0 41bb 9e61 31bc
00000070: e616 af3c 6c75 55bd 25bd bfbd 9f8f abbd
00000080: c28d 1f3d 5122 13be 5d62 d3bd 49d0 b8bd
00000090: 6bc5 26bd ac6c 1ebe d4cb 9a3d b9ec 68bd
000000a0: 671b eabd 4e6e 84bd ce98 0bbe ba23 73bd
000000b0: dab2 843d 8445 023d 99e6 9dba 44fc 1bbe
000000c0: cab1 803c 2ac8 423d c0bc bcbd 25f6 323b
000000d0: bd26 d9bd ad97 97bd ca8c 50bd e1b2 bdbd
000000e0: 43e7 e6bc ac6e b43c 8d82 03be d4c1 a83d
000000f0: 561c fabd 1ac3 d4bb 6ca7 22bd c40e e3bd
00000100: 44e5 85bd f795 a03d 91f6 e5bd a148 d8bd
00000110: 8f8d e1bd 1527 573d 6cec 053e b0be a2bd
00000120: 68bf d9bc c000 b8bd ede8 d33d 62b5 49bd
00000130: 1418 b23d b39c 7b3d eccb ae3d 0b27 943a
00000140: d94a 1c3e 544d 563d 8ccd 523d ec35 a9bd
00000150: a792 05bd 8083 f13d 41e2 dcbd 4158 02be
00000160: dba3 af3d 2a82 883c 4ca7 e53c 6183 3a3c
00000170: c6ad cabc 70bb e5bd b0cf 123d c14b 373d
00000180: 9d9b 7ebd b0ab 41bd 62eb 8cbd 40f5 e33d
00000190: c08e d7bb ab1a e1bd 7412 babc 3377 003d
000001a0: 3f73 b83d 03e5 063e 939d ce3c 6e09 ad3c
000001b0: dfa8 d3bb ec83 50bd 2f44 aabd 152c d83c
000001c0: 4a97 823d 50c8 14bd 1eae debc 7323 063e
000001d0: dc94 e73d bc38 4f3d 7654 983d 9203 e93c
000001e0: 7d3a acbd 3cd7 88bc 7a99 85bd 20c1 dc3c
000001f0: 7212 b93d 8b08 bcbd 45d4 213d 7305 8c3c
00000200: ca40 e83b 0b79 01bd 3e7c 093d e63b 94bd
00000210: 4042 143c e34a 6438 6803 923d 0d6c 89bd
00000220: 6f7f 3e3d 9985 82bc facb b73d 14db a2bd
00000230: 80fb f5bc 64f6 103d 7dfd 503d d4cc 58bd
00000240: dd8a 18bd 028f 44bd ffee 6bbd 5536 f7bc
00000250: c147 123d f14d f5bd 7325 e23d 891d c63d
00000260: 8934 a4bd d7e5 913d fb83 26bd b7f8 e23c
00000270: 055a 7abd d10e 31bd 155c 18bd 0c49 8e3d
00000280: c4cc 023e 2617 a8bb 99e8 e8bb 843e ca3c
00000290: fe21 913d 1309 d4bb f452 d5bc 3925 d23d
000002a0: c8da 39bd ad9c 893d 573d b8bd f25f b4bd
000002b0: 1a8e 213d 262f 873d 36b3 c9bc 22c2 cebd
000002c0: e2d8 7fbc a659 373c fc1b aa3d 44f7 013d
000002d0: 2df2 babd b5f4 afbc 755b 03bd 9a34 7cbd
000002e0: 5021 48bd 7ea5 4cbd 8998 f33d bf2f 053c
000002f0: a306 923b 825a f33c 91a0 f9bd 78c2 e2bd
00000300: 5b7a 22be 4eca b53c 8dcc 08be 514a 213d
00000310: 85e8 cebd 1f9e b43c 675a 893d db63 cabd
00000320: 9d62 2dbe a29d 2f3d 1870 69bd 0c7e 9fbb
00000330: bb00 993d 36aa 61bc a1b2 5b3d 68c4 d9bc
00000340: d4d9 693d 9055 4cbd a9c1 f23d 6868 e4bd
00000350: 0ad6 e4bd 30e7 343d cae4 483d 3d49 753d
00000360: d708 efbd 992b 9bbc d344 79bd a5d2 173b
00000370: 690b 65bc f4f3 22be 83ea c73d 8a1e d0bd
00000380: b4e7 e2bd 33b1 ffbd 6926 9cbc da30 9e3d
00000390: f17b d63b 7317 13be 9055 a03c f791 5a3d
000003a0: 2c79 e9bd 7a55 31bd edab 74be f0ee 96bd
000003b0: a25d 8cbd 1934 aebd ba97 5e3d dd75 4ebc
000003c0: bd4f 243e 6d75 0b3d 0e4a 573c 87db 553b
000003d0: d8e1 1fbd 54e1 fdbd f66c 603d 18d5 ba3d
000003e0: 55c4 83bd 1419 91bd 37c3 c2bd a68d c3bd
000003f0: 62b6 dabd 06fe edbc 986d d63d b788 0cbe

decoder.lstm.bias_hh_l0 f4 [256]
-0.07980795 -0.1475961 -0.12976028 -0.017631333 -0.098615974 0.007683298 -0.05797604 -0.14632422
-0.16012165 -0.002826211 0.041993417 -0.16069508 0.030873185 -0.035919048 -0.051076725 0.06745503
-0.023927717 0.007767127 -0.027505113 -0.08871153 -0.15019418 0.016747577 -0.11266241 -0.12714021
-0.07024456 0.04117646 -0.009236153 -0.13576616 -0.19411778 -0.0038687186 0.04842476 0.07659805
-0.016949544 0.068953015 -0.07332303 -0.03830489 0.024680907 -0.195527 0.0558211 -0.08142571
-0.044918343 -0.1337034 -0.049840502 -0.111764655 -0.14607054 -0.17246418 -0.14085667 -0.029355343
-0.025055248 -0.09714442 -0.04275515 -0.14425495 -0.1037238 -0.17943208 -0.086332195 -0.11019616
0.07052862 0.05132041 0.07663862 -0.02063701 -0.18997179 0.051127642 -0.029709332 0.047444634
-0.099657014 0.0043923752 -0.04735745 0.11537691 0.06596756 0.05706573 0.15623145 0.016697466
0.047393177 5.8941558e-05 -0.09548793 0.04489666 0.054051906 0.12290079 -0.08192237 0.05424333
0.10142996 0.03509384 0.1742789 0.06289786 -0.09857462 0.12865712 0.024710275 -0.048042666
0.0014109553 0.012934665 0.08478912 -0.091341674 0.12975736 0.019704822 0.20082663 -0.014229776
0.05868979 0.08258862 -0.01677399 0.17803678 -0.1365513 -0.15585643 0.2005246 -0.08158112
0.014776291 -0.055155583 0.018721689 0.10784041 -0.07807771 -0.012454879 0.011301045 0.110773005
0.10843842 0.100150555 -0.019900909 -0.0791281 0.14593726 0.058614757 0.09128124 0.083316214
0.07836283 0.086808376 -0.039616577 0.05129188 0.08254127 0.07409836 -0.0019258026 -0.100534864
0.044111066 0.032732412 0.105154976 0.029665362 -0.044730928 0.038729936 -0.028301917 0.082411684
-0.014426195 0.0024521712 -0.044289406 0.12447318 -0.021448767 -0.090668514 -0.041479856 0.021643607
0.10330792 0.028359924 0.028429491 -0.01024391 0.002407628 0.07143145 0.10402378 0.039881617
-0.08402487 0.094479 0.01728616 -0.01323191 0.07419147 0.00073353125 -0.04021827 -0.026463646
-0.07759589 -0.05176082 -0.04469919 0.016016692 0.06274003 -0.032147687 -0.0037948624 0.05529338
-0.0033822586 0.055892874 0.015312528 -0.052488077 -0.07899888 0.058669493 -0.042734623 0.08497624
-0.06641272 0.029274816 0.012747935 -0.09519999 -0.03657688 -0.10180295 -0.087384164 0.019247036
0.09982989 -0.06532974 0.04458892 -0.060812738 -0.012963486 0.033358384 0.108470105 -0.05939195
-0.09583697 0.016809383 -0.033211052 -0.006136268 -0.13361384 0.10327535 0.08329313 -0.13097392
0.0064789797 0.05206799 -0.12986197 -0.02429953 0.089371964 0.058127034 -0.070826955 -0.01676113
0.12819235 -0.12887964 0.088499635 -0.031148793 0.049330823 -0.08259747 0.029337551 -0.16215844
0.025477087 0.04494591 -0.09838604 -0.014381231 0.116214596 -0.0661701 0.052332822 -0.035596363
-0.038440652 -0.12323415 -0.036852732 0.013962425 -0.115415685 -0.18508753 0.08207048 -0.015708053
-0.2097148 0.112497434 -0.23360008 -0.11563734 -0.13103008 0.041081656 0.016505098 -0.048790358
0.14361158 0.06373326 -0.04602144 0.028793795 0.035791896 0.0027316927 0.0056995796 -0.01164462
0.026736226 0.090035796 -0.010814333 0.0010657058 -0.12580055 -0.12952441 0.07254112 0.08587054
00000000: 5a72 a3bd 6f23 17be e1df 04be 966f 90bc
00000010: 2cf7 c9bd 2dc4 fb3b 4978 6dbd 04d6 15be
00000020: eef6 23be f437 39bb 4a01 2c3d 408d 24be
00000030: c3e9 fc3c da1f 13bd d435 51bd dd25 8a3d
00000040: 0f04 c4bc 6283 fe3b 6752 e1bc 64ae b5bd
00000050: 81cc 19be 3732 893c 8dbb e6bd 0b31 02be
00000060: 61dc 8fbd a6a8 283d 3c53 17bc 4906 0bbe
00000070: d0c6 46be 548a 7dbb 0b59 463d 70df 9c3d
00000080: c5d9 8abc 3d37 8d3d 622a 96bd 97e5 1cbd
00000090: 9d2f ca3c 3b38 48be aaa4 643d 86c2 a6bd
000000a0: 4cfc 37bd 8be9 08be 8e25 4cbd dee4 e4bd
000000b0: 8493 15be 739a 30be bb3c 10be 9e7a f0bc
000000c0: aa40 cdbc a7f3 c6bd 0620 2fbd 92b7 13be
000000d0: 256d d4bd 0bbd 37be efce b0bd 86ae e1bd
000000e0: 4f71 903d 5a35 523d b5f4 9c3d f20e a9bc
000000f0: f787 42be 386b 513d fc60 f3bc 4e55 423d
00000100: fa18 ccbd eaed 8f3b e3f9 41bd bb4a ec3d
00000110: 001a 873d c1bd 693d 23fb 1f3e 20c9 883c
00000120: 591f 423d 0438 7738 2d8f c3bd 8fe5 373d
00000130: 8865 5d3d 69b3 fb3d eac6 a7bd 412e 5e3d
00000140: 83ba cf3d 8fbe 0f3d 2b76 323e 98d0 803d
00000150: 7ee1 c9bd b1be 033e 346d ca3c 63c8 44bd
00000160: ceef b83a ebeb 533c eba5 ad3d 5811 bbbd
00000170: 1ddf 043e 026c a13c 7fa5 4d3e 0224 69bc
00000180: b564 703d 3924 a93d 9b69 89bc 464f 363e
00000190: 1bd4 0bbe d498 1fbe 5256 4d3e 0114 a7bd
000001a0: 4218 723c d2ea 61bd 3a5e 993c 6fdb dc3d
000001b0: 35e7 9fbd 8c0f 4cbc 0528 393c f5dc e23d
000001c0: f614 de3d bc1b cd3d 3b07 a3bc ea0d a2bd
000001d0: 9470 153e 0716 703d a9f1 ba3d b1a1 aa3d
000001e0: b17c a03d 97c8 b13d fe44 22bd 6f17 523d
000001f0: 660b a93d e2c0 973d 366b fcba 39e5 cdbd
00000200: cead 343d 6c12 063d 7e5b d73d c604 f33c
00000210: c737 37bd 48a3 1e3d 6cd9 e7bc 75c7 a83d
00000220: d95b 6cbc 9bb4 203b cf68 35bd cbeb fe3d
00000230: 53b5 afbc 6ab0 b9bd c8e6 29bd ef4d b13c
00000240: 1a93 d33d 1253 e83c f7e4 e83c 13d6 27bc
00000250: 4cc9 1d3b a74a 923d 6b0a d53d e85a 233d
00000260: 3b15 acbd 357e c13d b49b 8d3c a7ca 58bc
00000270: b3f1 973d 734a 403a eabb 24bd 4aca d8bc
00000280: 98ea 9ebd 2703 54bd 7f16 37bd 7035 833c
00000290: d87d 803d 4bad 03bd 3ab3 78bb 507b 623d
000002a0: e2a8 5dbb edef 643d 66e1 7a3c bdfd 56bd
000002b0: 2aca a1bd 6c4f 703d 800a 2fbd 0608 ae3d
000002c0: 6403 88bd bdd1 ef3c b7dc 503c 36f8 c2bd
000002d0: a3d1 15bd 117e d0bd 78f6 b2bd f6ab 9d3c
000002e0: 9d73 cc3d 99cb 85bd dfa2 363d c716 79bd
000002f0: cd64 54bc cda2 083d 9325 de3d f944 73bd
00000300: 2c46 c4bd d5b3 893c 5008 08bd bf12 c9bb
00000310: 11d2 08be 0782 d33d 9795 aa3d 071e 06be
00000320: 9f4d d43b 3f45 553d 89fa 04be cf0f c7bc
00000330: a608 b73d 9d16 6e3d b90d 91bd a34e 89bc
00000340: db44 033e 06f9 03be 4c3f b53d c12b ffbc
00000350: 1e0f 4a3d dd28 a9bd 4e55 f03c dd0c 26be
00000360: 53b5 d03c 3419 383d 9f7e c9bd 419f 6bbc
00000370: eb01 ee3d 3084 87bd f15a 563d 7ecd 11bd
00000380: f273 1dbd 3062 fcbd e4f2 16bd a8c2 643c
00000390: 0f5f ecbd 9687 3dbe 9114 a83d 2dae 80bc
000003a0: 7abf 56be 0e65 e63d dc34 6fbe 45d3 ecbd
000003b0: c02c 06be 3d45 283d b335 873c 66d8 47bd
000003c0: ea0e 133e 9586 823d fa80 3cbd f7e0 eb3c
000003d0: 869a 123d 3306 333b 8ac3 ba3b 14c9 3ebc
000003e0: ee05 db3c b064 b83d 9a2e 31bc 27af 8b3a
000003f0: dcd1 00be 0ca2 04be 7090 943d e5dc af3d
