models/modello_lstm_20250506_1941.pth (torch, 28761 bytes, 6 tensors)

lstm.weight_ih_l0 f4 [128, 10]
0	0x3eec00fd	0.46094504
1	0x3d1350df	0.035965797
2	0x3e6e6331	0.23280026
3	0x3de8318b	0.113375746
4	0x3e0d03ff	0.13771056
5	0x3e1a218f	0.15051864
6	0x3e2ebeab	0.17064922
7	0x3d24af05	0.040205974
8	0x3dc1fdc2	0.094722286
9	0xbdcd8e8e	-0.10036956
10	0xbd5f3ff7	-0.05450436
11	0x3d91f06c	0.07125935
12	0x3d8d60b2	0.06903209
13	0xbd6eefb1	-0.058334056
14	0xbd7b0033	-0.061279487
15	0xbda25105	-0.079256095
16	0xbcbacd66	-0.02280302
17	0x3eae82be	0.34084123
18	0x3e1fbffa	0.15600577
19	0x3d9f0124	0.077638894
20	0x3ea8d91b	0.32978138
21	0x3e8a9632	0.27067715
22	0x3f4a1ba9	0.78948456
23	0x3e8194d1	0.2530885
24	0x3e8e60db	0.2780827
25	0x3e17007d	0.1474628
26	0x3e3094fb	0.17244332
27	0x3eb60935	0.355539
28	0x3d30c958	0.043160766
29	0xbdb68446	-0.08911948
30	0xbe1473b6	-0.14497265
31	0xbe0ed03f	-0.13946627
32	0x3d693b6b	0.05694143
33	0xbe061742	-0.1309481
34	0xbbe0401f	-0.0068435813
35	0x3e279d5a	0.16368619
36	0x3e9658c1	0.2936459
37	0x3e25e4bb	0.16200535
38	0x3e7e7a92	0.24851444
39	0xbd1d9233	-0.038469505
40	0x3e7b2d67	0.24529038
41	0xbddf39c5	-0.108996905
42	0x3e3e4a70	0.18583083
43	0xbdbc24c8	-0.09186703
44	0x3e7cab8d	0.24674816
45	0x3dab5712	0.08366217
46	0x3e8f26c6	0.2795927
47	0x3eb0ee80	0.3455696
48	0x3d5d1bfb	0.053981762
49	0x3ec7366e	0.38908714
50	0xbda3d95c	-0.080004424
51	0x3d411a13	0.047144007
52	0x3e8da1fe	0.27662653
53	0x3e78bfdf	0.24291943
54	0xbcb7b994	-0.022427358
55	0x3e273113	0.16327314
56	0xbe7a32fc	-0.24433511
57	0x3d842e49	0.06454141
58	0x3e656f28	0.22405684
59	0x3ec8572c	0.39129007
60	0xbe071831	-0.13192822
61	0x3e927bb6	0.2861001
62	0xbd5851f8	-0.052812546
63	0x3db17057	0.08664005
64	0x3ee785db	0.4521931
65	0x3e675e9a	0.22594681
66	0x3ec47efb	0.38378128
67	0x3e2a9367	0.16657792
68	0x3e141367	0.14460526
69	0x3ebcf4a8	0.36905408
70	0xbbc68876	-0.006058748
71	0x3e52616b	0.20544975
72	0xbd9b979f	-0.07597279
73	0xbe5df4ae	-0.21675369
74	0xbe15c1bd	-0.14624687
75	0x3e75a0f4	0.2398718
76	0xbe0f9f13	-0.14025526
77	0xbdc33f2e	-0.09533535
78	0x3d72ac24	0.059246197
79	0x3ecbd4eb	0.3981088
80	0xbc7e7f28	-0.015533246
81	0xbe896eba	-0.2684229
82	0x3e9f1a8f	0.3107495
83	0x3e02739a	0.12739411
84	0x3c22bf25	0.009933268
85	0xbd01ac73	-0.0316586
86	0xbcb83aa5	-0.022488901
87	0xbd107b80	-0.03527403
88	0x3d252616	0.040319525
89	0x3e531206	0.20612344
90	0xbe465130	-0.19366908
91	0xbe2d07f0	-0.16897559
92	0xbe1eb1e2	-0.15497544
93	0xbc854c16	-0.016271632
94	0x3d3e84bc	0.046513304
95	0x3d6f966e	0.05849307
96	0xbd96323e	-0.07333802
97	0x3e56cfe6	0.20977744
98	0x3beffb1b	0.0073236353
99	0x3dd4ba2a	0.103870705
100	0x3e116285	0.14197738
101	0x3df7380a	0.120712355
102	0x3e8dfe06	0.27732867
103	0x3e1cf47c	0.15327638
104	0xbc91589f	-0.017742453
105	0x3d41dd47	0.047330167
106	0x3d6af28d	0.05736022
107	0x3db834c7	0.089944415
108	0xbd4fbfc9	-0.05072001
109	0x3e228bb3	0.15873604
110	0xbf0d0f1d	-0.55101186
111	0xbe929929	-0.28632477
112	0xbf09cda5	-0.53829414
113	0xbefcfd19	-0.49411848
114	0xbcbfc4b6	-0.023409229
115	0x3e6b0ed8	0.22954881
116	0x3eb1951e	0.3468408
117	0x3e111370	0.14167571
118	0xbdff2456	-0.124581024
119	0x3dbb376e	0.09141432
120	0xbe59e8fb	-0.21280281
121	0xbe12d2c6	-0.14338216
122	0x3e296055	0.16540654
123	0x3d15e2f7	0.036593404
124	0xbcf1eb63	-0.029531186
125	0x3e152a79	0.14566983
126	0x3e22cefd	0.15899272
127	0x3e39029e	0.18067405
128	0x3e3388d2	0.17532662
129	0x3d6ae08d	0.057343055
130	0x3e9e93ea	0.30972224
131	0xbd931906	-0.07182507
132	0x3d007081	0.031357292
133	0x3e2af1be	0.1669378
134	0xbcbdca82	-0.023167852
135	0x3ecc0c36	0.39853066
136	0x3e948bfb	0.29013047
137	0x3d62e33e	0.055392496
138	0x3ea86e52	0.32896668
139	0x3c33c101	0.010971309
140	0x3db00891	0.08595384
141	0xbda049dc	-0.078265876
142	0x3ea232be	0.31679338
143	0xbce1f46f	-0.027582375
144	0x3db72244	0.089420825
145	0xbd8048ce	-0.062638864
146	0x3daaa218	0.08331698
147	0x3eae47b8	0.34039092
148	0x3e4a1a78	0.1973666
149	0x3e2b2ff6	0.16717514
150	0xbd8ea170	-0.069643855
151	0xbd68967c	-0.056784138
152	0x3ea7e854	0.3279444
153	0x3da5f770	0.081038356
154	0x3df9f5a9	0.12205059
155	0xbd6255a0	-0.05525744
156	0xba099c58	-0.0005249432
157	0x3e014791	0.12624957
158	0xbad27729	-0.0016057241
159	0x3eb96a3b	0.3621386
160	0x3ad38a69	0.0016139272
161	0xbdca118a	-0.098666266
162	0x3dedc5d6	0.1161
163	0x3dde6dba	0.108607724
164	0xbdf15111	-0.1178304
165	0x3d62b426	0.055347584
166	0x3e123094	0.14276344
167	0x3dba5e9a	0.09100075
168	0x3de8a5f3	0.11359777
169	0x3eeacb3c	0.4585818
170	0xbe815b3a	-0.25264913
171	0xbe4f1533	-0.2022293
172	0xbf13cef4	-0.5773766
173	0xbd2f52a2	-0.042803414
174	0x3eed5785	0.46355835
175	0x3d4ffa94	0.05077608
176	0x3e7a2ea6	0.24431857
177	0x3e00761f	0.1254506
178	0x3cbfd300	0.023416042
179	0xbd1298dd	-0.035790313
180	0x3dd89e71	0.10577095
181	0x3ec82ea9	0.390981
182	0x3eec533c	0.46157253
183	0x3eeedbf2	0.4665218
184	0x3dbd817b	0.09253212
185	0x3eaab73e	0.33342928
186	0x3d698dea	0.057020105
187	0x3d0c2e58	0.034223884
188	0x3e4c240e	0.19935629
189	0x3ce07091	0.027397426
190	0xbe5dad62	-0.21648172
191	0x3e584f8a	0.21124092
192	0xbec253b4	-0.37954485
193	0xbe23f602	-0.16011813
194	0xbcdc7d33	-0.026915168
195	0xbd8f99df	-0.070117705
196	0x3e7269b4	0.23673135
197	0xbccd6c4e	-0.025076058
198	0x3de2da6b	0.11076816
199	0xbc210430	-0.0098276585
200	0xbe613cfb	-0.21995918
201	0x3dbef88e	0.09324752
202	0xbd936dcc	-0.071986765
203	0xbbe24df4	-0.0069062654
204	0xbbf1f969	-0.0073844683
205	0xbe886c93	-0.26645336
206	0x3e6df4b3	0.23237877
207	0x3def0917	0.116716556
208	0x3c9ea78e	0.019367006
209	0x3e942750	0.28936243
210	0xbcae8323	-0.021302765
211	0x3d91b4b8	0.071145475
212	0xbdae8ba3	-0.08522727
213	0xbd97e6a0	-0.07417035
214	0x3d760d4d	0.06007128
215	0x3c8e7865	0.017391393
216	0x3e8e91bf	0.2784557
217	0x3e93c962	0.2886458
218	0x3c93ec68	0.018057063
219	0xbee8d3fd	-0.45474234
220	0xbe04c7d9	-0.12966861
221	0xbe1b298c	-0.15152568
222	0x3e0db538	0.1383866
223	0x3e57df11	0.21081187
224	0xbdaa8919	-0.083269306
225	0x3e2de130	0.16980433
226	0x3e1c8841	0.15286352
227	0xbc84c71a	-0.01620822
228	0x3ddec4a7	0.10877352
229	0xbd842c7f	-0.064537995
230	0xbdc2eed1	-0.09518207
231	0xbd7f3d55	-0.06231435
232	0xbe2d3cdb	-0.16917746
233	0x3e63c87a	0.22244444
234	0x3e12e9ee	0.1434705
235	0x3cc3b6e5	0.023890922
236	0x3e5355a7	0.20638143
237	0x3e3cb088	0.18426716
238	0x3dae4c1f	0.08510613
239	0x3ecfff29	0.4062436
240	0xbe8edbc5	-0.27902046
241	0xbcd2d74f	-0.025737433
242	0xbd2c8d8a	-0.04212717
243	0xbd21ac40	-0.03947091
244	0xbd2fa7c6	-0.04288461
245	0xbd166080	-0.036713123
246	0x3d899dcf	0.06719553
247	0x3e76d4f6	0.24104676
248	0xbe57ec47	-0.21086226
249	0x3ce8323b	0.028344264
250	0x3e0f71c1	0.14008237
251	0x3e2ea69e	0.17055747
252	0x3f26903a	0.6506382
253	0x3eadb469	0.33926705
254	0x3e85bf5f	0.26122567
255	0x3ed32798	0.41241145

lstm.weight_hh_l0 f4 [128, 32]
0	0xb93d9464	-0.00018079724
1	0xbe66fe72	-0.22558
2	0x3ded71ff	0.11594009
3	0x3cfd7ff8	0.03094481
4	0x3ea96c18	0.3309028
5	0x3d286c3e	0.041118853
6	0x3e855b34	0.26046145
7	0xbdc1234d	-0.09430561
8	0xbdaa55b1	-0.083171256
9	0xbe02026c	-0.12696236
10	0x3d2d2046	0.042267106
11	0x3d8a70ab	0.06759771
12	0xbde86b0c	-0.113485426
13	0x3e24559c	0.16048282
14	0x3c441dd2	0.01197
15	0x3e2ce6b7	0.16884886
16	0x3e8f8062	0.28027636
17	0xbecd8348	-0.40139222
18	0x3eb518e0	0.3537054
19	0x3bbd43b9	0.0057758954
20	0xbe24bc54	-0.16087466
21	0xbd335689	-0.0437837
22	0xbd3ac583	-0.045598518
23	0xbe3b6e28	-0.1830374
24	0xbd9111fc	-0.07083508
25	0xbe456947	-0.19278441
26	0x3e0f0214	0.13965636
27	0x3e65a593	0.22426443
28	0x3c5d795c	0.013517704
29	0xbdf49e87	-0.11944299
30	0x3de27904	0.11058238
31	0xbd44291c	-0.047890767
32	0x3d88997b	0.06669899
33	0xbe556318	-0.20838583
34	0xbd33cff3	-0.043899488
35	0x3d27f3c8	0.041003972
36	0xbbcc29aa	-0.0062305527
37	0x3deefe4e	0.116695985
38	0xbe8621c1	-0.26197627
39	0xbe41309b	-0.18866198
40	0x3daa7d00	0.08324623
41	0x3df5eb6d	0.120077945
42	0x3df9bd4e	0.1219431
43	0x3e8d1299	0.2755325
44	0xbdc075f5	-0.093974985
45	0xbbae30be	-0.005315869
46	0xbd38dd4d	-0.045132924
47	0xbdf1e4d7	-0.11811226
48	0x3df96e00	0.12179184
49	0xbdc02bef	-0.0938338
50	0x3e2b97d3	0.16757135
51	0xbe3434f6	-0.17598328
52	0xbe112914	-0.14175826
53	0xbe39773f	-0.18111895
54	0xbe547c84	-0.20750624
55	0xbd2b2414	-0.041782454
56	0x3e30d1ea	0.17267576
57	0xbd55e285	-0.05221798
58	0xbe046fff	-0.12933348
59	0xbcf4475e	-0.029819187
60	0xbe30b272	-0.17255571
61	0xbd82f509	-0.06394393
62	0x3d66a479	0.056309197
63	0xbcbdab13	-0.023152864
64	0xbe717da9	-0.23583092
65	0xbe10fc14	-0.1415866
66	0x3ec88871	0.39166597
67	0x3d9fa715	0.0779554
68	0x3e8d7cf8	0.27634406
69	0xbd7682bd	-0.060183275
70	0x3e910a25	0.28328052
71	0xbc171389	-0.009220966
72	0x3e519991	0.20468737
73	0xbe019318	-0.12653768
74	0xbe1cb031	-0.15301587
75	0x3d950afa	0.07277484
76	0x3d4e15d3	0.050313782
77	0x3e4d2929	0.20035233
78	0xbcde9636	-0.027171236
79	0x3ce76f17	0.028251214
80	0x3e3b57db	0.18295233
81	0xbe1a8b02	-0.1509209
82	0x3ed03b38	0.4067018
83	0xbd138012	-0.03601081
84	0xbe27dc75	-0.16392691
85	0xbc6655ab	-0.014058511
86	0x3c817c4f	0.015806345
87	0xbd397cfe	-0.045285217
88	0x3d9dafe4	0.07699564
89	0xbedecc2e	-0.43515152
90	0x3e4d9daa	0.20079675
91	0x3e4b4e13	0.19854002
92	0xbdf9b879	-0.121933885
93	0xbe739ab0	-0.23789477
94	0xbd99c1e7	-0.07507687
95	0xbd6b2b43	-0.057414304
96	0x3ca59ac3	0.020215398
97	0x3cddda1b	0.02708154
98	0x3e1375e8	0.14400446
99	0xbd73e387	-0.05954316
100	0x3e854935	0.26032415
101	0xbd615f14	-0.055022314
102	0x3d569ea3	0.05239738
103	0xbc6f220b	-0.014595519
104	0xbd89eac0	-0.06734228
105	0xbdbbe398	-0.091742694
106	0xbd8ca3df	-0.068671934
107	0x3edf2af4	0.43587458
108	0x3cb7eed7	0.022452755
109	0x3e293324	0.16523415
110	0x3e3420c8	0.1759063
111	0xbde50ace	-0.111837015
112	0x3e614c85	0.22001846
113	0xbe7635c6	-0.2404395
114	0xbc10408f	-0.0088044545
115	0x3d672eaf	0.056441005
116	0xbe019473	-0.12654285
117	0x3dccf9e2	0.10008599
118	0x3d8b45e9	0.06800444
119	0x3dfce14d	0.1234766
120	0x3e1ea54a	0.1549274
121	0x3df36964	0.11885336
122	0xbe176624	-0.14785057
123	0xbe55d5fe	-0.20882413
124	0xbe84f692	-0.25969368
125	0xbd4b4531	-0.049626533
126	0xbe03d9f1	-0.12876107
127	0x3d9ab393	0.07553782
128	0x3e0c148d	0.13679715
129	0xbe1808a5	-0.14847048
130	0xbda38e24	-0.079860955
131	0xbe4805f0	-0.19533515
132	0xbdc1e20b	-0.094669424
133	0x3d9689e7	0.073505215
134	0x3ebe62b3	0.37184677
135	0xbdef2117	-0.11676233
136	0xbe91a636	-0.2844712
137	0x3d5d4002	0.05401612
138	0xbd8615d9	-0.06547136
139	0xbdcfcd11	-0.10146535
140	0x3ddaf5fd	0.1069145
141	0xbc52dafb	-0.012869592
142	0x3e2cb503	0.16865925
143	0xbd940edc	-0.07229397
144	0x3d8d44b0	0.06897867
145	0xbe2ae5ab	-0.16689174
146	0x3ee6c9b7	0.4507577
147	0x3b687dfd	0.0035475485
148	0x3ad708c8	0.0016405815
149	0xbdcba517	-0.09943598
150	0xbc55626e	-0.013023956
151	0xbd4f69e0	-0.05063808
152	0x3e27f50e	0.16402075
153	0xbeb32aa0	-0.34993458
154	0x3d100be3	0.035167586
155	0x3def7e77	0.11694043
156	0x3d68efb0	0.05686921
157	0x3e633ef5	0.22191985
158	0xbd86521f	-0.06558632
159	0xbe59caac	-0.2126872
160	0xbcec3fd0	-0.028839022
161	0xbd9cad65	-0.0765026
162	0x3dff4770	0.124647975
163	0xbdbe7e4e	-0.093014345
164	0x3deab6a9	0.11460621
165	0x3c1604b4	0.009156395
166	0x3d167851	0.036735836
167	0xbc0d46bc	-0.008622821
168	0xbcdb5c34	-0.026777364
169	0xbd023c14	-0.031795576
170	0x384b3725	4.845033e-05
171	0x3b3836a9	0.0028108752
172	0x3df89ba5	0.12139062
173	0xbc18faef	-0.009337171
174	0xbde0989a	-0.109666064
175	0x3d909c36	0.07061045
176	0x3e02ce72	0.12774065
177	0xbdb798dd	-0.08964703
178	0xbb4817b8	-0.0030531716
179	0xbe416d32	-0.18889311
180	0xbc2fa35c	-0.0107201
181	0xbda3d2f1	-0.07999218
182	0xbdd4045b	-0.10352393
183	0xbbc04d42	-0.005868585
184	0x3d1ab74b	0.037772458
185	0x3d55088d	0.052010108
186	0xbdf42b78	-0.119223535
187	0x3e3db16b	0.18524711
188	0xbe0db17a	-0.13837233
189	0xbd8529da	-0.06502123
190	0xbdf1db91	-0.11809457
191	0x3d89c37a	0.06726737
192	0x3df311df	0.11868643
193	0xbf11400f	-0.5673837
194	0xbe940a54	-0.2891413
195	0xbde611dc	-0.11233875
196	0x3ee20f91	0.441525
197	0xbee215cd	-0.44157258
198	0xbe03c10e	-0.12866613
199	0xbf35bd44	-0.7099192
200	0xbf2318de	-0.6370982
201	0xbe898dd9	-0.26866034
202	0xbecc0508	-0.3984759
203	0xbd2b84ff	-0.04187488
204	0x3ee277e6	0.442321
205	0x3d518220	0.051149487
206	0x3ec82731	0.390924
207	0x3eb6c337	0.35695812
208	0x3f076c9a	0.5290009
209	0xbe11b9ae	-0.14230987
210	0x3cd6c0b4	0.026214935
211	0xbeea690b	-0.45783266
212	0xbf080873	-0.5313789
213	0xbf0ec5d4	-0.5577061
214	0xbefc2b38	-0.49251723
215	0xbf032213	-0.5122387
216	0x3f19ef52	0.601308
217	0x3e32ece6	0.17473182
218	0x3e89ba14	0.2689978
219	0xbf67d6f6	-0.9056238
220	0x3e9b3df4	0.30320704
221	0x3f1facd4	0.6237309
222	0xbf2c0628	-0.67196894
223	0xbf12bec1	-0.5732232
224	0x3e40035a	0.18751279
225	0xbe113ac9	-0.14182581
226	0x3c59b693	0.013288158
227	0xbb941442	-0.0045190165
228	0xbe1d86c3	-0.15383439
229	0xbe3867e7	-0.18008386
230	0x3e0c81c9	0.13721384
231	0xbd9fff0e	-0.0781232
232	0xbe186c60	-0.14885092
233	0x3e0cec0b	0.13761918
234	0xbdbc010e	-0.09179889
235	0xbd3537db	-0.04424272
236	0xbd4dfdf1	-0.050291006
237	0x3e4dd1b0	0.2009952
238	0x3db7c036	0.08972208
239	0xbcb6033c	-0.02221834
240	0xbe226fcd	-0.15862961
241	0xbcf1b2b0	-0.02950415
242	0x3d979644	0.07401708
243	0xbe22e9df	-0.15909527
244	0x3d87f4ed	0.06638513
245	0xbda99a3b	-0.0828137
246	0x3da33b66	0.07970314
247	0xbd036e99	-0.032087896
248	0x3dcca617	0.099926166
249	0xbe6ceffa	-0.23138419
250	0x3c6aa43a	0.014321381
251	0x3de97242	0.11398746
252	0x3cf1f123	0.029533928
253	0x3dc63e5e	0.09679864
254	0xbdab18ef	-0.08354365
255	0xbcc458bb	-0.023968091

lstm.bias_ih_l0 f4 [128]
0	0x3c9ce6fe	0.019153114
1	0x3e26ac28	0.1627661
2	0xbd4f4b09	-0.05060867
3	0x3da124f8	0.07868379
4	0x3e2640dc	0.1623568
5	0x3dd3fb83	0.103507064
6	0x3f2206d9	0.632917
7	0x3d8b28de	0.06794904
8	0xbd4cc77f	-0.04999494
9	0x3e388339	0.18018807
10	0xbe04bdca	-0.12963024
11	0x3e864b19	0.2622917
12	0xbc8e4e25	-0.017371247
13	0x3e3a9258	0.18219888
14	0x3dd5250e	0.10407458
15	0x3d202885	0.039101142
16	0x3e456ef5	0.19280608
17	0x3ee1974c	0.44060743
18	0xbd21af62	-0.0394739
19	0xbd1ef06b	-0.0388035
20	0x3dda9728	0.10673362
21	0x3e496b4c	0.19669837
22	0x3c2519f6	0.01007699
23	0x3e463cbc	0.19359106
24	0x3d8dc2cf	0.069219224
25	0x3e85d656	0.26140088
26	0x3c95040e	0.01819041
27	0xbd981cf0	-0.074273944
28	0x3d57e618	0.05270967
29	0xbe1d2379	-0.15345563
30	0x3c9909c5	0.018681416
31	0x3dfd6a0c	0.123737425
32	0xbd8d21ac	-0.06891188
33	0xbdb9c1dc	-0.09070179
34	0xbe1d3069	-0.15350498
35	0xbe11772a	-0.14205614
36	0x3dc5da97	0.09660833
37	0xbe31e1fb	-0.17371361
38	0x3e22baa2	0.15891507
39	0x3bc37a3d	0.0059654997
40	0xbe1644ff	-0.14674757
41	0xbda6ea32	-0.08150138
42	0x3db41ca4	0.08794525
43	0x3e36bb9e	0.17845008
44	0xbe424b85	-0.18974121
45	0x3d43ddc2	0.047818907
46	0xbe1f9350	-0.15583539
47	0x3e37e6c7	0.17959128
48	0x3d90cbe1	0.07070137
49	0x3dc7161c	0.09721014
50	0x3d63cc73	0.0556149
51	0x3bb2f278	0.0054610334
52	0x3d947dbb	0.07250544
53	0x3df71b90	0.12065804
54	0x3de5b836	0.11216776
55	0xbe3aef50	-0.18255353
56	0x3db48c26	0.08815794
57	0x3c20d447	0.009816236
58	0xbcbd59eb	-0.023114165
59	0x3e370a79	0.17875089
60	0xbc91e32c	-0.01780852
61	0x3e257cf8	0.16160953
62	0xbdd898c6	-0.10576014
63	0xbe23b5b5	-0.15987284
64	0x3e16caa8	0.14725745
65	0xbdfc6f29	-0.123258896
66	0xbe096c9f	-0.13420342
67	0xbc287313	-0.010281342
68	0x3d0201db	0.03174005
69	0xbe36e541	-0.17860891
70	0xbdd68781	-0.10475064
71	0x3d4098a2	0.047020562
72	0xbe17e3b4	-0.14832956
73	0x3dbfc359	0.093634315
74	0xbda421ff	-0.08014297
75	0x3dd53d19	0.10412044
76	0x3e0080b8	0.12549102
77	0x3c384a1f	0.011248141
78	0xbd905611	-0.07047666
79	0x3d8f9649	0.070110865
80	0x3e05da46	0.13071546
81	0x3d54b309	0.051928554
82	0xbe4eb4a6	-0.201861
83	0xbd17dcbc	-0.037075743
84	0xbdfae9a6	-0.12251596
85	0xbe0dfec0	-0.1386671
86	0xbd485808	-0.04891208
87	0xbd8d7bb6	-0.069083616
88	0x3cf0de35	0.029402832
89	0xbdb90648	-0.09034401
90	0x3dbdff34	0.09277192
91	0xbda71d79	-0.08159918
92	0xbe1232d9	-0.1427721
93	0x3db492ab	0.08817037
94	0xbdf0ea4e	-0.1176344
95	0xbe17600d	-0.14782734
96	0x3d59041c	0.052982435
97	0x3ca95625	0.02067096
98	0x3cc8c91c	0.024509959
99	0x3d45292a	0.04813496
100	0xbd705c62	-0.058681853
101	0xbde9a0ff	-0.11407661
102	0x3f225625	0.63412696
103	0xbe0024c9	-0.12514032
104	0x3dc8c952	0.09804024
105	0x3e44668d	0.19179745
106	0x3e5b4689	0.21413626
107	0x3ec73f46	0.3891546
108	0xbdc4c0a8	-0.09607059
109	0x3e64b2c2	0.22333816
110	0xbd82515d	-0.06363175
111	0xbd10abae	-0.035319977
112	0x3dfb0672	0.12257089
113	0x3ef2d93e	0.47431368
114	0xbc55ffde	-0.013061492
115	0x3e638cee	0.22221729
116	0xbd4af9b4	-0.04955454
117	0x3b9a40c7	0.004707429
118	0xbc26a75a	-0.010171736
119	0x3e73c3c1	0.23805143
120	0x3da48a90	0.08034241
121	0x3df5cd44	0.12002042
122	0x3e0c6d02	0.13713458
123	0xbcd042f7	-0.025422556
124	0x3e694a91	0.22782351
125	0x3daf226e	0.08551489
126	0x3e2e1063	0.16998439
127	0xbc175b32	-0.009238051

lstm.bias_hh_l0 f4 [128]
0	0xbdbbb89d	-0.091660716
1	0x3e10caf8	0.14139926
2	0xbd8b85c3	-0.068126224
3	0xbde333b7	-0.11093848
4	0x3db2476a	0.087050274
5	0x3c70ad89	0.0146898115
6	0x3ee0b8be	0.43890947
7	0xbddb05cd	-0.10694466
8	0xbd2bd0da	-0.041947223
9	0xbda2c01f	-0.079468004
10	0xbb837abe	-0.0040124347
11	0x3e34212a	0.17590776
12	0xbda1529e	-0.07877086
13	0xbcdd6ce6	-0.027029466
14	0x3e710009	0.2353517
15	0xbbd62e25	-0.0065362626
16	0xbc303100	-0.01075387
17	0x3e9cb326	0.3060543
18	0x3da3b4e0	0.079934835
19	0x3d7949cd	0.060861398
20	0x3b6a37e7	0.0035738887
21	0xbd0860c9	-0.033295427
22	0x3e39a557	0.18129478
23	0x3d9532c1	0.07285071
24	0xbc43c53e	-0.011948882
25	0x3e0d8a51	0.13822295
26	0xbde79a7a	-0.11308761
27	0x3b9ab1e5	0.0047209137
28	0x3e872c25	0.26400867
29	0xbdfa52f1	-0.12222851
30	0x3cc3a056	0.023880165
31	0xbd491bc6	-0.049098752
32	0xbcad749d	-0.02117377
33	0xbdf671d3	-0.12033429
34	0xbd23be06	-0.039976142
35	0x3cac6904	0.02104617
36	0xbe167606	-0.1469346
37	0x3e0dacb1	0.13835408
38	0xbd54919a	-0.05189667
39	0xbd7d8a66	-0.061899565
40	0x3e1d68a1	0.15371944
41	0x3b0fde15	0.002195244
42	0xbe0e7a4d	-0.13913842
43	0x3d864018	0.06555194
44	0xbcb0d626	-0.021586489
45	0xbd89d44a	-0.06729944
46	0xbda3b0e2	-0.07992722
47	0x3e0e5694	0.13900214
48	0x3cd25713	0.025676286
49	0xbe08f455	-0.13374455
50	0x3e0fc678	0.14040554
51	0x3e385283	0.18000226
52	0xbd42b5e6	-0.047536753
53	0x3d25294a	0.04032258
54	0xbddcbad3	-0.107778214
55	0x3dc50a7c	0.0962114
56	0x3da1ad09	0.07894332
57	0xbdace33e	-0.084417805
58	0xbc8a1cff	-0.01685953
59	0xbc818e25	-0.01581485
60	0x3d822176	0.063540384
61	0x3a7fa2fa	0.00097517634
62	0xbd44441e	-0.047916524
63	0xbe0c4114	-0.136967
64	0x3ddd19eb	0.10795959
65	0xbdcff702	-0.10154535
66	0x3c2972ef	0.010342344
67	0xbde0d01c	-0.10977194
68	0xbd64e44b	-0.05588178
69	0x3d953839	0.07286114
70	0x3e0a5024	0.13507134
71	0xbe3770b2	-0.17914084
72	0xbe2f21ba	-0.1710271
73	0xbe3772a2	-0.17914823
74	0xbdb13f43	-0.08654644
75	0xbe1e6304	-0.15467459
76	0x3cb810ac	0.022468887
77	0xbba61243	-0.005068095
78	0x3caeb89d	0.021328265
79	0xbd90f4de	-0.07077955
80	0x3dd06a0e	0.10176478
81	0xbe142f72	-0.14471224
82	0x3de9cc4c	0.1141592
83	0xbe0098e9	-0.1255833
84	0x3d2a911a	0.041642286
85	0xbe55f09d	-0.20892568
86	0xbde5590c	-0.11198625
87	0xbe16af03	-0.14715199
88	0x3e45b105	0.19305809
89	0xbc0f4e1f	-0.008746653
90	0x3d8daef4	0.06918135
91	0xbd76e6f4	-0.060278848
92	0xbbb96506	-0.005657795
93	0xbd1b9473	-0.03798337
94	0xbdd39412	-0.103309765
95	0xbd605857	-0.054771747
96	0xbdf90fb8	-0.12161201
97	0x3db1ff1c	0.086912364
98	0x3dc7a652	0.0974852
99	0xbd0d5c20	-0.034511685
100	0x3e49ebd7	0.19718872
101	0x3cf73f8a	0.030181665
102	0x3ed6571c	0.41863334
103	0xbdd067bc	-0.10176036
104	0x3e349c78	0.17637813
105	0x3e0c69f9	0.137123
106	0xbdd0fa02	-0.10203935
107	0x3e84fcd5	0.25974146
108	0x3e05b57a	0.13057509
109	0x3d8e5b73	0.06951036
110	0xbcb8e3fb	-0.022569647
111	0xbdd76b23	-0.105184816
112	0x3d974e24	0.07387951
113	0x3e3b2e26	0.18279323
114	0x3e513511	0.204304
115	0x3e000727	0.12502728
116	0x3e36591c	0.1780743
117	0xbbeb3a90	-0.007178612
118	0x3e10adca	0.14128795
119	0x3e39500e	0.18096945
120	0x3e438e00	0.19097137
121	0x3e5ff50a	0.21870819
122	0x3dc62823	0.09675624
123	0xbe1e454e	-0.15456125
124	0x3b61b8e8	0.0034442488
125	0x3d41527f	0.047197815
126	0x3e41fec1	0.18944837
127	0xbdbfe8fb	-0.093706094

fc.weight f4 [30, 32]
0	0xbd2e83e8	-0.042606264
1	0x3df06e2a	0.11739762
2	0x3e13f6e6	0.14449653
3	0xbc430c3c	-0.011904772
4	0xbda8f12e	-0.082491264
5	0xbe26b588	-0.16280186
6	0x3e56a091	0.20959689
7	0x3d7905aa	0.060796417
8	0xbde32e07	-0.110927634
9	0x3d06952e	0.032857113
10	0xbe5f36ff	-0.21798323
11	0x3de45d7e	0.11150645
12	0x3e2857d4	0.16439754
13	0x3e969cc6	0.29416484
14	0x3dd58d74	0.10427371
15	0x3d13c1b0	0.036073387
16	0x3e1b547a	0.15168944
17	0xbe8729b8	-0.26399016
18	0xbca301fc	-0.019898407
19	0xbdffd787	-0.124922805
20	0x3dba8f24	0.09109333
21	0xbc707ea1	-0.014678628
22	0xbc9753ed	-0.018472636
23	0x3e050def	0.12993596
24	0x3e1b7e01	0.15184785
25	0xbe493a9e	-0.19651267
26	0x3e12287e	0.14273259
27	0xbdf87ebc	-0.12133548
28	0x3d1d647f	0.03842592
29	0xbd89cfa0	-0.067290545
30	0xbd8173d4	-0.063209206
31	0xbd78f588	-0.06078103
32	0x3e2f1380	0.17097282
33	0xbe04418c	-0.12915629
34	0x3e885102	0.26624304
35	0xbe02c9b6	-0.12772259
36	0xbdde8e3d	-0.108669735
37	0xbe32b254	-0.1745084
38	0xbdf2c999	-0.11854858
39	0x3db95c98	0.09050864
40	0x3b58d3ca	0.003308522
41	0x3acfbae6	0.0015848547
42	0xbd5918db	-0.05300222
43	0xbd5117db	-0.05104814
44	0x3ccb4b81	0.024816277
45	0xbcbddaff	-0.023175715
46	0x3e9815c9	0.2970412
47	0xbcb84dc3	-0.022498017
48	0x3de3953c	0.111124486
49	0xbcfb98af	-0.030712454
50	0x3e33b07c	0.17547792
51	0xbe5d8f28	-0.21636641
52	0xbe3710a3	-0.1787744
53	0xbd95f2cc	-0.073217005
54	0x3de5a3aa	0.11212857
55	0x3d078e68	0.033094794
56	0xbdb13789	-0.086531706
57	0x3dadcab3	0.084859274
58	0x3e7e98b3	0.24862938
59	0x3d8a10ce	0.067414865
60	0xbe138fe7	-0.14410363
61	0x3d703d57	0.05865225
62	0xbe17d35b	-0.1482672
63	0xbe40a68d	-0.18813534
64	0xbccf56b1	-0.025309892
65	0xbdc73365	-0.097265996
66	0x3e027abf	0.12742136
67	0xbe2e33b9	-0.17011918
68	0x3dd2c462	0.10291363
69	0x3cad0c19	0.021123933
70	0xbe059079	-0.13043393
71	0x3bd3d649	0.0064647538
72	0xbd42d9fd	-0.04757117
73	0xbe1992cf	-0.1499741
74	0xbe41c63a	-0.18923274
75	0x3dfae3c3	0.12250473
76	0x3e4ecdee	0.20195743
77	0x3e0f14e6	0.13972816
78	0x3e81a72f	0.25322863
79	0xbde0e5b0	-0.109813094
80	0xbda916ca	-0.082563
81	0x3cf84727	0.030307366
82	0x3d7bb63a	0.06145308
83	0x3d32a472	0.04361386
84	0xbd20e95b	-0.039285045
85	0xbe11a858	-0.14224374
86	0x3dc5a3a3	0.09650352
87	0xbbc6a327	-0.0060619297
88	0x3dc41c39	0.095756955
89	0xbde44b21	-0.11147142
90	0x3de67b5b	0.11253997
91	0x3cb3a5de	0.021929678
92	0x3e3eedb9	0.18645371
93	0xbe127567	-0.14302598
94	0xbe66caa9	-0.22538246
95	0x3b3e24fa	0.002901374
96	0x3df2e245	0.11859564
97	0xbcd4cdd0	-0.025977045
98	0x3e86ec49	0.26352146
99	0x3d3cd1a0	0.04609835
100	0x3dc518f8	0.09623903
101	0xbdec5941	-0.11540461
102	0xbdb808b8	-0.08986038
103	0x3d4d4f0d	0.050124217
104	0xbb354fdc	-0.0027666008
105	0xbe55adda	-0.208671
106	0x3d8a6426	0.06757383
107	0x3dd356b8	0.10319275
108	0x3e32306f	0.17401288
109	0x3e4248df	0.1897311
110	0x3ca67406	0.020318996
111	0x3e683621	0.22676899
112	0xbd3e2783	-0.0464244
113	0x3e7ed0fb	0.24884407
114	0x3dd1b149	0.102388926
115	0xbad2a411	-0.0016070624
116	0x3de14c42	0.11000873
117	0xbe193d7f	-0.14964865
118	0xbda1e3fe	-0.07904814
119	0x3dabd1b8	0.0838961
120	0x3d31cddb	0.04340921
121	0xbe634e1e	-0.22197768
122	0x3de0dee6	0.109800145
123	0xbdfc64de	-0.123239264
124	0xbe2e8c49	-0.17045702
125	0x3bf891cf	0.007585741
126	0xbe0cff16	-0.13769183
127	0xbe1e3873	-0.15451221
128	0xbdc1683e	-0.09443711
129	0x3d6c3b3c	0.057673678
130	0xbdd4d87c	-0.103928536
131	0x3d97b583	0.074076675
132	0x3cb370ff	0.021904467
133	0xbb315e04	-0.0027064094
134	0x3e948df1	0.29014543
135	0x3e04b545	0.12959774
136	0xbe0bea0b	-0.13663499
137	0x3c3e54bc	0.011616882
138	0xbddcab9b	-0.10774919
139	0xbe2f956b	-0.17146842
140	0x3d31af8c	0.043380305
141	0xbce47f1a	-0.027892638
142	0x3e4d668e	0.20058653
143	0x3e89e25d	0.26930514
144	0x3d63d025	0.055618424
145	0x3eb30933	0.34967956
146	0xbe15f31d	-0.14643522
147	0xbdb56ef9	-0.08859057
148	0xbe65f208	-0.22455609
149	0xbc33ce52	-0.010974484
150	0x3ccec888	0.025242105
151	0xbe3fe656	-0.1874021
152	0x3e19330e	0.14960882
153	0x3e7e1a00	0.24814606
154	0x3dea105a	0.114289
155	0x3c15173c	0.009099778
156	0x3d91ab68	0.07112771
157	0x3ae9dcb7	0.0017842267
158	0xbe4f5155	-0.2024587
159	0xbe52e275	-0.20594199
160	0xbe3864a8	-0.18007147
161	0x3e6410db	0.22272055
162	0x3e4a7fee	0.19775364
163	0xbdcb3778	-0.09922689
164	0x3dd55ef9	0.10418505
165	0xbc75e4df	-0.01500818
166	0x3e1ecee6	0.15508613
167	0x3d612e91	0.05497605
168	0x3d44664e	0.047949128
169	0xbd05f015	-0.032699663
170	0xbd46e820	-0.048561215
171	0x3e857fdd	0.26074114
172	0xbd7b2a31	-0.061319534
173	0x3e0aa96b	0.1354119
174	0xbdbdc1a8	-0.092654526
175	0x3c4dff4f	0.012573077
176	0xbdb80dbe	-0.08986996
177	0xbe141896	-0.14462504
178	0x3e0fe1a7	0.14050923
179	0x3d29ba2a	0.041437306
180	0xbc328c3b	-0.010897691
181	0xba0c155b	-0.00053437584
182	0x3e07acdd	0.13249536
183	0xbd8e2013	-0.069397114
184	0xbd4cac6e	-0.04996913
185	0xbe63f3fd	-0.22261043
186	0xbc6fa78d	-0.01462735
187	0xbd4bf407	-0.04979327
188	0xbbba7759	-0.005690497
189	0x3e4d281f	0.20034836
190	0xbd8f70ca	-0.07003935
191	0x3debc6c6	0.115125224
192	0x3dd721eb	0.10504516
193	0x3d88173d	0.06645057
194	0x3e628953	0.22122698
195	0xbe285015	-0.16436799
196	0x3d699e94	0.057035998
197	0x3e2d2b39	0.1691102
198	0xbdb0a7fc	-0.086257905
199	0x3e195446	0.14973554
200	0xbbf3e615	-0.0074431994
201	0xbdc00b66	-0.09377174
202	0x3da2625d	0.079289176
203	0xbdee9b04	-0.11650661
204	0x3e5252a7	0.20539342
205	0x3e7e8945	0.24857052
206	0x3e4e7b73	0.2016428
207	0x3ba583ba	0.0050511034
208	0x3df460f4	0.11932555
209	0x3dadb8e3	0.0848253
210	0x3e584331	0.21119381
211	0xbe4d346b	-0.20039527
212	0xbd4af8c4	-0.049553648
213	0xbd3de2ee	-0.046358995
214	0xbbf41ae5	-0.007449495
215	0xbe357b25	-0.17722757
216	0x3cfc8fc0	0.030830264
217	0x3d95da1d	0.073169924
218	0x3e1471ed	0.14496584
219	0x3cb6cdea	0.022314984
220	0xbd47fb4c	-0.04882364
221	0xbd869f33	-0.065733336
222	0x3de54ee1	0.111966856
223	0xbd36b130	-0.044602573
224	0xbd848706	-0.06471066
225	0xbd8482b9	-0.06470246
226	0x3e81035f	0.25197884
227	0xbe8a84f8	-0.27054572
228	0x3e15cdc3	0.14629273
229	0x399b0b5c	0.00029572367
230	0xbd939e7a	-0.072079614
231	0x3e16aa8d	0.14713497
232	0xbd80d537	-0.062906675
233	0xbc986722	-0.018603865
234	0x3c0b334a	0.008496115
235	0x3dec4f06	0.1153851
236	0x3da9faa5	0.0829976
237	0x3e031fc5	0.12805088
238	0x3e9c0826	0.30474967
239	0x3de5f756	0.11228816
240	0x3e0efe15	0.13964112
241	0xbbc74ea3	-0.0060823723
242	0x3da668c7	0.081254534
243	0x3e12cc02	0.14335635
244	0x3e14a1ab	0.14514796
245	0xbe1003cd	-0.1406395
246	0x3c9eb5c0	0.019373775
247	0x3de42f2a	0.11141808
248	0xbd653ea7	-0.055967953
249	0xbdab3d5d	-0.083613135
250	0x3d008208	0.031374007
251	0x3da77d83	0.08178236
252	0x3e5751a0	0.21027231
253	0x3d543ee7	0.0518178
254	0xbe569150	-0.2095387
255	0xbde0d753	-0.1097857

fc.bias f4 [30]
0	0xbdbcaad2	-0.09212269
1	0xbdaf63dd	-0.08563969
2	0xbdc0eb49	-0.09419877
3	0xbc118a36	-0.00888305
4	0xbe100550	-0.14064527
5	0x3e07abd2	0.13249138
6	0xba0dddae	-0.0005411756
7	0xbb9cb002	-0.004781724
8	0x3e0515c8	0.1299659
9	0xbdfc7580	-0.12327099
10	0xbce3fbe3	-0.02783007
11	0x3e09063d	0.13381286
12	0xbe033b2b	-0.1281554
13	0x3dc04295	0.093876995
14	0x3dae6b9b	0.08516618
15	0x3dca2b87	0.098715834
16	0x3d054da5	0.03254475
17	0xbbef5921	-0.007304326
18	0x3d9616a6	0.073285386
19	0xbb8dc41d	-0.004326357
20	0x3ce7e2c0	0.028306365
21	0xbcbebe6e	-0.023284163
22	0xbde380f8	-0.11108583
23	0xbcdebb48	-0.027188912
24	0x3da17c53	0.07885041
25	0x3d61210d	0.05496316
26	0x3c7e072e	0.015504641
27	0xbda5c67f	-0.08094501
28	0xbca50e60	-0.020148456
29	0x3daf62e8	0.08563787
