models/modello_seq2seq_20250505_1630.pth (torch, 417728 bytes, 17 tensors)

encoder.lstm.weight_ih_l0 f4 [256, 8]
00000000: 105e fc3d 958e 3d3e d334 af3e d845 113e
00000010: 652d 9d3b ae0f 253c 15e1 093e 1c45 ce3c
00000020: 9c70 58bd 4ae0 aebc 657e 463e 153c d73d
00000030: 0a45 b03d 6f02 e93d 79e0 b8bd f0a4 69bd
00000040: 1aeb 823d ba62 d33d bf21 cc3e e89c 4c3e
00000050: c4c1 473e 218e 243d e7c8 2fbd f6dc 923e
00000060: 7153 81bd 2ce1 193e d52b c73e 1703 503d
00000070: 1234 c6be 962e 9dbd 0ae1 803d 2f40 963e
00000080: 91ba df3c 7bd2 97bd b937 07be 72b2 0e3e
00000090: 0b30 8a3d b3e9 d13d ee2e 0e3e f38f 38be
000000a0: de26 0f3e 613d a03d 4a3e a43e 9004 8a3d
000000b0: 25ac 453e 9335 613e 5f21 da3d 421b 5d3e
000000c0: d434 fe3d 8238 043e 49b6 343e 5f97 08bc
000000d0: d1ca 223e 3257 bf3d 249d 9b3d 3799 a33d
000000e0: cf8a 3b3e c50a 923d 61aa 553e 610f b03c
000000f0: b8ab a53d dd4d 77bb 0e3b 5ebc 0944 1f3e
00000100: 6771 043e 6d1a 823d 6713 843e e865 233e
00000110: e8dc 2fbc 6c40 153e 903d 993c 0a28 333e
00000120: 9f2a 4b3d fe1b e63d 3fc5 de3e 0778 f83c
00000130: f6db 8cbd 260b 3e3d 35d3 a33d ef72 af3e
00000140: 5fa5 993e 3dea 88bd b21b 9f3e a546 463e
00000150: 01e6 b0bd 8129 f13e 6cc4 a93e b478 ae3c
00000160: 1794 413c bdd2 033e c0a7 4f3e 6dcb 4a3e
00000170: b96f 5dbd a13e ec3d e7b9 783d ac8d 143e
00000180: 29af 49bb e33d 8bbb 7eb9 3c3e c331 0a3e
00000190: 8f76 78bd c3e9 533d 99ed ef3d 08ea c33d
000001a0: 83e5 093e 6540 95bd 8eba 573e c3ba a03e
000001b0: e3df a33c bce3 4c3e a887 6e3e 7d1c 643d
000001c0: 9afa 213e c233 553e a078 353e 3aa4 bf3d
000001d0: 0ada 80bc 3b0d 5e3d e755 d93d 395d 4f3e
000001e0: 67d6 99bd f3d5 a8be 7cab cbbe 046a a93b
000001f0: 5231 19bd a42f a1bd 156d 7e3d a466 55be
00000200: c39f 4a3e 7a4f b13d b159 923e 67e6 6d3e
00000210: 34ea 493e 97f3 593e ce59 b03e c848 1b3d
00000220: dc96 86bd 2751 f43c 4380 893e c387 c1bd
00000230: fb2f 82bd 0358 1dbd ee69 9cbd 65a2 a23d
00000240: d852 aabb ab0e e03d 8cc1 5c3e cbcb 553e
00000250: 3765 7e3c a3a6 d33d bef6 e13b ed4e 1c3e
00000260: 1d1d 563d 3fa8 d5bd 4039 693e 06be 173e
00000270: 01b3 67be 34c2 583d 44c0 be3c 5611 da3c
00000280: 369c 3c3d d9ee 2bbe 0f8a c3be d34f 093d
00000290: 3ccf 113b ebb3 db3a 922c a93d f1d9 96be
000002a0: adfb e23d 91ac 853e 4b42 af3e 98ea fcbc
000002b0: 09d7 1c3d b466 9abd b0ca ae3d de5a 303e
000002c0: f4af b93d b4db b33d 522a eb3e b496 c3bc
000002d0: 01b5 88bc ffe5 573c 73f5 b93d 563f 653e
000002e0: 590f 893c f196 5e3d 1c2c fdbd 1a7a 5bbd
000002f0: 3dbf 163d 2f42 ec3c 5edc c3bd 13ad bb3d
00000300: 26bb a73e db59 a6bb 5145 f1bd 1b41 15bd
00000310: e10e cc3b f545 523d 4819 1ebd f036 ee3d
00000320: 215b 153e 897f df3c fcb0 093e a631 903d
00000330: 1c8f 6d3d e4a8 6f3d d122 d03d 1201 6c3e
00000340: e28a 8fbe 9dc0 bfbe f104 db3d 5488 ba3d
00000350: 60ef 6b3b 4efd 3d3e 6bd2 793e 569b e5bd
00000360: ac03 f03c 07e5 233c afe5 173e 6f07 ac3d
00000370: 147c ff3d 1836 b9bd 0d65 78bd 8c85 3ebb
00000380: bdd9 f23d bf2a cd3d f668 9ebd 4d9f 8cbd
00000390: 9255 cb3d f5c4 653d 77e2 013e 1d6f 663c
000003a0: 82f0 a93e fde0 2a3d 1d93 893e 3806 993e
000003b0: 4513 5c3e b8e4 9d3e 91c5 5d3e 6b4e e73c
000003c0: 34fc bdbd 8c27 393d 0c0c 843e 901a fa3b
000003d0: d375 b8bc 4744 64bc 9a1f c83d 04e6 ed3d
000003e0: dcca d33d 347f 5dbe eca5 c5bd 0bf1 263d
000003f0: 1372 313e 22f3 773d 199e 923e d311 c5bc
0.123226285 0.18511422 0.3421999 0.141868 0.004796671 0.010074539 0.13464768 0.025179438
-0.052841768 -0.021347184 0.19384153 0.105095066 0.08606918 0.11377417 -0.0902719 -0.057042062
0.06392498 0.10321565 0.39869496 0.1998173 0.1950751 0.040174607 -0.042916205 0.28684205
-0.06314743 0.15027303 0.3890063 0.050784197 -0.38711601 -0.07674901 0.06292923 0.29345843
0.027310641 -0.07413193 -0.1320485 0.13935259 0.06747445 0.10249653 0.1388509 -0.18023662
0.1397967 0.07824207 0.32078773 0.067391515 0.19303949 0.21993093 0.10650896 0.2159243
0.1241242 0.12912181 0.17647661 -0.008336871 0.15897681 0.09342803 0.075983316 0.07988208
0.1831467 0.071309604 0.20865776 0.021491708 0.080893934 -0.003773562 -0.013563884 0.15553297
0.12933885 0.063526966 0.25796053 0.15956843 -0.0107338205 0.14575356 0.018706113 0.17495742
0.049601194 0.11235808 0.43509862 0.030330671 -0.06877892 0.04639735 0.07999269 0.34267375
0.3000898 -0.066853024 0.31075817 0.19362886 -0.0863762 0.47101977 0.3315767 0.02129779
0.0118150925 0.12873359 0.20278835 0.19804163 -0.054061625 0.11535383 0.060724165 0.14507169
-0.003077457 -0.004249321 0.18430135 0.13495545 -0.06065994 0.051736604 0.1171524 0.09566122
0.13466458 -0.07287673 0.21067259 0.31392488 0.020004218 0.20008749 0.23293936 0.05569123
0.15818253 0.20820525 0.17721796 0.093574956 -0.01572897 0.054211836 0.10612088 0.20250405
-0.07511597 -0.3297573 -0.3977927 0.0051701088 -0.03740055 -0.07870415 0.062115747 -0.20839936
0.19787507 0.08657737 0.28584054 0.23232423 0.19718248 0.21284328 0.34443516 0.037911206
-0.06571743 0.029823853 0.26855668 -0.094497226 -0.06356808 -0.038414013 -0.07637392 0.079411305
-0.005197864 0.10940298 0.21558207 0.20878522 0.015527061 0.10334518 0.006895869 0.15264483
0.05227386 -0.10432481 0.22775745 0.14818582 -0.22626878 0.05291958 0.023285039 0.026619595
0.04604741 -0.16790332 -0.38191268 0.033523392 0.0022248765 0.0016761994 0.08260454 -0.2946315
0.110831596 0.2610822 0.34230265 -0.030873582 0.03829101 -0.0753912 0.08534753 0.17222163
0.090667635 0.087821394 0.45930725 -0.023875572 -0.016687872 0.013177394 0.09080019 0.22387442
0.016730951 0.054343168 -0.12361929 -0.053583242 0.036803473 0.028840153 -0.09563516 0.09163871
0.3275997 -0.0050766296 -0.11780799 -0.036439043 0.0062273596 0.051336247 -0.03859833 0.11631572
0.14585544 0.027282493 0.1344642 0.0704072 0.057997808 0.058510676 0.10162891 0.23047283
-0.28035647 -0.3745164 0.10694302 0.09108034 0.0036000833 0.1855366 0.24396674 -0.112112686
0.029298626 0.010003335 0.14833711 0.08399855 0.12474838 -0.09043521 -0.060643245 -0.00290713
0.118579365 0.10017919 -0.077348635 -0.06866322 0.099284306 0.056096036 0.12684046 0.014064577
0.33191305 0.04171847 0.2687005 0.29887557 0.21491726 0.3083856 0.21657397 0.028235635
-0.092766196 0.04520373 0.2579044 0.007632561 -0.02251712 -0.013932294 0.097716525 0.116161376
0.10341427 -0.21630555 -0.09650788 0.04075722 0.17328672 0.060534604 0.28636244 -0.02405635

encoder.lstm.weight_hh_l0 f4 [256, 64]
00000000: 38ce 963d 658a a2bc 8605 f73b 6fb1 ecbc
00000010: 7ada 73be 600b 933d 0609 0f3d dd96 03bb
00000020: d4cf 25be 6627 ea3d 7d7f 05be fbf7 04be
00000030: 5b5e 463d 3dfc 81bd c8c0 f8bd 62c2 36be
00000040: 4731 603c a5d5 33bd f6bd 403c 84f7 88bd
00000050: 2b83 883e d003 16bd dda7 01be 600c d8bd
00000060: 9b83 0a3d 79b9 21be 8942 25be 8b16 3b3e
00000070: c310 0dbe bcf2 663c cf1e 373d 910a 093d
00000080: 82a3 a23d f882 893d 78ac 38be 963d e1bc
00000090: a996 0f3e 6841 073e 0949 50bc 5260 673d
000000a0: 1911 093d ac3d 01be a6c6 403e 38a4 783d
000000b0: a002 08be 50a8 00be 4cdd 39bc 9cf6 0cbe
000000c0: 5dfb 2dbd 7d12 113e b568 36bd d2f3 7abc
000000d0: d876 31be bb2e 89bc d328 6bb9 3e82 d03d
000000e0: 52c5 51bb 3405 c1bd f96b 453d b7f7 0ebe
000000f0: bcf7 b9bd 2f04 96bd 6331 a73c 706c f5bd
00000100: f2d6 8abd 2f3f 863d 0ee4 963d 236a aa3c
00000110: 5afe 0cbe 18c4 acbb b37f 8b3d beed 67bd
00000120: c125 a0bd 56fc 0abd abb0 e8bc ac7c a2bd
00000130: c543 d3bc 4573 d7bd 468f d63c 339c 34be
00000140: 663a 2b3d 7338 c2bd 2e9e 033e fd28 a8bd
00000150: 1c42 533e a8bd 07be 3355 07be d2da ea3d
00000160: 8ff1 5bbd 07c9 01be df0a 6d3d 870a 353b
00000170: a6ac 6b3d bf3f 28bc 5211 fcbd f3b0 813c
00000180: 4744 debd fcf7 2d3d 1bc7 13be 48b2 e8bc
00000190: 4c43 fcba 2675 b1bd b4c8 b8bd 686b d3bc
000001a0: 03c2 cb3d a8dc 123d 5eee 39bd 326d a2bd
000001b0: df81 cfba 78f8 01bc 4f4c bd3c 1591 1c3d
000001c0: cd72 613d d739 cf3d f9f3 efbc 5272 e1bc
000001d0: 6166 9e3d 0f3a 6e3d c765 f53d 896e a73d
000001e0: 3641 6ebd cd7e edbd 63c4 81bb db0f ddbd
000001f0: 566f 08bd 6e44 1bbe 0645 debc 7b21 6f3d
00000200: 1366 7ebd f0b8 c7bb 0aa3 843d ae6b c1bc
00000210: e173 83bd 20d7 763d 583b b8bd b8d8 5f3d
00000220: 5467 243d cc36 c53d 74aa 3fbd fed6 903d
00000230: 5582 82bd 0eb7 d23d 3983 343d 1782 a8bd
00000240: 0798 8dbd 34f0 e8bd 7846 173e 34e6 b2bb
00000250: 55e0 a73d 28fb 3e3a ef0c dfbd e090 53bc
00000260: a2bc 28be 8ede e1bd fa84 c23d a6df 79bd
00000270: ba11 81bd 63c3 5d3d b62e f63c 54c1 1a3d
00000280: 7be3 f33d 7e2f 933d 6b90 4ebe 4ba7 7c3c
00000290: dffd d8bb ed84 ff3d e570 3cbc 231c 083b
000002a0: e491 f3bd 70c0 e4bd 2688 453e 41ca bbbd
000002b0: d01d e3bd dfc2 33bd e08d 023e 22d9 a03d
000002c0: 3d08 93bd aef8 30bd 6a16 7fbd f142 1f3d
000002d0: 35d2 6ebc 0eea 03be f8d4 013e 3590 ad3d
000002e0: 08ac 73bd df86 a4bd 5281 63be 66d3 d5bd
000002f0: 6c0f f23c f427 04bd ea33 c9bd e81e c73d
00000300: 3829 f4bb bace 833d a4f7 99bd e069 f8bd
00000310: 2e09 7c3d 327d 8dbd da22 b13b 5a84 af3c
00000320: d000 023d 394d 383c 27f7 d13d b653 6cbd
00000330: 603c 32bd ea5d afbd 9b1e c0bd afc1 1abd
00000340: a2f8 553d c750 b6bd dfc6 573c 8a6e 7dbd
00000350: 7a9a ec3d 5849 11bd 90ef bc3d 6cdd 6fbc
00000360: aa08 67bc f843 5bbb b9e0 f93d 6c34 ffbd
00000370: d107 35bd 2cbc 373e ef1a 36bd a7ac 5e3d
00000380: 1c98 89bd a6ac 4a3d aa68 49be 5b4a aa3d
00000390: f523 8ebd daea 393c 15eb 56bd 6f8e cf3c
000003a0: 2590 dfbd ae21 75bc 36b9 a43c 7768 6dbd
000003b0: 96ca b33d 2a00 363e ee4d 8e3c 257a 2e3e
000003c0: 3e3d f0bc 0ccc a2bd e477 36bd 0298 983c
000003d0: 22d0 f4bd 409b 803c 77b7 debd 9fe4 e3bb
000003e0: 8775 88bd a213 c4bc 70a3 9abd 7070 933d
000003f0: 3496 0abe 0d7e 8ebd 8da4 79bd b02c e93c
0.07363552 -0.019841382 0.0075385002 -0.0288932 -0.23813811 0.07179904 0.034920715 -0.0020078935
-0.16192561 0.11433296 -0.13036914 -0.12985222 0.048429828 -0.06346939 -0.12146145 -0.17847589
0.013683624 -0.04390492 0.01176404 -0.06687835 0.26662573 -0.03662473 -0.12661691 -0.10549235
0.033816915 -0.15793408 -0.16138662 0.18270318 -0.13775925 0.014095958 0.044707116 0.033457343
0.07941343 0.067144334 -0.18034542 -0.027495187 0.14022316 0.13208544 -0.012712725 0.056488343
0.03346357 -0.12621182 0.18825778 0.060703486 -0.13282251 -0.12564206 -0.011344265 -0.13765949
-0.042476047 0.14167209 -0.04453345 -0.01531692 -0.17330492 -0.016745916 -0.00022426555 0.10181092
-0.0032008481 -0.094248205 0.048198674 -0.13961683 -0.09080455 -0.07325017 0.020409292 -0.119835734
-0.06779279 0.0655502 0.07367717 0.020802563 -0.13768902 -0.0052723996 0.06811466 -0.056623213
-0.07819701 -0.033932053 -0.028404554 -0.079339355 -0.025789151 -0.10520033 0.026191365 -0.1763771
0.04180374 -0.09483423 0.1285331 -0.08210943 0.20630687 -0.13255942 -0.13216095 0.11467518
-0.053697165 -0.12674342 0.057871696 0.0027624683 0.057537697 -0.0102691045 -0.12307991 0.015831446
-0.108528666 0.042472824 -0.14431421 -0.028405324 -0.001924613 -0.086649224 -0.09022656 -0.025808051
0.09949114 0.035854965 -0.04539334 -0.079309836 -0.0015831551 -0.007932775 0.023107676 0.0382243
0.055041123 0.10118454 -0.02929114 -0.027520332 0.07734371 0.058160838 0.11982303 0.0817538
-0.05816766 -0.11596451 -0.0039601787 -0.1079404 -0.033309303 -0.15162823 -0.027132522 0.05838154
-0.062109064 -0.0060950443 0.0647641 -0.023610916 -0.064185865 0.060263753 -0.08995694 0.05465004
0.040137604 0.09629592 -0.046793416 0.070722565 -0.06372515 0.10288821 0.044070456 -0.08227938
-0.069137625 -0.1137394 0.14772975 -0.0054595713 0.08197085 0.000728535 -0.10891139 -0.012912959
-0.16478208 -0.11028777 0.094980195 -0.061004303 -0.06302209 0.054141413 0.03005157 0.03778203
0.11908623 0.07186793 -0.20172279 0.015420745 -0.0066220607 0.124765255 -0.0115015255 0.0020768724
-0.11893061 -0.11169517 0.19290218 -0.09169436 -0.11089671 -0.043887015 0.12749434 0.07853915
-0.07179306 -0.04320591 -0.062277235 0.0388822 -0.014576484 -0.12882254 0.12678897 0.08474771
-0.059490234 -0.08033537 -0.222173 -0.10440712 0.02954837 -0.032264665 -0.09824355 0.09722692
-0.0074512027 0.06435914 -0.07517937 -0.12129569 0.061532192 -0.06908645 0.005405766 0.021425415
0.031739056 0.01124888 0.10252219 -0.05769702 -0.04351461 -0.085628346 -0.093808375 -0.037782367
0.052239068 -0.08902126 0.013169973 -0.061872996 0.115529016 -0.035470337 0.092253804 -0.014640193
-0.014101187 -0.003345726 0.122010656 -0.124611706 -0.044196907 0.17942876 -0.04445928 0.054363873
-0.06718466 0.049481057 -0.19668832 0.083149634 -0.06940452 0.011347497 -0.052470285 0.025336472
-0.10916165 -0.014961643 0.020107847 -0.057960954 0.087788746 0.177735 0.017371144 0.17038782
-0.029326078 -0.07949075 -0.04454793 0.01862717 -0.11953761 0.015699029 -0.10874837 -0.006954744
-0.066630416 -0.023935143 -0.075507045 0.0719918 -0.1353386 -0.06957636 -0.060947943 0.028463691

encoder.lstm.bias_ih_l0 f4 [256]
00000000: 22f0 b1bd 5991 35bd 6658 973d e3fc db3c
00000010: 834e 1c3d 0fe5 e0bd 1f4c b5bd ad51 e6bc
00000020: 987a da3c df0b 1d3e 394c 763e ba49 49bc
00000030: b15a 04be d5d0 4dbd 256f bc3d ed00 75bd
00000040: 300b 393e cd4d a83d 8b1a 573d cfa0 b83c
00000050: b771 d23d dad3 a7bd d9e2 9abd ddaa 263d
00000060: 2f5c f9bc df77 67bd 6b3e cb3d 0bcd 94bc
00000070: a12e b33d e03d 0a3c 78b3 983d a755 463d
00000080: f543 85bc 7c49 86bd 2827 e13d 0a18 a8bd
00000090: 2b58 0c3d 322c ffbd 1dce 82bd 200b f6bb
000000a0: 7cd9 80bd 7b54 ed3d 341d ad3d 22f6 b93c
000000b0: 773a 993c f4fd b33d aaf6 92bc 8ef4 e23d
000000c0: 4ed5 c3bd 61b3 50bc 91f0 ad3b 39ca 813d
000000d0: 8839 aebd e151 9a3b 3542 1b3e 6bce 9c3c
000000e0: fbfc 763d 99b3 64bc e674 eb3d 652d 053e
000000f0: 23df 25be 0c88 533d c342 35bd 36b7 6fbc
00000100: 4632 74bd 272d c0bd e094 5a3c 9397 d93d
00000110: 1eff 183d ef91 04be 15a8 ccbd 5a6d 9dbd
00000120: 3a24 22be 540f ab3b bea9 db3c d59d 4e3d
00000130: 9dbc 453d 78dc eebd d902 6ebd 1b2e 4abd
00000140: 864d 7cbd fd4f 873d 992c 79bd 49d5 85bc
00000150: 4ffe 42bd a0f2 d03d 0add 6a3d a721 fabd
00000160: b7b1 89bd 84e7 ed3d f5ce 0f3e 7a70 7dbd
00000170: 22f1 88bc 4c07 dabd 3483 09be c191 ccbd
00000180: 4f9b 043c 9c29 2abd eaf1 cebd 505e 0a3d
00000190: a925 173d 76b4 b9bd df41 2a3d d43f c3bd
000001a0: 2b0c 4c3c f5fd 2e3d 9927 83bd 6471 a6bd
000001b0: 3775 d23a a3f3 44bd 47a1 18be 3d01 f23d
000001c0: 59a8 fbbd d35e 60bd 5aab a8bd c670 553d
000001d0: 8668 6ebd f137 9c3d 0787 01bd 267c e9bd
000001e0: 4c1f 0e3d 17b4 dcbd e96f 20bd 05c9 193e
000001f0: 2ea7 82bc bf65 e0bc 0d2d 8d3d e456 85bd
00000200: 7aec 0bbe e250 92bc 9e78 e23c 4e90 933c
00000210: 53b9 243d a8d5 463c 0f81 3ebd c0bb 463d
00000220: 4ca2 46bc b413 303d 11db 0abc 2e69 a7bc
00000230: 5f98 2e3d 9016 54bd 668a 833d a76e 34bd
00000240: b9e3 a4bd 6dd9 b53c a040 eb3c cf09 e6bd
00000250: baa7 583d be46 8cbd dfe5 863d 5a93 fbbc
00000260: a637 9e3d 5729 39bd acef 65bc a343 d0bd
00000270: 68b6 b5bd de9f 44bc 6114 833c d796 16bd
00000280: 53a3 4e3d 3dc1 ee3d f1e9 7fbc a7f4 28bc
00000290: fdae 93bb 0a55 8cbc 8752 2d3d 0de7 87bd
000002a0: 4db1 77bd b27e 743d f050 92bd 12b1 443c
000002b0: 6fb6 c1bd 7f3a 97bc fc55 863d 43ed a3bd
000002c0: c221 90bd 9008 a8bc 3ed3 a7bd b50d 2f3d
000002d0: b818 9ebd 0274 253c af96 9d3d 0083 d33d
000002e0: 826e ba3d d4e0 fc3d f581 38bd 6f09 b93c
000002f0: f80f 783c 8337 08be d14c 943d 0430 e43d
00000300: f0d7 bbbd 2ce6 f3bd 9e80 4a3d 2e75 cf3d
00000310: 23ff fe3c f9ff 0abe 928b 883d 0f4f b43d
00000320: d21c 90bc e795 3c3a 4a28 e03d da1a 523d
00000330: 14d0 0abe 8fbd ee3c 8cd4 f43d 93c2 8dbd
00000340: c622 163e 5ad9 443d 863e d3bd 9d42 b9bd
00000350: 1c57 e83d 104f 283c fe03 833d ecc6 0bbe
00000360: 02e2 afbc 783b 1ebc 3410 8bbd d739 bcbd
00000370: bc62 7a3d deff 87bd 0553 aabc df72 e4bd
00000380: c05d b2bc 991d b53c b781 f73d 6c25 0cbe
00000390: 2feb 7bbd b155 e2bd 209a f33d ef2e bfbc
000003a0: 3dcf afbc 20f2 38bb 8217 bdbd 05e1 8b3d
000003b0: 4b08 c23d d4e2 92bd f2f2 afbc 3ec4 ff3d
000003c0: bf20 343d 42f1 c1bc 4606 093c 8924 073e
000003d0: 083e 22be 9be9 e0bd 6c2f b0bd 8295 c6bd
000003e0: 7fab d9bd e85d ad3d e7d0 343e 3a14 0a3e
000003f0: 8e1b 50bd b306 f13d 3eca 933d f0d2 aa3d
-0.0868838 -0.044328067 0.073899075 0.026853984 0.038160812 -0.109811895 -0.088524096 -0.028115118
0.026669785 0.1533656 0.24052514 -0.012285644 -0.12925221 -0.050247986 0.09200887 -0.059815336
0.18070674 0.08217964 0.052515548 0.022537617 0.10275596 -0.08194704 -0.07562799 0.04069029
-0.030439464 -0.056510802 0.09924015 -0.018164178 0.08749128 0.008437604 0.07456106 0.04842153
-0.016267756 -0.06556985 0.109937966 -0.0820771 0.03426377 -0.124596015 -0.06386969 -0.0075086504
-0.06291482 0.11588379 0.08452836 0.022700373 0.018704636 0.08788672 -0.017939884 0.11081801
-0.09562169 -0.01273808 0.0053082188 0.06337399 -0.08507067 0.0047094678 0.15161975 0.019141397
0.060299855 -0.013958835 0.11496906 0.13005598 -0.16198401 0.051643416 -0.044253122 -0.014631083
-0.059618257 -0.09383612 0.013341159 0.106246136 0.037352674 -0.12946294 -0.099929966 -0.07686873
-0.15834132 0.005220333 0.026814338 0.05044349 0.04827558 -0.11663145 -0.058108184 -0.049360376
-0.06159737 0.066070534 -0.060833547 -0.016337054 -0.04760581 0.10202527 0.057339706 -0.1221345
-0.067233495 0.11616424 0.14043792 -0.061874844 -0.016716544 -0.10645923 -0.13428956 -0.09988738
0.008093669 -0.041543588 -0.10104735 0.03378135 0.03690115 -0.09067623 0.041566726 -0.095336586
0.012454073 0.04272266 -0.06404037 -0.08127096 0.0016056661 -0.048083913 -0.14905272 0.118166424
-0.12287969 -0.05477793 -0.08235808 0.052109502 -0.05820515 0.076278575 -0.031622913 -0.114006326
0.034697816 -0.10776537 -0.039169226 0.15018089 -0.015948858 -0.027392266 0.068933584 -0.06510714
-0.13664427 -0.017860834 0.027645405 0.018013146 0.0402158 0.012135901 -0.0465098 0.048518896
-0.0121236555 0.04298754 -0.008475081 -0.020435896 0.04262578 -0.05177933 0.06422882 -0.04405084
-0.08051247 0.022198403 0.028717339 -0.112323396 0.05289433 -0.068494305 0.06586813 -0.030709911
0.07725458 -0.04520544 -0.014034193 -0.10169151 -0.08872682 -0.012001006 0.016000928 -0.036764946
0.050448727 0.11657951 -0.015619741 -0.010312236 -0.004506944 -0.017130394 0.042315032 -0.06635866
-0.06047182 0.05969114 -0.07144344 0.0120051075 -0.094586246 -0.01846051 0.06559369 -0.080042385
-0.07037689 -0.020511895 -0.08194588 0.04273768 -0.077195585 0.010098459 0.07694756 0.10327721
0.09103109 0.1234757 -0.04504581 0.022587506 0.015140526 -0.13302426 0.07241214 0.11141971
-0.09172046 -0.11909136 0.049439065 0.10129772 0.031127518 -0.13574208 0.06667246 0.08804142
-0.017591868 0.0007193968 0.109451845 0.05129514 -0.13555938 0.029143123 0.119546026 -0.06921878
0.14661703 0.048058845 -0.1031466 -0.090459086 0.1134474 0.010272756 0.06397246 -0.13650101
-0.021470074 -0.009657733 -0.067902 -0.091907196 0.061129317 -0.066406 -0.02079154 -0.111547224
-0.02177322 0.02210884 0.12085288 -0.1368615 -0.061503585 -0.110515006 0.118946314 -0.02333781
-0.021461124 -0.002822049 -0.092329994 0.068300284 0.09474238 -0.0717217 -0.02147815 0.12488602
0.04397654 -0.023674611 0.008363312 0.13197531 -0.15843976 -0.10982057 -0.08602795 -0.09696485
-0.106284134 0.08465177 0.17657815 0.13484278 -0.05080753 0.11768856 0.07216309 0.083410144

encoder.lstm.bias_hh_l0 f4 [256]
00000000: 970b f93d 55e4 80bd 90a5 283d b6f7 a2bc
00000010: 924d 4c3d 19a4 83bd 4147 303d ef98 953d
00000020: b8ab 9abd 694c 0d3e d016 073e 91a5 19bc
00000030: f7fa d2bd 033c 85bd a39e db3d 107d 873d
00000040: ebf0 e33d a830 e63d acf0 9c3d dcfd 3f3c
00000050: 7899 52bd b3b2 f13d 22a3 043e daea 5fbd
00000060: ba7b 98bd 5730 003e c97c e3bd 23e7 09bd
00000070: 6a69 4abd 181d 143e 6ab1 933c f8a6 a1bd
00000080: 3252 f0bd 7dc8 9d3c 9d4d 0e3d 0d37 d93c
00000090: 6e97 3d3d 9221 15be a334 173e 1b89 973d
000000a0: 2d8e f63d a51b 493d eaad cb3d 6451 683b
000000b0: b21c f73a 45ff 9abc 831c 06bd dfed 8c3d
000000c0: 2ff6 ef3c ffbc f43d df7c e5bd 11ac a8bd
000000d0: 74fd 0c3c c695 b83d 49c6 a03c e019 8f3d
000000e0: a42a 5bbd c992 103d 5059 883d c399 ebbc
000000f0: ac83 44bd 718c 1c3e 252e 10bc 109b d3bd
00000100: 0320 04bd bc45 0dbe e625 c3bc 2b61 da3d
00000110: d8d0 babd 7f1d 0dbe cf95 e93c 622c 6d3d
00000120: 87ba cc3c 3664 f83b 502c 1f3d e3ac f2bd
00000130: 57f1 a7bd a143 213d 5720 eb3d b4fd f73d
00000140: 28ee e3bc b99d 423d 3a2f 9abd 44a8 7dbd
00000150: 87c3 f63d 08c9 a1bd afce 913d 8699 a43d
00000160: 36f8 a73d ab53 21bd d81f 7fbc 44b4 013e
00000170: fe84 6b3d c656 3d3d b809 233d 0411 b5bc
00000180: a27c e9bd 919c a9bd f8db b23d e0b9 b8bd
00000190: 9ac9 0e3c 4e19 e0bd 256e 653d e7da b4bc
000001a0: d946 ba3d 6843 b03c c1dd 443d 2126 0dbe
000001b0: 2dcd d93c fd28 d0bc 9194 1cbc 54fd 023e
000001c0: d9e5 ab3c 9311 71bb c89c 0a3d 5b38 c9bd
000001d0: 84ba 87bd 5e30 19bd ba0c d4bc 484b bf3d
000001e0: 0af6 e33d d0a3 aebd 31bc 083e a1f8 493e
000001f0: 5286 fdbd 421f 9b3c 67ca 243e b204 ec3d
00000200: 8701 a63d 0e6e 42bc 433f 59ba dbaf d1bd
00000210: 9617 87bd f492 a8bc 570c 8d3c a186 a63c
00000220: cc90 023d 2542 edbd a61e c1bd 0407 963d
00000230: 3735 31bd 9ff8 d63c bc92 21bd 1bcf e93b
00000240: 77d5 ad3c 122d 78bd 208b abbd fc6e 803d
00000250: 1fad 90bd d282 a53d 93ad 0e3d e7f4 2e3c
00000260: 8622 8bbd cc62 173d 9884 3abd 5897 b73d
00000270: 2c22 813d 3fe1 923d 32af d8bb 31d7 913c
00000280: 17f7 46bd 362c 81bd 7117 7bbc 6c56 9f3c
00000290: 72bf 06bd 0d4b 743d 1c01 3bbd 14b6 553d
000002a0: b0b0 b33d 91c0 70bd a7d0 b43d 83d7 e23b
000002b0: 3764 a63d c0ae e13d ac00 bebd cf3e dc3d
000002c0: d9fb 943d 2cf0 0d3d b83f 4c3d 5675 8abd
000002d0: 5d11 1d3c 875e be3c 1971 d2bd b6c8 913d
000002e0: cac9 d6bc 394b d8bd 89c4 7b3d a192 8cbd
000002f0: c7a3 0d3d 4ff8 9c3d 79e6 f03c 1852 8cbd
00000300: d656 473d c72b 45bd 2f81 cfbd 16a8 83bd
00000310: 9cd2 57bd acd6 f6bd 32fb 1d3a 8a4c a8bd
00000320: 1ccb 633c 2321 7d3d 8846 4e3d d402 d6bd
00000330: 5dc7 97bd 9c8f 3fbd 8753 563d 556b 093d
00000340: db4f 933c 644c 1d3e ee28 993d afbf 72bd
00000350: 7125 bbbc ca8c bdbd f583 953c da41 0c3d
00000360: 0d03 0e3d 05c8 b2bd 7fa0 b7bd 5bca 4fbd
00000370: 4171 873d 3d4e 933b cf23 9a3d 1a25 79bc
00000380: 6f31 b2bc 1f4d da3d 7ad9 d43d 67ba 113d
00000390: 4060 9bbd 2ab2 6ebd 3b42 b8bd 38df aebd
000003a0: 3f87 8fbc 1951 6e3d 4a32 013d ddb3 13be
000003b0: 265a 253d 9611 493d e917 a3bd 2479 b83d
000003c0: 0164 99bd 4323 443b 8f4a 26be 38f8 7d3c
000003d0: f531 7cbd becb 093e 8f42 893d ceb2 eabc
000003e0: 6f46 423d 602c ca3d 8fbc ee3d 35c4 f7bc
000003f0: 0656 b1bd 03a5 573e c8f3 553c 1891 aa3d
0.12160414 -0.06293551 0.041173518 -0.019893508 0.049878664 -0.064277835 0.043036703 0.073045604
-0.07552284 0.1379868 0.13192296 -0.009377853 -0.10301774 -0.06505587 0.10723617 0.06615651
0.11129936 0.11239749 0.07663092 0.01171824 -0.05141589 0.11801662 0.12952855 -0.05466733
-0.07445474 0.1251844 -0.11107785 -0.033667695 -0.049416937 0.14464223 0.018028934 -0.07893175
-0.117344275 0.01926064 0.034741987 0.026515508 0.046286993 -0.14563587 0.14766173 0.07399198
0.12038837 0.04909863 0.09945281 0.0035448903 0.0018853156 -0.01892055 -0.032742035 0.06881308
0.029292194 0.11950111 -0.11205458 -0.08235944 0.00860535 0.09012942 0.0196258 0.06987357
-0.053507462 0.035296235 0.0665766 -0.028759843 -0.047977135 0.15287949 -0.008800064 -0.1033231
-0.03225709 -0.13796133 -0.023821782 0.106630646 -0.09121865 -0.13780783 0.028513817 0.057903655
0.024991287 0.0075803054 0.03886062 -0.11849382 -0.08200329 0.039371137 0.11480778 0.12108937
-0.027823523 0.047513697 -0.07528539 -0.06192805 0.12049013 -0.07899672 0.071195 0.08037095
0.08201639 -0.039386433 -0.015571557 0.12666422 0.057499878 0.04622533 0.03980419 -0.02210284
-0.11400725 -0.08281816 0.08733362 -0.09019828 0.008715058 -0.109423265 0.056013245 -0.022077037
0.09095544 0.021516517 0.048063044 -0.13784076 0.026587093 -0.02541017 -0.009556905 0.1279195
0.020983623 -0.0036784157 0.033840925 -0.09825202 -0.06627372 -0.037399642 -0.025884975 0.09340531
0.111309126 -0.085273385 0.1335304 0.1972375 -0.12379135 0.018935803 0.16092835 0.11524333
0.0810576 -0.011867059 -0.000828732 -0.1023862 -0.065962955 -0.020577885 0.017217798 0.020327868
0.03187637 -0.11584882 -0.09429674 0.07325557 -0.04326364 0.026241599 -0.039446577 0.0071352846
0.021219952 -0.060589857 -0.08376145 0.062711686 -0.0706427 0.080815926 0.034833502 0.010678506
-0.06793694 0.036959454 -0.045536608 0.089644134 0.06305346 0.071718685 -0.006612682 0.017802807
-0.048575487 -0.06307261 -0.015325413 0.019450389 -0.03289742 0.059641887 -0.045655355 0.052175596
0.08773935 -0.058777396 0.0882886 0.0069226637 0.08124583 0.11019659 -0.09277472 0.10754167
0.07274599 0.034652874 0.049865454 -0.06760661 0.009586659 0.023238434 -0.10275478 0.07118361
-0.026219267 -0.105612226 0.061466727 -0.06863905 0.03458002 0.076645486 0.029406773 -0.06851596
0.048666798 -0.048137452 -0.10132062 -0.06428544 -0.052691087 -0.12052664 0.0006026506 -0.08217724
0.0139034055 0.06179918 0.050360233 -0.10449758 -0.074110724 -0.046767816 0.05232575 0.033549625
0.017982414 0.15361172 0.0747851 -0.059264835 -0.022845002 -0.09255369 0.018251399 0.03424249
0.03467088 -0.08729557 -0.08966159 -0.05073009 0.06613398 0.0044954107 0.07526361 -0.0152066
-0.021752087 0.10659241 0.10393043 0.035578158 -0.075867176 -0.05827538 -0.089970075 -0.08538669
-0.017520545 0.05818281 0.0315421 -0.14424081 0.040369175 0.049089037 -0.07963545 0.09007481
-0.07489777 0.0029928244 -0.1623938 0.0155010745 -0.06157108 0.13456628 0.06702148 -0.028649714
0.047430452 0.09871745 0.116570584 -0.030244926 -0.08658986 0.2105904 0.01305861 0.08328456

encoder.lstm.weight_ih_l1 f4 [256, 64]
00000000: 4a3b 47bd 386c 91bd 3a59 313d 58f7 d03b
00000010: 5cec b3bd 78ef 39bc d7d8 14bd 610b fc3c
00000020: 6fa1 aebd a075 313e 0b1e e03b 2da3 0ebe
00000030: 82e8 1dbd 18a9 39bd d6eb 3d3d 4a70 e3bd
00000040: 9b48 083e c032 81bb e154 c33c 762c 173e
00000050: 533d e1ba d845 7e3d ed8a 41bd 5484 463d
00000060: 08fc 2d3d ff35 7b3d a958 0e3e 408a bb3d
00000070: f7e4 79bc 4811 a03c a0c4 333d ada5 02bc
00000080: 30c3 acbc 47a6 d6bd 8224 44bd 0aa9 c43c
00000090: a7c6 a53c 84d1 613d 07b0 54bd a1ab c1bd
000000a0: 5edd a83c 4e1b a2bd d4dc 7cbd 2787 383d
000000b0: c902 fb3d 68ba 10be dbe2 f13d a942 b43d
000000c0: 2666 dfbd 8098 17bd 358d 65bd 03cc a33d
000000d0: c96e 413d 5ec0 8cbc ff2d 9c3b 9160 21be
000000e0: 6fd5 663c 0e88 d2bd 8f88 87bd 2fce b3bd
000000f0: ff4e 5bbc 37cf 003d 6ada 43bd bf9e a03a
00000100: 5c11 8e3b ce71 e83d 7e2d 913b 57b7 213e
00000110: 901b 0e3e 19c4 143c 7bd0 873d 3eea c83d
00000120: b380 87bd f77a 1c3e b791 393b 3bb5 ed3b
00000130: c78f 0e3e 6309 a53d 03c5 c5bd 4f81 183c
00000140: 61ce bcbc 75fc 613d 0777 ecbc 744c ca3d
00000150: b33a 12bd 3a6b cebd 3759 02be c99e b7bd
00000160: 4de2 98bd 98aa d03a 7e40 043e 00cd 043e
00000170: ea52 283d a240 19be a0e3 b63d 4c00 aa3d
00000180: 4a82 79bd 0c63 01be eb90 5e3d 46e6 473b
00000190: 62b0 e73d 123d 03bd 3b0d 363d c101 b83d
000001a0: 1b06 2dbd 2fbb 383d 078e 1bbe dee3 a63d
000001b0: a590 1d3d 3983 9ebd fd2f 3fbd 0c65 9b3d
000001c0: 1b8c b03b c94d 14be 86c6 0d3e 9b10 053e
000001d0: 8e2c f93d 575d e33b eef2 993d 33e8 08bc
000001e0: 7241 babc b1b5 febd 42b9 5bbe 3306 8f3d
000001f0: 5480 263e 67e5 203e c48f f8bc 7d82 e9bd
00000200: e495 503d 5db7 abbb 06ae c13d 59ad 553e
00000210: feda d33d ded3 ef3c 64c1 6f3d 682b c0bd
00000220: 897c 98bd 4373 2f3e a1e0 053d 80f7 a4bd
00000230: e2ec e43b 7ca9 bc3d e304 80bc 939d 67bd
00000240: b060 00bc 2cf4 013e 9a28 3bbd 8dad ab3d
00000250: 68d6 41be 5bd1 703d b4c6 56be e4bc c43d
00000260: 2d66 82bd 582e 00be d7cf af3c 4718 113e
00000270: c55a 083e 4c2a 4a3d cf71 033e 2dd6 2e3e
00000280: 157c 8f3d ebce 943c ca04 393d bcdc d7bd
00000290: 055c 13bd 76a0 fcbc f24f 6ebd 7a02 543d
000002a0: 6cb7 febd 28dc b33d 2ad3 61be 0479 05be
000002b0: ee4e 193d ca45 c33c 12b3 bf3d 637c 93bc
000002c0: ec62 493d 0893 e8bd 4315 b83d 787d 813d
000002d0: f486 ac3d 9138 ce3d 5732 3f3d 5224 30be
000002e0: edef dc3d bb47 a0bd ee01 40bd bcdd a93d
000002f0: 0fcf f23d 6bb8 0e3e 4d76 ee3c 1284 0cbe
00000300: e964 16bd cfba ac3d f33d 5a3d 2fa1 e73a
00000310: 8aa4 243d 5e88 fe39 fba6 d4bb e8b8 25bd
00000320: 97b1 d8bd f6de 1b3c 0d33 143e f2a5 efbd
00000330: d743 c63d 1022 e73d 0d0a 3a3d 1087 413e
00000340: 9fac 5fbd ac52 e93d 731c 0c3e 4709 fc3d
00000350: 50ef 023d ff9e babd 06ae 35bd 1073 d3bd
00000360: 61f6 e8bd 21b4 0ebe a89f 973d 9620 1f3e
00000370: 8321 993d 98da fdbc d9fe 503d fad3 f63d
00000380: d073 443e c366 46be 2933 8b3d a758 10be
00000390: 535e d73d 0a78 c3bd a771 313d 8183 ed3d
000003a0: 9332 f2bd e23a 6c3e 81df 01be 3d7c bf3c
000003b0: 4b1c a63d 3a48 1dbe 29da 013e 08d9 c83d
000003c0: b21b 39be 3579 6fbd b217 f83d f42b 7c3b
000003d0: 33c4 833d e761 d4bc 3a25 abbd 7595 18be
000003e0: b354 8c3d 64ab 08be b452 60bd d46d a33c
000003f0: 7ece 383e 4eb6 203e 9218 c73d e6dc 94bd
-0.048640527 -0.07100719 0.043297984 0.006377142 -0.08785316 -0.011348598 -0.036339607 0.030767145
-0.08526885 0.17330027 0.006839519 -0.13929434 -0.038551815 -0.045327276 0.04636749 -0.11105402
0.13308947 -0.0039428174 0.023844184 0.14763054 -0.0017184414 0.062078327 -0.04725163 0.04846604
0.042476684 0.06133079 0.13901009 0.091572285 -0.015252343 0.01953949 0.043888688 -0.0079740705
-0.021089166 -0.10480934 -0.04788638 0.024006385 0.020236326 0.05513145 -0.051925685 -0.09456564
0.020613369 -0.07915364 -0.061734036 0.045050766 0.122563906 -0.14133608 0.11810847 0.08801777
-0.10908155 -0.03701067 -0.05604287 0.079978965 0.047224794 -0.017181572 0.0047662253 -0.15759493
0.0140889725 -0.102798566 -0.06617843 -0.08779561 -0.013385533 0.031447615 -0.047815718 0.0012254341
0.0043355655 0.113498315 0.004430472 0.15792595 0.13877702 0.009079956 0.06631561 0.09810303
-0.06616344 0.15281282 0.0028315613 0.0072542704 0.13922034 0.08058431 -0.09656718 0.009308173
-0.023047628 0.055172402 -0.02886535 0.098778635 -0.03570051 -0.100790456 -0.12729345 -0.08965833
-0.074650384 0.0015919982 0.12915227 0.12968826 0.041094698 -0.14966062 0.08930135 0.08300838
-0.06091527 -0.1263544 0.054337423 0.0030502244 0.11312939 -0.032040663 0.04444621 0.089847095
-0.04224215 0.045100387 -0.15190898 0.08148931 0.038468022 -0.077398725 -0.046676625 0.075876325
0.0053877956 -0.14482798 0.13845262 0.12994616 0.12166701 0.006938617 0.07517038 -0.008356142
-0.022736285 -0.12436999 -0.21457389 0.06983604 0.16259891 0.1571251 -0.03034199 -0.11401842
0.050924197 -0.0052403645 0.094570205 0.20866908 0.10344504 0.02927583 0.05853404 -0.09383279
-0.07445628 0.17133813 0.032684926 -0.080550194 0.0069862464 0.09212014 -0.01562733 -0.05654676
-0.007835552 0.126908 -0.045693018 0.083827116 -0.18929446 0.058793407 -0.20974237 0.096063405
-0.06367145 -0.12517679 0.02146141 0.14169417 0.13315876 0.049356744 0.12836383 0.17073889
0.07006089 0.018165072 0.045170583 -0.105401486 -0.03597643 -0.030838232 -0.05818171 0.051760174
-0.12437329 0.08782226 -0.22053209 -0.13034445 0.03742879 0.023836989 0.09360327 -0.018003648
0.049166605 -0.11356169 0.0898843 0.063227594 0.08424178 0.10069383 0.046678867 -0.17201355
0.1078795 -0.078261815 -0.04687684 0.082942456 0.118558995 0.13937537 0.029109145 -0.13722256
-0.03671733 0.084340684 0.053281736 0.0017671938 0.04019598 0.00048548257 -0.006489632 -0.040459543
-0.105807476 0.009513607 0.144726 -0.117015734 0.09680908 0.11285794 0.04541974 0.18899179
-0.054607984 0.113927215 0.13682728 0.12306457 0.031966507 -0.09112357 -0.044355415 -0.10324681
-0.11375118 -0.13935901 0.07403499 0.15539774 0.07477095 -0.030988023 0.05102429 0.1205215
0.19184804 -0.19375138 0.067968674 -0.14096318 0.10516038 -0.0954438 0.043321278 0.11597348
-0.118260525 0.23069337 -0.12682916 0.023374671 0.08110865 -0.15359583 0.12680878 0.098070204
-0.18076971 -0.0584652 0.121138945 0.0038478347 0.064339064 -0.02592559 -0.0835671 -0.14900763
0.068520926 -0.1334663 -0.05476637 0.019949831 0.1804752 0.15694544 0.09721483 -0.072686955

encoder.lstm.weight_hh_l1 f4 [256, 64]
00000000: 018a 613d a5ff d43d 59b3 f83d e6e9 ba3c
00000010: e775 0abd c1cc 65bc 5230 a13c 923e d0bc
00000020: ec97 5abd 4875 a73d eb1f 2abd f743 a9bd
00000030: 0f4e 7b3d 1b03 c23d 11d5 da3d ba36 c73d
00000040: 6fef afbd ff8c 92bd 81e7 153d fd6a f9bc
00000050: 583d f63c 2875 923d 23d2 a53c d24e d9bd
00000060: 7b44 fc3d 04c7 323c 3d9d 03bd f5a8 c33c
00000070: 499a ad3a 22fc 0abc 18a9 bc3c 00b1 26bd
00000080: 06a2 babd 157d e03d 072c aa3d f788 d93d
00000090: 9667 fc3c 3934 8f3b 5f52 b1bd cd18 043d
000000a0: ef3d 2e3c 4b38 043e 725d 16be 55c4 a939
000000b0: 6b8b e33d 8937 763d 9fbb c93d 3cf8 91bd
000000c0: 4e39 abbd 47a3 b8bd 8eef 0a3d 9d5d 03bd
000000d0: 6602 12bc 9043 41bd d8a1 1dbd a13f 5c3d
000000e0: 808b 6d3d 7683 4b3d cf73 8a3a a032 7bbd
000000f0: 0275 ce3c 59ef 213c 46ea 223e c2a1 ae3c
00000100: f29f 003e 3ed8 94bd da71 cc3d 61a0 fd3d
00000110: 1707 c53d ce13 c13d 36dc 8a3b 4725 ae3d
00000120: 64ef 01bd b9d8 eabb 9acf 003c 86d2 17bd
00000130: 6e4c 6bbd ec2e 403d dfff a13d 7a31 613d
00000140: 3c0e e5bd 4d96 493d 9cfc 0bbe 9653 0abe
00000150: f6d2 203d 9b31 e8bd ab59 cf3c 92bf 5cbd
00000160: 4bf5 ab3d 4c72 2a3d 724c dbbc e1f6 583d
00000170: e55a 6fbd 749c 8cbc 19f0 7bbc d7bc 0d3d
00000180: 7597 07be 673d 8bbd e204 00be 2841 013e
00000190: ab97 4c3d 8492 94bd 3b97 003d cabb b9bb
000001a0: 0fa9 383d 7738 3c3d 8733 e53c d656 44bd
000001b0: 8f75 d43c 5b17 9e3c 6817 c73d 252c 893d
000001c0: 9bba f6bd 13cd d33d ad39 8ebd 01ba 04be
000001d0: 5469 5e3d b33f b03c 6675 60bd c576 b73d
000001e0: 5734 5d3c 5e64 dabd a2d0 c23d badd a2bc
000001f0: 4129 f03d d662 d53d 86b7 aebd 8d50 6dbd
00000200: 56ee 683c bfb7 a03c 56ef e8bd 1e92 a83d
00000210: 0692 933d 423f a23d a31d b8bd 3a4e b9bd
00000220: 22c3 5cbd 8eea fabd f985 ad3d 3a7c cebd
00000230: 8ea4 9fbb 4af6 e03c 4d11 4d3c 6b8b 9c3d
00000240: 15c5 e33b 5c0e 29bd e524 153d 8cb1 923d
00000250: 33db 72bd 47c4 9b3d 7cbe fc3c 6908 bebd
00000260: e8ec 373d a996 d5bd 42a7 02bd 64ae e5bd
00000270: 0765 a53d 4a97 133d 7990 05be c428 67bd
00000280: eb15 a6bd 31d6 413d b835 71bd 47ec 893d
00000290: f48e 63bc 7a25 f13d e979 853d 27fc 273e
000002a0: a30f 12bd 9e44 a3bd 72e9 3cbd 1fcb 033e
000002b0: 322f 89bd 4230 a5bb 5226 483c 7656 073e
000002c0: f6df 43bd 63b8 51bc f1c2 e23d 0132 fbbd
000002d0: f400 fb3d f1a9 9a3d 13f1 80bd 27d3 0a3e
000002e0: f1fb bd3b 1349 dfbd fd59 c2bd 7af9 b23d
000002f0: ec8c dcbd cf40 953d e8b5 a63d b209 af3d
00000300: dc3c 993d b190 283d 3710 b7bd 8003 af3d
00000310: ca0f 8fbc 5426 07be b787 133e cc08 3a3d
00000320: 9936 10bc d8b5 413d fa15 963b da07 343d
00000330: df34 89bd 8bfe f3bd ed56 9b3d 7420 a0bd
00000340: 9cbd a6bd 0765 e23d 469d 22be fdfa 6a3c
00000350: dcfb e83d aca0 77bc 9592 6f3d c877 6bbd
00000360: ab7c 53bc df72 963c f347 cfbd 397c 96bc
00000370: 7907 d33d c628 63bd 7d95 15be 4aed 89bd
00000380: aab9 e83c 6836 583c 6e58 07be c370 743c
00000390: 6dec 883d 9c55 e33d 64c7 e7bc acd8 ca3d
000003a0: 4a54 2fbd 3ea6 343d 5751 81bb 902b 9c3c
000003b0: a72b f43c be43 843c 3279 66bd 0e8f 35bd
000003c0: ccdc bfbd 22bf a43d e60d e4bd 82a6 c93d
000003d0: b995 9dbd e963 143d c81e 953d df1d d53c
000003e0: 4be4 053e 8b5b 11bd fbd8 3a3c f431 583c
000003f0: 0104 f73c 7f21 963d 3bfe 1fbd a310 ca3c
0.05506325 0.10400323 0.12143583 0.02281661 -0.033803847 -0.014025868 0.019676361 -0.02542046
-0.05336754 0.081766665 -0.041534346 -0.082649164 0.06135374 0.094732486 0.106851704 0.09727235
-0.0859059 -0.07155799 0.036597732 -0.030446524 0.030058548 0.07151252 0.020241803 -0.10610737
0.12317749 0.010911707 -0.032132376 0.023884276 0.0013244833 -0.008482965 0.023029849 -0.040696144
-0.09112935 0.109613575 0.08309179 0.10621827 0.030811112 0.004370239 -0.08658289 0.032250214
0.010634883 0.12912099 -0.14684084 0.0003238047 0.11110576 0.060111556 0.09850239 -0.07127425
-0.083605394 -0.09015518 0.033919863 -0.0320717 -0.008911705 -0.047183573 -0.038484424 0.05377162
0.057994366 0.049685918 0.0010563078 -0.061327577 0.025202278 0.009883725 0.1590968 0.021317367
0.12561014 -0.072678074 0.09982653 0.123841055 0.09620493 0.094276056 0.004237677 0.08503204
-0.03172244 -0.0071669486 0.007861996 -0.037066005 -0.057445936 0.04691975 0.07910132 0.054978825
-0.111843556 0.049215604 -0.13670582 -0.13508448 0.039263688 -0.113375865 0.025311312 -0.053893633
0.08396395 0.04161291 -0.02676985 0.052969817 -0.058436293 -0.017164446 -0.015377068 0.03460392
-0.1324137 -0.06798821 -0.12501863 0.12622511 0.04994933 -0.07254508 0.031394225 -0.005668138
0.0450831 0.045952287 0.027978672 -0.047934376 0.025934963 0.019298246 0.09721261 0.06697873
-0.12047311 0.10341849 -0.069445945 -0.1296158 0.054299667 0.02151475 -0.05479946 0.089582
0.013501248 -0.10663675 0.0951245 -0.019881118 0.117266186 0.10419242 -0.08531098 -0.057938147
0.01421698 0.019618867 -0.11373775 0.08230995 0.07205586 0.07922222 -0.08990028 -0.09048124
-0.05389703 -0.12251769 0.08472819 -0.10082288 -0.0048719114 0.02746119 0.012516332 0.07643779
0.0069509842 -0.04127346 0.03641214 0.07162771 -0.059291076 0.07605796 0.030852549 -0.09278948
0.044903666 -0.10429127 -0.03189779 -0.11214903 0.0807591 0.036032952 -0.13043393 -0.05643536
-0.08109649 0.04732341 -0.05888912 0.067345195 -0.013889063 0.11774726 0.06517393 0.16404782
-0.035659444 -0.07972072 -0.04612107 0.12870453 -0.06698455 -0.005041153 0.0122161675 0.13216576
-0.047821008 -0.012800309 0.11072338 -0.12265397 0.12256041 0.07551945 -0.06295981 0.1355711
0.005797856 -0.1090261 -0.0948982 0.0873899 -0.10769066 0.07287752 0.081401646 0.08546771
0.07482311 0.041153613 -0.089386396 0.085455894 -0.017463583 -0.13198215 0.1440724 0.045418546
-0.00880208 0.04729256 0.0045802565 0.0439528 -0.066995375 -0.119137846 0.07584939 -0.0781869
-0.08141634 0.11054426 -0.15880308 0.014342067 0.11376163 -0.015113991 0.0584894 -0.05748728
-0.012908141 0.018365322 -0.10121145 -0.01836978 0.1030416 -0.055458806 -0.14607807 -0.067347124
0.028408844 0.013196565 -0.13217327 0.014919463 0.0668572 0.11100313 -0.028293319 0.09904608
-0.042804994 0.044103853 -0.003946464 0.019063741 0.029805971 0.016145583 -0.056267925 -0.04432588
-0.093682855 0.08044268 -0.111354634 0.09846212 -0.07694573 0.036228094 0.07281262 0.02601522
0.13075368 -0.035487693 0.011404271 0.0131955035 0.030153276 0.073306076 -0.039060812 0.024666136

encoder.lstm.bias_ih_l1 f4 [256]
00000000: 414d 15be e3fc cd3d 91b4 853d 712c 5b3d
00000010: ae7c 24be ea6a fbbd 64c3 c7ba 7b20 de3d
00000020: 2bae 64bd 372f 863d 83e8 e5bd 1ffb 08be
00000030: 7599 c4bd 8e39 9dbd a6a2 3c3d c18b f53d
00000040: 596c 7d3c f780 70bd ac95 d8bd b6e7 59bd
00000050: 990b c3bd a808 e9bd 88f3 36bc 110c c6bc
00000060: 3e38 18be 70f0 c73c a3ef 62ba ccdb 03be
00000070: 7774 38bd 8e4f f7bd 5a41 cfbd b1bc 35be
00000080: ef23 0dbe d905 d9bb 60a1 1fbc 0097 73bc
00000090: bbd2 30be 4f3d 57be 611c d3ba 7db0 a33c
000000a0: 2f95 16be 8b6b 1c3d aa73 81bd 480f 303d
000000b0: 27b0 eb3d b4ec 103d 8e96 913d 6c3d 0ebe
000000c0: 85d4 85bd 16bd b6bd cf2d bbbd ca08 af3d
000000d0: 75ee 4dbd b59b 92bd 6e2e c9ba 2e03 9a3e
000000e0: cb3e 093d e107 c8bd 4306 b73c 0f92 9c3d
000000f0: dd65 423d 9144 eebd 1fc1 a2bb 08e7 213e
00000100: e183 70be 9dc4 d93c a8a3 fbbd ac4b 123e
00000110: a259 103d f96d c33c 2e6c 62bd a120 823d
00000120: 371d 6ebd 4d1e d6bd 742a 8dbc 061e 623d
00000130: a4af aabd 0c7a f1bd d480 a6bd 1dc5 84bd
00000140: 93da d4bd bdcf 2a3d b630 883d da80 823d
00000150: b73c 44bd d6c5 7cb9 7069 6dbd 6f46 0f3d
00000160: 6ae4 933d 3538 403d b72d 3dbd e36b 55be
00000170: 6368 69bd a63b cabc f18f 87bd e50a fcbc
00000180: ff79 07be 5077 913d af27 bdbd fa5b 15be
00000190: 9fe8 0bbd 34ef 1abe 0d30 3bbd de5c 753c
000001a0: 8992 56bd cb89 ec3d e095 8a3d 0733 6e3d
000001b0: c3a2 5a3d 9e86 49bd 288a 043e bcd4 443d
000001c0: 85f7 b03d 5ad8 283d 0ee9 61be 964b aabd
000001d0: d5bb 4bbd a3f5 4fba d986 493d 44b4 dbbc
000001e0: a6f7 1bbc a4f4 313d 963c afbd 1935 54bd
000001f0: ab83 ed3d 3cbb 1ebd 7c45 a73d ba7c 4f3d
00000200: a191 2bbd fbcc a5bd 7717 cc3b daac ac3d
00000210: bf15 c6bc 1dc2 d2bd 3c01 0f3d f929 353b
00000220: c934 063d 2532 8c3d 040b c23d b34f 903c
00000230: 6d67 40bd a2dd 9dbd b6e1 28bd 221e b9bc
00000240: ce3f bcbd 5d3e 64bd 2fe5 dbbc 8f1d 4b3c
00000250: d37c 65bd b5d7 c6bd 76fe dc3d 1d89 a63d
00000260: fe67 d4bc 0b2c 593d 510b 7cbd b6f4 f13c
00000270: e066 153d da5e 1abd b6ad 67bc 1763 843d
00000280: 99be 00bd 46e7 99bd 1422 c33c 0499 cb3d
00000290: e60e 643d fd04 973b 1eca fb3c 500a ebbd
000002a0: 53f8 ce3d 5184 fcbd 3a26 ac3d 17c0 89bd
000002b0: cf1d 06be 6d02 e8bc 0d0e 7abd fd64 4ebd
000002c0: 5ad3 bcbc 057c 24bc 38ec c73d 05aa a9bc
000002d0: 0af4 b33c 7148 acbd 2305 213c 5ec1 883d
000002e0: cc50 8fbd d040 f8bc 33e2 9e3c 9f33 64bd
000002f0: 2007 463d 86d7 b4bd f26c 2abd acfb 82bd
00000300: 826b 77be 19f0 fabc 69a3 16bd e38c 44bc
00000310: 6cbc 8abd 3aba a73d 8944 94be d2d1 9b3c
00000320: dd3a 27bd b201 c1be 3ec5 f0bd 3eb4 1dbe
00000330: f1fc 8bbd 6c31 29be 31b0 663d ae94 bbbd
00000340: 5136 e4be 2396 7abd ece7 403c d5ab c0bd
00000350: 2b20 97be 59ce 2fbe f380 15be 71a9 1abe
00000360: bec5 31be 219b cbbc 48b7 5fbd 4629 54be
00000370: 04e3 2dbe 7170 293d b4b9 ed3d 407b 7dbe
00000380: 9a3a 4fbe f97a b6be 2798 23bd b365 9dbc
00000390: ee82 13be 406c a5be f776 303d 0fb7 37be
000003a0: 53f9 13bb efe9 2abd 8758 3bbd 6c43 19bd
000003b0: bfd3 c83d 49d0 afbd 55dc 093d ec75 fdbd
000003c0: a158 e8bc 07b7 31be 8600 a2be 82c5 51be
000003d0: 0d53 c8bd df15 91bd 1e6f d5bd 97d7 7e3d
000003e0: 1126 56be 26ff f4bc 68bf b6bd 88e5 c1bc
000003f0: 4094 22be 9b77 30be c446 013c 6e3a 5e3e
-0.14580251 0.10058 0.06528581 0.05350918 -0.16063187 -0.122762516 -0.0015240726 0.10846039
-0.055830162 0.06551974 -0.11225989 -0.13377045 -0.09599582 -0.07676993 0.04605355 0.119895466
0.015467727 -0.05871674 -0.10575423 -0.053199492 -0.095236965 -0.11378604 -0.011166461 -0.024175676
-0.14865205 0.024406642 -0.00086569245 -0.12876815 -0.045032945 -0.12075721 -0.10119887 -0.17747761
-0.13783239 -0.0066230115 -0.009743065 -0.014867544 -0.17267887 -0.21019481 -0.001610648 0.019981617
-0.14705347 0.0381885 -0.06320889 0.042983323 0.11508208 0.035381988 0.07108794 -0.13890618
-0.065346755 -0.08922784 -0.09139597 0.08546598 -0.05027624 -0.07158605 -0.001534892 0.3008055
0.03350715 -0.09767128 0.022341853 0.07645046 0.047460426 -0.11634172 -0.0049668695 0.15810788
-0.23487808 0.02658301 -0.12287074 0.14286679 0.03524173 0.02385615 -0.05527895 0.0635388
-0.05813333 -0.10454998 -0.017232157 0.055204414 -0.08334282 -0.11790857 -0.08130041 -0.06482909
-0.10393252 0.04170202 0.06649916 0.06372233 -0.047909465 -0.00024106292 -0.05796188 0.03497928
0.07221301 0.046928603 -0.046186175 -0.20841937 -0.056984317 -0.024686646 -0.066192515 -0.030766914
-0.13230132 0.07102835 -0.09236085 -0.14585868 -0.03415739 -0.15130311 -0.04570012 0.014975755
-0.05238584 0.115497194 0.06766868 0.058154132 0.053377878 -0.049200647 0.12943327 0.04805444
0.086409606 0.041221954 -0.2206156 -0.08315198 -0.049739677 -0.0007933026 0.049200866 -0.026819356
-0.009519493 0.043446198 -0.08556478 -0.05180845 0.11597379 -0.03875278 0.0816755 0.050656058
-0.04188693 -0.080957375 0.006228383 0.08431406 -0.024180291 -0.102909304 0.034913287 0.0027643426
0.032765184 0.06845502 0.09474757 0.017616129 -0.046973635 -0.07708289 -0.04123088 -0.022597376
-0.09191857 -0.055723537 -0.026842682 0.012397184 -0.056027245 -0.097091116 0.10790722 0.08131621
-0.025928494 0.05302052 -0.06153423 0.029535633 0.036475062 -0.037688114 -0.014140537 0.064642124
-0.031431768 -0.07514815 0.02381996 0.09941295 0.05567827 0.004608749 0.030736025 -0.11476576
0.10105958 -0.12329925 0.08405729 -0.06726091 -0.13097309 -0.02832147 -0.061048556 -0.05038928
-0.023049999 -0.010039334 0.09761852 -0.020710954 0.021966953 -0.084122546 0.009827885 0.06677507
-0.06997833 -0.030304343 0.01939497 -0.055713292 0.04834664 -0.0883017 -0.041607805 -0.06395659
-0.24162105 -0.030632066 -0.036776934 -0.011996481 -0.0677422 0.08189817 -0.28958538 0.019020949
-0.04082762 -0.37696606 -0.11756371 -0.15400788 -0.06835354 -0.16522759 0.056320373 -0.09159218
-0.4457269 -0.061178338 0.0117740445 -0.09407774 -0.2951673 -0.17168559 -0.14599971 -0.151037
-0.17360589 -0.024854245 -0.05461815 -0.2071887 -0.16981131 0.041366998 0.11607686 -0.24754047
-0.20237198 -0.35640696 -0.039940026 -0.019213533 -0.14405414 -0.3230915 0.043082204 -0.17940925
-0.0022579029 -0.041727003 -0.045738723 -0.037417814 0.09806012 -0.08584649 0.03365739 -0.123760074
-0.028362574 -0.17354976 -0.31641024 -0.204855 -0.09781466 -0.0708425 -0.104215845 0.06221732
-0.20912959 -0.02990682 -0.089232266 -0.02366902 -0.15876865 -0.17233126 0.007890407 0.21701977

encoder.lstm.bias_hh_l1 f4 [256]
00000000: ae23 d7bd 1dea 08bc cc4c 8ebc 987e 8e3b
00000010: ae85 ebbd 8c81 963c 61cc 11be ab80 fa3d
00000020: ca3a 44be 8d55 20be d1f2 cd3c 17df 50bd
00000030: 3bad a4bc 9751 993d 890f 37be 7a42 483d
00000040: f6a5 3dbe 289f 913c 5550 18be babb 873b
00000050: 688b 88bd dce2 63bd 846f 373d 787e b33d
00000060: 8228 77bd 9f73 e5bd 13dc 0bbe 3eb0 7dbd
00000070: f17b b8bd ba6c c33d 6062 c1bc 2353 58be
00000080: ed78 12be c668 66bd 0bab a63c eae8 17be
00000090: d3bd 493d 2e24 c3bd 7689 12be 07c4 6f3b
000000a0: e6eb bcbd c320 17bd ca6b bfbd a32b 063d
000000b0: 6cff 753d 52b6 c33c 1616 e7bc 4db6 ad3d
000000c0: ccc0 8b3d 2a26 b43c 850a 75bd abe4 873d
000000d0: 088d 8b3c 57f8 553c 7b4f ecbc e434 063e
000000e0: a3ad 4dbe db96 823d a4f0 a53c 10ce d83d
000000f0: 492a 993d 75d0 2b3d 5ef6 a73d bc81 213e
00000100: 696e a9bd 9b83 72bd a9fb 60bd f4c1 0abc
00000110: 3eb8 7cbd 3c70 3cbd b64d bbbd cdfd adbd
00000120: 12bd 98bd 1d43 12bb f51f 9fbd 515b e93c
00000130: 0400 8e3c facd d53d 6abc 0bbe 8833 79bd
00000140: 1521 d5bc d3e1 c6bd e1dc 8dbd 7628 cb3b
00000150: 728e e6bc 56ac 17be 4b6b fc3d b6de 483d
00000160: 917e 2c3c 1e2f 4c3d 2bec 36bd 6513 8c3b
00000170: 0bc8 07be ebb1 b5bd 682a 18bd a36a 89bc
00000180: 068a 2ebd 290e 953c c5ab 023e 12c9 423c
00000190: 25b4 993d 9fa7 ab3d a00b 39bd 084e 6a3c
000001a0: 08ec 16bd 54ae 543c f4da 9f3d 9a6b 7cbc
000001b0: e45a 1a3e e6f9 bb3d 4303 e53d 8339 b43c
000001c0: 1a6c 713d c717 233e a66c 20be 8484 4fbd
000001d0: 691e c83c e818 cfbd 5315 3a3d df86 013e
000001e0: acbe 9b3d f64d 883d 76fc 98bd 1eba 9e3d
000001f0: 906c 853d 914f 6fbd 2dbe 2fbd fea4 083e
00000200: 2f65 923c ddda 95bd 38be 1abc f4b8 cd3d
00000210: d427 a3bd e80c 6c3d 2e8c b23d 2474 c4bd
00000220: 5d3d af3c e8ca 593b 5c2a febd 8215 79bd
00000230: 81ac 373c ebb1 893b 1c74 413d 1a30 fbbc
00000240: 3708 f13c 0319 b23d ba1b 973a ce54 663d
00000250: 0948 853c f002 873d 52ad 9c3d dead 093e
00000260: a5b4 93bd ecaf cabc e2b5 823c a493 84bd
00000270: 28d9 30bd 9eb9 833b 2414 2abd 2d08 a6bd
00000280: 2552 1cbd 080e 393d 4e32 3abd 3878 21bd
00000290: 048b 05bd 05fe ac3c b4d9 8dbd 4982 dabc
000002a0: c1fd aebd ae6f 103c 5f4d bd3c 95b6 bdbc
000002b0: 99f4 b03d f380 833d 53bd ebbd 3271 8b3d
000002c0: 4cff 32bc b695 ec3d 8980 8dbd 1660 bf3d
000002d0: 39c2 053c 816f cf3d eb28 87bd 52b2 1abd
000002e0: 0018 f23d 2e27 c03d ebe9 01be 7ad4 873d
000002f0: ccdd 36bd 26b2 703d 5173 1f3d cd11 803d
00000300: dc9c 30be 51d2 75be 8014 263d 2952 043d
00000310: 1047 02be 8ea4 0bbe c8a4 63be bd98 85bd
00000320: 9781 5ebd 5825 2ebe af08 983d 2e4e 8dbe
00000330: d3e6 f7bd 9544 20be dc86 08be 9c31 bcbd
00000340: 3076 fabe 8cef 413d 0eda 93bd e701 cd3c
00000350: c847 97be f59a 983c 4235 85be 72b8 78be
00000360: d8a6 06be 6683 c9bd f918 09be 04ba 30be
00000370: 98da eebd d9d3 273e 392f 843a 874a 42be
00000380: 1154 50bd 8b1a c1be 11ba 7d3d a3f0 bcbd
00000390: 50cb 15be 2dcf 06be 88c1 54bd fa4d 60bc
000003a0: a57f 92bd 603c c33d 80b1 8e3d 8f64 a53c
000003b0: 1992 debc f418 4ebe c2a6 573d e27e 41bb
000003c0: fe5e 8ebd fe83 1cbe ce57 afbe 01c3 7fbc
000003d0: b928 98bb 6655 003d 3553 52be 5690 61bd
000003e0: 8699 96bd 05e3 8ebd 0f39 29be 6351 0bbe
000003f0: 488a 2fbe 38c7 5fbe 2d06 99bd eab2 b23d
-0.10504852 -0.008356598 -0.017370604 0.0043485872 -0.11500107 0.01837232 -0.1423812 0.12231573
-0.19163051 -0.15657635 0.025140198 -0.050994005 -0.020102134 0.07486265 -0.1787702 0.048891522
-0.1852034 0.017776087 -0.14874394 0.004142252 -0.06667215 -0.05563627 0.044784084 0.087643564
-0.060341366 -0.112036936 -0.1365817 -0.061935656 -0.09008015 0.09542222 -0.02360648 -0.21125464
-0.14303942 -0.056252263 0.020345232 -0.14834943 0.049253296 -0.09528385 -0.1431025 0.0036585347
-0.092246816 -0.03689648 -0.09346731 0.03275646 0.060058042 0.023890648 -0.028208774 0.08482037
0.068238825 0.021990854 -0.059824485 0.06635412 0.017035022 0.013059697 -0.028846493 0.13106114
-0.20085768 0.0637643 0.020256348 0.10586178 0.074787684 0.041946847 0.08201288 0.15772146
-0.08273012 -0.05920754 -0.0549275 -0.008469094 -0.061699145 -0.046005473 -0.091456816 -0.08495674
-0.07457937 -0.0022317835 -0.07769767 0.028485926 0.017333992 0.104396775 -0.13646093 -0.06084016
-0.026016751 -0.09711041 -0.06926895 0.0061998917 -0.028144095 -0.14811835 0.12325152 0.04904052
0.010528223 0.049849622 -0.04465882 0.004274773 -0.13259904 -0.08871826 -0.037149817 -0.016774481
-0.0426121 0.018195229 0.12760837 0.011888759 0.07505063 0.083815806 -0.045177102 0.014300831
-0.03684619 0.012981016 0.07805434 -0.015406514 0.15073735 0.09178524 0.11182263 0.02200008
0.058940984 0.15927039 -0.15666446 -0.050663486 0.024428563 -0.10112172 0.045430493 0.12649105
0.07604727 0.06655495 -0.07470028 0.07750343 0.06514847 -0.05842549 -0.042905975 0.1334419
0.017870514 -0.073171355 -0.009444766 0.10045043 -0.07966581 0.057629496 0.087181434 -0.095924646
0.021391565 0.0033232514 -0.12410423 -0.060811527 0.011210562 0.0042021177 0.04722987 -0.030662585
0.029422862 0.08696177 0.0011528649 0.05623322 0.0162697 0.06592357 0.07650246 0.13445231
-0.072121896 -0.02474209 0.01595587 -0.06473473 -0.043175846 0.00401993 -0.041523114 -0.08107028
-0.038164277 0.045179397 -0.04545813 -0.03942129 -0.03260328 0.02111722 -0.06926289 -0.026673453
-0.085444935 0.008815689 0.023108182 -0.023158351 0.08640403 0.064210795 -0.1151072 0.068087
-0.010925125 0.115519926 -0.06909282 0.09344499 0.008163982 0.101286896 -0.06599601 -0.037767716
0.11820984 0.09382473 -0.12686889 0.066323236 -0.044645116 0.058763646 0.038928334 0.06253395
-0.17247337 -0.2400601 0.040546894 0.032304917 -0.1272242 -0.13636991 -0.22230828 -0.06523273
-0.054322805 -0.17006433 0.07423531 -0.2759871 -0.12104573 -0.15651162 -0.13332695 -0.0918915
-0.48918295 0.04734759 -0.07219325 0.025025321 -0.29546952 0.018628577 -0.26017195 -0.2428911
-0.13149583 -0.098395154 -0.13388433 -0.1725846 -0.11662787 0.16389407 0.0010084874 -0.18973742
-0.050861422 -0.37715563 0.061945025 -0.09225585 -0.14628339 -0.13164969 -0.05194238 -0.013690466
-0.071532525 0.09533 0.06967449 0.020189552 -0.027169274 -0.20126706 0.052649267 -0.002952509
-0.06951712 -0.15284726 -0.34246677 -0.015610457 -0.0046435264 0.031331442 -0.20539553 -0.05506929
-0.07353501 -0.06976894 -0.16525672 -0.13605265 -0.17142594 -0.2185334 -0.07471881 0.087255314
