models/modello_lstm_20250507_0717_posttrained_20250712_1057_posttrained_20250713_1745.pth (torch, 82373 bytes, 6 tensors)

lstm.weight_ih_l0 f4 [256, 10]
0.6012171 0.42671654 0.66792285 0.5674793 0.13434085 0.21469043 -0.030475859 0.08480969
0.1103964 0.025659438 0.03930628 0.13217299 0.24027099 0.05287324 0.10109684 0.10600183
0.19380508 0.26682788 0.109842874 -0.08483934 -0.0048449696 0.22122645 0.20173754 0.085707664
-0.007412067 -0.017287467 0.14909719 0.15376791 0.033145517 0.156241 0.15102375 0.0751986
-0.007298813 0.060351156 0.101316236 -0.18661202 -0.070328444 -0.08322963 -0.14550398 0.025335569
0.41083652 -0.083381735 0.13656114 0.28417858 -0.049605537 0.26554498 0.31268036 0.304268
0.2133944 0.072586365 -0.0332128 0.15893301 0.29731542 0.23832355 0.0025151127 0.09141202
0.098234124 0.04223036 0.14436027 -0.030807612 0.324519 -0.37060806 0.21801506 -0.021118827
-0.1887709 0.41811225 -0.00489943 0.42903882 0.4905919 0.020098906 0.06965227 -0.014373759
0.022245515 -0.012169677 0.011956484 0.0077801077 0.052093264 0.07325273 0.122601464 0.07298297
0.11710003 0.09884347 0.2641021 0.079274654 -0.014231147 0.26227617 0.17377731 -0.021396775
0.17320582 0.17021996 -0.2440627 0.1902795 0.32437986 0.118859194 -0.059927788 0.058903877
-0.080555305 0.18423885 0.135629 0.095245995 0.027413983 -0.05353775 0.048872434 -0.0013830236
0.09953027 0.15410428 0.2545614 0.20727235 0.26991552 -0.02213777 -0.30174127 -0.37123516
-0.40172988 0.04182271 0.047931243 -0.022877553 -0.016076526 0.10406267 0.07594551 -0.13753471
0.418225 0.31273055 0.20836301 0.27126548 0.01504805 0.40447146 0.11587674 0.18058625
0.3251776 0.19023682 0.22996722 -0.0051776543 0.279198 -0.02165414 -0.16983108 -0.00042178793
0.23523742 0.3099721 0.24946527 0.06127993 0.1856319 0.24709259 0.17623372 0.057086498
0.088197924 0.13586566 0.13199022 -0.085175954 0.009255383 0.07711784 0.13729623 0.28735736
0.1717263 0.32261285 0.16059943 0.044062518 0.20643708 0.1603663 0.051288635 0.14150706
0.313 0.1951803 0.34758487 0.28710493 -0.008348882 0.057128247 0.027891267 0.32202637
0.108967386 0.09588869 0.10554288 0.12049674 0.38150573 0.26321718 0.0130633805 0.060621794
0.07460932 0.3205848 0.2189754 -0.06548903 0.15597706 0.27812767 -0.06424986 0.0075883046
0.21335842 0.17999208 -0.018263105 0.15744285 0.095117465 0.061553456 0.08831453 0.011411974
0.061111774 0.18488567 -0.059767883 -0.086802855 -0.16022623 -0.026094878 0.02350931 0.06529246
-0.018742362 0.03528767 0.11858843 0.17454465 0.07332525 0.30532086 0.051858813 0.2775891
0.31113997 0.11051636 -0.29288757 0.024252698 -0.12892963 0.074589305 0.104402006 -0.006358346
-0.03186339 0.019410634 0.022403164 0.08992547 0.09036943 0.19612962 0.2915178 0.2858172
-0.06981461 -0.0021137912 0.044573374 0.15514918 0.0950139 0.124219984 0.23096989 0.1610346
0.19269304 0.21158664 -0.051449914 0.07741956 0.04595843 0.16065198 0.11072596 -0.044567782
-0.054626115 0.1052514 0.28978157 0.1702883 0.07576363 0.27284822 0.12072302 0.21895815
0.18320945 -0.034460574 -0.29820135 -0.19658569 -0.30274582 -0.046850678 0.11776305 0.1567269
00000000: 5de9 193f 977a da3e fefc 2a3f 5346 113f
00000010: a690 093e cfd7 5b3e 82a8 f9bc b4b0 ad3d
00000020: 8217 e23d be33 d23c 9fff 203d 5b58 073e
00000030: 9909 763e 9c91 583d dc0b cf3d 7d17 d93d
00000040: d774 463e aa9d 883e 4df5 e03d 3fc0 adbd
00000050: 8dc2 9ebb 3089 623e 4994 4e3e 8087 af3d
00000060: ede0 f2bb 729e 8dbc efac 183e 5675 1d3e
00000070: 98c3 073d a4fd 1f3e f8a5 1a3e b901 9a3d
00000080: e22a efbb c632 773d e37e cf3d 3917 3fbe
00000090: 5c08 90bd 4c74 aabd fffe 14be 8a8c cf3c
000000a0: 2a59 d23e 0bc4 aabd afd6 0b3e db7f 913e
000000b0: 2d2f 4bbd 83f5 873e a417 a03e 04c9 9b3e
000000c0: 1084 5a3e 29a8 943d 250a 08bd 56bf 223e
000000d0: ba39 983e 170b 743e 97d4 243b 3a36 bb3d
000000e0: f92e c93d bef9 2c3d 2ed3 133e 3f60 fcbc
000000f0: 5b27 a63e 57c0 bdbe 573f 5f3e 6401 adbc
00000100: 294d 41be cf12 d63e 668b a0bb faaa db3e
00000110: dd2e fb3e 76a6 a43c d9a5 8e3d ea7f 6bbc
00000120: 3a3c b63c 5363 47bc 21e5 433c 46f0 fe3b
00000130: bf5f 553d 8705 963d 7a16 fb3d 1878 953d
00000140: 24d2 ef3d 726e ca3d 6438 873e c05a a23d
00000150: c229 69bc 1049 863e aef2 313e 4a48 afbc
00000160: de5c 313e 244e 2e3e 93eb 79be a1d8 423e
00000170: 1e15 a63e 736c f33d d776 75bd 3145 713d
00000180: 2efa a4bd 1ca9 3c3e 54e2 0a3e 5510 c33d
00000190: 4a93 e03c 664a 5bbd 762e 483d 9246 b5ba
000001a0: 87d6 cb3d 83cd 1d3e df55 823e 343f 543e
000001b0: 5e32 8a3e 455a b5bc d57d 9abe 8912 bebe
000001c0: 8aaf cdbe 4a4e 2b3d 8d53 443d b569 bbbc
000001d0: ebb2 83bc cf1e d53d 5289 9b3d e6d5 0cbe
000001e0: 9621 d63e 381e a03e 1d5d 553e 4fe3 8a3e
000001f0: 198c 763c e216 cf3e c950 ed3d 9aeb 383e
00000200: ae7d a63e 71cd 423e 877c 6b3e 50a9 a9bb
00000210: 0af3 8e3e 0664 b1bc 33e8 2dbe 6b23 ddb9
00000220: 14e2 703e aab4 9e3e d373 7f3e aa00 7b3d
00000230: 4a16 3e3e d705 7d3e 9d76 343e 88d3 693d
00000240: 1da1 b43d 5e20 0b3e 7228 073e bb70 aebd
00000250: e4a3 173c f5ef 9d3d 6297 0c3e 8120 933e
00000260: 05d9 2f3e 832d a53e 2d74 243e e67a 343d
00000270: 3e64 533e 1037 243e 0814 523d 3ae7 103e
00000280: 8941 a03e 58dd 473e a5f6 b13e 6bff 923e
00000290: c0c9 08bc 4fff 693d 3a7c e43c a4e0 a43e
000002a0: 4b2a df3d 4a61 c43d de26 d83d ffc6 f63d
000002b0: b854 c33e 67c4 863e ca07 563c 8f4e 783d
000002c0: c5cc 983d b123 a43e 163b 603e 1d1f 86bd
000002d0: 73b8 1f3e c066 8e3e 6e95 83bd 50a7 f83b
000002e0: a17a 5a3e d84f 383e 829c 95bc b338 213e
000002f0: f2cc c23d 7a1f 7c3d 40de b43d 4af9 3a3c
00000300: 5750 7a3d ab52 3d3e 2bcf 74bd b2c5 b1bd
00000310: 5812 24be edc4 d5bc 9996 c03c 0eb8 853d
00000320: 9589 99bc ce89 103d 7ede f23d d5bb 323e
00000330: 8c2b 963d 0453 9c3e e869 543d 2920 8e3e
00000340: bd4d 9f3e 6756 e23d 5cf5 95be 98ad c63c
00000350: 2106 04be 47c2 983d b8d0 d53d ac59 d0bb
00000360: 3083 02bd 0d03 9f3c d786 b73c d82a b83d
00000370: 9c13 b93d 34d6 483e d241 953e a256 923e
00000380: f6fa 8ebd 8887 0abb 9292 363d 6ddf 1e3e
00000390: a696 c23d 0c67 fe3d 5f83 6c3e 41e6 243e
000003a0: 5351 453e 2baa 583e 25bd 52bd 258e 9e3d
000003b0: e83e 3c3d f481 243e 4bc4 e23d b58c 36bd
000003c0: a2bf 5fbd 0c8e d73d 405e 943e 0e60 2e3e
000003d0: f629 9b3d c3b2 8b3e a13d f73d 9136 603e
000003e0: 429b 3b3e 8826 0dbd d9ad 98be c24d 49be
000003f0: 8001 9bbe 7fe6 3fbd c12d f13d 047d 203e

lstm.weight_hh_l0 f4 [256, 64]
0.41592032 -0.117411844 -0.23185186 -0.33638066 0.0035075075 0.13549753 0.2502899 -0.03337083
-0.12502633 0.17255513 0.4222901 0.12067963 -0.4017381 0.047840558 0.5717728 -0.068771146
-0.011329649 -0.08457348 -0.19157566 0.04444833 0.03190712 -0.11854918 0.043811824 0.024522409
0.014493588 -0.06034929 0.09456279 0.12122155 0.18527153 0.052231073 0.07371569 0.4040053
0.18747188 -0.11420762 0.062334716 0.22706199 -0.15832844 0.1234662 0.363866 0.12907203
0.43613976 -0.09040672 -0.085392445 0.09188022 0.2497186 -0.050915547 0.19671781 -0.09100704
0.4545229 -0.26410702 -0.11221385 -0.12711072 0.2537034 0.060858756 0.03087749 0.104779355
-0.38851297 0.14004828 0.16396624 -0.010561753 0.31585118 -0.035519697 0.03125967 -0.15868941
-0.09668649 -0.1444597 -0.04032497 -0.043506466 -0.0018842281 0.21065131 0.14327909 -0.044389654
-0.118626006 0.09980508 0.15334202 0.15693437 -0.022086473 -0.03849402 0.019656474 -0.17014271
-0.11667568 -0.05304087 -0.26273158 -0.0069601014 0.11769655 -0.16867128 -0.20008789 0.10569349
0.22579649 -0.08649928 0.09458352 0.112825505 0.061087947 -0.08554266 0.19512257 0.07762528
-0.0720306 -0.15780288 -0.15201543 0.041416947 -0.036929194 0.18636571 0.10281769 -0.07807809
0.25823078 0.014524226 0.017115187 -0.03509193 0.21556164 -0.06853461 0.044126153 -0.14239085
-0.00825994 0.1509619 0.06594944 0.052170295 0.2245101 -0.109476686 0.0929167 -0.08341964
0.092012756 0.061130315 0.022872753 -0.02324981 0.088084996 -0.025910124 -0.09416964 -0.036645632
0.025100702 0.038838193 -0.061794035 0.09989156 0.058750417 -0.08370291 -0.04589197 0.09193739
-0.028653774 0.0037144346 -0.099752866 -0.13485333 0.0792501 0.05784847 0.11310097 0.04222236
-0.06002151 0.019414475 0.19279212 0.0036085332 -0.04225516 -0.046346866 0.09762439 -0.06667946
0.04057094 -0.03684558 0.024875844 0.034871 0.041773286 0.10063224 0.110765755 -0.07679548
0.082700334 0.06259781 0.0861098 -0.005759362 -0.109552294 0.11965787 -0.15449785 0.0050311247
-0.06245203 0.11494901 -0.14115506 0.053254865 -0.024244273 -0.02737518 -0.20280536 -0.07568676
0.026921967 -0.01837198 0.099410236 -0.08056922 0.046160784 0.028324945 0.045519654 -0.007401738
0.03069136 -0.06684481 -0.13060702 0.09690125 -0.05571074 -0.0038400085 0.0016549146 0.092449784
0.24968645 0.123954594 -0.007318522 0.03564908 -0.03522482 -0.07413091 0.29175907 0.008965
0.09347202 -0.081416756 -0.10170827 0.08045116 0.069627024 0.15868399 -0.12145515 -0.03850774
0.031081175 -0.05196078 -0.09549945 -0.0834715 -0.07328773 -0.13893625 -0.010742384 0.005129516
0.020027418 0.16404676 0.14432594 -0.045187052 -0.12939897 -0.013726366 -0.15686105 0.09800544
0.059351988 0.14255054 0.03846293 0.0012195335 0.17150776 -0.03752996 -0.09053293 0.049320728
-0.038264364 0.10473541 0.06665771 0.037866782 -0.15258525 0.0222327 0.08022596 -0.115393616
0.072866485 0.060044974 -0.015545587 -0.18980835 0.09354032 0.12424509 -0.1559305 0.02794516
0.069313936 -0.17924747 -0.11739122 -0.10245626 -0.09899264 -0.105660096 0.20495878 -0.004153086
00000000: 82f3 d43e 9f75 f0bd 936a 6dbe 163a acbe
00000010: 36de 653b ddbf 0a3e ff25 803e daaf 08bd
00000020: e706 00be 4bb2 303e 6836 d83e e226 f73d
00000030: 9eb0 cdbe 76f4 433d b45f 123f e3d7 8cbd
00000040: fe9f 39bc dc34 adbd 692c 44be 740f 363d
00000050: 0ab1 023d eac9 f2bd 0774 333d 38e3 c83c
00000060: 8476 6d3c d130 77bd 23aa c13d 0143 f83d
00000070: d2b7 3d3e 40f0 553d 40f8 963d c8d9 ce3e
00000080: a1f8 3f3e afe5 e9bd b052 7f3d f082 683e
00000090: da20 22be d9db fc3d a54c ba3e 752b 043e
000000a0: b64d df3e 2927 b9bd 3ce2 aebd b22b bc3d
000000b0: 3cb6 7f3e d28c 50bd 6570 493e e661 babd
000000c0: 3ab7 e83e 0939 87be 60d0 e5bd 5029 02be
000000d0: 69e5 813e 0847 793d caf2 fc3c 8f96 d63d
000000e0: 2ceb c6be d168 0f3e c4e6 273e 340b 2dbc
000000f0: 3fb7 a13e 1a7d 11bd 240a 003d 7a7f 22be
00000100: 9103 c6bd 3eed 13be cc2b 25bd d633 32bd
00000110: 34f8 f6ba fab4 573e c1b7 123e edd1 35bd
00000120: 31f2 f2bd 9b66 cc3d b105 1d3e 67b3 203e
00000130: b1ee b4bc e8ab 1dbd 9d06 a13c e439 2ebe
00000140: a9f3 eebd 6241 59bd c184 86be 9011 e4bb
00000150: e40a f13d 2ab8 2cbe d7e3 4cbe d475 d83d
00000160: 3237 673e 8926 b1bd 01b5 c13d 0f11 e73d
00000170: 5b37 7a3d fd30 afbd 36ce 473e 01fa 9e3d
00000180: c784 93bd 1497 21be efa9 1bbe d1a4 293d
00000190: 1143 17bd a7d6 3e3e 1592 d23d 68e7 9fbd
000001a0: d336 843e 05f7 6d3c 2635 8c3c 8ebc 0fbd
000001b0: 31bc 5c3e e05b 8cbd a0bd 343d e8ce 11be
000001c0: b354 07bc c295 1a3e 8010 873d 85b0 553d
000001d0: fae5 653e 5035 e0bd 1c4b be3d ebd7 aabd
000001e0: 2f71 bc3d c863 7a3d a45f bb3c 6376 bebc
000001f0: e865 b43d 7841 d4bc 03dc c0bd bb19 16bd
00000200: fd9f cd3c cc14 1f3d be1b 7dbd f293 cc3d
00000210: 47a4 703d 6e6c abbd 38f9 3bbd ac49 bc3d
00000220: 52bb eabc df6d 733b 3b4b ccbd fe16 0abe
00000230: e04d a23d 84f2 6c3d 7ba1 e73d 5af1 2c3d
00000240: 1dd9 75bd 1b0b 9f3c 4c6b 453e 247d 6c3b
00000250: bf13 2dbd 36d6 3dbd 4cef c73d 3e8f 88bd
00000260: b72d 263d 64eb 16bd 6dc8 cb3c e5d4 0e3d
00000270: 771a 2b3d 4718 ce3d 28d9 e23d f346 9dbd
00000280: cb5e a93d 4833 803d 565a b03d 08b9 bcbb
00000290: f45c e0bd 2f0f f53d af34 1ebe 22dc a43b
000002a0: b3cd 7fbd 636a eb3d f48a 10be c621 5a3d
000002b0: ed9b c6bc ea41 e0bc 35ac 4fbe a901 9bbd
000002c0: 758b dc3c d680 96bc 9897 cb3d 7a01 a5bd
000002d0: 1713 3d3d b709 e83c d172 3a3d 478a f2bb
000002e0: 726c fb3c efe5 88bd d9bd 05be 2a74 c63d
000002f0: f230 64bd a7a8 7bbb b8e9 d83a 5056 bd3d
00000300: cead 7f3e e8db fd3d 36d0 efbb c504 123d
00000310: e747 10bd f2d1 97bd 7261 953e efe1 123c
00000320: 426e bf3d d4bd a6bd 6d4c d0bd 94c3 a43d
00000330: 9d98 8e3d 0e7e 223e 7abd f8bd 4bba 1dbd
00000340: f39d fe3c d4d4 54bd 3795 c3bd 1bf3 aabd
00000350: e117 96bd 4e45 0ebe d300 30bc 8015 a83b
00000360: 8a10 a43c e0fb 273e 2eca 133e 0f16 39bd
00000370: 2a81 04be 8de4 60bc 2fa0 20be 13b7 c83d
00000380: 121b 733d c5f8 113e 4e8b 1d3d c1d8 9f3a
00000390: bb9f 2f3e 04b9 19bd 5469 b9bd 8804 4a3d
000003a0: 18bb 1cbd 857f d63d d683 883d 331a 1b3d
000003b0: 4f3f 1cbe 5a21 b63c 824d a43d 7d53 ecbd
000003c0: 063b 953d b8f1 753d ebb2 7ebc 1f5d 42be
000003d0: 1192 bf3d 3674 fe3d 3fac 1fbe 40ed e43c
000003e0: 77f4 8d3d a68c 37be cf6a f0bd 96d4 d1bd
000003f0: a7bc cabd 5264 d8bd b7e0 513e 9c16 88bb

lstm.bias_ih_l0 f4 [256]
0.0045477697 -0.05739955 0.16663979 0.029708711 -0.017531784 -0.036213286 0.021305075 -0.025557632
0.07968185 -0.09776887 -0.14193173 0.0034964862 0.06039944 0.013747697 0.022981951 0.0027819392
-0.16310368 -0.17046109 0.12237551 -0.10625322 0.0091395145 0.10671998 -0.021069176 -0.036740668
-0.008634395 0.13763122 0.023127468 0.028450862 -0.06595236 0.051705986 0.16317311 -0.09779997
-0.108133875 -0.057004277 0.011873496 -0.057902683 0.0498768 -0.12002858 -0.106334925 0.0017335076
-0.13405947 0.0191819 -0.024607576 -0.15988426 0.041129556 -0.111100785 0.17086507 0.13314563
0.119451515 -0.021113565 -0.12528081 0.0035627862 -0.0142761115 -0.0372808 -0.049089048 -0.028590111
-0.053752396 -0.06631928 -0.027815985 0.052326087 -0.14596392 0.03514833 0.053798668 -0.014171133
0.007753757 0.069635615 -0.012232408 -0.095297724 -0.051508915 -0.14302555 0.19142793 -0.1276517
-0.09998581 -0.088607885 -0.06945949 -0.057441402 -0.08444913 -0.014007087 0.2184571 -0.013462255
-0.10151381 -0.13906394 0.11874602 -0.21600221 -0.109904155 -0.11652423 -0.05764115 -0.10561242
-0.05798484 -0.077255696 0.10537596 0.11234162 -0.026070584 0.0059930272 0.06875747 -0.15986645
-0.06392763 -0.05646631 0.016634688 -0.08409148 0.08985099 0.0024924716 -0.1721133 -0.029233431
-0.095728986 -0.106798746 -0.0012379667 -0.07575918 -0.06574623 -0.06454968 0.14149156 -0.086615466
0.08504117 0.016316455 0.013006908 -0.02265286 -0.033384275 0.0033476772 0.11132635 -0.07647245
0.048832435 0.046186574 -0.12057882 6.0139264e-05 -0.006975355 0.07854056 -0.10195615 -0.09831362
0.09195405 0.10593053 0.016464299 0.03924805 0.03567961 0.03769616 -0.13349995 0.053967677
-0.07918331 -0.122668356 -0.08658066 -0.076089546 0.03277037 -0.028095441 -0.009642038 -0.10513446
-0.0036808155 0.05537457 -0.07835834 -0.04726578 -0.11086642 -0.04140507 -0.044617746 0.03173391
0.019266566 0.09105288 -0.088953845 -0.081210755 0.041406773 0.067925535 -0.1180687 -0.038373537
-0.11167046 0.10480686 -0.08448433 -0.019859029 -0.027859287 0.08885318 0.02529928 -0.079877175
-0.039855786 -0.03233729 -0.09381127 0.041021045 -0.082983546 0.04247201 -0.09911318 -0.055796403
-0.04203361 -0.07151137 -0.06387416 0.01067514 -0.13066365 -0.03223253 -0.11642794 -0.046886787
-0.07660571 -0.039890945 0.039700426 0.10282651 -0.033655785 0.06463911 -0.08767273 0.017110817
0.02659038 -0.11397783 -0.05783178 -0.026478067 -0.06610834 -0.07899328 0.08116293 0.06852094
-0.13163452 -0.099314526 -0.16454712 -0.12665161 -0.034105875 -0.10530488 0.18914594 0.039517406
-0.15645859 -0.08637177 0.04174069 -0.07333025 -0.13471858 -0.0021577396 -0.081857316 -0.050207797
-0.051775612 0.058834363 0.12821698 0.08548081 0.0812721 -0.079637274 -0.06938526 0.050917502
0.009445259 -0.032269184 0.10693901 -0.022131225 0.022950178 -0.097882725 -0.20922285 -0.046695706
-0.091873765 0.06607804 0.056363065 -0.055557694 0.076146506 0.006250778 0.09970918 -0.043004654
-0.015903974 -0.120983034 -0.056633845 -0.050403584 0.00097209954 0.0020837414 -0.063913606 0.08221485
-0.08661078 0.13838476 0.0019434529 0.072696775 -0.18920127 -0.021546016 -0.06737519 0.0683242
00000000: 7505 953b ca1b 6bbd 9fa3 2a3e af5f f33c
00000010: d19e 8fbc 6254 14bd fb87 ae3c 3d5e d1bc
00000020: 3d30 a33d 0c3b c8bd 8d56 11be 4e25 653b
00000030: 6765 773d 053e 613c a544 bc3c 3251 363b
00000040: a704 27be 5a8d 2ebe 03a0 fa3d 4a9b d9bd
00000050: e7bd 153c 0190 da3d 4499 acbc 627d 16bd
00000060: 4777 0dbc 33ef 0c3e d175 bd3c c811 e93c
00000070: 0812 87bd a8c9 533d da16 273e 5a4b c8bd
00000080: 4b75 ddbd 517d 69bd 0d89 423c 5d2b 6dbd
00000090: 9e4b 4c3d 8bd1 f5bd 20c6 d9bd dd36 e33a
000000a0: e346 09be 5c23 9d3c d495 c9bc b3b8 23be
000000b0: 7777 283d cf88 e3bd 41f7 2e3e 5457 083e
000000c0: ffa2 f43d 5bf6 acbc 9d49 00be a27d 693b
000000d0: 5ae6 69bc c1b3 18bd 9911 49bd cf35 eabc
000000e0: 792b 5cbd 67d2 87bd 59de e3bc e153 563d
000000f0: 9177 15be b2f7 0f3d fe5b 5c3d 0a2e 68bc
00000100: 3a13 fe3b 1e9d 8e3d 706a 48bc 742b c3bd
00000110: 03fb 52bd 4a75 12be af05 443e 21b7 02be
00000120: 5cc5 ccbd 0d78 b5bd c740 8ebd ad47 6bbd
00000130: aaf3 acbd fb7d 65bc 38b3 5f3e ca90 5cbc
00000140: 79e6 cfbd c766 0ebe 1d31 f33d af2f 5dbe
00000150: 6e15 e1bd 41a4 eebd 2019 6cbd 534b d8bd
00000160: 8381 6dbd 3c38 9ebd 5acf d73d 5d13 e63d
00000170: fa91 d5bc 2861 c43b b7d0 8c3d 08b4 23be
00000180: 7dec 82bd 3849 67bd 7845 883c 2738 acbd
00000190: cc03 b83d bc58 233b 783e 30be f37a efbc
000001a0: 8f0d c4bd 4db9 dabd 4543 a2ba a127 9bbd
000001b0: f6a5 86bd 9f32 84bd 2ae3 103e 7363 b1bd
000001c0: 112a ae3d 16aa 853c ed1a 553c 7e92 b9bc
000001d0: f3bd 08bd b464 5b3b 12ff e33d 969d 9cbd
000001e0: 8504 483d 222e 3d3d 07f2 f6bd 0b3e 7c38
000001f0: 8591 e4bb e0d9 a03d 63ce d0bd a758 c9bd
00000200: 6852 bc3d 1bf2 d83d 23e0 863c 90c2 203d
00000210: c824 123d 4a67 1a3d 36b4 08be 360d 5d3d
00000220: dc2a a2bd 8c39 fbbd 3351 b1bd d6d4 9bbd
00000230: 393a 063d 6928 e6bc a3f9 1dbc bc50 d7bd
00000240: d639 71bb 72d0 623d 567a a0bd c399 41bd
00000250: ef0d e3bd 5d98 29bd 19c1 36bd 6bfb 013d
00000260: ebd4 9d3c ef79 ba3d 6f2d b6bd d351 a6bd
00000270: 269a 293d 8b1c 8b3d 01ce f1bd 922d 1dbd
00000280: 7bb3 e4bd fba4 d63d 1f06 adbd 67af a2bc
00000290: 2939 e4bc a8f8 b53d 7040 cf3c a596 a3bd
000002a0: d23f 23bd 1b74 04bd 2020 c0bd af05 283d
000002b0: 47f3 a9bd 21f7 2d3d dafb cabd c58a 64bd
000002c0: 6f2b 2cbd 8e74 92bd 75d0 82bd c8e6 2e3c
000002d0: b1cc 05be 4206 04bd c671 eebd 5c0c 40bd
000002e0: 74e3 9cbd b064 23bd ea9c 223d b596 d23d
000002f0: a6da 09bd 8261 843d c38d b3bd fc2b 8c3c
00000300: 12d4 d93c 356d e9bd 04e1 6cbd 88e8 d8bc
00000310: cf63 87bd 3bc7 a1bd c038 a63d b554 8c3d
00000320: 33cb 06be 6a65 cbbd 0a7f 28be f6b0 01be
00000330: 9ab2 0bbd 16aa d7bd 79af 413e 01dd 213d
00000340: ae36 20be afe3 b0bd 49f8 2a3d 2c2e 96bd
00000350: abf3 09be dd68 0dbb cfa4 a7bd b1a6 4dbd
00000360: aa12 54bd 4dfc 703d 504b 033e 9010 af3d
00000370: fd71 a63d de18 a3bd dc19 8ebd df8e 503d
00000380: 4ac0 1a3c b12c 04bd d702 db3d 8b4c b5bc
00000390: 0302 bc3c bd76 c8bd 843e 56be ff43 3fbd
000003a0: 5028 bcbd ec53 873d f5dc 663d 7790 63bd
000003b0: b3f2 9b3d 54d3 cc3b 5434 cc3d a625 30bd
000003c0: 0d49 82bc f4c5 f7bd e4f8 67bd fd73 4ebd
000003d0: 7fd4 7e3a 618f 083b 23e5 82bd 4260 a83d
000003e0: fe60 b1bd bcb4 0d3e 75bb fe3a 0ce2 943d
000003f0: fabd 41be 4581 b0bc 01fc 89bd 8fed 8b3d

lstm.bias_hh_l0 f4 [256]
-0.027322479 0.052788872 -0.017141324 -0.021089448 -0.18957731 0.0056967125 0.055376906 0.038879517
-0.058155324 -0.037831966 0.05460474 -0.021249948 0.08379741 0.022429183 0.25066853 -0.08115086
-0.02621471 -0.018998144 0.08731736 -0.07208053 -0.037985265 -0.10203862 0.06689599 -0.057699695
-0.08502158 0.07238048 0.016852545 -0.01866304 -0.0147704985 0.0020407012 0.049545698 0.08961154
-0.023802359 0.10161618 -0.050197963 -0.033694107 0.06329977 -0.10637071 -0.09917669 -0.09760095
0.06390258 -0.0571331 -0.11225601 -0.06398595 -0.003558429 0.05662188 0.1557957 0.12523255
0.01032137 0.022442294 -0.02202157 0.11898495 -0.028384645 0.07625849 0.10195253 0.10782381
0.054941487 -0.07634133 -0.13349807 -0.030484488 -0.12045764 0.08688301 0.13259569 -0.17784622
0.03355899 -0.020760715 -0.15753193 -0.1616173 -0.12092564 0.0032950293 0.085653566 0.05430595
-0.038433313 0.074357875 -0.060432572 0.0721584 -0.15779518 0.051442195 0.20702818 -0.16249542
-0.113347165 0.019805824 0.086384 0.009799693 0.036334075 -0.039108664 -0.080801114 0.03259674
-0.004291098 0.108819485 0.17044073 -0.12519236 0.06412951 -0.061480705 -0.012605575 -0.09986047
-0.14326502 -0.014910165 0.036875445 0.06684952 -0.10249908 0.0057133706 -0.031281956 -0.090461716
0.013037444 -0.10594617 -0.08996439 -0.03399142 -0.03342183 -0.01898411 0.025777323 -0.050382663
0.15698242 -0.13981949 -0.02093379 0.15615486 -0.003486726 -0.019930076 0.0046325284 -0.042786673
-0.06470129 0.064994276 0.009255789 -0.10312915 -0.15771002 -0.0047936877 0.10650464 -0.05468129
-0.073256224 -0.043199178 -0.042597435 0.08051228 -0.043727465 -0.09922458 0.01776734 0.053769603
0.010059925 0.04920839 0.026803516 -0.073012576 -0.026477521 -0.0006433551 0.02143173 -0.07233554
-0.016847238 0.093518905 0.121394224 0.060841892 0.036123756 0.05853591 -0.035927948 0.03552499
-0.039036617 -0.03350377 0.096695654 0.115100764 0.040813632 0.028681241 -0.006842607 -0.050535977
-0.016552636 -0.07649993 0.047739133 -0.022063475 0.093266904 0.03386589 -0.050275367 -0.0060791746
-0.043415524 -0.020805677 0.03715824 0.036643982 0.055015914 -0.079223745 0.086413264 0.08122114
0.11595604 -0.039125677 -0.0069316835 0.11947928 0.06383816 -0.023536267 0.039644334 -0.06656066
-0.056245673 0.09608019 0.07584183 -0.11547119 -0.09399209 0.027172286 0.120764695 0.05060529
-0.14694262 0.02882739 0.02787379 -0.13634017 0.06351962 0.09345114 -0.07523548 0.07765939
-0.14187948 0.05337603 0.022746503 -0.085029155 -0.24467017 -0.005116549 0.23714137 -0.014553725
-0.075026214 -0.102931194 0.15062323 -0.006231701 -0.058686968 -0.10696049 -0.040058527 -0.10097795
-0.104283534 0.087583415 -0.037229985 0.039027438 -0.005370581 0.057910096 -0.060949333 0.05976194
-0.111814365 0.003218946 0.09706684 0.15287481 -0.028526438 -0.089872636 -0.14315058 0.013399286
-0.04915706 0.125033 -0.16520184 0.043872185 0.09335634 0.040635068 0.034114275 -0.0027018061
0.06465378 -0.080760084 -0.07623318 -0.0018817206 0.10517198 0.07693801 0.026693024 0.05885454
0.13222186 -0.0069046747 -0.0921672 -0.11358929 0.01052978 -0.041481156 0.12836312 -0.030949114
00000000: 64d3 dfbc 2539 583d f66b 8cbc c7c3 acbc
00000010: 8e20 42be 7dab ba3b e5d2 623d 2140 1f3d
00000020: 4734 6ebd b1f5 1abd 38a9 5f3d 5f14 aebc
00000030: fa9d ab3d 68bd b73c a057 803e 6c32 a6bd
00000040: 3bc0 d6bc ffa1 9bbc 72d3 b23d f59e 93bd
00000050: 7096 1bbd a0f9 d0bd c400 893d 8456 6cbd
00000060: cb1f aebd 383c 943d 590e 8a3c 3be3 98bc
00000070: f6ff 71bc 49bd 053b 6ef0 4a3d 4186 b73d
00000080: 2afd c2bc 251c d03d 619c 4dbd d502 0abd
00000090: 4fa3 813d e3d8 d9bd 261d cbbd 02e3 c7bd
000000a0: 5bdf 823d 6604 6abd 7be6 e5bd 110b 83bd
000000b0: 8834 69bb 58ec 673d e888 1f3e f63c 003e
000000c0: f71a 293c e7d8 b73c 9466 b4bc 62ae f33d
000000d0: ea86 e8bc 692d 9c3d 7dcc d03d bbd2 dc3d
000000e0: 530a 613d d858 9cbd b8b3 08be 9bba f9bc
000000f0: 7fb2 f6bd b8ef b13d 2ac7 073e 521d 36be
00000100: 2775 093d 6012 aabc 0d50 21be 017f 25be
00000110: dda7 f7bd 6bf1 573b 236b af3d ea6f 5e3d
00000120: 406c 1dbd f148 983d 2588 77bd c9c7 933d
00000130: 0f95 21be 0db5 523d 32ff 533e 3365 26be
00000140: 8f22 e8bd d33f a23c 18ea b03d e48e 203c
00000150: 0ad3 143d 6830 20bd 0e7b a5bd 2984 053d
00000160: 579c 8cbb c0dc de3d 0488 2e3e 6d32 00be
00000170: 5556 833d 31d3 7bbd 9d87 4ebc a583 ccbd
00000180: 11b4 12be c449 74bc b50a 173d 67e8 883d
00000190: 0aeb d1bd 3a37 bb3b 8221 00bd fe43 b9bd
000001a0: 019b 553c 4efa d8bd 403f b8bd 963a 0bbd
000001b0: 54e5 08bd 9084 9bbc f72a d33c 0d5e 4ebd
000001c0: 00c0 203e d72c 0fbe 577d abbc 0fe7 1f3e
000001d0: 8e81 64bb 6644 a3bc 77cc 973b 1441 2fbd
000001e0: 1c82 84bd b81b 853d 98a5 173c 6035 d3bd
000001f0: bc7e 21be 5e14 9dbb 1b1f da3d 7df9 5fbd
00000200: 5c07 96bd 9ff1 30bd a67a 2ebd 9fe3 a43d
00000210: 921b 33bd 4236 cbbd d08c 913c 843d 5c3d
00000220: 62d2 243c bd8e 493d 0c93 db3c 9e87 95bd
00000230: 63e7 d8bc d4a6 28ba 9891 af3c a824 94bd
00000240: 3803 8abc d786 bf3d 899d f83d 5935 793d
00000250: 81f6 133d 5ac3 6f3d 2f29 13bd a782 113d
00000260: dce4 1fbd 403b 09bd 5f08 c63d f3b9 eb3d
00000270: 322c 273d ecf4 ea3c f337 e0bb d0fe 4ebd
00000280: 6599 87bc ffab 9cbd 1c8a 433d 76be b4bc
00000290: b802 bf3d f6b6 0a3d 8bed 4dbd d033 c7bb
000002a0: 7ad4 31bd ab70 aabc 3d33 183d 0018 163d
000002b0: 5e58 613d 0f40 a2bd 70f9 b03d 4557 a63d
000002c0: 5c7a ed3d 3f42 20bd 2d23 e3bb 8eb1 f43d
000002d0: 95bd 823d 21cf c0bc 1962 223d f550 88bd
000002e0: dd61 66bd b1c5 c43d f652 9b3d 297c ecbd
000002f0: ed7e c0bd 6a98 de3c 7b53 f73d 7e47 4f3d
00000300: 2078 16be 6b27 ec3c 9357 e43c c29c 0bbe
00000310: 9316 823d 5063 bf3d 0f15 9abd e30b 9f3d
00000320: db48 11be d3a0 5a3d e056 ba3c c423 aebd
00000330: d18a 7abe b9a8 a7bb 30d5 723e bf72 6ebc
00000340: 58a7 99bd 97cd d2bd fa3c 1a3e 4c33 ccbb
00000350: bf61 70bd 1a0e dbbd 6914 24bd 87cd cebd
00000360: 9b92 d5bd ef5e b33d 787e 18bd 3cdb 1f3d
00000370: b3fb afbb 2333 6d3d 02a6 79bd f0c8 743d
00000380: eefe e4bd f4f4 523b fbca c63d 378b 1c3e
00000390: 47b0 e9bc 250f b8bd 1196 12be ae88 5b3c
000003a0: ea58 49bd a708 003e ac2a 29be 52b3 333d
000003b0: 9c31 bf3d f570 263d 69bb 0b3d c910 31bb
000003c0: 3369 843d 8b65 a5bd 2420 9cbd 11a4 f6ba
000003d0: 6864 d73d ad91 9d3d 54ab da3c 7511 713d
000003e0: 2b65 073e 9c40 e2bb 28c2 bcbd 80a1 e8bd
000003f0: 1985 2c3c 25e8 29bd 9f71 033e ff88 fdbc

fc.weight f4 [6, 64]
-0.10689084 -0.045508675 -0.072647646 -0.10218565 -0.07423929 0.19112071 -0.07003122 0.079484954
0.05086765 0.07179808 -0.08064564 0.026176505 0.16668342 -0.1396428 0.19751023 0.07543494
0.04045734 -0.074036136 -0.17167729 -0.13024715 0.055665288 -0.08536522 0.014344167 0.008858197
0.095444895 -0.16328155 -0.032251947 0.17563906 0.14063054 -0.1281146 0.018877702 -0.06640412
-0.035110053 -0.051852904 -0.13727818 0.1329807 -0.06915839 0.02462449 -0.055148777 -0.09829219
0.07074112 -0.05552609 0.06416931 -0.09460857 0.20931435 -0.09740464 0.14510964 0.09845548
0.05357754 0.093197346 0.15779492 0.0041628396 0.07013211 0.034192402 0.08312495 0.087452345
0.17608921 -0.073135026 -0.10803157 0.035693154 0.1574962 -0.0075414237 -0.04623444 0.021209283
-0.108117975 -0.083082594 -0.15775818 -0.06315456 -0.0705587 0.09548606 0.04250693 0.10484809
0.10372717 0.05942324 -0.028014068 0.03816657 0.10182292 -0.069039285 0.08793106 -0.08909807
-0.0144311525 -0.12487548 -0.20934525 0.021092607 0.123256095 -0.22840278 -0.14699653 0.11489878
0.054916088 -0.10822137 -0.008509566 0.054086562 0.034677092 -0.07093867 0.10238663 0.0050776405
0.021762835 -0.07822139 -0.081602685 0.041182216 -0.07938192 0.00011344212 0.0062199295 0.11869653
0.11469596 -0.01751893 -0.08460692 -0.031039458 0.1381008 -0.106119454 0.18087162 0.095251955
0.010766047 0.16911677 0.035590585 -0.09295948 -0.032904685 0.016800947 0.11781566 0.17085837
0.18220998 -0.058205128 -0.0035490396 0.09993008 -0.06411673 -0.1567946 -0.07441894 -0.013943022
0.003300793 0.042894024 -0.18005511 -0.108471386 -0.12071165 0.011259 0.1586803 0.018729428
-0.08693178 0.034760434 -0.005415324 0.100217275 -0.07089627 -0.08597269 0.050578367 -0.15070312
-0.022541977 -0.09961288 -0.13686794 0.04739485 0.03907288 -0.11377995 -0.18843408 0.009227443
0.16122219 -0.20337722 -0.13628206 0.007461881 0.21490078 -0.17007655 0.04076421 -0.094977066
0.0866121 -0.021186199 -0.11516142 0.16257745 0.024530422 0.07110494 0.08651634 -0.046550445
-0.035190355 -0.13203405 -0.07535273 -0.0050210147 0.04184489 0.06452142 0.10471237 0.073931925
-0.037025947 0.08111271 -0.036891513 -0.012259615 -0.081897505 -0.07046668 0.09313121 -0.03139114
0.069357574 -0.14343186 -0.07652019 0.0007426296 0.13096319 0.008652277 -0.12972818 -0.0886818
0.00016869922 -0.05197674 -0.07764574 -0.107098706 -0.043402135 0.02834238 0.079295084 0.09598624
-0.028766435 -0.018599698 0.0015928996 0.0864302 -0.16360249 -0.07434417 0.0918713 0.025401387
-0.018171096 -0.015739972 -0.020894753 -0.049098782 0.16540493 -0.052485347 -0.093871854 0.06876573
0.18160422 -0.15853727 -0.13713852 0.16088662 0.059909478 -0.16274005 0.024190407 0.07245774
-0.13351095 -0.043693136 -0.027255472 -0.059472546 -0.15855506 0.09477843 -0.010096502 -0.09534329
0.10271345 -0.18609935 -0.035441842 0.037875745 0.12682341 -0.09915291 0.19831271 0.11021446
0.09643613 0.14019458 0.0501568 0.0007391145 -0.1556401 -0.058556575 0.04224869 0.07525538
-0.05624656 -0.07365073 -0.020776132 0.14440261 0.062670454 -0.055360757 -0.06270378 -0.08796872
00000000: 96e9 dabd 4e67 3abd 4ac8 94bd b646 d1bd
00000010: c50a 98bd 26b5 433e 876c 8fbd 02c9 a23d
00000020: 995a 503d df0a 933d 8b29 a5bd 1c70 d63c
00000030: 0faf 2a3e 86fe 0ebe 1f40 4a3e a27d 9a3d
00000040: 99b6 253d 42a0 97bd 2ccc 2fbe 825f 05be
00000050: 4901 643d f6d3 aebd cc03 6b3c f921 113c
00000060: 9d78 c33d 4733 27be 9e1a 04bd bada 333e
00000070: 7401 103e 7930 03be 69a5 9a3c e2fe 87bd
00000080: 8fcf 0fbd b663 54bd a792 0cbe 182c 083e
00000090: eaa2 8dbd 4cb9 c93c afe3 61bd 6a4d c9bd
000000a0: b8e0 903d 536f 63bd 336b 833d 23c2 c1bd
000000b0: 8056 563e 157c c7bd 9f97 143e 07a3 c93d
000000c0: 1f74 5b3d 40de be3d fe94 213e 6e68 883b
000000d0: 6ca1 8f3d 550d 0c3d 6a3d aa3d 371a b33d
000000e0: bb50 343e d1c7 95bd a83f ddbd fc32 123d
000000f0: af46 213e 0c1e f7bb 5360 3dbd 17bf ad3c
00000100: f56c ddbd 3527 aabd 5c8b 21be 2e57 81bd
00000110: 1481 90bd 328e c33d bf1b 2e3d 98ba d63d
00000120: e96e d43d c965 733d c27d e5bc 8d54 1c3d
00000130: 8988 d03d 7864 8dbd 3315 b43d 0d79 b6bd
00000140: a470 6cbc b7be ffbd 9a5e 56be 67ca ac3c
00000150: b16d fc3d 6be2 69be 4286 16be 0d50 eb3d
00000160: b1ef 603d 2aa3 ddbd b56b 0bbc df89 5d3d
00000170: 9109 0e3d 4b48 91bd 15b0 d13d 5662 a63b
00000180: f947 b23c 8932 a0bd 4f1f a7bd afae 283d
00000190: fd92 a2bd c6e7 ed38 8dd0 cb3b 2b17 f33d
000001a0: b7e5 ea3d dc83 8fbc 6546 adbd 7646 febc
000001b0: 4c6a 0d3e 2855 d9bd 6936 393e 7513 c33d
000001c0: 1364 303c f22c 2d3e 6fc7 113d 8a61 bebd
000001d0: 10c7 06bd 24a2 893c 5649 f13d 7ff5 2e3e
000001e0: 4195 3a3e 8068 6ebd 0197 68bb 24a8 cc3d
000001f0: a24f 83bd c38e 20be f568 98bd 4671 64bc
00000200: 1e52 583b a5b1 2f3d 5e60 38be 3f26 debd
00000210: ab37 f7bd ab77 383c 177d 223e 756e 993c
00000220: 4a09 b2bd f560 0e3d 0873 b1bb b73e cd3d
00000230: 1032 91bd 7312 b0bd 432b 4f3d eb51 1abe
00000240: f4a9 b8bc d601 ccbd 1c27 0cbe 1a21 423d
00000250: e20a 203d 7605 e9bd ddf4 40be b32e 173c
00000260: 6e17 253e 1e42 50be 868d 0bbe cb82 f43b
00000270: f30e 5c3e 8c28 2ebe 5ff8 263d 5683 c2bd
00000280: af61 b13d ae8e adbc c0d9 ebbd b47a 263e
00000290: 06f4 c83c 779f 913d 7b2f b13d aeab 3ebd
000002a0: c323 10bd ef33 07be 8852 9abd 5387 a4bb
000002b0: 8c65 2b3d ce23 843d 7073 d63d 9f69 973d
000002c0: 85a8 17bd 6c1e a63d 8e1b 17bd 8ddc 48bc
000002d0: e1b9 a7bd d650 90bd 93bb be3d ff93 00bd
000002e0: 580b 8e3d cddf 12be 9eb6 9cbd 07ad 423a
000002f0: 371b 063e 48c2 0d3c 77d7 04be ce9e b5bd
00000300: dae4 3039 90e5 54bd bb04 9fbd 9156 dbbd
00000310: 70c6 31bd 472e e83c 7665 a23d 6f94 c43d
00000320: 96a7 ebbc 655e 98bc d7c8 d03a 5102 b13d
00000330: 6987 27be c241 98bd 0527 bc3d 9216 d03c
00000340: 8ddb 94bc 1df1 80bc 792b abbc ce1b 49bd
00000350: e95f 293e e0fa 56bd e33f c0bd 0cd5 8c3d
00000360: 75f6 393e 9857 22be 0a6e 0cbe 76bf 243e
00000370: a463 753d 54a5 26be f62a c63c b964 943d
00000380: 18b7 08be 93f7 32bd de46 dfbc 7c99 73bd
00000390: 425c 22be 321b c23d cc6b 25bc 5843 c3bd
000003a0: 6e5b d23d d490 3ebe 772b 11bd 9923 1b3d
000003b0: ffdd 013e ae10 cbbd 7d12 4b3e 1eb8 e13d
000003c0: 4e80 c53d 2b8f 0f3e 3771 4d3d 22c1 413a
000003d0: 1e60 1fbe 05d9 6fbd f60c 2d3d 7e1f 9a3d
000003e0: cb62 66bd 32d6 96bd b532 aabc 47de 133e
000003f0: 5e59 803d f6c1 62bd d76a 80bd f228 b4bd

fc.bias f4 [6]
0.06264094 0.06881695 0.039281603 0.01965421 0.025608353 -0.014273704
00000000: e549 803d e7ef 8c3d bfe5 203d de01 a13c
00000010: 9cc8 d13c 41dc 69bc
