models/modello_seq2seq_20250725_1443.pth (torch, 150208 bytes, 10 tensors)

encoder.lstm.weight_ih_l0 f4 [256, 7]
00000000: 4173 5bbe fcea 6f3d 0e65 42bd 59a7 4d3e
00000010: 493b 853c 8b5d 6b3e cdac 183e f796 013f
00000020: cfad 503d 2c14 dc3e c924 3ebd e39a 953d
00000030: fab2 123e 7deb df3c afa0 333e d3f2 9c3e
00000040: 2c96 873d e5b1 713d a615 8cbc e714 d9ba
00000050: 95e5 44bf 717e 983d 5e05 0b3d 5271 e73d
00000060: 1970 16be 4b4b 073d ca37 bd3d ce2e 3fbe
00000070: 9ab7 ea3e 9065 5fbe 5bfe 893e 9542 1fbf
00000080: 77c4 c83e 9afe a63c bf0f 46be 79ac 3e3b
00000090: 5280 5a3e 58ad 8cbd 4821 81bc 0af7 a73d
000000a0: d0e8 d13c b5c3 c53e 6878 8cbd 5a29 c33d
000000b0: 492d cfbc e661 c23c ee72 c53d 53a3 07be
000000c0: b026 303e 4c10 513e b668 4dbd 1f75 953d
000000d0: 1c20 523e 1d45 183d d32a 073e 058a 533e
000000e0: 9420 b03e b658 233e 5d22 8b3e 7fb5 a63c
000000f0: 1523 ca3d 5acb e7bd b29d 083c 5d1f a1bd
00000100: 414a 313d 3ae0 c0bd dbad c0bd de56 ec3d
00000110: 0ad5 873d 1598 b43e d6b2 c23e ee7e a83e
00000120: 9b51 f63e 2390 b83e 0e27 173e c640 bf3d
00000130: 04d5 bc3e 7e54 abbe 6bc4 29be f20d afbe
00000140: 552b 563e 9716 9c3d 0922 5e3e c75b 2dbb
00000150: 3d1a 073e 4fe7 63bd 7516 3c3c 3594 58bd
00000160: 1f27 623e 9c44 163e b531 0dbd d7a7 283d
00000170: 9eb0 473f 8174 44be 8ac7 3b3f 28f5 9b3e
00000180: 1414 483e c48b 013e 9b3d a73e 7078 8b3e
00000190: 2198 973e 3c83 f93c c933 0f3e f20c fd3c
000001a0: 4d96 973e fffb cd3d 0991 673c 1a00 9cbd
000001b0: fc0b 5abd c946 85bd f145 29be b989 37be
000001c0: 85d3 d23e 2cc0 c93e 6b3c 9e3e eace 263e
000001d0: e74d 9a3d 062d e03d 5d5a 723e f76f d63d
000001e0: 8383 4dbe 9d5b a33d 93b0 d1bd e459 303e
000001f0: d4d6 923c 49c5 0fbf 5f52 0b3e 10c8 b03c
00000200: 2de8 1e3e f757 d7bd 6bbd 6cbc befa eb3d
00000210: a06a d93d f200 f23d c4d6 b53e 4bf4 513e
00000220: 3d09 6a3d 4317 cb3d b642 b33d 6eba c13c
00000230: ad47 e13d 8ff9 023e ca8d 96bd 3629 d83c
00000240: 6a52 933c 3e63 d63d 0158 05bf fff6 173e
00000250: 2217 23be cb52 e9bc 3f38 03be fdba 1e3e
00000260: 9db4 c63d 87d9 e63c 0a66 b1be 0382 01bf
00000270: ba39 02bf 113f c0be 7459 ae3d 5f1b 07be
00000280: 05dc 403e e50e 8d3d 6952 b2bd f187 263e
00000290: 1d74 8abd 96f2 403d f8d9 1f3e 870f 3f3e
000002a0: 6697 2cbc 7bf1 983e be53 d13e 535a 563d
000002b0: 8c1e e9bd 2639 da3b 1a39 de3e f735 033e
000002c0: ee70 cfbc b6fb 763e 5768 e2bd 45d5 3b3e
000002d0: b22d 283e 6cf0 a2bd ae17 833d 823c 383e
000002e0: 16f7 d03d 3e14 843d 9014 703d 6104 fcbc
000002f0: 21dc c13e 2dfd 263e 1d5b 223c 5206 1c3e
00000300: 4868 a9ba 5af8 1a3d d60a e03d 4dc1 2cba
00000310: 67af 51bb 3fe8 613d d562 55bd 3e48 5fbe
00000320: 2514 8b3e 4337 943c 132b 823e 7b71 d13e
00000330: f9c3 343e 8a24 063f 6803 8b3e 3039 ab3e
00000340: 164f 203d cdec c63e 6f8c 0cbe dc96 6b3d
00000350: e137 a0bc faf0 9dbd b56d 463e 8def 733e
00000360: e3ff c43d 79f5 003d 4f44 1a3f 6e27 493e
00000370: 1119 053f 327d 4cbd c6b9 113e 704f 8e3e
00000380: e3ff 6a3e 7893 49bd f0c7 82bb 9fbc 9c3d
00000390: 3980 e93c 83d3 0a3e 87db 39be fd26 a93e
000003a0: f8c6 c03d 40a5 bf3e da84 e03e 50c4 42bd
000003b0: 4c11 49bd 0e59 763f faeb 9c3d d704 ac3e
000003c0: 0228 f73d 76f4 223e 6bc6 133e 7d81 7c3d
000003d0: 3d6d d63d c92a 85bd 71f4 a33e fa28 f5bd
000003e0: 61c9 943e d180 083e a321 f23d 0fac b93d
000003f0: 7f76 733d 976e a23d 1a70 ab3d b94d 453e
-0.21430685 0.058573708 -0.047459655 0.2008337 0.01626362 0.22984903 0.14909668 0.5062098
0.050947007 0.4298414 -0.0464218 0.07304933 0.14326087 0.02733397 0.17541765 0.3065401
0.0662044 0.059007544 -0.017100167 -0.0016562016 -0.76912814 0.07445992 0.033940665 0.11300911
-0.146912 0.03303079 0.092391565 -0.18670198 0.45843202 -0.21816087 0.2695187 -0.6221097
0.3921239 0.020385075 -0.19341944 0.00290945 0.21338013 -0.06869 -0.01576294 0.08201416
0.025623709 0.38625875 -0.06858903 0.095293716 -0.025290148 0.023728322 0.09641062 -0.13245897
0.17202258 0.20416373 -0.05014869 0.0729773 0.20520061 0.037175287 0.1319993 0.20658119
0.34399855 0.1595181 0.27174655 0.020350216 0.098699726 -0.11318083 0.008338379 -0.0786731
0.043283705 -0.09417768 -0.0940816 0.11540006 0.06632431 0.3527228 0.38027066 0.3290934
0.48109135 0.36047468 0.14760992 0.093385264 0.36881268 -0.334629 -0.16578834 -0.34190327
0.20914967 0.07621496 0.21692671 -0.0026452409 0.13193603 -0.055640515 0.011479964 -0.052875716
0.22085236 0.1467461 -0.034471232 0.04117569 0.7800387 -0.19185068 0.7335135 0.30460477
0.19538909 0.12650973 0.3266419 0.27240324 0.29608253 0.030458085 0.13984598 0.030889962
0.29606858 0.1005783 0.0141337 -0.07617207 -0.053234085 -0.06507642 -0.16530587 -0.17923631
0.41177002 0.39404428 0.3090547 0.16289869 0.0753439 0.109460875 0.23667283 0.10470574
-0.20069699 0.07976458 -0.10238757 0.1722179 0.017924704 -0.5616041 0.13605641 0.021579772
0.15518256 -0.10514825 -0.014449458 0.11522435 0.1061604 0.118165866 0.35515416 0.20503347
0.057137717 0.09916546 0.087529585 0.023648467 0.10999999 0.12790512 -0.07351263 0.026386838
0.017983634 0.10468148 -0.5208741 0.14840315 -0.15926793 -0.028481862 -0.12814425 0.15501018
0.09702418 0.028179897 -0.34648162 -0.5058901 -0.50869334 -0.37548116 0.085131556 -0.13194035
0.18833931 0.068876065 -0.08707125 0.16262795 -0.06760428 0.047106348 0.15610492 0.18658267
-0.010534143 0.29871735 0.40884203 0.052332234 -0.113827795 0.0066596447 0.4340294 0.12813555
-0.025322404 0.24119458 -0.110550575 0.18343075 0.16423681 -0.07956013 0.06401001 0.17991832
0.10203378 0.064491734 0.05861336 -0.030763807 0.37863258 0.16307516 0.009909418 0.15236786
-0.0012924755 0.037834503 0.10939567 -0.00065900834 -0.0031995417 0.055153128 -0.052096207 -0.21804902
0.27163807 0.018092757 0.25423488 0.4090689 0.17652883 0.52399504 0.27151036 0.33442068
0.039137922 0.3885254 -0.13725446 0.057516918 -0.019557895 -0.07711978 0.19377787 0.2382185
0.09619119 0.0314841 0.6026048 0.19643947 0.51991373 -0.049924083 0.14231023 0.2779498
0.22949176 -0.049212903 -0.0039911196 0.07653164 0.028503524 0.13557248 -0.1815015 0.33037558
0.0941295 0.37430763 0.43851358 -0.0475505 -0.04908876 0.96229637 0.076621965 0.33597443
0.12068178 0.15913567 0.14431159 0.061646927 0.10470054 -0.06502301 0.32022431 -0.11970706
0.2905989 0.1333039 0.11822822 0.09066021 0.05943918 0.079312496 0.08370991 0.1926793

encoder.lstm.weight_hh_l0 f4 [256, 64]
00000000: ee4c d6bc 2c6c 683d e7be 22bc 5304 fcbb
00000010: 5d88 163e dda2 cdbd 0f24 38bd 9437 5a3d
00000020: c7f2 ac3b 1523 b5bc 74ab 173e 1575 e8bd
00000030: e2a4 96bd 7947 963c 5e15 6b3d 30b4 c63c
00000040: f938 163e b8c2 c1bd 0302 903c 3476 56bd
00000050: ec7e cf3c 0d13 493d 8b7b 92bc 1046 afbd
00000060: d64f a3bd 7a0c e8bd 1a6f a1bd f7f9 08be
00000070: fab8 69bb 3218 4e3e 6c1c 0b3e 5a5e 563d
00000080: 96f2 cabd 76b5 a53d d852 b63d 5cd2 a63d
00000090: d76b d03b 9431 44bd 6a92 0fbe 6963 10bd
000000a0: 9ae7 0c3b e812 f2ba 69bd 543d 5246 86bd
000000b0: 0f92 1cbc 3125 9dbd 591a 433e 36f6 cabd
000000c0: 19b0 6f3d 7920 fcbc fd30 9cbd fc90 153c
000000d0: e2bd 6bba a88a e43d 82b0 973d cbb0 8c3d
000000e0: 6e48 aebc 602c 21ba c4e5 e2bd ff0b b6bc
000000f0: 582b 3dbc d439 8cbd dafd d8bd c73f 74bd
00000100: acd2 e83d 874b e43d b77f a43d 92c4 d73d
00000110: 43a3 403a 075e e2bc 6056 26bb 7243 98bd
00000120: 94e2 513d ac5f 21bd 6d87 82bd 6fb5 e33b
00000130: 2956 9ebd 2d55 ef3d db58 b4bd 6b24 973c
00000140: 1118 71bd 4bda a3bc e355 efbd 39fd 71bd
00000150: dd06 d43c f1fb 643d 6b8a ee3b 4429 0bbd
00000160: 6dcf 5f3d 9df4 eb3c d2fa cc3d 19c0 80bd
00000170: ad76 b93d 422d 12bd 2d86 a83d 1ac3 c1bd
00000180: b5e9 933d 50ec 25bd 8b67 4bbb d8d5 5fbd
00000190: 617e d6bc 454d 8d3d 1499 41bc e01d 77bc
000001a0: 3040 70bc 1d09 963c 0b78 98bd cca3 8cbd
000001b0: a439 d3bd fb51 373d ac0a f4bd 5ad8 37bc
000001c0: c44a 6f3d 328d b2bd a5e4 d1bd 8a9f e13c
000001d0: 8904 1abd 36a8 e03b 4137 09be a814 14bd
000001e0: bf70 e93d 79f9 4f3d 8365 fa3d 387a f23c
000001f0: 4bee 95bd 6da5 e0bd 59f2 bf3d 6262 0d3d
00000200: 447d 973c 1404 b7bd c0ed 203c 2293 f93d
00000210: 594d ce3d 7bcb 833d 3fa3 3a3d 38a4 09bb
00000220: ab7e f03d 69b0 ac39 8445 51bd 98e5 043d
00000230: 0c1e 6f3c dd8c bbbd da89 04bb 8613 0c3d
00000240: b899 e7bd 2cdb fe3c 40d1 e13c f26a c4bd
00000250: 1711 813d 7d42 4d3d 0f8e 663d ceec dc3d
00000260: c8ff 1ebd cf35 b83c c326 36bd 17b8 c1bd
00000270: 266e 59bd 0657 48bc 482d f63d 6d3c b1bd
00000280: f503 013e 600a 6abe df78 a7bd f61a e23d
00000290: c335 dd3d 3560 dc3d 4d0c e4bb 99ca 95bc
000002a0: 3df5 0fbd a470 e2bd b4a1 c4bd 3527 dcbd
000002b0: 4f42 1bbd e417 9a3d facd bbb9 3ee3 0c3e
000002c0: 5fd5 003c c81f 1e3d 20bd d63d a8a3 7cbd
000002d0: 4aa6 4dbe 7bc8 cdbd d6e8 003d 6baa 24bd
000002e0: 84cd ce3d 2944 83bc b2f3 6a3d 0e23 5dbc
000002f0: 18c6 87bd 9938 c03c ecde 12be dd06 1e3c
00000300: cef6 103d c1c9 f23d d6d9 9e3d 6ac7 9ebd
00000310: a680 f73d cdd8 87bd f605 ebbd d4aa d8bd
00000320: e19a 28bd 205f d3bd 8eed 23bd b6c5 53bd
00000330: 17e5 a23d c21f 313e 7e9b c73b 77e4 94bd
00000340: a84c dc3b ab71 b13d 4f8f 1bbd a652 cebd
00000350: 417f 85bd 1800 e6bd 1e1f b3bd c234 a4bc
00000360: ad95 cf3d f4c9 63bd 6d6a 96bd fc3e fdbd
00000370: a878 26bd c0b9 163e d641 cfbd f8ae 47bd
00000380: 0d36 493c 304e e3bd 01ea b53d c062 e0bd
00000390: 3ee3 8c3c 3686 fb3d cec8 e7bd 66c0 613d
000003a0: b336 b13b f67d 6539 4c05 8e3d 2ac0 c03d
000003b0: d088 e63c 44fc c0bd abe5 49bd 7e85 02be
000003c0: b741 85bd 1352 8fbd a558 df3b c622 1b3d
000003d0: 614f 93bd 2e86 a93d 29be cb3b 483c 8d3c
000003e0: cde1 d93d ee28 ebbd b3eb c43a ea42 cdbb
000003f0: 6554 03be d51c 203d 9526 01be ce7f ffbc
-0.02615973 0.056743786 -0.00993321 -0.007690945 0.14700456 -0.10040829 -0.044956263 0.05327566
0.0052779648 -0.022111455 0.14811498 -0.113504566 -0.07355668 0.018344628 0.057393424 0.024255842
0.14670171 -0.09460968 0.017579084 -0.05235882 0.025329076 0.049090434 -0.017881176 -0.08558285
-0.07974212 -0.11330505 -0.07882519 -0.13376604 -0.0035663233 0.20126417 0.13585061 0.052336074
-0.09909551 0.080912516 0.0890252 0.081455916 0.0063605118 -0.047898844 -0.14020696 -0.035251055
0.002150035 -0.0018468769 0.051938448 -0.06556381 -0.009556307 -0.07673109 0.1905302 -0.09910242
0.05851755 -0.030777203 -0.07626531 0.009128805 -0.00089928333 0.11159259 0.07406713 0.06869658
-0.021274772 -0.0006148275 -0.110789806 -0.022222517 -0.0115459785 -0.06846967 -0.10595293 -0.059631135
0.113683075 0.11147218 0.08032172 0.1053554 0.00073485466 -0.027632726 -0.0025381073 -0.07434739
0.051241472 -0.03939788 -0.06373487 0.006949119 -0.077312775 0.11686168 -0.0880601 0.018449983
-0.058860842 -0.020001551 -0.116863035 -0.059079383 0.025882179 0.055904333 0.0072796843 -0.0339749
0.054641176 0.028803164 0.10008778 -0.0628664 0.09055839 -0.035687692 0.08228717 -0.09461041
0.072223105 -0.04050857 -0.0031037058 -0.054647297 -0.026183309 0.068995036 -0.011816282 -0.015082806
-0.014663741 0.018314892 -0.074447714 -0.06867179 -0.103137285 0.044755917 -0.11916098 -0.011221016
0.05842091 -0.08718337 -0.102486886 0.027541894 -0.03760198 0.00685599 -0.13399984 -0.03615251
0.11398458 0.050775025 0.12226393 0.029599294 -0.073208414 -0.109690525 0.09372396 0.034517653
0.018492348 -0.08936325 0.009822309 0.121862665 0.10073347 0.06435295 0.04556584 -0.0021002423
0.1174291 0.00032937832 -0.051091686 0.03244552 0.014594566 -0.09157727 -0.0020223767 0.034198307
-0.113086164 0.031110369 0.027565598 -0.09590711 0.06302088 0.050112236 0.05628782 0.107873544
-0.03881815 0.022486595 -0.04447056 -0.094589405 -0.05308356 -0.012227779 0.120203555 -0.086541034
0.12599166 -0.2285552 -0.08177351 0.11040299 0.1080127 0.107605375 -0.006959474 -0.018285083
-0.035145987 -0.11056641 -0.09601155 -0.10749666 -0.037905034 0.07524088 -0.00035820884 0.13758561
0.007863372 0.038604528 0.104852915 -0.061679512 -0.20082965 -0.10048004 0.03147205 -0.040201586
0.10097793 -0.016023712 0.057361312 -0.013497127 -0.0662958 0.023464488 -0.1434285 0.009645191
0.03539162 0.11854888 0.07756393 -0.07752879 0.120850846 -0.06633148 -0.11475746 -0.10579458
-0.04116333 -0.10320878 -0.04002147 -0.051702224 0.07953852 0.17297271 0.006091534 -0.07270139
0.0067230053 0.086642586 -0.037978467 -0.10074358 -0.065184124 -0.11230487 -0.087461695 -0.020044688
0.1013597 -0.05561252 -0.07344518 -0.12365529 -0.04064241 0.14719296 -0.10119979 -0.048750848
0.012280953 -0.110988975 0.08882523 -0.10956335 0.017198201 0.12281458 -0.11317597 0.055115126
0.005408132 0.00021886066 0.06934604 0.094116524 0.02814141 -0.09423116 -0.049291294 -0.12746236
-0.06506675 -0.06998076 0.006815987 0.03787496 -0.07192875 0.08277546 0.006217737 0.017240658
0.10638771 -0.11482416 0.0015023857 -0.0062640803 -0.12825163 0.039089996 -0.12612374 -0.031188872

encoder.lstm.bias_ih_l0 f4 [256]
00000000: 2176 b0bd 6328 99bb e3cd e53d c893 fe3d
00000010: c023 3a3e c4e2 b4bc 7dba b9bd 2de4 ce3d
00000020: 3dd7 89bd b6cd 68bd f913 253e 1aea 133e
00000030: 10ee edbd 7618 b33d bc25 1cbd 35ba 40bc
00000040: f02d 013e e23d d93d 28f9 793d 7efc dcbd
00000050: df4d 143e 48c1 9a3d c200 e9bd 1895 ef3d
00000060: f9df a43c 0c5b 73bd ecfe 08bc 497b 1a3d
00000070: 3b11 bcbd d5f4 203e e217 2dbd ecaf 44bd
00000080: 2f0a 143d b346 c6bd ee43 263d 424b 62bd
00000090: f5a7 c8bc fba0 963d 5a41 afbd ca07 d0bd
000000a0: 3f6a 45bd 1c70 2f3d f9d1 ba3c 4ba4 90bd
000000b0: 719a 2bbd 890e 7f3e 8559 083e 6ab5 23ba
000000c0: e102 8fbc 4632 e6bd 47bc debc e4e5 e03d
000000d0: 7c48 ca3e 45fb 09be 2539 3b3d 0ee7 113e
000000e0: 7514 2dbd 9d4b c33d 6c37 353e e998 a53d
000000f0: c897 b33b 0f69 bbbc e25c 3f3d 2644 3d3c
00000100: cd89 0f3e 817c ed3c 68c1 11bd 4a7b 1a3c
00000110: fb61 0b3e 5e6f c93d 1cdb cd3c 2dd2 f53d
00000120: 4c18 1dbe 9439 513d c524 27be a27f 2c3e
00000130: 5a4c 46bc f67d be3d 9687 ac3d b7f4 0cbd
00000140: 138f a73d 4cab 8ebd cdb7 e33d 0780 a7bd
00000150: 61d1 34bd f2b8 debc b741 bdbd 43c1 36bc
00000160: 881c c8bd ce43 65bd 35a6 8abd 3dc4 ccbd
00000170: 6a6f d23c 6230 54bd 788d 6b3d bac7 16bc
00000180: f385 80bd c417 8bbd 1fb5 debc 8bee 76bd
00000190: 36e6 97bb a83a 39bd 5ff4 883c 9a7e 98bd
000001a0: f2b6 e43c 25ab 0a3d 9cf5 893d 6c02 d43d
000001b0: b9d1 dc3b e9c1 f5bd dede 47bc 68d0 02bc
000001c0: 2f62 d13b 8d4f 72bd 894e a1bd 5593 cb3d
000001d0: e54c aa3b fed5 ffbd a9f6 043e 7b52 bfbb
000001e0: 3545 e3bd fb1a f73d 5183 483d 12f8 e73c
000001f0: 8c8c 313d 63bd cc3d 8e77 063d 21e9 783c
00000200: da93 08be 5fef 873d b427 10be 9d0d 55bc
00000210: 7ec6 1fbd b6ec 863b 8251 17bd 7c91 83ba
00000220: e1f5 96bd 70cc 1a3e f262 66bd 0de7 e6bd
00000230: 7277 b13d fec1 2abd 7b75 ce3d 522a b43d
00000240: 707f d13d 4d46 acbc 5679 26bd 308e a43b
00000250: 3d3f 0e3d 48f8 7c3d b485 4bbd 9bbf f63b
00000260: a1df 71bd 51cc 75bd d436 ab3d 21bf d2bd
00000270: 3f97 55bd 9b52 28bd d63d 353c d3f4 503d
00000280: fd20 093e cd4e ccbd cbec ca3c f756 8fbd
00000290: 2b94 3b3d 2f53 6f3c 1945 6e3c 9394 40bb
000002a0: d082 cabd e32a b13d 2500 343d d1ca d6bd
000002b0: c265 143e a922 b0bd 2d10 d1bc c6b4 14be
000002c0: 5731 f33c 0400 ffbd 7a17 fc3d 186c 093d
000002d0: 3fdf 16be 666a d63d 70ff 80bd 5096 1ebe
000002e0: a6d6 58bd b7c0 d5bc f5f6 1ebd 8220 0f3c
000002f0: 32fb 40bd 3d22 7cbd 04a5 1bbe b6cb a5bd
00000300: 8e4f 033d 48a1 d53d 87b4 3bbe 32a9 92bd
00000310: f6af 7e3d 3b8b 833d 6a22 fdbd 166d ca3c
00000320: 18f8 b43c 1a5c 16bd 1e60 553e ce82 32bc
00000330: b639 393c 4f99 3f3e c6ec b53c cac1 55bd
00000340: ff3d 17bd 3324 99bc 5eff 8b3d 39e2 9bbd
00000350: 1fa6 b63d a1a3 b3bd 4a58 9dbd 498e 4a3d
00000360: 5a65 043e f3af ffbc 65e1 d5ba 06ca 6ebd
00000370: e8b8 dabd b8e1 0d3e b24d 43bc 60c5 123e
00000380: e6e8 a33d 29aa 983d 2cdc 8ebc 0b9c 263d
00000390: 82bd 4ebd 0f2d b1bd 29e4 a83d 5fd5 8ebd
000003a0: 75c6 4c3d a44f ab3d dd52 09bd 2394 7b3d
000003b0: 1ead 503d 8d10 bd3e 71ad 7ebd 94cd df3d
000003c0: f02a 933d c3aa 86bd f3f1 9a3d cbbb a4bc
000003d0: d852 843e 479b 47bd 61b0 acbd 73ac 213e
000003e0: 732e 2d3c e6b2 42bc 00f3 f13d f7ce 9ebc
000003f0: ba25 8c3d 6005 81bd 0af9 b43d 2a54 82bd
-0.08616281 -0.004674004 0.112209104 0.12430531 0.181777 -0.022080787 -0.09068773 0.10102115
-0.067305066 -0.056836806 0.161209 0.14444771 -0.116176724 0.087449 -0.038121924 -0.011763145
0.1261518 0.10607506 0.06102863 -0.107903466 0.1448283 0.07556397 -0.11377098 0.11698359
0.02012633 -0.059413 -0.008361559 0.03771523 -0.09182974 0.15718396 -0.042259105 -0.048019335
0.036142524 -0.096814536 0.040592127 -0.055247553 -0.02449415 0.07354923 -0.08557387 -0.10157736
-0.048197027 0.042831525 0.0228052 -0.070625864 -0.041895334 0.24907888 0.13315399 -0.00062449893
-0.017457427 -0.11240058 -0.027189387 0.10981348 0.39508426 -0.13474758 0.045708794 0.14248297
-0.042255837 0.095359065 0.17696923 0.08085806 0.00548074 -0.022877244 0.04671944 0.011551892
0.1401741 0.028990032 -0.035584837 0.009428808 0.13611595 0.09835695 0.025128894 0.120029785
-0.153413 0.0510803 -0.1632262 0.16845563 -0.012103165 0.09301369 0.084242985 -0.034413066
0.08181586 -0.06966266 0.111190416 -0.08178716 -0.04414499 -0.027187798 -0.0924105 -0.011154476
-0.09771067 -0.055972867 -0.06769983 -0.09998367 0.025687892 -0.051803954 0.057507962 -0.009202892
-0.06275549 -0.06791642 -0.027185975 -0.060286086 -0.0046355976 -0.045221955 0.016718088 -0.07446022
0.027919266 0.033854622 0.067362994 0.103520244 0.006738868 -0.11999876 -0.012199132 -0.007984258
0.006389878 -0.059157897 -0.078763075 0.09940211 0.005197155 -0.12491988 0.12984718 -0.00583869
-0.110971846 0.12065693 0.048953358 0.028316531 0.043346927 0.0999706 0.03282886 0.015192301
-0.13337651 0.06637453 -0.14077646 -0.013003734 -0.039007656 0.0041175736 -0.036942966 -0.0010037865
-0.073711164 0.15117049 -0.056246705 -0.11274538 0.086653605 -0.04168891 0.10081001 0.087971345
0.10229385 -0.021029616 -0.04064306 0.005021833 0.034728277 0.061760217 -0.049688056 0.0075301654
-0.05905116 -0.060009304 0.08360067 -0.10290361 -0.052146193 -0.041094404 0.011062106 0.051014733
0.1339149 -0.099759676 0.024771115 -0.06999009 0.0457956 0.014607235 0.014542841 -0.0029385432
-0.09888232 0.08650758 0.04394545 -0.10487903 0.14491943 -0.08600361 -0.025520409 -0.14522085
0.029686613 -0.12451175 0.12309165 0.03355035 -0.14733599 0.10469513 -0.06298721 -0.15487027
-0.05293908 -0.02609287 -0.038809735 0.008735778 -0.04711456 -0.06155609 -0.15199667 -0.080954954
0.03205829 0.104311526 -0.18330584 -0.07161178 0.06217953 0.064230405 -0.123600796 0.02471022
0.022090957 -0.03670893 0.20837447 -0.010895444 0.011305263 0.18710826 0.022207629 -0.052186765
-0.03692436 -0.018694019 0.06835817 -0.07611508 0.08918404 -0.08771444 -0.076828554 0.0494521
0.12929288 -0.031211829 -0.0016317783 -0.058298133 -0.10679799 0.13855636 -0.0119203795 0.14333105
0.08003406 0.074543305 -0.01743897 0.040676158 -0.050473697 -0.08651172 0.08246643 -0.06974291
0.04999395 0.083647996 -0.03352629 0.06142057 0.050946347 0.3692669 -0.062177125 0.10927883
0.07185924 -0.06575539 0.075656794 -0.020109078 0.25844455 -0.04873207 -0.08432079 0.1578844
0.010570156 -0.011883473 0.11813927 -0.019385798 0.06843133 -0.06299853 0.08836563 -0.06363709

encoder.lstm.bias_hh_l0 f4 [256]
00000000: cc25 053d 657f 863d 1eec 4ebc 5f1b 61bd
00000010: 4e6a d13d 3d9a d6bd 120b e43d e429 29bd
00000020: 3c3f df3d 4931 8e3d 80f2 073e 7b0f ba3c
00000030: a836 843c 3426 073e 1ea3 1e3e f87a 1bbd
00000040: 2682 1f3e 0178 053e fe79 263b 7e70 d03d
00000050: bc8c 113d 6858 d13d 6fd3 9e3d 09a8 c3ba
00000060: 035b 2e3e 3218 fabd c2ee e33d c70d a13d
00000070: e5c1 b83d 27cd cc3c fa77 143e 3f98 0f3e
00000080: b459 f53d 697e 3e3d 1b05 913d 225b 2f3e
00000090: 3477 77bc bfd1 fa3d 0164 993d e827 963d
000000a0: d0c0 1c3d 3bad a93d d68b 06bc 207e 7cbd
000000b0: a30e 773d 8ddb c53e 7fba af3c 54eb c53c
000000c0: d546 d93d 4c22 9fbd 1da7 84bd 28c1 b43c
000000d0: dff2 b63e 56f2 a23d 3ff2 47bd 6662 463e
000000e0: 721b c33d f591 f13c eb65 183c 1fb7 1c3c
000000f0: ebd8 243e ceec 943d 52a6 d83d 3f26 123d
00000100: 1a41 c5bd e38a be3d a012 9e3d 776b c93d
00000110: 9543 3a3e da41 c33c e2b4 9fbd b03a 673d
00000120: 37d5 12bd 7582 ea3d 68b7 debc 9877 1d3e
00000130: 9e48 02be c413 b3bd 2800 a13d 12da 04be
00000140: dfa9 b63c 4297 90bd 5a9e bf3d 5c1c e4bc
00000150: 8281 c63d 71e5 cebd f272 13bd cf01 933d
00000160: 6cab 08bc 67d6 543d 69d0 e8bd d38f 1dbd
00000170: 7d6f c2bd 28ed b6bd dc48 de3a da97 9bbd
00000180: 23af 1fbd 1bbf 99bd 18fb 4bbd 9cc0 aa3d
00000190: d26a 233c 56c6 22bd 6348 f23d a031 f8bd
000001a0: 1b27 cabd 951f 813d 3a7f dabd 4c0d cabd
000001b0: 5208 a9bd e49d 13be c667 223d 4d8c 13bd
000001c0: be68 58bc 9aa6 753c 6b11 82bd 23fc 573d
000001d0: 729f 93bb 1686 11be e9e2 9bbd 9e41 8cbd
000001e0: 8996 b73d b0ce 48bd 81ef 0c3e 876b f9bd
000001f0: d897 0b3e be44 853d 8138 4f3d d76c c33d
00000200: 3527 4ebd 1f6d 2e3c 2236 6d3d ba89 c9bd
00000210: 8740 343d 2865 123d 7867 0abe ae92 04bd
00000220: e73c 863d e4f2 013e dcd9 cabd 5e18 fe3b
00000230: 0dc2 f53d 18e5 733d 40a5 6e3d 8c79 aebc
00000240: b0f1 473d 9ede f63c c1c4 eebd 3ec3 073d
00000250: ca6e 673d d469 bbbc 90ea 64bd b030 aabb
00000260: bd1b 80bd 064b 99bb 7457 973d 65ea 423d
00000270: a07c cebd 77e7 553d 06b5 073e e89b 80bd
00000280: 7ac1 91bd 48d0 42bc ad25 a73d 5f90 32bd
00000290: 56ec 8e3d 9050 a73d bf09 be3d bc08 dd3d
000002a0: b42c e7bd 85cf 0e3d e372 55bd d3e7 803d
000002b0: 9069 d33d 4441 f33c ab3b c7bd 70b5 3a3c
000002c0: bac3 3cbc 3b4a ff3d 9b3a bb3d a335 2c3d
000002d0: e055 883d d077 fcbc 309d bebc 01d5 233d
000002e0: cdc2 b4bd d18c c43c aed6 7dbc 6bf0 cc3d
000002f0: 0645 bbbd d8a3 9d3d af03 68bd b62e 2abd
00000300: f708 1abe 933f 36bd 3cdb 33bd 88ec 72bd
00000310: 2d82 99bd 60af 933b 7740 743c 861a d03c
00000320: 184b c13d 96a4 95bd f0fe bf3c 4706 053e
00000330: 12e1 00bd f112 ed3d 9d9c 163e c569 1c3d
00000340: 5e6d 163d 8f60 05bc e89e f3bc f6b9 49be
00000350: bb8e 0f3d 2f08 93bd ff60 033d 8bf0 03be
00000360: 1fb8 473d e9e2 b1bd aadd bebd 0940 f4bc
00000370: e1d4 58bd dbeb 0a3e e0a4 633c f259 203e
00000380: 097e 9bbd 5989 3e3d 9b3e 85bd acd4 46bc
00000390: df34 95bd f019 2b3d 9fec cb3d e716 8cbd
000003a0: b23e 163c 0466 de3b b2e2 ff3d 8416 60bd
000003b0: 135a d9bd 164c 353e 0d8c 46bd 051f 613c
000003c0: 52cf eebd d80b bfbc f718 04be dcfc f23d
000003d0: 0d40 b53e 9906 343d 2732 a7bd e705 283e
000003e0: 01c2 0cbe 3192 87bd 0395 af3d 805c a33d
000003f0: 26e8 923d 4eb0 8cbc 909f 453d d705 2ebd
0.03250675 0.06567267 -0.012629537 -0.054957744 0.10225354 -0.10478637 0.11134924 -0.041299716
0.10900733 0.06942994 0.132761 0.02271246 0.016139343 0.13198167 0.15491912 -0.03795907
0.15576991 0.13034059 0.0025402303 0.10177706 0.035534605 0.1022194 0.077551715 -0.0014927398
0.17026906 -0.12211646 0.11129524 0.07863956 0.090213574 0.025000168 0.14498892 0.14022921
0.1198 0.046507273 0.07081052 0.17124608 -0.015104104 0.12247037 0.07489777 0.0733183
0.038269818 0.08284994 -0.00821205 -0.06164372 0.060316693 0.38644066 0.021451233 0.024160065
0.10609213 -0.077702135 -0.06477187 0.02206476 0.3573217 0.07956378 -0.04881501 0.19373474
0.09526719 0.029488543 0.009301643 0.009565144 0.16098373 0.072717294 0.10578598 0.035681006
-0.09631558 0.09303834 0.07718396 0.098349504 0.18189843 0.023835111 -0.077981725 0.056452453
-0.03584787 0.11450664 -0.027187064 0.15377653 -0.12723014 -0.08744004 0.07861358 -0.12973812
0.022297798 -0.070601 0.09356375 -0.027845554 0.096926704 -0.10102356 -0.035998292 0.07178079
-0.008341651 0.051962283 -0.11367876 -0.03846724 -0.09493921 -0.08931953 0.001695897 -0.07597323
-0.038985383 -0.075071536 -0.04980001 0.083375186 0.009974198 -0.03973993 0.11830213 -0.1211884
-0.0987074 0.06304852 -0.10668798 -0.098658174 -0.0825354 -0.14415699 0.039649747 -0.036022473
-0.013208566 0.014993334 -0.063509785 0.05273069 -0.0045050913 -0.14211306 -0.07611639 -0.06848453
0.08964259 -0.049025238 0.13763238 -0.12178712 0.13632143 0.06507252 0.050590996 0.09542244
-0.05033036 0.010646134 0.057912953 -0.098407224 0.04400685 0.035741 -0.13516033 -0.032366447
0.06554585 0.12690312 -0.09904835 0.0077543696 0.11999903 0.059544653 0.058263063 -0.021298192
0.048814476 0.030135449 -0.116586216 0.03314518 0.05650214 -0.022877611 -0.05588776 -0.0051937923
-0.06255291 -0.004678133 0.07389727 0.047586817 -0.10082364 0.052222695 0.13252649 -0.06279737
-0.07116981 -0.011890478 0.08161483 -0.043594714 0.06978671 0.08169663 0.09279203 0.107926816
-0.11287823 0.034865875 -0.052111518 0.06294217 0.10322869 0.029694207 -0.09728178 0.011395797
-0.011521274 0.1246533 0.091420375 0.04204334 0.06657004 -0.03081885 -0.023268312 0.03999806
-0.08826218 0.023992928 -0.015493078 0.100067936 -0.091440246 0.07697266 -0.056644138 -0.041548453
-0.15042482 -0.044494223 -0.04391025 -0.059307605 -0.07495532 0.0045069903 0.014907948 0.025403272
0.09438151 -0.07306783 0.023436993 0.12990676 -0.031464644 0.115758784 0.1470818 0.038186807
0.036725394 -0.008140697 -0.029738858 -0.19699845 0.035048228 -0.07179295 0.032074925 -0.12884729
0.048759576 -0.08685858 -0.09319623 -0.02981569 -0.052937392 0.13566534 0.01389429 0.15659311
-0.07592399 0.046517704 -0.06506082 -0.012135666 -0.07285475 0.041772783 0.09957241 -0.06840306
0.009170221 0.0067870636 0.124944106 -0.054708973 -0.106128834 0.17704806 -0.048473407 0.013740306
-0.11660637 -0.023321077 -0.12900148 0.11864635 0.3540043 0.043951605 -0.08163863 0.16408502
-0.13745882 -0.06619681 0.085733436 0.07976627 0.07173185 -0.017173912 0.048247874 -0.042486038

decoder.lstm.weight_ih_l0 f4 [256, 4]
00000000: 61c2 04be 8efa d83d 4f5e 73bd 0888 e13c
00000010: 3961 13bf 5f5b 6dbf 8b70 42bf 7b65 93bf
00000020: 892e 81bd fb01 e1bd f316 0c3d d45e 02bd
00000030: 7818 65bd 0ace 723e dab0 0cbe 96cf 3b3e
00000040: 2d75 75bd ef21 b53d 42ba 2d3e e420 cb3d
00000050: 85a9 2d3e 81f7 b03c 0fb8 aa3c cf2b b7bd
00000060: ed34 bebe 694b 023f 56f2 85bd fc76 003e
00000070: ccd6 bc3e 5146 963e e6fe c63e 261c 2ebc
00000080: 1d2a 8e3e 6f0e ba3e 8b50 023f 57df 8b3e
00000090: 91ad 253e 2f18 803e 16da 46be 041e 98bd
000000a0: 2b5a 5b3c 89de 7fbd 3186 a23d b95a 7d3d
000000b0: a0f6 153e fb49 c23d 38f1 6b3d 3646 cebb
000000c0: d514 c73e 9d2f 953e 1a52 7c3e 602e 24bd
000000d0: 7a2e ae3e d5f4 593d c1ba b53e cbfe 64be
000000e0: db37 ed3e bc97 a33e d595 fd3e 0062 f83d
000000f0: 7b55 143e a269 003e b770 a83e 430c 22be
00000100: c242 0c3f c9bc dc3e 0f92 bf3e 8f9d 053e
00000110: 7c34 213f 6108 af3e 30c9 293f 0b83 e2bd
00000120: 4483 bd3e 20c0 b03e 740f ea3e e420 e2bd
00000130: 7670 50bd b211 643e 91f7 74be 7449 87be
00000140: 9969 843e 50c2 a33d d878 393d aec2 3dbe
00000150: 766c 143d b8a0 16be 2c9d a7bd a2b4 95bd
00000160: af93 c6be 6948 d7bd 4e24 dbbe 2d66 703d
00000170: 06de 1dbe 721d 683e 0bdc 5b3b 0da6 96bd
00000180: a8ac e9bd bbea 4639 34f6 5dbe 3ebc 023c
00000190: 8d8f 09be b5ad 1b3f ca46 40be 1046 ffbe
000001a0: d336 933e c76e b53e 9d9d 873e bd9b fc3d
000001b0: 5f90 c73e 5d48 0f3f 0e27 873e 89cc 383f
000001c0: cec7 483e 80f0 783c 31d2 ba3d f996 1fbd
000001d0: ed44 593f 0173 493f dbfb 673f 1840 b73e
000001e0: eb4b f7bd ec02 093e 4950 0a3e 43c3 c7bd
000001f0: 65eb c83e 73dc b23d fb68 483e 5acb 92bc
00000200: 5a89 54bf 2e52 013e 8b89 80bf ece0 ebbd
00000210: 07b3 663e de74 bc3e 2fb7 83bd 6c9c 33bd
00000220: 3a6d b33e 35de 573e 5b9c fa3d 156a 8d3c
00000230: f289 1bbe 27d4 de3d f8ca e6be 1699 c43b
00000240: b3a8 023e eed0 afbd 9e3a 2abe 2d53 e5be
00000250: 72a2 0c3f 1b8a 9b3c 7b0d e03e ad9f 82be
00000260: 1791 db3e 19d0 143f 1386 533e 8f2d b63c
00000270: e4e7 ee3d 04c8 8c3e c2a6 a33e fd45 7dbd
00000280: 9556 3a3d 580a 673e 047f f63d 0eb5 cf3c
00000290: 5776 563d bcd4 7abd 36a3 943d 49ba 0abe
000002a0: 93d9 a4be 4338 94be 241c e4be 1892 46bf
000002b0: e91e d93e a9df 69be 233b db3e c338 513e
000002c0: 00e2 b33e aa3e 283e f41b 9a3e 94f5 64be
000002d0: d0f5 553e b6b2 8f3c 2642 693e 5e20 02bd
000002e0: 147e 2e3c 1460 d93d 0d9f 1a3e 4dec b03d
000002f0: 6c7e d1bd 4a95 b4bc 23d6 09bd 868a cabe
00000300: 76ea 873e 9fc6 383e 070e 2c3d e727 3a3d
00000310: f2a5 1b3e caa7 f5bd 727d 45bc b84b 84bc
00000320: ca96 6f3c 86aa e9bd 3bc3 9d3b 8376 39bd
00000330: ebc0 e33d feae a33d e1d2 2d3e 62aa d93d
00000340: 951c 5c3e f4c0 803e cddf 923e c587 51bd
00000350: 50b0 c23d aed1 e3bb 5f90 613e 914a dbbc
00000360: 3fca 5a3d 9194 e8be c807 1a3e 04f2 83be
00000370: 373d 993d 378f 943e 2707 3c3e 2a11 823b
00000380: aed9 53bd 7dec 013e 352b 77bd 2d9e 4a3d
00000390: 688a 98be ef14 bdbe 90fd 93be 1b0c 6d3e
000003a0: af99 e33d dc83 f93c 79d4 5e3e 6c42 c1bd
000003b0: c78c 743c c68a 20bc 858b 343d 5de8 14be
000003c0: 7a01 733d e9b9 5d3e 782f 103e 3d9a 143d
000003d0: 0ce9 4b3e ed47 4bbd c427 7d3e 6294 353d
000003e0: 31eb d9be ae38 45bd c8fc febe 00ae f4bd
000003f0: 40fd 2e3d 435f a03d b090 113e 0c82 2fbe
-0.12964775 0.105946645 -0.05941611 0.027530685 -0.57570225 -0.92717546 -0.75952977 -1.1515344
-0.06307704 -0.10986706 0.034201574 -0.031828716 -0.05593154 0.2371141 -0.13739339 0.18340907
-0.0599262 0.08844363 0.16965583 0.09918383 0.16959198 0.021602394 0.02083972 -0.08943903
-0.37149754 0.50896317 -0.065403625 0.12545389 0.36882627 0.29350522 0.38866347 -0.010626828
0.27766505 0.36339137 0.5090415 0.27318832 0.16179492 0.2501845 -0.1941913 -0.074276
0.013388197 -0.062468085 0.07935751 0.061854098 0.14644861 0.09486767 0.05760309 -0.006294991
0.3888308 0.2913789 0.24640694 -0.04008329 0.34019834 0.053212006 0.35494044 -0.22362821
0.46331677 0.31951702 0.49528375 0.12128067 0.14485733 0.12540296 0.32898495 -0.1582499
0.54789364 0.43112782 0.3741612 0.13048385 0.6297071 0.3418608 0.6632261 -0.11060151
0.3701421 0.3452158 0.45714915 -0.1104143 -0.0508885 0.22272375 -0.23922564 -0.26423228
0.25861815 0.079960465 0.04528126 -0.18531296 0.03623625 -0.14709747 -0.08184275 -0.073098436
-0.3878455 -0.10511858 -0.42801136 0.058691192 -0.15416726 0.22667482 0.0033547904 -0.073558904
-0.11409885 0.00018970195 -0.2167595 0.007979451 -0.13433667 0.6081193 -0.18777004 -0.4985814
0.28752765 0.3543608 0.26487437 0.12334392 0.38977334 0.5596979 0.26396984 0.72187096
0.1960747 0.015194058 0.09122122 -0.038962338 0.848708 0.7869111 0.90618676 0.35791087
-0.12075027 0.13380021 0.13507189 -0.0975404 0.39242092 0.087334536 0.19571297 -0.017919231
-0.8302208 0.12629005 -1.0041975 -0.1151751 0.22529231 0.36807913 -0.06431424 -0.043850347
0.3504427 0.21080859 0.12236854 0.017262498 -0.1518934 0.108803086 -0.45076728 0.0059996946
0.12759666 -0.08584772 -0.16623923 -0.4479002 0.5493537 0.018986752 0.43760285 -0.25512448
0.42884132 0.5813003 0.20656614 0.02223852 0.116653234 0.2749635 0.31963164 -0.061834324
0.045492727 0.2256254 0.12035945 0.025354888 0.05235895 -0.061238036 0.072576925 -0.13547625
-0.32197246 -0.28949174 -0.4455272 -0.7756667 0.42406395 -0.22839226 0.42818555 0.20431809
0.35133362 0.16430154 0.30099452 -0.22359306 0.20894551 0.01754127 0.2277914 -0.03176915
0.010650177 0.106140286 0.15099736 0.08638821 -0.10229191 -0.022043843 -0.033651482 -0.3955881
0.26546067 0.18044518 0.042005565 0.04544821 0.15200022 -0.11994894 -0.012053834 -0.016149387
0.014623353 -0.11409478 0.004814533 -0.045279037 0.111207806 0.079923615 0.16974975 0.10628201
0.21495278 0.25147212 0.2868637 -0.05115487 0.09506285 -0.006952486 0.2202773 -0.026768954
0.053415533 -0.45425847 0.15042031 -0.2577058 0.07482379 0.29015514 0.18362103 0.0039693313
-0.051721267 0.1268787 -0.06034394 0.049467254 -0.29793096 -0.36930034 -0.2890439 0.23149149
0.11113297 0.030458383 0.2176074 -0.09436497 0.014926142 -0.009798711 0.04407837 -0.14541765
0.05932758 0.2165295 0.14080608 0.036279906 0.19913119 -0.04962914 0.247222 0.044330962
-0.4256225 -0.048149757 -0.49802232 -0.1194725 0.042721987 0.0783067 0.1421535 -0.17139453

decoder.lstm.weight_hh_l0 f4 [256, 64]
00000000: ad3f e6bc 8120 e73d c84f 96bd 6275 793d
00000010: aee5 413c 6748 853b 7dc3 003e fffd a0bc
00000020: b3a2 b13d 918a 84bd 7f86 a3bd 2a33 953c
00000030: 24d4 21bd 2ea4 2f3b ec81 cb3d 59f6 78bd
00000040: ec08 0fbe cf19 123c b78d 9f3d 330b b33d
00000050: 73e3 263d 012e 2dbd 70e3 2abd 6892 b7bd
00000060: ae6b 373d 07c3 c43d d06a 433d 2058 ae3d
00000070: 4408 013d fd0c 0d3c 6a68 e73d e5e0 bfbd
00000080: f1fc 66bd 391d 16be 0339 17ba d579 5a3d
00000090: 3247 72bd c1f1 f63d 51a6 913d c739 d9bc
000000a0: 7212 ab3d 741f adbd d42e a93b bd5a 053d
000000b0: f075 dcbd 54f3 573d 9ffd 253d c6c0 a3bd
000000c0: 5656 1b3d 5977 a43d e1f9 983c 94b1 ef3d
000000d0: 6f1b 4cbb 7543 da3d 1e77 b63d 832d 503c
000000e0: 23dc 1f3d 00e0 a43c 9b32 d5bd 5a73 4dbb
000000f0: 6035 c4bd 68a7 eebd 3fa2 313d 5ca7 8abc
00000100: 6856 123d ca70 26bd b37b 093e d11a 31bd
00000110: f8c6 1a3f f0ad 9fbd fb22 b8bd 73ff f03c
00000120: 42cf b6bd 62b7 bb3d 6076 0bbe c8a2 23be
00000130: 26ca fc3c 520f 883d c0ec dc3b 2fed 82bd
00000140: 6618 b23d d467 01bd adbd e43d f7b3 b43d
00000150: c90f d03d bb77 d7bd 657b dbbd 64fc b63d
00000160: c303 e3bd aa3d fbbd 7a8c df3d 70ad 4cbd
00000170: 1892 02bc 52c8 a33e 0755 a23d 974e 80bd
00000180: b281 1c3d cb14 fb3d ca9f a9bd f33a 0bbd
00000190: bb79 c1bd 091e c83d c81c f0bd c684 e9bd
000001a0: e489 823d 86f3 9e3c e88c 0c3d b0e1 833c
000001b0: e174 b73c 8811 983c ab16 bebd 7feb 32be
000001c0: 8ac2 863d 6800 8abc 4ea6 88bd 0fe9 e4bd
000001d0: 2d4c 56be cbfb 103e 1bbf d1bc 9990 a23e
000001e0: daf7 76bd c0db a73d bc12 103e 726f b13d
000001f0: 1c58 2b3d 5bb6 14be 05fd 9e3d 03ff b33d
00000200: 08f5 113e dd83 883d 101f 64bd 5b82 14bd
00000210: 2ada ebbc 37ad a3bd 4e11 023e 2180 0abe
00000220: 7eed e93c fb40 a0bd f1f5 5bbd aaa3 c93c
00000230: c6a5 a13c 6adb 533d 8a40 523b 7d53 543c
00000240: 8018 023e 60a7 993d 6603 ecbc f510 97bc
00000250: 6173 6fbd b65e a43c 42f7 a7bd 6ee2 7a3c
00000260: 26aa 5ebe b3b3 593c 0186 13be 9eb4 c53b
00000270: 3713 743d 1ca4 17be cfdf 17bd e9bf 08be
00000280: 3c87 66bd 23cc 35be 7ff1 4dbc 4b5b 223e
00000290: a622 7ebd a8e0 f0bd 46bb 47bc d0c1 8bbd
000002a0: 6b44 1bbd b800 f93b f8af 06be 612d 11be
000002b0: 900e 9bbd 077d 9939 d39e 81be c55d 1dbd
000002c0: 8ff2 27be f5e7 2cbc 2fc7 a9bd e372 84bc
000002d0: ef4f 90bd be2a afbc 06eb 893d e008 87bc
000002e0: f346 b13d 769d 5cbe a45a 173a eeb3 48be
000002f0: e753 afbd 71a0 5ebe 7190 1a3e 46be d1bd
00000300: b9a2 f2bd 17f5 7abc 0e25 88bd 06a5 7abd
00000310: 3d5c f93d a3d4 dfbd f730 493d 8a7b 96bd
00000320: c1a7 c1bd e900 87bd 20fd 913d 7ca6 163b
00000330: f6d8 d23c 3f5a 9c3c a94f e43d 4049 94bd
00000340: b99d bc3c f8cf 463e 622e 07be a957 8f3d
00000350: 2eda 37bd ab40 15bd 23e6 793d f4ae 79bd
00000360: 812d a43c 7766 753d 8170 f13d f56e b33c
00000370: fcc7 263c e27b d9bd 812f 9abd b3c5 f7bd
00000380: de96 78bd 9191 8d3d 8d9e a43c d618 04be
00000390: 092f a23d 0d1a c63d 8bfa 4f3d 2d6b 0abb
000003a0: 61ac f03c f71c dbbd 8650 dabb a098 80bd
000003b0: 5d86 62bc 195c 9b3d c01c d8bd fb8c 223d
000003c0: f2e9 ef3d cbc0 89bd 1315 6e3d 977e 7c3d
000003d0: 5016 b2ba 5f22 2ebd c39a 97bd fc88 b2bd
000003e0: 7ad9 06be fd2e 273d e551 a23d c77a a13d
000003f0: 4d1f 3bbb 51de 7f3b 6845 e0bd c83b 5a3c
-0.028106535 0.112854965 -0.07339436 0.06090296 0.011834545 0.004067469 0.12574573 -0.019652365
0.086736105 -0.06471742 -0.079846375 0.018212873 -0.039508954 0.002680074 0.0993689 -0.06078181
-0.13968247 0.008917286 0.07790702 0.087423705 0.040744256 -0.0422802 -0.041720808 -0.08963472
0.044780426 0.09607511 0.047709286 0.08512902 0.031502023 0.008609054 0.11299212 -0.09369067
-0.056393567 -0.14659585 -0.0005768688 0.053338844 -0.05914993 0.1205783 0.071118005 -0.026516808
0.083531275 -0.08453265 0.005163053 0.032557238 -0.10764682 0.05272229 0.040525075 -0.07995753
0.037924133 0.08030576 0.018673839 0.11703792 -0.0031144281 0.10657398 0.089094386 0.012706163
0.039028298 0.020126343 -0.10410043 -0.0031349272 -0.09580493 -0.11653024 0.04336762 -0.016925506
0.035726935 -0.040634908 0.13426094 -0.043238465 0.6045985 -0.07796848 -0.08991047 0.029418683
-0.0892625 0.09165837 -0.13619375 -0.15980065 0.03085811 0.06643547 0.00674209 -0.063928954
0.0869606 -0.03159316 0.1116899 0.08823388 0.10159261 -0.10520884 -0.10716895 0.089348584
-0.11084702 -0.12267621 0.10915466 -0.04997009 -0.007969402 0.3198877 0.07926374 -0.0626499
0.038209625 0.12259825 -0.082824305 -0.033991765 -0.09447046 0.09771354 -0.117242396 -0.11402278
0.06373957 0.01940323 0.034314066 0.016098827 0.0223946 0.018563047 -0.09281667 -0.17472647
0.06580074 -0.016845897 -0.06672345 -0.11177265 -0.20927496 0.14158551 -0.025603822 0.31750944
-0.060294963 0.08196211 0.14069647 0.08663835 0.041832075 -0.14522688 0.077631034 0.08788874
0.14253628 0.06665776 -0.055693686 -0.03625713 -0.028790552 -0.079920225 0.12701914 -0.1352544
0.028555628 -0.07824894 -0.053701345 0.024614174 0.019732367 0.05172292 0.0032081925 0.012959358
0.12704659 0.075026274 -0.028810214 -0.018440703 -0.058459643 0.020064693 -0.082014576 0.015312774
-0.21744594 0.013287473 -0.14406587 0.006033494 0.059588637 -0.14808697 -0.037078675 -0.13354458
-0.056281313 -0.17753653 -0.012569784 0.15855138 -0.062044762 -0.117616 -0.012190646 -0.06824076
-0.037907045 0.0075989626 -0.13153064 -0.14177467 -0.07571137 0.00029275587 -0.25316486 -0.038419504
-0.16401123 -0.01055335 -0.082899444 -0.016168064 -0.07046496 -0.021382686 0.0673428 -0.016483724
0.086561106 -0.21544442 0.00057736994 -0.19599888 -0.08560925 -0.21740891 0.15094163 -0.1024137
-0.11847443 -0.015317223 -0.066476926 -0.061192535 0.12175796 -0.10929229 0.049118962 -0.07347782
-0.09455825 -0.065919705 0.07128358 0.0022987416 0.02573822 0.019086001 0.111480065 -0.07240534
0.023024427 0.19415271 -0.13201287 0.06999142 -0.044885807 -0.036438625 0.06101049 -0.060957864
0.02004123 0.05991217 0.117890365 0.021903494 0.010179516 -0.10619332 -0.07528592 -0.12098255
-0.060690753 0.0691253 0.020095134 -0.12900099 0.079191275 0.096729375 0.050776046 -0.002112101
0.029379072 -0.10698884 -0.006662431 -0.06279111 -0.01382598 0.075859256 -0.105523586 0.03968523
0.117145434 -0.067262255 0.058125567 0.061644163 -0.0013586972 -0.042513248 -0.07402565 -0.08717534
-0.13168898 0.040816296 0.079257764 0.07884746 -0.0028552592 0.0039042423 -0.10950738 0.013319917

decoder.lstm.bias_ih_l0 f4 [256]
00000000: cbbf 30bd 3054 313d e0cc 3e3d eaf1 74bc
00000010: e190 ddbd 582e 773d 5604 6bbd cc04 463d
00000020: 23fd 8e3a 20c3 39bb de81 513d b799 bfbc
00000030: 19fc e23d 3e5a 993c a103 99bd 8ecd 18be
00000040: 7005 453d 4558 34be ad95 623d aae1 8f3d
00000050: 3fb7 ab3d f004 6abd 66ae 1a3e f067 94bc
00000060: de37 19bd 2079 46be 062a b73d 2d68 88bd
00000070: 85a8 b23d 705f c9bc 5b0d 0e3e 3d94 953d
00000080: f85b 9e3c 14a0 703d ad78 93bd e4f4 523c
00000090: 94d2 1a3d b963 6fbc 7614 cdbd 41b0 31be
000000a0: 0fa5 acbb d224 c4bd 3b48 2fbe 9ead 9fbc
000000b0: 9874 be3c 8251 eabd d465 12bd ad9b 79bc
000000c0: 3bf9 a4bd 8eea c93d b910 9abd 5452 a1bc
000000d0: f22a 5dbd 631a 3d3c 7c79 44bc 9986 61bd
000000e0: fed2 17bd 342e e2bd 433a 023e 5a29 33bd
000000f0: c263 903d 232a 7cbc 04e8 3dbe d5b4 e5bd
00000100: 53d2 253d e151 b8bd 114f 923d 7f38 ae3c
00000110: f20d 9e3d 7438 25bd bb6e 81bd 9397 9abd
00000120: 2b6f 1c3c 9d6d f83c 56e7 963b 597c 203e
00000130: 9c74 f63d ada5 ec3d 5396 013d 2086 b5bd
00000140: 0b3a 8bbb 749c 1e3e 1318 1ebd 9044 89bd
00000150: 17cd 0c3e e8ae fb3d 2a3e 123e 49e9 aebd
00000160: 28ba c2bd 89d3 41bd 6d81 a33c 9ba9 cdbd
00000170: 5ace 44bd 9ad2 aa3d 5968 ff3d bf28 cebd
00000180: 33d7 d2bd 960c 573d e1cd e03d 3c14 bb3d
00000190: 715b bf3d bc53 92bd b84b cabd 4780 22be
000001a0: 8f01 363b 37f1 b33d d726 a63d c868 efbb
000001b0: bb9d 74bc f2a7 3cbd de04 b2bc 816e 3b3d
000001c0: b0f1 9a3d f0b7 3a3c d6f3 443d 7a15 88bc
000001d0: 5bbc 2bbd 3cff c93d 779b 1c3e be6e 8c3e
000001e0: 7b30 84bd ada0 423c 95e5 de3c 8261 a8bd
000001f0: 1a1c 10bd c6b8 9f3d 779b bb3d 9dc2 9bbd
00000200: ea84 c6bc d53e 993d ace8 1c3d 5e47 0cbe
00000210: 7130 a9bd d659 543b abf4 8cbc c5c9 debd
00000220: 21ff 5dbd 639a 023d 4c65 083e e66a 89bd
00000230: 1058 3c3d bf21 a1bd a704 cb3d c255 3bbc
00000240: 848e a63d a752 2f3c 4f0e 7f3d 29e9 ec3b
00000250: aef9 07bd b3eb 03bd 59c5 1f3e a776 82bb
00000260: 4118 153e 4ae9 a33d da6b 983d da9e 3c3b
00000270: fbbe 99bd 7f6f aebd b1e7 e93c e55c a33d
00000280: 6ea6 39bd 2870 c13d a698 dabd 3631 b7bd
00000290: 6165 c53d 7d53 533d 7d71 383c 0672 2c3c
000002a0: 2eed aa3d 076e c4bd e8e2 49bd b902 b53d
000002b0: 0dbd b8bc 3f63 2c3c e67c d03c 7cd7 c63d
000002c0: ad18 f53d dd45 8ebd aa6a 163e 9507 d53d
000002d0: 7028 733d b8c1 a23d 9fb4 04be 35b1 bdbd
000002e0: a928 13be 4056 eabc 5736 1fbe 2203 43bd
000002f0: cc54 9b3d b391 063e 2a6d 3ebc 9180 a5bd
00000300: 8303 0d3e c8c1 a93c 3e65 aa3d 7e6f d93d
00000310: cf03 c63d 23dd 8dbd 6285 8cbb 0c43 ebbc
00000320: db98 10be 5336 603d edfa b9bd 2c3c 793d
00000330: e65e 6abd 20a7 23bd 5930 aa3d a05d 1bbe
00000340: d2b6 89bd 2d09 e83c 27df 633d 1143 c23c
00000350: 98cc 9fbd 82f5 1bbe 7446 dd3d 4482 2d3d
00000360: 4316 223d 7b18 afbd 81d9 bcbd 5b96 4c3d
00000370: 1ffa bfbc df51 20bd 94ee ff3d 3c8a 3b3d
00000380: ab6a 02bd b1d4 c9bd b841 d0bd 34d2 883d
00000390: 1bc6 b43b c2d3 bfbb 1da0 4a3d 6d03 0dbe
000003a0: 0d2b 15bd dcc5 653d c23b 07be 4dd3 30bd
000003b0: d5b7 83bd 828a 953c 4590 c73d 61c9 0fbd
000003c0: 28e9 4aba 1082 823d 146f 783d 630a 013d
000003d0: 54c1 f439 ba65 7bbd 8b34 ef3c bad2 253e
000003e0: 82c6 923d 7dcf f13b 70d7 9c3d 798c 31bd
000003f0: 4d60 76bb cc83 fabb 022e ccbc cb13 563d
-0.043151658 0.043293178 0.046582103 -0.014950255 -0.10818649 0.06034693 -0.057377182 0.04834442
0.0010909181 -0.0028345063 0.05114924 -0.023388727 0.1108324 0.018719789 -0.07471395 -0.14922163
0.04810089 -0.17611797 0.055318523 0.07025464 0.08384561 -0.057133615 0.1510559 -0.018115968
-0.037406795 -0.19382143 0.08943562 -0.06660495 0.08723549 -0.024581641 0.13872282 0.07303665
0.019330963 0.058746412 -0.072007515 0.012875769 0.03779848 -0.014611178 -0.10013668 -0.17352392
-0.0052687 -0.095773354 -0.17117397 -0.019491967 0.023248956 -0.11441328 -0.035741642 -0.01523487
-0.080553494 0.09859191 -0.07522721 -0.019692577 -0.053996034 0.011541936 -0.011991855 -0.055060003
-0.037066452 -0.11043969 0.12717538 -0.043740608 0.07050277 -0.015390906 -0.18545538 -0.112161316
0.040483784 -0.08999992 0.07143987 0.021267174 0.077175036 -0.04033704 -0.06319948 -0.07548442
0.009547989 0.030325705 0.004605214 0.15672435 0.1203396 0.11555038 0.0316375 -0.08863473
-0.0042488626 0.1548937 -0.038597178 -0.067025304 0.1375011 0.1228922 0.14281526 -0.08540589
-0.09508163 -0.047320876 0.019959176 -0.10042115 -0.048048355 0.0834095 0.124710746 -0.100663655
-0.10294952 0.052502237 0.10976768 0.09134719 0.09343613 -0.07144877 -0.098777235 -0.15869246
0.0027771925 0.087862425 0.08112877 -0.007306192 -0.014930184 -0.046058603 -0.021730836 0.04575968
0.075656295 0.011396393 0.048084103 -0.016611803 -0.041927677 0.09863135 0.1529368 0.2742824
-0.064545594 0.011879128 0.027209083 -0.08221723 -0.03518305 0.077989146 0.09160512 -0.07605479
-0.0242333 0.074826874 0.03830783 -0.136991 -0.082611926 0.003240218 -0.01720651 -0.10878328
-0.054198388 0.031885516 0.13319892 -0.067098424 0.04598242 -0.07867765 0.09912997 -0.0114340205
0.081326514 0.010700858 0.062269505 0.0072299433 -0.033197097 -0.032207202 0.15602626 -0.0039814296
0.14560033 0.08003481 0.07442446 0.0028781206 -0.0750713 -0.0851736 0.028552862 0.079767026
-0.045324735 0.0944522 -0.10673647 -0.08944933 0.09638477 0.051593293 0.011257526 0.010525232
0.0834602 -0.095912986 -0.04928866 0.0883841 -0.022551084 0.010521709 0.025450181 0.09709069
0.11967597 -0.06946919 0.14689127 0.10401837 0.059364736 0.07947105 -0.12959526 -0.09262315
-0.1437098 -0.02860558 -0.15548073 -0.04761041 0.07584533 0.13141517 -0.011622706 -0.08081163
0.13770871 0.020722285 0.08320092 0.106169686 0.09668695 -0.06926944 -0.0042883614 -0.028718494
-0.1412081 0.054739308 -0.090810634 0.0608484 -0.05721941 -0.039954305 0.08310003 -0.15172434
-0.06724323 0.028324688 0.055632737 0.02371362 -0.07802695 -0.15230373 0.108044535 0.04236056
0.03957201 -0.08549591 -0.09221173 0.049948078 -0.023434697 -0.03914058 0.12496677 0.045786127
-0.031840008 -0.09855021 -0.10168785 0.06680718 0.00551678 -0.005854101 0.049469102 -0.13770838
-0.03641801 0.056096897 -0.1320639 -0.043170262 -0.064315476 0.018254522 0.09744314 -0.03510416
-0.00077404315 0.06372464 0.060652807 0.031504046 0.00046683347 -0.06137631 0.02919986 0.16193667
0.071667686 0.007379471 0.07658279 -0.043346856 -0.003759402 -0.007645106 -0.024924282 0.05226497

decoder.lstm.bias_hh_l0 f4 [256]
00000000: 9c62 ac3d fd00 23be 1a6e bdbd 2947 4dbd
00000010: 1209 5bbe bce6 37bd 9ea2 9f3d e530 133d
00000020: 19aa 79bb 78c1 ce3d dc22 c03d 92ed 6abd
00000030: 2fb2 2b3d 5214 89bd 4c04 84bd 7c65 42bd
00000040: b2d7 853d 9913 e6bc a24c bfbd f16c d23c
00000050: dbc3 7bbd a93a 0ebe 8fbb 41bd 0bbf 703d
00000060: a3c6 51bd c85a 6bbd 66ec ac3d 8832 b8bd
00000070: 7785 053d 42fe 6dbd 92f5 d53d dfdc 8e3d
00000080: c1ea 7b3d 625c 00be 65cd e3bd bee5 3a3d
00000090: 0d4a f139 f8f9 293d 8c6d fcbd 2ee4 31be
000000a0: c0d8 e23d 57b0 85bd 1e69 223c 7887 2cbe
000000b0: e97d 88bd 84ba 1bb4 8bc0 bebd fc7f 84bd
000000c0: 7ae9 993c 47ec 3ebd 694d 8f3d 41b6 88bd
000000d0: 8feb 36bd d71c 5e3d 1a7c 99bc 19cb f93c
000000e0: 4285 d53b ecfc bf3d 98d6 6b3a 5a30 8a3d
000000f0: 0cb0 053d 1d81 523d 90cd 37be 2ec4 0dbe
00000100: 220b d83d bae4 7b3b 43a4 9a3d 9d81 083e
00000110: b243 953d e622 1cbd 9062 afba ef9c a23c
00000120: 827e 2cbe f513 c43d 1fe2 8dbd e230 013e
00000130: f655 993d 8e76 ccbd fafb 933d b36b 53bd
00000140: 2f91 323d 10e8 1a3e d55c 933d ed68 b23d
00000150: 17f9 febc caea d9bd 0fb7 563c 059f 96bb
00000160: 2c50 b3bd 3cfa 793d f833 0b3c 9493 863d
00000170: d943 463d b97b 5d3e a8c6 1c3e 3f6b f53c
00000180: 959a e5bd 5a62 a43d 8ab5 8c3d df70 3b3d
00000190: 4d22 0cbc f840 93bd 7a3e 623d 21e6 2cbe
000001a0: 2d55 bebd 4053 46ba feeb 7cbc 95a9 fbbd
000001b0: 024b 55bd 6bcf eebd 8cf6 5ebd 481b b1bd
000001c0: 8dbb 88bd 2c74 0f3e c460 b33d 01d3 243e
000001d0: 2edf 913c 68d6 1bbd b9bf 263e 228e 7e3d
000001e0: 2c43 febb 3262 1abd 9f6f 4bbd 63fa cebc
000001f0: d960 fdbc 7414 973b 2703 b33d 3041 9ebc
00000200: d04d 0ebe 264e e73b b97e 3bbd 4571 e3bd
00000210: e44a 5f3d 07da e3bd 92b9 843c 8082 ef3d
00000220: 238a 92bb 320f 393d ada7 f13c 0f68 0d3e
00000230: 8351 b53d ad67 ed3d 6104 a1bd 1054 153c
00000240: c374 9cbd 86e0 ffba 606e efbd 5042 b4bc
00000250: 77ae 063e d55a 8d3d 65b8 c23d 1816 6bbd
00000260: f635 4a3d 5bb9 6d3d 964e fbba f367 ee3d
00000270: 4a5c 14be 1d7b 263d 6d00 fc3d 51e8 c13d
00000280: df08 95bd f3db 27bc 85ed 063e bc1d 353d
00000290: af06 c0bd caee afbc 3503 80bd 86ef 883d
000002a0: e591 1cbe 41e1 06be f6e1 c33d 03a7 2b3d
000002b0: a15b 2938 4d6e b63c d700 fc3d c2c0 6b3d
000002c0: 6533 9a3c ecbc 13be e6c0 0b3e b34d 043e
000002d0: eed3 8f3d a4ec 62bd 91b5 903c 6c4c abbd
000002e0: a9fa 46bd 39cf ae3d c15d eebc 447f 0f3e
000002f0: 94b0 ad3d c688 0b3d 597a 47bc 6c6a 2ebd
00000300: 82d6 093e b953 963d 38c5 b63c 8a30 ff3d
00000310: 7558 c03d 7434 08bd bc66 3d3d de56 ddbd
00000320: 3cfb c03c 3428 aabd 21b1 863d 31b6 d33d
00000330: 8c9a e93d 66e7 9abd 65fa eebd 1b1d 9ebd
00000340: f834 fcbd 8fde c73b a961 2b3d 34f7 00be
00000350: a442 063e e858 32be 2269 de3d fa2b fb3d
00000360: e536 d0bd d7d7 f9bd 6947 7a3c 1240 01be
00000370: 9b2a 5ebd 086f 093e 428e 613d 3a2c 803d
00000380: 4842 bfbd b983 943d 832c f03d 5028 fcbc
00000390: d15f 363c bc11 93bc 166d afbd e454 67be
000003a0: ff0d 443d d91d c33d d86b 973d 708e 09bd
000003b0: 48a3 b3bd 932b 0abe 85ff d2bd f5bb 8bbd
000003c0: 1caf f73d 17f9 5bbd 9312 6a38 5815 223d
000003d0: 6dd3 d33d 26dc 34bd 3f48 d7bb 71e3 df3d
000003e0: 3375 e13d 538c 833d d468 073c e361 d7bd
000003f0: 02dc 773d 83a0 523d f7c1 babd 3707 7abd
0.08417246 -0.15918346 -0.09249516 -0.05011669 -0.21390179 -0.04489778 0.07794689 0.0359353
-0.003809577 0.10095495 0.09381649 -0.05735547 0.041917976 -0.06693329 -0.06446132 -0.047460064
0.06535281 -0.028085517 -0.093407884 0.025686713 -0.06146608 -0.13889565 -0.04729801 0.058775943
-0.051214825 -0.057459623 0.08443527 -0.08994013 0.032597985 -0.058103807 0.104472294 0.069757216
0.061503176 -0.12535241 -0.1112316 0.045629255 0.00046022274 0.041498154 -0.12325582 -0.173722
0.11076498 -0.06527775 0.009912757 -0.16848552 -0.066646405 -1.4503354e-07 -0.093140684 -0.064697236
0.018788088 -0.04661205 0.06997187 -0.06675387 -0.04465824 0.054226723 -0.018735934 0.030492352
0.0065161297 0.09374413 0.00089965155 0.067475036 0.032638595 0.051392663 -0.1794951 -0.13844368
0.105489984 0.0038435892 0.07550862 0.13330694 0.072883025 -0.03811922 -0.0013380814 0.019850222
-0.16845134 0.09574119 -0.06927895 0.12616304 0.07487099 -0.0998355 0.07225795 -0.05161638
0.04359549 0.15127587 0.07195441 0.08711419 -0.031124635 -0.106404856 0.013105168 -0.0045965933
-0.08755526 0.061029658 0.008496277 0.06571117 0.04840455 0.21629228 0.15310156 0.029958365
-0.11211125 0.080265716 0.06870563 0.04576194 -0.0085531 -0.07190126 0.055235364 -0.16884662
-0.0929359 -0.0007565506 -0.015437124 -0.122882046 -0.052073486 -0.116606556 -0.054434344 -0.086477816
-0.066763975 0.1400916 0.08758691 0.16096117 0.017806616 -0.03804627 0.16284074 0.062147267
-0.0077594724 -0.037691303 -0.049666997 -0.025265878 -0.03092997 0.0046105925 0.08740836 -0.019318193
-0.1389687 0.0070588766 -0.04577515 -0.11105589 0.05451478 -0.1112557 0.016201768 0.11694813
-0.0044720336 0.045180507 0.0294989 0.13809226 0.08853438 0.1159204 -0.07862163 0.00911428
-0.07639458 -0.0019521869 -0.11690974 -0.022004277 0.1315249 0.069020905 0.09507827 -0.057394117
0.049367867 0.058038097 -0.0019173201 0.116409205 -0.1448833 0.040644754 0.12304769 0.09468139
-0.07277083 -0.010245311 0.13176544 0.04421781 -0.09376275 -0.021476168 -0.06250612 0.066863105
-0.1529003 -0.13171865 0.09564583 0.04190732 4.0378076e-05 0.022269392 0.12304848 0.057556875
0.018823335 -0.14427537 0.13647804 0.12920265 0.07022844 -0.05540146 0.017664703 -0.08364186
-0.048578892 0.08535618 -0.02909744 0.14013392 0.08480945 0.034065984 -0.012175166 -0.04258196
0.13460734 0.073401876 0.022310838 0.1246043 0.09391872 -0.03325315 0.046240553 -0.10807584
0.023557298 -0.083084494 0.065767534 0.10337485 0.114064306 -0.07563667 -0.11668853 -0.07720395
-0.123147905 0.006099529 0.041841183 -0.125943 0.13111359 -0.17416728 0.10859896 0.12264247
-0.1016672 -0.12199371 0.015275815 -0.12622097 -0.05423985 0.13421261 0.05506731 0.062584355
-0.09338814 0.072516866 0.1172724 -0.030780941 0.011131243 -0.017952792 -0.08565728 -0.22590977
0.04786491 0.09527177 0.073936164 -0.033583105 -0.08771378 -0.13493185 -0.10302643 -0.06822959
0.12093946 -0.053704347 5.5807246e-05 0.039571136 0.10343061 -0.044155262 -0.0065698917 0.10932053
0.11008682 0.06423249 0.008264739 -0.10516717 0.06051255 0.051422607 -0.09119027 -0.061042037
