models/modello_lstm_20250507_0717_posttrained_20250712_1057.pth (torch, 81935 bytes, 6 tensors)

lstm.weight_ih_l0 f4 [256, 10]
0	0x3f1a78c0	0.603405
1	0x3edc263b	0.42997918
2	0x3f2b5b9d	0.66936666
3	0x3f1199b2	0.56875145
4	0x3e0bf02f	0.13665842
5	0x3e576730	0.21035457
6	0xbd04164b	-0.032247823
7	0x3da607ae	0.081069335
8	0x3ddc4dcb	0.10757025
9	0x3cd7ac5f	0.02632731
10	0x3d0c1132	0.034196086
11	0x3dfda3fe	0.12384795
12	0x3e6d8152	0.23193863
13	0x3d2d06be	0.042242758
14	0x3dc27335	0.0949463
15	0x3dd2544b	0.10269984
16	0x3e4098a5	0.1880823
17	0x3e85fdc4	0.2617017
18	0x3dd769e1	0.10518242
19	0xbdbca53f	-0.09211206
20	0xbbc28dbc	-0.005937306
21	0x3e61fc45	0.2206889
22	0x3e4e0221	0.20118
23	0x3dad79a5	0.084704675
24	0xbba1876b	-0.004929473
25	0xbc98cf36	-0.018653493
26	0x3e1adbbb	0.15122883
27	0x3e1f0a92	0.15531376
28	0x3d024bbd	0.03181051
29	0x3e2101a8	0.15723288
30	0x3e217dc2	0.15770629
31	0x3dacac29	0.084312744
32	0xba70afbf	-0.00091814616
33	0x3d8e201f	0.0693972
34	0x3de6684b	0.11250361
35	0xbe35df35	-0.17760928
36	0xbd6e4398	-0.05816993
37	0xbd9715e2	-0.07377221
38	0xbe097472	-0.13423327
39	0x3d0de80f	0.034645136
40	0x3ecf2ef5	0.40465513
41	0xbda63d46	-0.08117156
42	0x3e073102	0.13202289
43	0x3e902841	0.2815571
44	0xbd62fdb7	-0.055417743
45	0x3e85c163	0.26124105
46	0x3e9bd7e6	0.30438155
47	0x3e99eb1b	0.30062184
48	0x3e563cdc	0.20921654
49	0x3d895b3d	0.067068554
50	0xbd1a9fcc	-0.03775005
51	0x3e1c9242	0.15290168
52	0x3e94cab1	0.2906089
53	0x3e6bb08f	0.2301657
54	0x3b1d56df	0.0024008078
55	0x3db42226	0.08795576
56	0x3dcc19f3	0.09965887
57	0x3d2511a8	0.04030004
58	0x3e11c837	0.14236532
59	0xbd032550	-0.032018006
60	0x3ea61c50	0.32443476
61	0xbec11613	-0.37712154
62	0x3e5c13f6	0.2149199
63	0xbcea3f06	-0.028594505
64	0xbe475d75	-0.19469245
65	0x3ed4dd98	0.41575313
66	0xbc59eb49	-0.013300725
67	0x3ed87a16	0.42280644
68	0x3ef682e7	0.48146746
69	0x3c387582	0.011258485
70	0x3d8e78f8	0.06956667
71	0xbc60fe23	-0.013732466
72	0x3cb218ce	0.021740343
73	0xbc82a64a	-0.015948433
74	0x3c1855fe	0.009297846
75	0x3bcd830d	0.006271726
76	0x3d414722	0.04718698
77	0x3d917565	0.07102469
78	0x3df225ef	0.118236415
79	0x3d8cfcd4	0.06884161
80	0x3df3c815	0.11903397
81	0x3dbd5add	0.092458464
82	0x3e85a481	0.2610207
83	0x3d95d665	0.07316283
84	0xbc8a4bcd	-0.016881848
85	0x3e843a30	0.25825644
86	0x3e2fd80c	0.17172259
87	0xbcc88aae	-0.02448019
88	0x3e2ace9f	0.16680382
89	0x3e2bfdbd	0.16796012
90	0xbe7c7742	-0.24654868
91	0x3e3e8e12	0.18608883
92	0x3ea4f5fd	0.32218924
93	0x3def0fa3	0.11672904
94	0xbd873e93	-0.06603732
95	0x3d6e5a13	0.05819137
96	0xbdab918a	-0.08377369
97	0x3e3a000c	0.1816408
98	0x3e0815ac	0.13289517
99	0x3db9abbe	0.0906596
100	0x3ce13acd	0.027493859
101	0xbd2acbc3	-0.04169823
102	0x3d50baff	0.050959583
103	0x3c147b8f	0.009062662
104	0x3dd2655b	0.10273238
105	0x3e231bd3	0.15928583
106	0x3e854542	0.26029402
107	0x3e5c170a	0.21493164
108	0x3e8b8091	0.27246526
109	0xbc915d85	-0.017744789
110	0xbe99e818	-0.30059886
111	0xbebf5b6d	-0.3737444
112	0xbecc3928	-0.39887357
113	0x3d10d449	0.0353587
114	0x3d3f1d82	0.046659
115	0xbcd94096	-0.026520055
116	0xbc9a9f3b	-0.018874755
117	0x3dcd7d18	0.10033625
118	0x3d89b5d1	0.06724132
119	0xbe143602	-0.14473727
120	0x3ed7d98f	0.42158172
121	0x3ea1758b	0.3153499
122	0x3e563062	0.20916894
123	0x3e8e1dd4	0.27757132
124	0x3ca3759c	0.019953541
125	0x3ecea751	0.40362027
126	0x3df55689	0.11979396
127	0x3e3d5cd1	0.18492438
128	0x3ea7f4e3	0.3280402
129	0x3e483d13	0.19554548
130	0x3e668cbd	0.22514625
131	0xbc572624	-0.013131652
132	0x3e8b2145	0.2717382
133	0xbd079139	-0.03309748
134	0xbe3686b2	-0.1782482
135	0xb8b414d5	-8.586949e-05
136	0x3e653809	0.22384657
137	0x3e9b07ef	0.3027949
138	0x3e7894d6	0.24275526
139	0x3d4e446b	0.050358217
140	0x3e4170c0	0.18890667
141	0x3e77986a	0.24179235
142	0x3e34d305	0.17658623
143	0x3d5bd767	0.05367222
144	0x3dc1fcd9	0.09472055
145	0x3e0eff1d	0.13964505
146	0x3e0f97c1	0.14022733
147	0xbd9fccfe	-0.07802771
148	0x3c7890e5	0.015171264
149	0x3da49cfd	0.08037756
150	0x3e10f3fa	0.1415557
151	0x3e90518b	0.28187212
152	0x3e2d2edd	0.16912408
153	0x3ea215d5	0.31657282
154	0x3e2360bf	0.15954874
155	0x3d2e44d9	0.042546127
156	0x3e4f120d	0.2022173
157	0x3e229253	0.15876131
158	0x3d3bd41c	0.04585658
159	0x3e0e0529	0.13869156
160	0x3ea093f7	0.31362888
161	0x3e4c1c06	0.19932565
162	0x3eb043e4	0.34426796
163	0x3e93a80f	0.28839156
164	0xbc41975f	-0.011815875
165	0x3d55e3a6	0.052219056
166	0x3ccb1137	0.024788482
167	0x3ea29195	0.31751695
168	0x3dd45f57	0.10369747
169	0x3dc13e3f	0.094357006
170	0x3dcae74f	0.099074
171	0x3df9367c	0.12168595
172	0x3ebf99b7	0.37421963
173	0x3e85b126	0.26111716
174	0x3c039aed	0.008032543
175	0x3d6c0e9c	0.05763112
176	0x3d926de6	0.07149868
177	0x3ea11b99	0.31466368
178	0x3e5a34d1	0.2130921
179	0xbd8eb2ef	-0.069677226
180	0x3e1bc2f3	0.15211086
181	0x3e8b5ff8	0.27221656
182	0xbd853b25	-0.065054215
183	0x3b47921e	0.0030452083
184	0x3e5cc2b8	0.21558654
185	0x3e386dec	0.18010682
186	0xbc4b43a4	-0.0124062635
187	0x3e23a9bf	0.15982722
188	0x3dcee2f4	0.101018816
189	0x3d824295	0.06360356
190	0x3dbd62ab	0.09247335
191	0x3b8071d9	0.0039198217
192	0x3d767199	0.06016693
193	0x3e38d1de	0.18048808
194	0xbd5959c9	-0.05306414
195	0xbda77e2b	-0.081783615
196	0xbe1de469	-0.15419163
197	0xbc9baaf0	-0.019002408
198	0x3ce993bf	0.028512834
199	0x3d933943	0.07188656
200	0xbc9f278d	-0.019428039
201	0x3cfe0637	0.031008823
202	0x3df1ccb8	0.11806625
203	0x3e2da541	0.1695757
204	0x3d9041ad	0.07043777
205	0x3e9af594	0.30265486
206	0x3d3791e3	0.044816863
207	0x3e8b0a7f	0.27156445
208	0x3e9ae0e2	0.30249697
209	0x3dd1ab24	0.102377206
210	0xbe984959	-0.2974346
211	0x3cff1adb	0.031140735
212	0xbe051e2c	-0.12999791
213	0x3da2027a	0.079106286
214	0x3dd26bea	0.10274489
215	0xbbd23ccf	-0.0064159404
216	0xbd067b06	-0.032832168
217	0x3c9f7deb	0.019469222
218	0x3cb137e7	0.021633102
219	0x3db58674	0.088635355
220	0x3db52653	0.088452004
221	0x3e41e8d2	0.1893647
222	0x3e92cea2	0.28673273
223	0x3e8ec9e0	0.27888393
224	0xbd992dd1	-0.07479442
225	0xbbbac3eb	-0.005699625
226	0x3d22d561	0.039754275
227	0x3e19459b	0.14967959
228	0x3db53c22	0.0884936
229	0x3def68fe	0.116899475
230	0x3e6bba7d	0.23020358
231	0x3e22fa0b	0.15915696
232	0x3e414216	0.18872866
233	0x3e5261b0	0.20545077
234	0xbd5de05b	-0.05416904
235	0x3d999e4e	0.07500897
236	0x3d1ee493	0.038792204
237	0x3e206fa2	0.15667585
238	0x3dd97fa8	0.106200516
239	0xbd49c288	-0.049257785
240	0xbd58eb17	-0.052958574
241	0x3dcd9809	0.10038764
242	0x3e92ff7c	0.28710544
243	0x3e28964a	0.1646358
244	0x3d97e101	0.07415963
245	0x3e8a3818	0.2699592
246	0x3df40d98	0.11916655
247	0x3e5d8700	0.2163353
248	0x3e35ecc0	0.17766094
249	0xbd19691c	-0.037453756
250	0xbe9671b7	-0.29383633
251	0xbe4b6285	-0.19861801
252	0xbe9a49c9	-0.3013442
253	0xbd4c8c45	-0.04993846
254	0x3dedb94a	0.11607607
255	0x3e1e3971	0.154516

lstm.weight_hh_l0 f4 [256, 64]
0	0x3ed3a3f2	0.41336018
1	0xbde6a853	-0.11262574
2	0xbe6daad9	-0.23209704
3	0xbeabda1c	-0.33564842
4	0x3bf58b4e	0.007493413
5	0x3e08ceda	0.13360158
6	0x3e77716c	0.24164361
7	0xbd07eda2	-0.03318561
8	0xbdfcd6cb	-0.12345656
9	0x3e2ef889	0.17086996
10	0x3ed88abe	0.42293352
11	0x3ddf6988	0.109088
12	0xbecd6ca9	-0.40121964
13	0x3d527b5e	0.051387183
14	0x3f128029	0.57226807
15	0xbd8b95cf	-0.06815683
16	0xbc01aae5	-0.00791428
17	0xbda75c32	-0.08171882
18	0xbe42a746	-0.19009122
19	0x3d3e7851	0.04650146
20	0x3cd78779	0.026309716
21	0xbdf0dcb8	-0.11760849
22	0x3d44b9bd	0.048028696
23	0x3c92fbc8	0.017942324
24	0x3c43154a	0.011906931
25	0xbd694364	-0.056949034
26	0x3dba80f1	0.09106625
27	0x3df67b0d	0.12035189
28	0x3e3cce04	0.18437964
29	0x3d690d84	0.056897655
30	0x3d93ad06	0.07210736
31	0x3ecd5b61	0.4010878
32	0x3e3dbdf9	0.185295
33	0xbde675ef	-0.11252963
34	0x3d83c121	0.06433321
35	0x3e67af97	0.22625576
36	0xbe20d67b	-0.15706818
37	0x3dfc05c2	0.12305786
38	0x3eb93e8a	0.36180526
39	0x3e064487	0.13112079
40	0x3ede9cf4	0.4347912
41	0xbdb38b9d	-0.087668635
42	0xbdb6454b	-0.08899935
43	0x3dc55b14	0.096365124
44	0x3e7b436a	0.24537435
45	0xbd4dd6eb	-0.05025379
46	0x3e4b0f2d	0.19830008
47	0xbdaea2c8	-0.08527142
48	0x3ee9a8ea	0.45636684
49	0xbe8a2900	-0.26984406
50	0xbdedc77b	-0.116103135
51	0xbdfc6561	-0.12324024
52	0x3e7d3e5e	0.24730822
53	0x3d744339	0.05963442
54	0x3ced9242	0.029000405
55	0x3dcb3608	0.09922415
56	0xbec847d5	-0.39117303
57	0x3e0c6c32	0.13713148
58	0x3e2c317c	0.16815752
59	0xbc7ec60c	-0.015550148
60	0x3e9eb55a	0.30997735
61	0xbd180d78	-0.03712222
62	0x3cfa8c48	0.03058447
63	0xbe1e0878	-0.15432918
64	0xbdd789bc	-0.105243176
65	0xbe12dd91	-0.14342333
66	0xbd01edb8	-0.031720847
67	0xbd15d5b2	-0.03658075
68	0x3b6f3f4a	0.003650623
69	0x3e51d9a7	0.20493184
70	0x3e0f0aa1	0.13968898
71	0xbd53a519	-0.05167112
72	0xbde4fbfe	-0.11180876
73	0x3dc0148b	0.09378918
74	0x3e23fcbc	0.1601438
75	0x3e25c73b	0.16189282
76	0xbc869002	-0.01642609
77	0xbd19d57e	-0.037557118
78	0x3c392159	0.011299455
79	0xbe265c80	-0.16246223
80	0xbdef4183	-0.11682417
81	0xbd5543d7	-0.05206665
82	0xbe81fdfb	-0.25389084
83	0xbc248121	-0.010040552
84	0x3de7a38d	0.11310492
85	0xbe275b17	-0.16343342
86	0xbe47479f	-0.19460915
87	0x3dc92d3a	0.098230794
88	0x3e61582a	0.22006288
89	0xbda7e4a7	-0.08197909
90	0x3dc42142	0.09576656
91	0x3dda22e5	0.10651187
92	0x3d5b9c46	0.05361583
93	0xbdaa0d9d	-0.08303378
94	0x3e440c94	0.19145423
95	0x3d93b4c2	0.07212211
96	0xbd8cd8a5	-0.06877259
97	0xbe1a9ff7	-0.15100084
98	0xbe16bc36	-0.14720234
99	0x3d260dc2	0.040540464
100	0xbcfb4391	-0.030671867
101	0x3e3638de	0.1779513
102	0x3dcc0f98	0.09963912
103	0xbda0c1b9	-0.0784945
104	0x3e808346	0.25100154
105	0x3cafb773	0.02144978
106	0x3ce7771b	0.028255036
107	0xbd275ef7	-0.04086205
108	0x3e614a14	0.22000915
109	0xbd7c90b1	-0.061661426
110	0x3d09bcdf	0.033627387
111	0xbe104c01	-0.14091493
112	0xbc8f766f	-0.017512528
113	0x3e1febc1	0.15617277
114	0x3d8ca667	0.06867676
115	0x3d53d8f3	0.05172057
116	0x3e6afd49	0.22948183
117	0xbdd02e2c	-0.101650566
118	0x3db98a22	0.0905955
119	0xbda23e9e	-0.079220995
120	0x3dccfafc	0.10008809
121	0x3d71e6ed	0.05905812
122	0x3c9a1278	0.018807635
123	0xbcef24e8	-0.029192403
124	0x3dadb33f	0.08481454
125	0xbcc445b9	-0.023959028
126	0xbdb5d669	-0.08878786
127	0xbcfe4967	-0.03104086
128	0x3cb21444	0.021738179
129	0x3d1da0aa	0.0384833
130	0xbd8450f9	-0.06460757
131	0x3dc8ed2c	0.09810862
132	0x3d7077f9	0.058708165
133	0xbda5ee01	-0.08102036
134	0xbd3ff61a	-0.04686556
135	0x3dbf2c91	0.09334672
136	0xbcee158c	-0.029063009
137	0x3bcebcf7	0.0063091475
138	0xbdd16329	-0.102239914
139	0xbe0aa07a	-0.1353778
140	0x3dab57f0	0.08366382
141	0x3d668580	0.05627966
142	0x3def967a	0.11698623
143	0x3d265ff8	0.040618867
144	0xbd70a8e3	-0.058754813
145	0x3c94927f	0.018136261
146	0x3e41432d	0.18873282
147	0x3c12fcb5	0.008971383
148	0xbd2e1bfa	-0.04250715
149	0xbd50a081	-0.05093432
150	0x3dc6205d	0.096741416
151	0xbd8ead08	-0.06966597
152	0x3d27e5b8	0.04099056
153	0xbd1c4aa6	-0.038157128
154	0x3c9eee9a	0.019400883
155	0x3d1686b7	0.036749568
156	0x3d32a659	0.043615673
157	0x3dcb652a	0.09931405
158	0x3de45469	0.111489125
159	0xbda681d0	-0.081302285
160	0x3dac3f8c	0.08410558
161	0x3d80ebec	0.062949985
162	0x3daedd3b	0.0853829
163	0xbbac383a	-0.005255726
164	0xbde4d341	-0.11173106
165	0x3df51472	0.1196679
166	0xbe1f4434	-0.15553361
167	0x3ba87b03	0.0051416173
168	0xbd80da58	-0.06291646
169	0x3de6e3f9	0.11273951
170	0xbe169570	-0.14705443
171	0x3d5ebbc5	0.05437829
172	0xbc6fa191	-0.014625923
173	0xbcf56893	-0.029957091
174	0xbe4a442b	-0.19752567
175	0xbd97add8	-0.07406205
176	0x3cfb6804	0.030689247
177	0xbca27fa2	-0.01983625
178	0x3dcfab64	0.10140112
179	0xbda0ae9c	-0.07845804
180	0x3d2b1f38	0.04177782
181	0x3cd63c68	0.02615185
182	0x3d53d156	0.05171331
183	0xbc2eacb3	-0.010661292
184	0x3d07ab82	0.033122547
185	0xbd9b590b	-0.07585343
186	0xbe05e584	-0.13075835
187	0x3dc74cbb	0.09731432
188	0xbd617910	-0.055047095
189	0xbbb5e124	-0.0055505205
190	0xbb3e588f	-0.0029044484
191	0x3dbe5d5f	0.09295153
192	0x3e82e77a	0.25567228
193	0x3de90596	0.113780186
194	0xbc8405c1	-0.016116025
195	0x3cf69737	0.030101402
196	0xbd2c4d0d	-0.04206567
197	0xbd836eb3	-0.064175986
198	0x3e9ac69a	0.30229646
199	0x3ca69512	0.020334754
200	0x3daa1df2	0.08306493
201	0xbd8cb430	-0.068703055
202	0xbddcfa2a	-0.107899025
203	0x3dab4d41	0.083643444
204	0x3d917b2b	0.071035706
205	0x3e180ce8	0.14848673
206	0xbde93f0b	-0.113889776
207	0xbd4a833d	-0.049441565
208	0x3cbaece1	0.02281803
209	0xbd6ed8c7	-0.058312204
210	0xbdd210dc	-0.10257122
211	0xbd9dbed3	-0.077024125
212	0xbd803513	-0.06260123
213	0xbe19e868	-0.15030062
214	0xbcbbf884	-0.02294565
215	0x3c6554b9	0.01399725
216	0x3cfd7f1d	0.030944401
217	0x3e1b9be1	0.15196182
218	0x3e148df7	0.1450728
219	0xbd0c4045	-0.03424098
220	0xbdf2059b	-0.118174754
221	0xbccfb3b2	-0.02535424
222	0xbe172e00	-0.14763641
223	0x3dd3b697	0.103375606
224	0x3d596fc7	0.053085115
225	0x3e099f95	0.13439782
226	0x3cda67de	0.026660856
227	0x3ba4d23f	0.005029946
228	0x3e23045c	0.15919632
229	0xbce79f2d	-0.028274143
230	0xbdab5f68	-0.08367807
231	0x3d33a1b2	0.043855377
232	0xbd08be97	-0.033384886
233	0x3dbf8bf5	0.093528666
234	0x3d806ff5	0.06271354
235	0x3d2e7dcc	0.042600438
236	0xbe18efcb	-0.14935224
237	0x3c379a62	0.011206241
238	0x3db4807a	0.088135675
239	0xbdf05aa4	-0.11736038
240	0x3da384d8	0.07984322
241	0x3d715baa	0.05892531
242	0xbc4591ee	-0.012058718
243	0xbe41d66a	-0.18929449
244	0x3db73316	0.08945291
245	0x3dea421a	0.11438389
246	0xbe18151a	-0.148518
247	0x3cb9a6dc	0.022662573
248	0x3d8aa4b4	0.06769696
249	0xbe3c2d9a	-0.1837677
250	0xbdfab38f	-0.12241279
251	0xbdb8b7a2	-0.090194
252	0xbdc0c173	-0.094118975
253	0xbde31f49	-0.110899515
254	0x3e4779de	0.19480082
255	0xbc1be92f	-0.0095160445

lstm.bias_ih_l0 f4 [256]
0	0x3c05e95f	0.008173316
1	0xbd881ea6	-0.06646471
2	0x3e2bfb91	0.16795184
3	0x3d1fb503	0.038990986
4	0xbcaf9216	-0.021431964
5	0xbd223faf	-0.039611515
6	0x3c710d8d	0.014712703
7	0xbcf663ef	-0.030076949
8	0x3d9cf875	0.07664577
9	0xbdd299d4	-0.10283247
10	0xbe0f547f	-0.13997076
11	0xb9c233e0	-0.00037041213
12	0x3d85f183	0.06540205
13	0x3aac5111	0.0013146718
14	0x3cdfd34e	0.027322438
15	0x3a1ccc43	0.0005981365
16	0xbe28c2ac	-0.16480511
17	0xbe358714	-0.1772731
18	0x3df9015e	0.12158464
19	0xbdc6f66a	-0.097149685
20	0x3b936b23	0.0044988557
21	0x3dd5f744	0.10447553
22	0xbced7547	-0.028986586
23	0xbd1d28b3	-0.038368892
24	0xbc3dfe16	-0.011596223
25	0x3e08c81e	0.13357589
26	0x3cbd9280	0.023141146
27	0x3ced81a6	0.028992485
28	0xbd8e6b74	-0.06954089
29	0x3d314c09	0.043285403
30	0x3e22768a	0.15865532
31	0xbdd4440e	-0.10364543
32	0xbdd67897	-0.104722194
33	0xbd7479a2	-0.05968631
34	0x3b683434	0.0035431506
35	0xbd8a7514	-0.06760612
36	0x3d1ba1a5	0.037995953
37	0xbe0196ee	-0.12655231
38	0xbdd72ff7	-0.105071954
39	0xbb2250b4	-0.002476734
40	0xbe0b6f9b	-0.13616793
41	0x3c9b0981	0.01892543
42	0xbca40a0b	-0.02002432
43	0xbe21cbb8	-0.15800369
44	0x3ce96f33	0.028495407
45	0xbde66e30	-0.11251485
46	0x3e29f3dc	0.16596931
47	0x3e04d540	0.12971973
48	0x3dfb1541	0.12259913
49	0xbcba0ca1	-0.0227111
50	0xbe00b6cc	-0.12569731
51	0x3c0c4e6e	0.008563621
52	0xbc5650bf	-0.013080775
53	0xbd1d1382	-0.038348682
54	0xbd346fb6	-0.04405185
55	0xbced41b5	-0.028961996
56	0xbd7150db	-0.058915
57	0xbd9c291a	-0.07625027
58	0xbcc21ce2	-0.023695413
59	0x3d3773d4	0.044788197
60	0xbe134018	-0.14379919
61	0x3d0107e6	0.031501673
62	0x3d687035	0.056747634
63	0xbc247f8e	-0.010040177
64	0x3b4f8f91	0.0031671266
65	0x3d83387a	0.064072564
66	0xbc192c7d	-0.009348986
67	0xbdb21d66	-0.086970136
68	0xbd6bbaeb	-0.057551306
69	0xbe164de9	-0.14678158
70	0x3e37dc91	0.17955233
71	0xbe075e7f	-0.13219641
72	0xbdd33013	-0.10311904
73	0xbdc5221d	-0.09625647
74	0xbd8aaef6	-0.067716524
75	0xbd840988	-0.064471304
76	0xbdb28872	-0.08717431
77	0xbcdfdbed	-0.027326548
78	0x3e63ff5a	0.22265378
79	0xbc7ceeb8	-0.015437774
80	0xbdd64085	-0.10461525
81	0xbe162213	-0.14661436
82	0x3dfa567e	0.12223528
83	0xbe5a7bf0	-0.21336341
84	0xbdeffbcb	-0.117179476
85	0xbdf81d8a	-0.12115009
86	0xbd893841	-0.06700183
87	0xbde3961b	-0.11112615
88	0xbd75c8d8	-0.060005993
89	0xbda74f6c	-0.081694454
90	0x3dd00add	0.10158322
91	0x3de7fb7b	0.11327263
92	0xbcf067aa	-0.029346306
93	0xbb5cc3bd	-0.0033686005
94	0x3d80143b	0.06253859
95	0xbe2d2ce4	-0.16911656
96	0xbd7d49a4	-0.061837807
97	0xbd6e5a3a	-0.058191516
98	0x3be0102c	0.0068378653
99	0xbdc6bdbd	-0.097041585
100	0x3da14559	0.07874555
101	0xbb88d74f	-0.0041760574
102	0xbe35fe04	-0.1777268
103	0xbd1ca1f0	-0.038240373
104	0xbdcba311	-0.09943212
105	0xbdd92877	-0.10603421
106	0x3b5cfe6d	0.0033720986
107	0xbda1f3ff	-0.07907867
108	0xbd9c09e8	-0.07619077
109	0xbd857199	-0.06515808
110	0x3e09d0e5	0.13458593
111	0xbdc34395	-0.095343746
112	0x3db28062	0.08715893
113	0x3c29c8dd	0.010362831
114	0x3c304ad3	0.010760027
115	0xbcc948fb	-0.024570933
116	0xbcf58391	-0.029969962
117	0x3b106f39	0.002203895
118	0x3dee5b27	0.1163848
119	0xbdac24ab	-0.08405431
120	0x3d27eb6f	0.04099601
121	0x3cf55c1f	0.029951153
122	0xbdf7d119	-0.12100429
123	0xbc163567	-0.009168006
124	0xbbc9d053	-0.0061588674
125	0x3d909366	0.07059364
126	0xbdc9fdea	-0.098628834
127	0xbdc50a96	-0.0962116
128	0x3dc7daed	0.09758554
129	0x3de14538	0.109995306
130	0x3c89eeed	0.016837562
131	0x3d265509	0.04060844
132	0x3d1796cd	0.03700905
133	0x3d15e423	0.03659452
134	0xbe037ec8	-0.12841332
135	0x3d6002bf	0.05469012
136	0xbda72ad2	-0.08162464
137	0xbe002c69	-0.12516941
138	0xbdb8e09a	-0.09027214
139	0xbd9ccc6f	-0.0765618
140	0x3d01e4f3	0.031712484
141	0xbcc8c575	-0.024508217
142	0xbc1f37f3	-0.009717929
143	0xbddb9eb9	-0.10723633
144	0x3a5175c9	0.00079902686
145	0x3d66f569	0.056386385
146	0xbda089b7	-0.07838767
147	0xbd515b26	-0.051112317
148	0xbddbc7f0	-0.107314944
149	0xbd241ed1	-0.04006845
150	0xbd316869	-0.043312464
151	0x3d1a9a69	0.037744913
152	0x3c9d0cd2	0.019171152
153	0x3db99a40	0.09062624
154	0xbdb47fbf	-0.08813428
155	0xbda3e843	-0.08003285
156	0x3d2c2c6e	0.04203456
157	0x3d87c97d	0.06630228
158	0xbdf442d1	-0.11926807
159	0xbd1dd189	-0.038529906
160	0xbdf00076	-0.11718838
161	0x3dd822df	0.10553526
162	0xbdac1c98	-0.08403891
163	0xbca565ed	-0.020190204
164	0xbcdde868	-0.027088359
165	0x3daebd9c	0.08532259
166	0x3cce10d5	0.02515451
167	0xbda1b9fa	-0.078968
168	0xbd2668bc	-0.040627226
169	0xbd05706c	-0.032577917
170	0xbdbee78b	-0.09321507
171	0x3d24c69b	0.040228467
172	0xbdae0cfe	-0.08498572
173	0x3d344c51	0.044018093
174	0xbdcc8894	-0.09986988
175	0xbd671cd4	-0.056423977
176	0xbd2b91f2	-0.04188723
177	0xbd8bddf9	-0.06829447
178	0xbd8196b9	-0.06327576
179	0x3c131020	0.0089760125
180	0xbe08799d	-0.13327642
181	0xbd0247aa	-0.031806625
182	0xbdf1c9ba	-0.118060544
183	0xbd38aebf	-0.045088526
184	0xbd993fa6	-0.07482843
185	0xbd142bd4	-0.03617461
186	0x3d1f8ee5	0.038954634
187	0x3dde9b23	0.10869434
188	0xbd0cc54f	-0.034367856
189	0x3d8dd828	0.06925994
190	0xbdb2196f	-0.08696257
191	0x3c8c6167	0.017136289
192	0x3cf9dfa5	0.03050215
193	0xbdf85807	-0.12126165
194	0xbd66b170	-0.05632156
195	0xbc8d69a3	-0.017262286
196	0xbd901910	-0.0703603
197	0xbda7b2f2	-0.08188428
198	0x3d970bf8	0.0737533
199	0x3d82d598	0.06388396
200	0xbe0a358d	-0.1349699
201	0xbdd5d68d	-0.10441313
202	0xbe26a2c3	-0.16273026
203	0xbe04b509	-0.12959684
204	0xbce97379	-0.028497444
205	0xbdf02437	-0.117256574
206	0x3e4607ae	0.19338867
207	0x3d17a8f7	0.03702637
208	0xbe222d58	-0.1583761
209	0xbdbecbc2	-0.093162075
210	0x3d2b6cc5	0.041851778
211	0xbd839576	-0.06424992
212	0xbe0fa1ef	-0.14026617
213	0xbb88d1ba	-0.004175392
214	0xbdb75a52	-0.08952774
215	0xbd513f38	-0.05108568
216	0xbd5f5da8	-0.054532677
217	0x3d6009aa	0.054696716
218	0x3e03990c	0.12851351
219	0x3db0c765	0.086317815
220	0x3d9fa0ad	0.07794318
221	0xbdb80e2e	-0.089870796
222	0xbd96cdb3	-0.07363453
223	0x3d36d685	0.044638176
224	0x3c4c9d32	0.01248865
225	0xbd0e8813	-0.03479774
226	0x3dc8d39b	0.098059855
227	0xbd017b17	-0.03161153
228	0x3c41f80b	0.011838923
229	0xbdd47735	-0.103742994
230	0xbe54ad52	-0.20769241
231	0xbd517666	-0.051138304
232	0xbdbedca4	-0.093194276
233	0x3d8855b8	0.066569746
234	0x3d77f122	0.060532697
235	0xbd5d4c03	-0.05402757
236	0x3d81b291	0.06332887
237	0x3ba7a1cb	0.005115723
238	0x3dc17a12	0.09447111
239	0xbd40c596	-0.047063433
240	0xbc4a4a8a	-0.012346873
241	0xbdfb0232	-0.12256278
242	0xbd6afe4c	-0.057371423
243	0xbd39fb3f	-0.045405623
244	0x3b1ebfec	0.002422328
245	0x3a90515f	0.0011010579
246	0xbd72b2ee	-0.059252672
247	0x3da95176	0.082674906
248	0xbdbcd44f	-0.09220182
249	0x3e03f45b	0.12886183
250	0x3bc18dc1	0.005906791
251	0x3d844b45	0.06459669
252	0xbe3e6701	-0.1859398
253	0xbcccff90	-0.025024205
254	0xbd8309b5	-0.06398336
255	0x3d967879	0.07347197

lstm.bias_hh_l0 f4 [256]
0	0xbcc22012	-0.023696933
1	0x3d3317a5	0.04372372
2	0xbc81ac44	-0.015829213
3	0xbc4172eb	-0.011807184
4	0xbe461eee	-0.19347736
5	0x3b16a268	0.0022984985
6	0x3d47d249	0.048784528
7	0x3d0cbd55	0.03436025
8	0xbd7aa3c4	-0.061191335
9	0xbd2fb34d	-0.042895604
10	0x3d67b183	0.056565773
11	0xbccdc1cf	-0.02511683
12	0x3db5dcb0	0.088799834
13	0x3c23c6ed	0.009996158
14	0x3e829087	0.2550089
15	0xbdaaab61	-0.08333469
16	0xbce4b041	-0.027916076
17	0xbcd3703e	-0.025810357
18	0x3db134cd	0.08652649
19	0xbd80fa15	-0.06297699
20	0xbd2e9875	-0.042625863
21	0xbdd5925d	-0.10428307
22	0x3d719397	0.058978643
23	0xbd7301d5	-0.05932792
24	0xbdb430a8	-0.08798343
25	0x3d8bedee	0.06832491
26	0x3c8a2b08	0.016866222
27	0xbc94735d	-0.018121416
28	0xbc9665b6	-0.018359046
29	0xbbd10e6f	-0.0063798944
30	0x3d386f39	0.045027945
31	0x3dab8d8d	0.08376608
32	0xbca70a71	-0.020390721
33	0x3dca9dec	0.098934025
34	0xbd6fbb5d	-0.058528293
35	0xbd31c186	-0.04339745
36	0x3d529c9c	0.051418886
37	0xbde73544	-0.112894565
38	0xbdc886fd	-0.09791372
39	0xbdd08264	-0.1018112
40	0x3d7d1bd9	0.061794136
41	0xbd6b115b	-0.0573896
42	0xbddc8394	-0.10767284
43	0xbd7e6264	-0.06210555
44	0xbc84a65b	-0.016192606
45	0x3d622195	0.055207808
46	0x3e1a8583	0.15089993
47	0x3df975bd	0.1218066
48	0x3c5cad03	0.013468984
49	0x3caac2a1	0.02084476
50	0xbcb7d069	-0.022438245
51	0x3dfdec30	0.12398565
52	0xbcdebc07	-0.027189268
53	0x3d99fd89	0.07519061
54	0x3ddb1d5f	0.106989615
55	0x3ddc0fbf	0.10745191
56	0x3d4be4f1	0.049778882
57	0xbdb0af8b	-0.08627232
58	0xbe047b8e	-0.12937757
59	0xbd1bbd5b	-0.03802238
60	0xbdf24396	-0.11829297
61	0x3daa77ce	0.08323632
62	0x3e0acc3d	0.13554473
63	0xbe31e270	-0.17371535
64	0x3ced576b	0.028972348
65	0xbcd7a4bd	-0.02632367
66	0xbe1e5c2b	-0.15464847
67	0xbe1cf801	-0.15328981
68	0xbe0203e1	-0.12696792
69	0xb9f1ab36	-0.00046094664
70	0x3d9718d1	0.0737778
71	0x3d4bd24d	0.049761105
72	0xbd2a419a	-0.04156647
73	0x3d889ee1	0.06670929
74	0xbd70645e	-0.058689468
75	0x3d856215	0.06512848
76	0xbe245f7b	-0.16052048
77	0x3d1c2693	0.038122725
78	0x3e584b54	0.21122485
79	0xbe286b0d	-0.16447087
80	0xbdee7c9b	-0.1164486
81	0x3c48cbf6	0.012255659
82	0x3db80f79	0.08987326
83	0x3c4bcb7c	0.012438651
84	0x3cee0ca6	0.029058766
85	0xbd332327	-0.043734696
86	0xbdb8a6ad	-0.09016166
87	0x3cdddd44	0.027083047
88	0xbbced736	-0.0063122762
89	0x3dd5c590	0.10438073
90	0x3e2aa5d1	0.16664816
91	0xbdfe7cbd	-0.12426136
92	0x3d7941d3	0.06085379
93	0xbd9115c4	-0.070842296
94	0xbc9a359a	-0.018824387
95	0xbddf758c	-0.10911092
96	0xbe109051	-0.14117552
97	0xbc8846d9	-0.016635345
98	0x3cddd402	0.027078632
99	0x3d5cc5a4	0.053899422
100	0xbde8a97d	-0.11360452
101	0xba7a63b8	-0.00095516024
102	0xbd171fbf	-0.03689551
103	0xbdcbb631	-0.0994686
104	0x3c18ef28	0.009334363
105	0xbdd76978	-0.105181634
106	0xbdaece35	-0.085354246
107	0xbd18d346	-0.03731086
108	0xbd33ad41	-0.0438664
109	0xbca08086	-0.019592535
110	0x3c9a98a4	0.018871613
111	0xbd721e4a	-0.059110917
112	0x3e22eb33	0.15910034
113	0xbe154583	-0.14577298
114	0xbcbde557	-0.023180647
115	0x3e1df048	0.15423691
116	0xb897d281	-7.2394505e-05
117	0xbcaca316	-0.02107386
118	0x3c1ec70e	0.009691013
119	0xbd4e4f37	-0.050368514
120	0xbd948ea2	-0.072537675
121	0x3d47b761	0.048758868
122	0x3c10acdd	0.008830276
123	0xbde61b89	-0.11235721
124	0xbe20a8b3	-0.15689354
125	0xbc50bdc9	-0.012740561
126	0x3de0ef94	0.10983196
127	0xbd575d46	-0.052579187
128	0xbd8a7ed7	-0.06762474
129	0xbd204b7d	-0.03913449
130	0xbd2cf34a	-0.042224206
131	0x3da7acef	0.08187281
132	0xbd2da98d	-0.042398024
133	0xbdcd77db	-0.10032626
134	0x3cbb37a2	0.022853676
135	0x3d5f330d	0.054492045
136	0x3bf9a4e3	0.007618533
137	0x3d3f508d	0.04670768
138	0x3cbd553e	0.023111936
139	0xbd967f37	-0.07348483
140	0xbce191e8	-0.027535394
141	0x3b40ee2f	0.0029438843
142	0x3caef27b	0.021355858
143	0xbd9872a5	-0.07443742
144	0xbc4aa095	-0.012367387
145	0x3dc19952	0.09453072
146	0x3df88e28	0.12136489
147	0x3d6973f6	0.056995355
148	0x3d228291	0.0396753
149	0x3d753ce6	0.05987253
150	0xbd0dd07f	-0.034622665
151	0x3d2a21a5	0.041535992
152	0xbd2048e0	-0.039132
153	0xbd0afa91	-0.033930365
154	0x3dc7b60f	0.09751522
155	0x3dee2383	0.11627867
156	0x3d29be7a	0.04144142
157	0x3cdda8c3	0.02705801
158	0xbc03c254	-0.008041937
159	0xbd4fa2c7	-0.050692346
160	0xbcb4cd7a	-0.022070635
161	0xbd9b2e1b	-0.07577153
162	0x3d455d31	0.048184577
163	0xbcb774fc	-0.02239465
164	0x3dc096e1	0.09403778
165	0x3cf8818f	0.030335216
166	0xbd4e854f	-0.0504201
167	0xbba96a29	-0.005170126
168	0xbd34fd64	-0.044186965
169	0xbcac6931	-0.021046253
170	0x3d1aa468	0.037754446
171	0x3d12d8ec	0.035851404
172	0x3d592506	0.053013824
173	0xbd9f1568	-0.07767755
174	0x3daf6cb6	0.08565657
175	0x3da50e3f	0.08059358
176	0x3dedc721	0.116102464
177	0xbd131503	-0.03590871
178	0xbbcf8776	-0.006333287
179	0x3df136cd	0.117780305
180	0x3d7ac6eb	0.06122486
181	0xbcbd51dd	-0.023110325
182	0x3d1bb23a	0.038011767
183	0xbd84a209	-0.06476218
184	0xbd5f1a0d	-0.054468203
185	0x3dcc6210	0.099796414
186	0x3d99cc01	0.07509614
187	0xbde077bb	-0.10960337
188	0xbdc1f435	-0.09470407
189	0x3d0239ad	0.031793285
190	0x3df8c7cf	0.121474855
191	0x3d4f622d	0.050630737
192	0xbe1276b3	-0.14303093
193	0x3cb07c5a	0.02154367
194	0x3cf0b6c7	0.02938403
195	0xbe022cd7	-0.12712418
196	0x3d72c2bb	0.05926774
197	0x3db97799	0.090560146
198	0xbda941d7	-0.08264511
199	0x3d958cc6	0.07302241
200	0xbe14b335	-0.14521487
201	0x3d45be98	0.048277467
202	0x3cc93970	0.024563521
203	0xbdb42bdf	-0.0879743
204	0xbe74cc98	-0.23906171
205	0xbc8bd273	-0.017068123
206	0x3e772d65	0.2413841
207	0xbc8ba16c	-0.017044745
208	0xbd9d94a2	-0.07694365
209	0xbde0b5aa	-0.1097215
210	0x3e1a5a12	0.15073422
211	0x3b3aaff5	0.0028486226
212	0xbd838d72	-0.06423463
213	0xbddf2ff5	-0.10897819
214	0xbd437f78	-0.047728986
215	0xbdd099c7	-0.10185581
216	0xbddb3810	-0.107040524
217	0x3daae5a1	0.083445795
218	0xbd17479c	-0.036933526
219	0x3d2348f4	0.039864495
220	0xbc0e881b	-0.008699442
221	0x3d43489e	0.047676675
222	0xbd8586cc	-0.06519851
223	0x3d5b1096	0.053482614
224	0xbddec363	-0.10877111
225	0x3a34fd15	0.0006904167
226	0x3db49bbf	0.08818769
227	0x3e12d603	0.14339451
228	0xbd225b34	-0.03963776
229	0xbdc40f9d	-0.095732905
230	0xbe1104df	-0.14162014
231	0x3c12bf0b	0.008956681
232	0xbd4ec1ab	-0.050477665
233	0x3e00899a	0.12552491
234	0xbe24e598	-0.16103208
235	0x3d39f7c6	0.04540231
236	0x3da4f17a	0.080538705
237	0x3d21cadd	0.039500106
238	0x3cec8dce	0.028876211
239	0xbbdd87be	-0.0067605665
240	0x3d8bb216	0.068210766
241	0xbda8a1c9	-0.08233983
242	0xbd9da2dd	-0.07697079
243	0x3b4c3a38	0.003116263
244	0x3dda5cc1	0.10662223
245	0x3d9b8e7d	0.07595537
246	0x3d006cdc	0.031353816
247	0x3d72f3cc	0.059314534
248	0x3e01ab7b	0.12663071
249	0xbc869397	-0.016427798
250	0xbdb4a43c	-0.08820388
251	0xbdf93847	-0.12168937
252	0x3c61f50e	0.013791336
253	0xbd38274e	-0.04495936
254	0x3e06eac2	0.1317549
255	0xbcd35d21	-0.025801243

fc.weight f4 [6, 64]
0	0xbdc1f28b	-0.094700895
1	0xbd39d1e2	-0.045366175
2	0xbd95de09	-0.073177405
3	0xbde11995	-0.109912075
4	0xbd98d5e3	-0.07462671
5	0x3e43c815	0.19119294
6	0xbd8af2b1	-0.06784571
7	0x3d99f901	0.07518197
8	0x3d489194	0.04896696
9	0x3d8ecb2d	0.069723465
10	0xbdabe936	-0.08394091
11	0x3ced1af8	0.028943524
12	0x3e1b340f	0.15156578
13	0xbe0aeb7c	-0.13566393
14	0x3e554b88	0.20829594
15	0x3d98f4f1	0.07468594
16	0x3d2f5aef	0.04281133
17	0xbd9a8bfc	-0.07546231
18	0xbe36d006	-0.17852792
19	0xbe0ea102	-0.13928607
20	0x3d78ff36	0.060790263
21	0xbdaadcd7	-0.08342903
22	0x3c61d292	0.013783114
23	0x3c5ecb5e	0.013598291
24	0x3dc8a4ae	0.09797035
25	0xbe256d80	-0.16155052
26	0xbcfdb5c5	-0.030970464
27	0x3e360e44	0.1777888
28	0x3e11f099	0.14251937
29	0xbe02591d	-0.12729307
30	0x3ca51e01	0.020155909
31	0xbd5bb032	-0.05363483
32	0xbce6f717	-0.028193993
33	0xbd7afdcf	-0.061277207
34	0xbe0a2372	-0.13490084
35	0x3e03a8d7	0.12857376
36	0xbd8ca647	-0.068676524
37	0x3ccbd9d7	0.024884148
38	0xbd5a7607	-0.053335216
39	0xbdb16b0d	-0.086629964
40	0x3da49183	0.08035567
41	0xbd6a2168	-0.057160765
42	0x3d72eb46	0.059306405
43	0xbdc2e0b9	-0.09515519
44	0x3e4a88ab	0.19778697
45	0xbdc34436	-0.095344946
46	0x3e141861	0.14462425
47	0x3dc146f3	0.094373606
48	0x3d830040	0.06396532
49	0x3dc292a2	0.09500624
50	0x3e1d2807	0.153473
51	0xbbe8377f	-0.007086694
52	0x3d94d962	0.07268025
53	0x3d0309a2	0.03199161
54	0x3da83691	0.08213533
55	0x3db7fd51	0.08983863
56	0x3e2e2505	0.1700631
57	0xbd867890	-0.06565964
58	0xbddf2eba	-0.10897584
59	0x3d13dd3d	0.03609966
60	0x3e2cb1b9	0.16864671
61	0x3b5bcc17	0.0033538395
62	0xbd3aed1a	-0.045636274
63	0x3c30a176	0.010780683
64	0xbdcf1930	-0.10112226
65	0xbdab00c9	-0.08349759
66	0xbe23509c	-0.15948719
67	0xbd8d732f	-0.06906735
68	0xbd8f1d34	-0.06987992
69	0x3dc5dc39	0.09661145
70	0x3d3487f6	0.044074975
71	0x3dd04204	0.101688415
72	0x3dd1d86a	0.10246356
73	0x3d6d049f	0.057865735
74	0xbcf92011	-0.030410798
75	0x3d296413	0.041355204
76	0x3dba3a71	0.09093178
77	0xbd8851c5	-0.06656221
78	0x3dc66355	0.09686915
79	0xbdb7fd2d	-0.08983836
80	0xbc3a5e96	-0.01137509
81	0xbe01e18c	-0.12683696
82	0xbe5d51ff	-0.2161331
83	0x3c5972f5	0.013272037
84	0x3e00ca4b	0.12577169
85	0xbe6afe9f	-0.22948693
86	0xbe15bf10	-0.14623666
87	0x3def46ee	0.11683451
88	0x3d63a7a0	0.05557978
89	0xbdd9db47	-0.10637527
90	0xbbddd36c	-0.006769588
91	0x3d6374ce	0.055531316
92	0x3d130bbe	0.03589987
93	0xbd9021a4	-0.070376664
94	0x3dd1d560	0.10245776
95	0x3ca1847e	0.019716498
96	0x3cd5bf75	0.02609227
97	0xbdab447e	-0.08362673
98	0xbda277f9	-0.07933039
99	0x3d0c80dd	0.03430258
100	0xbda0d796	-0.0785362
101	0x3a98478d	0.0011618003
102	0x3c1d07fc	0.009584423
103	0x3e0211ef	0.12702154
104	0x3dfd157b	0.12357613
105	0xbc951541	-0.018198611
106	0xbdb6a2dc	-0.08917782
107	0xbcfafda9	-0.030638533
108	0x3e07ff64	0.13281018
109	0xbdd8fd37	-0.10595172
110	0x3e36b5f3	0.17842846
111	0x3dae4524	0.08509281
112	0x3c9f27e4	0.019428201
113	0x3e2c9bdc	0.1685633
114	0x3d0f240f	0.034946498
115	0xbdd4745b	-0.103737555
116	0xbcdad1a7	-0.026711298
117	0x3c828eb4	0.015937187
118	0x3df5c333	0.12000122
119	0x3e2f908d	0.17144985
120	0x3e358527	0.17726575
121	0xbd68718a	-0.056748904
122	0xbb920bc3	-0.0044569685
123	0x3dccc6c1	0.09998847
124	0xbd5febf9	-0.0546684
125	0xbe17ca9f	-0.14823388
126	0xbd99f181	-0.07516766
127	0xbc9f0d42	-0.019415502
128	0x3b2f6be1	0.0026767182
129	0x3d3c81b9	0.04602215
130	0xbe3860ac	-0.18005627
131	0xbde2cc91	-0.11074174
132	0xbdeec4ba	-0.11658616
133	0x3c358027	0.011077917
134	0x3e1fa5a6	0.15590534
135	0x3c749162	0.01492724
136	0xbdaee771	-0.08540238
137	0x3d063693	0.03276689
138	0xbbb4bfef	-0.0055160443
139	0x3dca7abd	0.09886692
140	0xbd9f4a11	-0.07777799
141	0xbda6efc3	-0.081512
142	0x3d63706c	0.055527136
143	0xbe18f90f	-0.14938758
144	0xbc90c1c9	-0.017670529
145	0xbdcdb3ff	-0.10044097
146	0xbe0de8e0	-0.13858366
147	0x3d26ab95	0.040690977
148	0x3d1855de	0.037191264
149	0xbde55a39	-0.11198849
150	0xbe3cb46d	-0.18428202
151	0x3bb83c3e	0.005622416
152	0x3e227290	0.15864015
153	0xbe4c1d5f	-0.19933079
154	0xbe0c3fc6	-0.13696203
155	0x3bdc1274	0.006716067
156	0x3e5b1c16	0.21397433
157	0xbe2a5823	-0.16635184
158	0x3d225dc6	0.03964021
159	0xbdb282a1	-0.08716322
160	0x3db845c3	0.08997681
161	0xbcab1b91	-0.020887168
162	0xbde37876	-0.111069605
163	0x3e20ee15	0.15715821
164	0x3cd78495	0.026308337
165	0x3d8f06f3	0.06983747
166	0x3db337fd	0.08750913
167	0xbd1f7d24	-0.038937703
168	0xbcfb800f	-0.030700712
169	0xbe04a66f	-0.12954114
170	0xbda44d74	-0.080225855
171	0xbb454398	-0.0030100103
172	0x3d1c16d6	0.038107716
173	0x3d879602	0.066204086
174	0x3dd1b64b	0.10239848
175	0x3d8bcb29	0.06825859
176	0xbd078e33	-0.033094596
177	0x3d9de2a5	0.07709245
178	0xbd1d58a1	-0.0384146
179	0xbca3be81	-0.0199883
180	0xbda0a9b4	-0.07844868
181	0xbd8eca5b	-0.0697219
182	0x3dc2e277	0.09515851
183	0xbd0f4f32	-0.034987636
184	0x3d879df7	0.06621926
185	0xbe11ff0f	-0.14257453
186	0xbd9939a5	-0.07481698
187	0xbb3cbda0	-0.0028799549
188	0x3e099c25	0.1343847
189	0x3c850865	0.016239354
190	0xbe063b63	-0.13108592
191	0xbdb6ea7e	-0.089314446
192	0xbb917cac	-0.004439911
193	0xbd4a47f4	-0.049385026
194	0xbd98aa41	-0.07454348
195	0xbdd45894	-0.103684574
196	0xbd1cf36c	-0.038318083
197	0x3cd50757	0.026004476
198	0x3d99294a	0.074785784
199	0x3dbed088	0.09317118
200	0xbcd64304	-0.026155002
201	0xbcbb8c9a	-0.022894192
202	0x3b93410f	0.0044938396
203	0x3dabadd3	0.08382764
204	0xbe27bbcd	-0.16380234
205	0xbd930c7a	-0.07180114
206	0x3dba9c04	0.09111789
207	0x3cdd0c5d	0.026983434
208	0xbc62a103	-0.0138323335
209	0xbc6a4888	-0.014299519
210	0xbca6ee9e	-0.020377453
211	0xbd5813ee	-0.05275338
212	0x3e2478fc	0.16061777
213	0xbd5562f5	-0.052096326
214	0xbdb9b84b	-0.09068354
215	0x3d82a2d2	0.06378712
216	0x3e3611d0	0.17780232
217	0xbe1daa7e	-0.15397069
218	0xbe0dcf63	-0.13848643
219	0x3e23ac6b	0.15983741
220	0x3d6ca772	0.057776876
221	0xbe230ffd	-0.15924068
222	0x3ca94d9a	0.020666886
223	0x3d924c64	0.071434766
224	0xbe08eda4	-0.13371903
225	0xbd210cd2	-0.039318867
226	0xbcc0d9a5	-0.023541281
227	0xbd884bf0	-0.06655109
228	0xbe1f19a4	-0.15537125
229	0x3dbba123	0.09161594
230	0xbc18a3e1	-0.0093164155
231	0xbdbce6b1	-0.092236884
232	0x3dd00dec	0.101589054
233	0xbe3bdcce	-0.18345949
234	0xbd222b8e	-0.03959232
235	0x3d2adccb	0.04171447
236	0x3e057742	0.13033774
237	0xbdc88f67	-0.09792977
238	0x3e459636	0.19295582
239	0x3dd6d8e9	0.10490591
240	0x3dcab3fa	0.09897609
241	0x3e09b527	0.1344801
242	0x3d4ccf0c	0.050002143
243	0xba7cac23	-0.00096386875
244	0xbe1dd669	-0.15413822
245	0xbd680bff	-0.056652065
246	0x3d2ddfed	0.04244988
247	0x3d9067e6	0.07051067
248	0xbd745062	-0.05964697
249	0xbd9b96d4	-0.075971276
250	0xbc8ef68c	-0.017451547
251	0x3e0fe4c8	0.14052117
252	0x3d75a858	0.059975
253	0xbd484cb9	-0.048901293
254	0xbd80334f	-0.06259786
255	0xbdacdbec	-0.08440384

fc.bias f4 [6]
0	0x3d7d0594	0.061772898
1	0x3d8aef54	0.067839295
2	0x3d1d47d1	0.038398568
3	0x3c9e35f6	0.01931284
4	0x3cce864d	0.025210524
5	0xbc63c57e	-0.013902066
