models/modello_lstm_20250527_1402.pth (torch, 82681 bytes, 6 tensors)

lstm.weight_ih_l0 f4 [256, 10]
-0.036937892 0.13328055 -0.14212732 -0.06952464 0.14579733 -0.13173454 0.016417447 -0.040750112
0.008186604 0.013797286 0.002101786 0.021369305 0.052409567 0.05582056 -0.05756333 -0.17826453
0.25597593 0.013027402 -0.22181275 0.02707612 0.43511257 -0.01833337 0.67627746 0.47011665
-0.022693604 0.0634575 -0.03165423 0.03582711 -0.04687228 0.009248994 -0.05253018 -0.13171028
-0.16244955 -0.0909443 -0.1274828 0.11268473 0.1262683 0.04989716 -0.005117137 -0.09540034
0.0070784586 0.08028355 0.25013027 0.106174506 0.020637134 0.1270382 0.088143796 0.1062587
-0.0073670074 0.006903579 0.11583525 0.07908224 0.11846243 0.0802139 0.10565951 0.01569769
0.17788815 0.09367492 -0.024959676 0.058069266 -0.12954384 -0.08051335 0.39238158 0.31581512
0.13114215 0.005358672 -0.1733279 -0.0026224006 -0.043518063 -0.09390688 0.136504 0.23106983
0.07306241 0.21824156 -0.02755324 -0.008430123 -0.27679333 0.08149123 -0.07066961 0.023625234
0.19120985 0.14948897 0.25276393 0.11282575 -0.0976374 -0.037202958 0.11627454 -0.10673886
0.06862827 0.06315947 0.24028763 0.101371944 0.3643636 0.12476316 -0.052843664 0.109986864
0.013748592 0.063249394 0.12737754 0.092897855 0.088535346 0.16657834 0.18562455 0.12541673
0.070636764 0.016653825 0.101175405 0.1701166 0.22637454 -0.0766039 0.25899127 0.25273612
0.27094722 0.3276428 0.14793946 0.047090348 -0.00047319836 -0.05928482 0.13654695 -0.04082371
0.060383126 0.16574785 0.100440726 0.048580185 0.08430678 0.12494154 0.1920707 0.1558357
0.1754581 0.065588444 -0.05672435 0.13047016 0.22676058 0.114367925 0.15571448 0.20537709
0.16556202 0.10091069 0.028456075 0.12870294 0.21717614 0.053700283 0.21474312 0.21052504
0.057504218 0.04204873 0.04186997 0.01598701 0.07732157 0.042778242 0.017475577 0.2919402
0.10491318 0.21559988 -0.02264925 0.0051697614 0.039458428 -0.1420224 0.018782599 0.0076969103
0.11114699 0.27410743 0.07774061 0.1863686 0.039112896 -0.00712143 0.016315388 -0.1097839
0.030577648 -0.057303086 -0.26249614 -0.18362717 0.014109718 -0.21818951 0.07017632 0.0142043885
0.095550835 -0.16893587 0.03864504 -0.12085248 0.14865378 0.025791552 0.2121969 0.2819786
0.026007032 0.18359324 0.061750527 0.15785773 0.22934695 0.026731106 0.072662264 0.19656351
0.25751543 -0.02125381 -0.044737406 0.23691691 0.032751344 0.1506156 0.15042995 0.018091166
-0.09055262 -0.18126382 -0.35458612 -0.0054658223 -0.03271808 -0.05506612 -0.0019223366 -0.042534664
0.06725315 -0.11871976 0.121956 0.1997427 0.092828 0.0052793096 -0.02756535 0.0022416068
0.024052175 0.16845082 0.08127588 0.048940364 -0.066060275 -0.037652977 0.65677464 0.15409261
-0.030857539 0.17233543 -0.2146186 0.08131158 0.09880104 0.04602656 0.06457398 0.09247875
0.1352604 0.14150304 0.1640933 0.034903575 0.24619155 0.0020054826 0.036742996 -0.0012171218
0.5179578 0.28232026 0.2659639 0.34379762 0.026886301 0.30165976 0.104230516 0.18215999
0.04988061 -0.009406365 -0.04125351 -0.0064102006 -0.006064313 0.03349557 -0.06555162 0.0873606
00000000: 304c 17bd b27a 083e d389 11be ef62 8ebd
00000010: e54b 153e 6be5 06be e27d 863c 97e9 26bd
00000020: 1b21 063c 030e 623c 1ebe 093b ae0e af3c
00000030: 6aab 563d 19a4 643d 87c7 6bbd fa8a 36be
00000040: 470f 833e e270 553c e222 63be bdce dd3c
00000050: 13c7 de3e dd2f 96bc 8520 2d3f 21b3 f03e
00000060: f0e7 b9bc 01f6 813d dea7 01bd 73bf 123d
00000070: 26fd 3fbd 1889 173c e329 57bd 0fdf 06be
00000080: 2d59 26be 0141 babd da8a 02be 40c7 e63d
00000090: 7a4c 013e f760 4c3d a8ad a7bb 4161 c3bd
000000a0: 6af2 e73b b46b a43d 1311 803e 0572 d93d
000000b0: 350f a93c 4d16 023e bc84 b43d 299e d93d
000000c0: f066 f1bb 6b37 e23b 083b ed3d dff5 a13d
000000d0: 6e9c f23d 2f47 a43d 0364 d83d 7198 803c
000000e0: 5028 363e a3d8 bf3d 3c78 ccbc 0ada 6d3d
000000f0: 24a7 04be 2fe4 a4bd 3de6 c83e 85b2 a13e
00000100: 214a 063e cc97 af3b de7c 31be 95dc 2bbb
00000110: ff3f 32bd 4052 c0bd b4c7 0b3e 929d 6c3e
00000120: bfa1 953d b77a 5f3e 55b7 e1bc 801e 0abc
00000130: dbb7 8dbe e0e4 a63d 3abb 90bd b589 c13c
00000140: 84cc 433e a313 193e 466a 813e 3011 e73d
00000150: 1ef6 c7bd 2162 18bd 5921 ee3d e799 dabd
00000160: fa8c 8c3d c159 813d f60d 763e 189c cf3d
00000170: de8d ba3e d483 ff3d 9972 58bd cb40 e13d
00000180: c641 613c e688 813d 426f 023e 3b41 be3d
00000190: 0552 b53d 8393 2a3e 5d14 3e3e 3e6d 003e
000001a0: 02aa 903d 9a6d 883c 0d35 cf3d 0c33 2e3e
000001b0: bace 673e 81e2 9cbd 819a 843e a166 813e
000001c0: 98b9 8a3e ccc0 a73e 717d 173e cfe1 403d
000001d0: 9c17 f8b9 a4d4 72bd f7d2 0b3e c336 27bd
000001e0: 4c54 773d ceb9 293e deb3 cd3d 04fc 463d
000001f0: 08a9 ac3d 5ae1 ff3d 2eae 443e 6593 1f3e
00000200: 4aab 333e 3c53 863d cb57 68bd f899 053e
00000210: ed33 683e bb39 ea3d 9e73 1f3e 5f4e 523e
00000220: 1789 293e 44aa ce3d b71c e93c b4ca 033e
00000230: 6c63 5e3e d4f4 5b3d 9fe5 5b3e e093 573e
00000240: 8b89 6b3d 4a3b 2c3d d87f 2b3d 31f7 823c
00000250: c55a 9e3d 3d38 2f3d f128 8f3c 3079 953e
00000260: b9dc d63d 37c6 5c3e ec8a b9bc 1a67 a93b
00000270: 299f 213d 526e 11be f7dd 993c 5d36 fc3b
00000280: 08a1 e33d cf57 8c3e 7836 9f3d 69d7 3e3e
00000290: d834 203d e25a e9bb d9a7 853c 62d6 e0bd
000002a0: fa7d fa3c a4b6 6abd e565 86be c308 3cbe
000002b0: 722c 673c 126d 5fbe 9ab8 8f3d 86b9 683c
000002c0: 28b0 c33d 86fd 2cbe 434a 1e3d 8181 f7bd
000002d0: b238 183e ce48 d33c 254a 593e 805f 903e
000002e0: b30c d53c deff 3b3e 1fee 7c3d 75a5 213e
000002f0: edd9 6a3e 31fb da3c f4cf 943d f247 493e
00000300: 10d9 833e 781c aebc 923e 37bd 599a 723e
00000310: 4626 063d fa3a 1a3e 4f0a 1a3e ed33 943c
00000320: a773 b9bd 399d 39be 508c b5be a41a b3bb
00000330: 6503 06bd 038d 61bd eaf6 fbba d438 2ebd
00000340: 05bc 893d 5823 f3bd 11c4 f93d 5a89 4c3e
00000350: 9b1c be3d 0ffe ac3b bbd0 e1bc ece7 123b
00000360: 1109 c53c 5f7e 2c3e f873 a63d b175 483d
00000370: 9c4a 87bd 023a 1abd 6222 283f 74ca 1d3e
00000380: f3c8 fcbc b378 303e fac4 5bbe b086 a63d
00000390: 3358 ca3d 5986 3c3d 5d3f 843d 8065 bd3d
000003a0: b481 0a3e 2ce6 103e 1308 283e 0df7 0e3d
000003b0: a319 7c3e 6a6e 033b d37f 163d d587 9fba
000003c0: e298 043f 488c 903e 6c2c 883e 3e06 b03e
000003d0: a940 dc3c 2673 9a3e cf76 d53d 2688 3a3e
000003e0: 9c4f 4c3d 281d 1abc 71f9 28bd a90c d2bb
000003f0: 25b7 c6bb a732 093d ee3f 86bd 1dea b23d

lstm.weight_hh_l0 f4 [256, 64]
-0.07107643 0.06020977 -0.013718253 0.06300406 0.06550296 -0.029590555 0.050890584 0.012209236
-0.08221331 0.008677879 -0.0331593 -0.029734131 -0.11763843 0.10407187 -0.04213876 -0.06901145
-0.007197102 -0.2167435 -0.038200755 0.13021961 0.022430178 -0.089672446 -0.07449361 -0.005833742
-0.23370253 -0.05893366 0.10299001 -0.00748189 -0.059375647 0.07597819 0.059367083 -0.043005142
-0.074902795 -0.037970696 0.041372653 -0.12773907 0.0050269985 0.073334694 -0.09757901 0.053859584
-0.10119394 0.00922356 -0.03315349 -0.031543035 -0.05542983 -0.036265362 -0.03537005 -0.025588335
-0.0010452573 -0.067922466 -0.051679015 -0.04779202 -0.084188886 0.020998038 0.05975791 -0.13310584
0.030556396 0.09830365 0.0005700532 0.077788316 -0.058953736 0.06195267 -0.01493005 -0.019596009
0.22248496 -0.031625666 -0.061675083 -0.096962355 0.012644224 0.095743045 -0.07098831 -0.06614914
0.101811096 -0.009578625 -0.008242616 0.05033932 0.1324407 0.064187296 0.18334654 -0.07070046
-0.034704804 -0.046502206 -0.041860174 -0.1676883 0.12686166 -0.0039777663 -0.097223446 -0.027674178
-0.11872012 -0.06894729 -0.036505844 0.11302475 0.120587975 0.11854871 -0.1510584 0.05102148
-0.09054382 0.14995201 -0.11843993 -0.045032702 0.08007664 0.08822299 -0.02240519 -0.046940636
-0.10602511 -0.032303806 -0.0014279957 -0.10141006 -0.12412914 -0.07379444 0.007540233 -0.054049607
-0.08865076 0.19915329 -0.080563605 -0.099478655 0.016129795 0.036091577 -0.15141688 -0.03436961
0.0006594424 -0.031311955 0.11602677 0.22559778 -0.032716032 -0.019094177 -0.09702208 -0.17017882
-0.064762875 -0.03234461 0.014833388 0.026677644 0.04929125 -0.07572263 -0.07359003 -0.10760868
0.14539304 0.049494665 0.063470505 -0.081169836 0.03210847 -0.027839856 -0.13328841 -0.13109973
0.1501748 0.08590729 0.043722454 0.12989032 0.033504765 -0.026614651 0.08812464 -0.0651118
0.037298143 -0.0054547545 -0.11373525 -0.095760025 0.073402636 0.00091957365 0.12408735 0.04477472
0.083953716 0.06860712 0.09989705 0.16176341 -0.03454746 -0.1158746 0.039132535 -0.025299957
0.01903421 -0.012504368 0.0434785 0.13520911 0.21302147 0.1549944 -0.021027556 0.1096762
0.22891656 -0.13255243 0.13712174 0.02908064 -0.2625989 0.019254249 0.12069802 0.1158903
0.06928707 -0.0070125945 0.042745527 -0.089945644 -0.04887298 0.011860535 0.02799768 -0.003821229
-0.11927007 0.116736434 0.07943025 0.093387716 0.02605693 0.04932044 0.05651983 -0.08732449
0.100383304 -0.10665977 -0.11744284 0.018321736 -0.028767873 -0.042574227 -0.044920377 0.018154442
-0.013958277 -0.10654619 -0.16061427 0.17129053 -0.031620435 -0.10421525 0.12119466 0.0045286627
-0.005919238 0.08538865 0.0042027966 -0.0948671 -0.052716523 -0.031565778 -0.06809647 -0.08090488
0.00027761876 -0.10112642 0.17136696 -0.06609708 -0.12574139 -0.19666792 0.13861857 -0.07697113
0.10952492 0.012688792 -0.005756065 0.025339192 -0.06392319 0.15369421 -0.0031403652 0.001636292
0.19746934 -0.037070937 -0.079509884 0.22325838 -0.111426465 0.07283956 -0.14509442 0.012762562
0.11502549 -0.004829534 -0.10021744 -0.084872 0.12490718 0.074121304 -0.009370078 -0.03096581
00000000: 8590 91bd 859e 763d 86c2 60bc 4608 813d
00000010: 6a26 863d e467 f2bc a572 503d 3f09 483c
00000020: 745f a8bd aa2d 0e3c 0cd2 07bd fe94 f3bc
00000030: 6bec f0bd a223 d53d b199 2cbd e055 8dbd
00000040: abd5 ebbb 02f2 5dbe 6578 1cbd 4a58 053e
00000050: 7ebf b73c 30a6 b7bd 1b90 98bd fa28 bfbb
00000060: b74f 6fbe 6c64 71bd 6dec d23d a42a f5bb
00000070: e133 73bd 749a 9b3d e62a 733d 2926 30bd
00000080: a366 99bd 2987 1bbd 5f76 293d 08ce 02be
00000090: 85b9 a43b 8030 963d 81d7 c7bd de9b 5c3d
000000a0: c53e cfbd 6a1e 173c f4cb 07bd 4533 01bd
000000b0: 640a 63bd fd8a 14bd 30e0 10bd a19e d1bc
000000c0: 0401 89ba ef1a 8bbd 60ad 53bd 91c1 43bd
000000d0: 396b acbd 1404 ac3c b6c4 743d e64c 08be
000000e0: 6851 fa3c 6d53 c93d 9f6f 153a 7b4f 9f3d
000000f0: 7979 71bd 15c2 7d3d 2b9d 74bc cf87 a0bc
00000100: 19d3 633e ea89 01bd 039f 7cbd 3394 c6bd
00000110: b829 4f3c ee14 c43d 5262 91bd 3379 87bd
00000120: 5682 d03d aaef 1cbc 0a0c 07bc 9a30 4e3d
00000130: 899e 073e a174 833d 32bf 3b3e 67cb 90bd
00000140: a026 0ebd 1979 3ebd 9375 2bbd 7bb6 2bbe
00000150: 06e8 013e ec57 82bb 161d c7bd f5b4 e2bc
00000160: 8923 f3bd 3d34 8dbd 2787 15bd 8579 e73d
00000170: d4f6 f63d abc9 f23d 0eaf 1abe e6fb 503d
00000180: 0a6f b9bd 058d 193e a290 f2bd 3674 38bd
00000190: 39ff a33d 41ae b43d 178b b7bc d344 40bd
000001a0: b123 d9bd ff50 04bd 962b bbba 14b0 cfbd
000001b0: 6b37 febd 8a21 97bd 0f14 f73b 1f63 5dbd
000001c0: 888e b5bd d7ee 4b3e 88fe a4bd 77bb cbbd
000001d0: a222 843c c3d4 133d 070d 1bbe 26c7 0cbd
000001e0: 6ede 2c3a f740 00bd 719f ed3d 1b03 673e
000001f0: 3f01 06bd 646b 9cbc 83b3 c6bd 5b43 2ebe
00000200: 66a2 84bd c87b 04bd bd07 733c 138b da3c
00000210: 9fe5 493d 7714 9bbd 5fb6 96bd f161 dcbd
00000220: eae1 143e ebba 4a3d d3fc 813d 5f3c a6bd
00000230: 2c84 033d 6910 e4bc c27c 08be 023f 06be
00000240: 6cc7 193e 29f0 af3d 5116 333d f801 053e
00000250: 4b3c 093d f806 dabc b17a b43d 5659 85bd
00000260: f0c5 183d ccbd b2bb 07ee e8bd d51d c4bd
00000270: 1f54 963d 8b0f 713a 8221 fe3d b265 373d
00000280: edef ab3d e481 8c3d d396 cc3d 4fa5 253e
00000290: a381 0dbd aa4f edbd 7049 203d db41 cfbc
000002a0: a2ed 9b3c 1fdf 4cbc 8316 323d 4274 0a3e
000002b0: 4d22 5a3e dab6 1e3e fb41 acbc ea9d e03d
000002c0: 1a69 6a3e d3bb 07be a469 0c3e 863a ee3c
000002d0: 5d73 86be 16bb 9d3c 8630 f73d e557 ed3d
000002e0: 61e6 8d3d e8c9 e5bb ef15 2f3d 6c35 b8bd
000002f0: 092f 48bd b052 423c 645b e53c 966d 7abb
00000300: de43 f4bd 8313 ef3d 54ac a23d 0f42 bf3d
00000310: 5875 d53c 3b04 4a3d 5681 673d 2fd7 b2bd
00000320: c395 cd3d 7070 dabd df85 f0bd 7717 963c
00000330: 9aaa ebbc 5062 2ebd 6efe 37bd a0b8 943c
00000340: 42b1 64bc e434 dabd 1178 24be c966 2f3e
00000350: 6e84 01bd ce6e d5bd e834 f83d 2d65 943b
00000360: 2bf6 c1bb 3fe0 ae3d 9db7 893b af49 c2bd
00000370: 48ed 57bd 1e4b 01bd 2976 8bbd 75b1 a5bd
00000380: 5c8d 9139 5e1b cfbd d27a 2f3e e85d 87bd
00000390: 5ac2 00be 5163 49be 07f2 0d3e 0aa3 9dbd
000003a0: 9a4e e03d a7e4 4f3c 5f9d bcbb 2394 cf3c
000003b0: 29ea 82bd 0462 1d3e 96ce 4dbb d978 d63a
000003c0: 6735 4a3e b2d7 17bd 14d6 a2bd d89d 643e
000003d0: 8f33 e4bd e82c 953d a293 14be 111a 513c
000003e0: 7c92 eb3d 1141 9ebb cd3e cdbd 5fd1 adbd
000003f0: 56cf ff3d e9cc 973d f584 19bc 03ac fdbc

lstm.bias_ih_l0 f4 [256]
-0.06330769 -0.0744996 -0.033513878 0.057763383 0.067234956 0.08240793 -0.04516864 0.01849625
0.062170442 0.12366936 -0.08481416 -0.084306546 0.08808452 0.0432796 -0.008976165 0.10358656
0.14878169 0.10760258 0.020494282 -0.05022856 -0.056220137 -0.0894513 0.06605489 -0.079269685
-0.041506115 0.010781644 -0.022388704 0.022280542 -0.06124604 -0.036665015 0.10038288 0.11088685
0.11246441 0.0018402971 0.118866876 0.04820491 -0.034656953 0.054431986 -0.043382525 0.13496104
0.0009458399 -0.007411447 -0.12782776 -0.13505772 0.115322344 0.006122552 0.007499063 0.051510297
0.12456589 -0.03851479 0.08319784 0.082644075 0.08715692 -0.01682531 0.055097375 0.0917382
0.025055721 0.09585447 0.09476934 0.10478561 0.07072435 0.14902176 -0.035495076 -0.073147215
0.0046458226 -0.056505032 -0.049536042 -0.037046444 -0.041453455 -0.01958934 0.039865714 0.033875927
0.10358854 0.14220963 -0.1269757 -0.10643375 0.097080536 -0.060630072 -0.048203014 0.0037333588
0.180325 0.07481055 -0.009319129 0.01739926 -0.030083993 -0.05242398 0.040727545 0.031676438
0.11608237 0.089833036 0.11054656 0.07063995 0.026885884 -0.08183777 0.02030008 0.06978025
-0.060732313 0.09677198 0.05821738 -0.033018656 0.014791231 -0.098336935 -0.06864747 0.07528837
0.14161916 -0.06661721 -0.16307527 -0.047008198 -0.062097114 0.024784978 0.00043894263 -0.10367718
0.14672801 -0.05605714 0.11071014 -0.0051815393 0.04945447 -0.01004472 0.0045986734 -0.09780938
0.040852316 -0.11784693 -0.13353069 -0.09754975 -0.030508269 0.04734988 0.098728 -0.04774741
0.1013173 0.10060702 -0.025126578 -0.05512675 -0.08085858 0.12428556 0.011566702 0.009792717
0.04881632 -0.021959059 0.019671097 -0.028223755 -0.08994493 0.016395697 0.06880815 0.036458552
0.061266415 -0.014228115 0.0023841003 -0.098386474 -0.054432854 -0.04261565 -0.08530408 0.0064909426
-0.067819536 -0.062624276 0.12630259 -0.017949844 -0.086539805 0.068266146 0.049388796 0.065891884
0.031749323 -0.053605095 -0.114462435 -0.019411068 -0.07795016 0.046088632 -0.04326149 0.10917881
0.036654502 -0.026297886 0.06275201 -0.019544434 -0.08851887 0.03223753 -0.041881103 0.046987474
-0.120828 -0.015397925 0.117692426 -0.029173518 0.010028498 0.0048970436 0.07860592 -0.021668656
0.022692924 -0.066905685 0.049534872 0.0662366 0.035636496 0.10860773 0.028143313 -0.062138624
0.13858856 0.08707087 -0.08958076 -0.06867277 -0.0025885096 -0.113038376 0.102448694 0.0068562957
-0.091645114 0.01653706 0.103564814 -0.06858002 0.06202938 0.087219544 -0.030249774 0.02202559
0.19379826 0.08340152 -0.06303197 0.07979169 -0.029534087 -0.08693996 0.09130591 0.148384
0.039385013 -0.110263556 0.12746465 -0.09228364 -0.08716571 -0.09266257 -0.06267455 -0.03482296
-0.016711459 -0.056003943 0.06667506 0.034373038 0.13975792 0.04241056 -0.013577473 -0.09268509
-0.10205678 0.12023924 -0.15777178 0.07013733 -0.07506785 -0.011535933 -0.05576637 -0.03137957
0.08292359 -0.14312214 -0.11063032 0.13597505 0.08056209 -0.043792665 0.041454416 0.023890022
-0.08451403 -0.09146923 -0.09426856 0.17054537 0.12338257 -0.022231596 -0.095652446 -0.0017038916
00000000: 76a7 81bd 3f93 98bd d945 09bd 4c99 6c3d
00000010: 7bb2 893d 7dc5 a83d c002 39bd 7385 973c
00000020: 6fa6 7e3d 5d46 fd3d 0cb3 adbd e9a8 acbd
00000030: a865 b43d f345 313d c410 13bc 3125 d43d
00000040: 3a5a 183e be5e dc3d a0e3 a73c 76bc 4dbd
00000050: 1647 66bd 3e32 b7bd c947 873d 2558 a2bd
00000060: 5102 2abd 7ea5 303c 8468 b7bc af85 b63c
00000070: 21dd 7abd 0e2e 16bd 8a95 cd3d a518 e33d
00000080: be53 e63d 2036 f13a 7a70 f33d 8372 453d
00000090: 73f4 0dbd 13f4 5e3d e0b1 31bd 3a33 0a3e
000000a0: 3ef2 773a b9db f2bb 48e5 02be 924c 0abe
000000b0: 1f2e ec3d b09f c83b b3ba f53b 76fc 523d
000000c0: 671c ff3d afc1 1dbd a163 aa3d 4c41 a93d
000000d0: 547f b23d 3cd5 89bc c9ad 613d 3de1 bb3d
000000e0: a841 cd3c 594f c43d 6d16 c23d d799 d63d
000000f0: eed7 903d 2999 183e 4963 11bd 35ce 95bd
00000100: fc3b 983b d271 67bd 4ee6 4abd 03be 17bd
00000110: 19cb 29bd d379 a0bc 3b4a 233d 7cc1 0a3d
00000120: 3a26 d43d 679f 113e eb05 02be f0f9 d9bd
00000130: 29d2 c63d 3d57 78bd 8670 45bd 5eab 743b
00000140: 1ea7 383e 4636 993d 43af 18bc e588 8e3c
00000150: b572 f6bc 87ba 56bd edd1 263d 27bf 013d
00000160: 98bc ed3d 62fa b73d 3c66 e23d aeab 903d
00000170: c93f dc3c 909a a7bd 5a4c a63c f3e8 8e3d
00000180: 72c2 78bd 6330 c63d 5975 6e3d 923e 07bd
00000190: eb56 723c e064 c9bd 0b97 8cbd ca30 9a3d
000001a0: 9d04 113e 9b6e 88bd 34fd 26be ab8b 40bd
000001b0: 8b59 7ebd de09 cb3c e221 e639 b454 d4bd
000001c0: de3f 163e 2c9c 65bd ffbb e23d e7c9 a9bb
000001d0: c590 4a3d 9c92 24bc 78b0 963b 4950 c8bd
000001e0: c254 273d bb59 f1bd 45bc 08be 2ac8 c7bd
000001f0: 7aec f9bc f3f1 413d e831 ca3d ca92 43bd
00000200: 727f cf3d 0e0b ce3d 41d6 cdbc 96cc 61bd
00000210: 2f99 a5bd 6d89 fe3d 4482 3d3c a271 203c
00000220: 9ff3 473d 7ce3 b3bc 4825 a13c 8135 e7bc
00000230: 0c35 b8bd 4550 863c 4aeb 8c3d 9055 153d
00000240: 7ef2 7a3d 0a1d 69bc 913e 1c3b d97e c9bd
00000250: fcf4 5ebd bf8d 2ebd e8b3 aebd f9b1 d43b
00000260: f8e4 8abd 2841 80bd 7755 013e 8d0b 93bc
00000270: c83b b1bd 1fcf 8b3d e84b 4a3d 53f2 863d
00000280: 940b 023d 0491 5bbd 486b eabd f603 9fbc
00000290: 55a4 9fbd 6fc7 3c3d f632 31bd 2499 df3d
000002a0: 0823 163d aa6e d7bc 2084 803d a61b a0bc
000002b0: 6249 b5bd 800b 043d 858b 2bbd f075 403d
000002c0: ac74 f7bd 9447 7cbc ba08 f13d 4dfd eebc
000002d0: 924e 243c 6177 a03b 24fc a03d 7782 b1bc
000002e0: 83e6 b93c d905 89bd 14e5 4a3d 0ea7 873d
000002f0: 93f7 113d bb6d de3d ce8c e63c 1285 7ebd
00000300: 29ea 0d3e 3652 b23d 1e76 b7bd 4fa4 8cbd
00000310: fca3 29bb aa80 e7bd 9fd0 d13d c7aa e03b
00000320: 6fb0 bbbd ba78 873c ca19 d43d ae73 8cbd
00000330: 8512 7e3d 29a0 b23d 60ce f7bc 036f b43c
00000340: 0d73 463e 6bce aa3d e816 81bd d369 a33d
00000350: 78f1 f1bc 940d b2bd 98fe ba3d faf1 173e
00000360: 2e52 213d dcd1 e1bd 1886 023e 34ff bcbd
00000370: f083 b2bd e0c5 bdbd 845b 80bd 85a2 0ebd
00000380: 78e6 88bc 6464 65bd ef8c 883d beca 0c3d
00000390: b31c 0f3e b2b6 2d3d 0d74 5ebc aed1 bdbd
000003a0: 2503 d1bd fe3f f63d ed8e 21be 29a4 8f3d
000003b0: 2cbd 99bd 3601 3dbc 476b 64bd dd87 00bd
000003c0: d8d3 a93d 9c8e 12be 2692 e2bd 0b3d 0b3e
000003d0: bdfd a43d f05f 33bd 1bcc 293d 02b5 c33c
000003e0: b115 adbd 3854 bbbd e00f c1bd 72a3 2e3e
000003f0: 00b0 fc3d 091f b6bc 6ee5 c3bd 1d55 dfba

lstm.bias_hh_l0 f4 [256]
0.10145995 -0.11918221 0.097125 0.026957469 0.12249751 -0.07103831 0.08272313 -0.046150986
-0.044659805 0.00022810975 -0.04763456 -0.09761604 0.12223925 -0.003266646 -0.085937284 -0.04037869
0.08884371 -0.049430836 0.006125431 0.16766931 -0.13473566 0.050011855 -0.09822104 0.12580569
-0.12418111 -0.03899722 0.124677554 0.054534588 0.08927992 -0.08903981 -0.02608769 0.092604674
0.05991612 -0.008020996 -0.022735776 0.11099421 0.124610744 -0.08609161 0.12006776 0.0833208
-0.088014476 -0.09163972 -0.1679103 -0.09866242 0.021764781 0.003897291 -0.06891916 -0.048594832
0.10757981 0.020280316 -0.11150534 0.16010231 0.13979626 -0.06859821 0.060231816 -0.09607313
-0.1445801 0.08384123 -0.0803406 -0.032601215 0.06422664 0.12599348 0.021386854 -0.012645793
0.075528406 -0.0049460013 -0.054525457 0.055127267 0.06868587 -0.03182978 0.08105694 0.027013553
0.0112473415 0.12796678 -0.03643616 0.00090060267 -0.073115505 -0.016203888 -0.050879247 -0.075031884
0.1494199 -0.036479596 -0.08622573 -0.016913753 -0.12129352 -0.03458981 -0.13520637 -0.04089017
0.09895341 0.019823533 0.03228199 0.088733226 0.045672134 0.11142844 -0.014121414 0.057533596
-0.005004211 0.06572128 0.07131273 0.07531388 -0.058426954 0.06504485 -0.11672265 0.08671066
0.025628665 -0.054678433 -0.06455816 -0.13648239 0.121230185 0.016437462 0.007977017 -0.037221298
-0.025134865 -0.05333869 -0.03806495 0.112755895 -0.09152406 0.075935274 0.10732037 0.112071864
-0.080977865 -0.119373016 -0.061587263 0.12435087 -0.07525745 -0.03335228 -0.10992275 0.10302664
-0.050331928 0.05395906 -0.082349986 -0.06331418 0.021941004 0.025555413 -0.029036831 0.04647887
-0.03491283 -0.054234933 -0.039301433 -0.020182038 -0.009211408 0.059338905 -0.037598588 0.037482947
-0.0779527 0.017367734 -0.059584387 0.033973232 0.08002089 0.10191445 -0.10369305 -0.12436945
0.011035377 -0.107766375 -0.038970213 -0.004334778 -0.09291737 0.034357913 -0.09618611 -0.022860352
-0.12005108 -0.043800563 0.09274244 0.05999443 -0.09751155 -0.06376967 0.06659333 -0.09334029
-0.066944204 0.032543845 -0.0753326 -0.0338038 0.03705904 -0.0054787155 -0.112717785 -0.0070613157
0.084939525 0.12483585 -0.077790156 -0.008296942 0.06477681 0.10062111 -0.07013865 -0.09478919
0.10256297 -0.118463986 -0.103917025 -0.06417804 -0.015939483 0.014085587 0.010884335 -0.0087834075
0.12708929 0.052700117 0.03945966 -0.023523673 0.04073626 -0.07232334 -0.055518333 0.02020447
0.10783111 0.14740907 -0.13164711 0.04241269 -0.02440008 0.09631937 0.022834577 -0.06575991
0.1649412 -0.022906095 0.046027284 0.04661031 -0.08679418 0.047765322 -0.10321702 0.12059183
-0.027105156 0.04074367 -0.0960621 -0.097511485 0.012226709 0.062891126 -0.009474557 0.046022873
0.10424774 -0.07872941 0.04559559 -0.029483384 0.06743756 -0.038335055 -0.0062299697 -0.034830425
0.08796311 0.07374641 -0.22161518 -0.15766735 0.16330639 -0.044456616 -0.08963289 0.10235428
0.06322573 -0.082277305 0.06887624 0.100543104 0.098552845 0.112261124 0.14024316 -0.038923457
-0.14491704 -0.109739676 -0.06291712 0.18612877 -0.033092856 0.16641115 0.009623938 0.015728928
00000000: 3cca cf3d cd15 f4bd 79e9 c63d e9d5 dc3c
00000010: f9df fa3d 897c 91bd bf6a a93d d108 3dbd
00000020: 33ed 36bd bf30 6f39 751c 43bd ebea c7bd
00000030: 9258 fa3d 3a15 56bb e3ff afbd 2064 25bd
00000040: b1f3 b53d fd77 4abd d7b7 c83b 81b1 2b3e
00000050: 25f8 09be 3bd9 4c3d 1d28 c9bd 35d3 003e
00000060: aa52 febd 8dbb 1fbd f256 ff3d a95f 5f3d
00000070: 64d8 b63d 815a b6bd dab5 d5bc 85a7 bd3d
00000080: 9b6a 753d 7f6a 03bc 6140 babc ef50 e33d
00000090: eb33 ff3d cc50 b0bd 16e6 f53d 18a4 aa3d
000000a0: ef40 b4bd 9bad bbbd adf0 2bbe 860f cabd
000000b0: 0e4c b23c b169 7f3b 7d25 8dbd 600b 47bd
000000c0: ce52 dc3d e822 a63c e95c e4bd dcf1 233e
000000d0: c026 0f3e 387d 8cbd a3b5 763d fdc1 c4bd
000000e0: ce0c 14be f3b4 ab3d 9d89 a4bd da88 05bd
000000f0: 4289 833d 6f04 013e 7c33 af3c 4d30 4fbc
00000100: a3ae 9a3d 1112 a2bb 1656 5fbd 21cd 613d
00000110: 2dab 8c3d f25f 02bd 2e01 a63d 874b dd3c
00000120: c546 383c b909 033e 153e 15bd 6c16 6c3a
00000130: 95bd 95bd 04be 84bc c266 50bd 51aa 99bd
00000140: 8801 193e a16b 15bd 1e97 b0bd b68e 8abc
00000150: bd68 f8bd 0bae 0dbd 8a73 0abe 737c 27bd
00000160: 16a8 ca3d f664 a23c 1f3a 043d c4b9 b53d
00000170: b412 3b3d 9834 e43d 815d 67bc 59a8 6b3d
00000180: 5dfa a3bb e198 863d 690c 923d 2a3e 9a3d
00000190: 1a51 6fbd 3c36 853d 490c efbd 5c95 b13d
000001a0: 35f3 d13c 7ef6 5fbd 1237 84bd 0ac2 0bbe
000001b0: 8847 f83d dba7 863c 09b2 023c 5c75 18bd
000001c0: a2e7 cdbc ac79 5abd fee9 1bbd 90ec e63d
000001d0: f770 bbbd f483 9b3d c8ca db3d ef85 e53d
000001e0: b9d7 a5bd d779 f4bd ed42 7cbd abab fe3d
000001f0: 9420 9abd 669c 08bd 2e1f e1bd a2ff d23d
00000200: da28 4ebd 2d04 5d3d 1ca7 a8bd ddaa 81bd
00000210: 9fbd b33c 9659 d13c a6de edbc a160 3e3d
00000220: c100 0fbd 7325 5ebd 8afa 20bd cd54 a5bc
00000230: 72eb 16bc 5a0d 733d fa00 1abd b887 193d
00000240: aaa5 9fbd c746 8e3c c20e 74bd 8427 0b3d
00000250: fee1 a33d 86b8 d03d 065d d4bd 69b5 febd
00000260: bacd 343c 9eb4 dcbd 3b9f 1fbd c10a 8ebb
00000270: 764b bebd e2ba 0c3d 39fd c4bd a245 bbbc
00000280: 57dd f5bd 3868 33bd c0ef bd3d b8bc 753d
00000290: 23b4 c7bd ac99 82bd 1562 883d 3229 bfbd
000002a0: 0b1a 89bd b24c 053d fa47 9abd da75 0abd
000002b0: 38cb 173d cc86 b3bb 95d8 e6bd 9c62 e7bb
000002c0: c6f4 ad3d f0a9 ff3d 7250 9fbd e6ef 07bc
000002d0: b4a9 843d 7112 ce3d daa4 8fbd d620 c2bd
000002e0: 890c d23d 3f9d f2bd 73d2 d4bd c76f 83bd
000002f0: 8593 82bc 3cc7 663c 3654 323c 48e8 0fbc
00000300: b223 023e 14dc 573d 74a0 213d b8b4 c0bc
00000310: 11db 263d 421e 94bd 3167 63bd d883 a53c
00000320: 8fd6 dc3d 67f2 163e 80ce 06be eeb8 2d3d
00000330: ade2 c7bc 1743 c53d 940f bb3c 22ad 86bd
00000340: 59e6 283e 90a5 bbbc 1b87 3c3d 74ea 3e3d
00000350: 26c1 b1bd 92a5 433d 7263 d3bd d9f8 f63d
00000360: a20b debc d6e2 263d 35bc c4bd 1ab4 c7bd
00000370: 8952 483c 10cd 803d 2c3b 1bbc 7b82 3c3d
00000380: d77f d53d e33c a1bd 71c2 3a3d 2387 f1bc
00000390: b41c 8a3d 3805 1dbd c624 ccbb 59aa 0ebd
000003a0: 0126 b43d 5c08 973d 17ef 62be 8d73 21be
000003b0: ca39 273e 2418 36bd 7391 b7bd 1f9f d13d
000003c0: 7e7c 813d 0181 a8bd fc0e 8d3d 8be9 cd3d
000003d0: 13d6 c93d 29e9 e53d e79b 0f3e 346e 1fbd
000003e0: 2265 14be 32bf e0bd b1da 80bd 8a98 3e3e
000003f0: 608c 07bd af67 2a3e b9ad 1d3c f4d9 803c

fc.weight f4 [6, 64]
0.114208065 -0.013181849 0.0084777055 0.115089916 -0.030848123 -0.045963053 0.149715 -0.03454923
0.041323528 -0.017615765 0.040356327 0.030054204 0.080745034 0.109467454 0.052116096 -0.12463902
-0.026489288 -0.10878231 -0.0063934047 0.13202837 0.029439785 -0.1021442 0.12339399 -0.11799853
-0.02577034 0.05604305 -0.10141099 -0.02825576 0.034666818 -0.071049176 0.023953194 -0.15349685
0.050636675 0.054461494 0.041576654 -0.011927267 -0.088146806 -0.08188338 -0.06858613 -0.1391067
0.11582091 -0.11711209 -0.08476642 -0.08654824 -0.11944363 0.046315018 -0.13020536 0.11609039
0.17086577 0.018041827 -0.06953459 0.14059691 -0.15496248 0.1438738 -0.0504853 -0.06211761
0.070521444 0.008336885 -0.00021945106 -0.0952981 -0.07655133 0.094698176 0.07219263 -0.012800786
0.08482365 0.14495675 0.037861988 -0.0331252 0.15010042 0.12974694 -0.052563567 -0.0056282813
-0.0674004 -0.08941084 0.082697466 -0.03748902 -0.14210989 0.132624 0.012959295 -0.05618716
-0.12492581 -0.039565474 -0.014512289 0.13798736 0.09123079 0.0372525 -0.12643096 -0.044886746
-0.10864264 -0.033069782 0.0010286241 -0.14602137 -0.11329345 0.13185468 0.10204989 0.048757408
-0.025335757 -0.13546653 0.035793897 -0.024980493 -0.11529057 -0.026828459 0.12520885 0.0016180461
0.096409224 0.05630864 -0.06763749 0.005301415 -0.10820012 0.03182481 0.03568993 0.050012853
0.094311565 -0.07922459 0.06927602 0.15837479 -0.13056363 -0.02853422 -0.14433795 -0.11738266
-0.06324059 -0.04448936 -0.040343303 -0.10799234 0.049265463 0.015603838 0.13944879 0.062521696
0.042770226 -0.05147568 -0.08047713 0.011452323 0.05939815 0.03155708 -0.02695704 0.026425289
0.07463486 -0.047672916 -0.1252279 0.02209423 -0.08141732 0.15295245 -0.12775408 0.022086423
-0.09258646 -0.074391544 -0.111422114 0.1145562 -0.06517073 -0.02523004 -0.037058685 -0.1295804
-0.045381814 -0.13184857 0.08055365 0.021070872 -0.08610966 -0.025245171 0.007678306 -0.0059459526
-0.040626545 0.066343084 0.016388992 0.1046786 -0.12421129 -0.017063105 0.102127396 0.062105782
0.04259317 0.024331791 -0.0680478 -0.07277334 -0.057247914 0.0051672333 -0.10919619 0.12502001
-0.023981346 -0.0057429047 -0.108459584 0.08191414 -0.06014198 0.16394766 0.076632425 -0.15561873
-0.019845119 -0.07609369 -0.14371814 -0.18671556 0.0042632646 0.013434243 -0.013384502 0.09530802
-0.02261417 0.121438384 0.06302065 0.07107312 0.16500847 0.108609594 0.07886381 -0.1389393
-0.012919001 -0.14311168 -0.13162008 -0.15311839 -0.092200205 0.16478084 -0.12279594 0.05997527
-0.15613559 -0.170568 -0.13669719 0.067606926 0.054776575 0.01391663 -0.056485344 -0.06295053
0.1374931 -0.11566757 0.06763515 0.054757915 0.06743326 0.059081156 -0.1032087 -0.09177008
0.019744836 -0.12990883 0.15791163 -0.030160077 -0.077128604 0.08707647 0.076249585 0.1780432
0.06910159 -0.12265711 -0.10029524 0.03065359 0.006120497 0.0828158 -0.123234175 0.06771065
0.087412596 -0.029148702 -0.051623177 -0.008599022 -0.07859782 -0.015611398 0.031713262 -0.01645168
0.115729995 0.05430102 0.0870839 -0.09512475 0.11058932 0.098702945 0.07166808 0.002212574
00000000: ebe5 e93d aff8 57bc 13e6 0a3c 43b4 eb3d
00000010: 34b5 fcbc c143 3cbd e44e 193e 7e83 0dbd
00000020: dc42 293d f04e 90bc ad4c 253d 3c34 f63c
00000030: a75d a53d 7930 e03d b077 553d be42 ffbd
00000040: 1000 d9bc 42c9 debd c47f d1bb 7232 073e
00000050: b42b f13c fa30 d1bd fdb5 fc3d 37a9 f1bd
00000060: 521c d3bc 668d 653d 91b0 cfbd a078 e7bc
00000070: cbfe 0d3d 3b82 91bd 7d39 c43c 472e 1dbe
00000080: 6768 4f3d 0413 5f3d 484c 2a3d 956a 43bc
00000090: 5086 b4bd 79b2 a7bd e376 8cbd fd71 0ebe
000000a0: 8333 ed3d 77d8 efbd 049a adbd 3440 b1bd
000000b0: dd9e f4bd d1b4 3d3d 8e54 05be ccc0 ed3d
000000c0: 70f7 2e3e 74cc 933c 2768 8ebd a3f8 0f3e
000000d0: 7cae 1ebe a753 133e adc9 4ebd 096f 7ebd
000000e0: 8c6d 903d 6e97 083c 721c 66b9 a62b c3bd
000000f0: f2c6 9cbd 1ef1 c13d bbd9 933d 63ba 51bc
00000100: 06b8 ad3d 8b6f 143e 2c15 1b3d 4aae 07bd
00000110: edb3 193e 62dc 043e e54c 57bd 726d b8bb
00000120: 3909 8abd 081d b7bd 4a5d a93d 168e 19bd
00000130: 4185 11be 96ce 073e 3953 543c 8224 66bd
00000140: 1ad9 ffbd 680f 22bd f4c4 6dbc 8f4c 0d3e
00000150: 35d7 ba3d 1496 183d 1e77 01be 2adb 37bd
00000160: 0880 debd 2e74 07bd e6d2 863a a086 15be
00000170: 6506 e8bd ea04 073e 88ff d03d d9b5 473d
00000180: ef8c cfbc bdb7 0abe 9f9c 123d e4a3 ccbc
00000190: 761d ecbd 5bc7 dbbc c036 003e 9e14 d43a
000001a0: 3372 c53d e3a3 663d 8685 8abd 7eb7 ad3b
000001b0: 0698 ddbd bb5a 023d 9b2f 123d 47da 4c3d
000001c0: 6c26 c13d 8040 a2bd 96e0 8d3d 002d 223e
000001d0: 79b2 05be 99c0 e9bc 54cd 13be 5266 f0bd
000001e0: 4884 81bd 7a3a 36bd 053f 25bd 172b ddbd
000001f0: 95ca 493d 3da7 7f3c aacb 0e3e 600b 803d
00000200: d52f 2f3d 2ad8 52bd 32d1 a4bd 86a2 3b3c
00000210: 794b 733d ff41 013d 03d5 dcbc d979 d83c
00000220: 29da 983d ad44 43bd be3b 00be f5fe b43c
00000230: 20be a6bd 919f 1c3e f7d1 02be 96ee b43c
00000240: f89d bdbd 985a 98bd 4731 e4bd 719c ea3d
00000250: 3b78 85bd 3baf cebc d9ca 17bd b9b0 04be
00000260: 48e2 39bd 5003 07be 50f9 a43d d29c ac3c
00000270: 435a b0bd f6ce cebc 4d9a fb3b 44d6 c2bb
00000280: 0568 26bd e2de 873d 3542 863c bc61 d63d
00000290: 7d62 febd edc7 8bbc 2b28 d13d a262 7e3d
000002a0: 2d76 2e3d 7753 c73c a55c 8bbd 300a 95bd
000002b0: ca7c 6abd e551 a93b 41a2 dfbd 3f05 003e
000002c0: 8774 c4bc fa2e bcbb 0f20 debd 9ac2 a73d
000002d0: 7057 76bd e5e1 273e 76f1 9c3d 845a 1fbe
000002e0: 3b92 a2bc 02d7 9bbd d92a 13be 5d32 3fbe
000002f0: dbb2 8b3b 4d1b 5c3c ac4a 5bbc da30 c33d
00000300: 5a41 b9bc b0b4 f83d f810 813d c98e 913d
00000310: fbf7 283e b56e de3d 5983 a13d 1b46 0ebe
00000320: 38aa 53bc de8b 12be 6ac7 06be 11cb 1cbe
00000330: 76d3 bcbd 4fbc 283e 707c fbbd a1a8 753d
00000340: 02e2 1fbe 61a9 2ebe 59fa 0bbe 8075 8a3d
00000350: 675d 603d 9402 643c 2d5d 67bd 35ec 80bd
00000360: feca 0c3e 1ee3 ecbd 4c84 8a3d d649 603d
00000370: 731a 8a3d 15ff 713d 155f d3bd f4f1 bbbd
00000380: ecbf a13c d206 05be 96b3 213e 4412 f7bc
00000390: 9af5 9dbd 2655 b23d be28 9c3d f550 363e
000003a0: 2285 8d3d a733 fbbd 9767 cdbd 3d1d fb3c
000003b0: 738e c83b 559b a93d 3362 fcbd e2ab 8a3d
000003c0: 6005 b33d 42c9 eebc d372 53bd eae2 0cbc
000003d0: e5f7 a0bd f3c6 7fbc c4e5 013d acc5 86bc
000003e0: d903 ed3d bf6a 5e3d 0b59 b23d c4d0 c2bd
000003f0: a77c e23d c524 ca3d b7c6 923d d500 113b

fc.bias f4 [6]
0.019763142 -0.084921956 -0.09305563 -0.033213045 -0.01235526 -0.055949572
00000000: 50e6 a13c 90eb adbd f393 bebd 670a 08bd
00000010: b76d 4abc 612b 65bd
