models/modello_8_4_v1.pth (torch, 827098 bytes, 10 tensors)

lstm.weight_ih_l0 f4 [512, 10]
0	0x3e2945da	0.16530553
1	0x3e7fa387	0.24964724
2	0x3e839b7b	0.2570456
3	0x3e7cc1ed	0.24683352
4	0x3d29fc25	0.04150023
5	0x3d1b3149	0.0378888
6	0x3e009c54	0.12559634
7	0x3dff751f	0.12473511
8	0x3dee5112	0.11636557
9	0x3e0787b4	0.1323536
10	0x3dd7ca9d	0.10536692
11	0xbe04aef3	-0.12957363
12	0x3e42d23a	0.19025508
13	0x3d64a06f	0.055817064
14	0xbcb5ba83	-0.022183662
15	0x3de9eefc	0.11422536
16	0xbc9fa45a	-0.019487549
17	0x3e0c5d42	0.1370745
18	0x3d087d67	0.033322718
19	0x3e147c53	0.14500551
20	0xbe1fd1fb	-0.15607445
21	0x3e8ef406	0.2792055
22	0x3f01478c	0.50499797
23	0x3ef209ff	0.4727325
24	0xbd595c7f	-0.053066727
25	0xbdcbbf3f	-0.09948587
26	0xbdc4493a	-0.09584279
27	0xbd2b77df	-0.041862365
28	0xbe006ee9	-0.12542309
29	0x3d5cac79	0.05387542
30	0x3bb1458c	0.005409902
31	0x3c9828f5	0.018574217
32	0x3e9cd21e	0.30629057
33	0x3e954bd3	0.29159412
34	0x3e0615d7	0.13094269
35	0x3dc5860e	0.096447095
36	0xbcc1e2e3	-0.023667758
37	0x3dc63576	0.096781656
38	0xbcf43517	-0.029810471
39	0xbb209a5e	-0.0024506073
40	0x3eb4aed7	0.35289642
41	0xbeb5ba9f	-0.35493943
42	0x3d7c402e	0.061584644
43	0x3de3560e	0.11100398
44	0x3ec36c0b	0.38168368
45	0xbe516aca	-0.20450893
46	0xbd5d8bdd	-0.054088462
47	0xbcdf849f	-0.027284918
48	0xbda56834	-0.08076516
49	0xbdcd850f	-0.100351445
50	0xbee1f908	-0.44135308
51	0x3dacd6ea	0.08439429
52	0xbec1e83f	-0.37872502
53	0xbec2c4ca	-0.38040763
54	0x3e2ad9f9	0.16684712
55	0x3e4afcf2	0.19823053
56	0x3e5acb47	0.21366607
57	0x3dfe81ec	0.124271244
58	0x3e178053	0.14795046
59	0x3d3d4877	0.046211686
60	0xbe2ac934	-0.16678315
61	0x3e58be70	0.21166396
62	0xbdeb448d	-0.114876844
63	0x3e11b96f	0.14230894
64	0x3d5b02da	0.053469516
65	0x3de0b9d0	0.10972941
66	0x3de9608d	0.11395369
67	0x3d5870f0	0.05284208
68	0x3dbbd3e4	0.09171274
69	0xbccc0fa1	-0.024909796
70	0xbe1efa30	-0.15525126
71	0x3d9942e6	0.07483463
72	0x3e04d0d3	0.12970285
73	0xbb304251	-0.0026894996
74	0x3dfa5779	0.12223715
75	0x3e6f073e	0.23342606
76	0x3df9f17e	0.12204264
77	0x3e3e7759	0.18600215
78	0x3d63f5a7	0.055654194
79	0x3dbc092f	0.09181439
80	0xbdf810e6	-0.12112598
81	0x3dedfac3	0.116200946
82	0xbc8a2a07	-0.016865743
83	0x3da7163c	0.08158538
84	0x3dcb342c	0.0992206
85	0x3c8c3258	0.01711385
86	0x3dbef126	0.09323339
87	0x3e2874ab	0.16450755
88	0xbcd87017	-0.026420636
89	0x3d9b04b0	0.075692534
90	0x3e34d8b7	0.17660795
91	0xbe2f3c9c	-0.17112964
92	0xbda54246	-0.08069281
93	0xbdfc06fa	-0.12306018
94	0x3def7ced	0.116937496
95	0xbb7b78de	-0.0038371603
96	0x3e46a938	0.1940049
97	0x3dd377fa	0.10325618
98	0xbca31d38	-0.019911394
99	0x3e86dfc8	0.26342607
100	0xbe2fe219	-0.17176093
101	0x3d838a8f	0.06422912
102	0x3d8c92b2	0.068639174
103	0xbcd137f3	-0.025539374
104	0x3adf20b5	0.0017023297
105	0x3e60ca30	0.21952128
106	0x3da61b90	0.08110726
107	0x3da8989a	0.082322314
108	0xbd7b9862	-0.06142462
109	0xbd02b30c	-0.031909034
110	0xbdef58bb	-0.11686846
111	0x3e2f4848	0.17117417
112	0x3eb88aae	0.36043304
113	0x3e739bc0	0.23789883
114	0x3e54d5c8	0.20784676
115	0x3cf33898	0.029690072
116	0x3b9992aa	0.004686673
117	0x3dc3b078	0.09555143
118	0x3ce17962	0.0275237
119	0xbd144e9e	-0.036207788
120	0x3f04017d	0.5156477
121	0xbe5937ac	-0.21212643
122	0xbe907cad	-0.2822012
123	0xbe539ad2	-0.20664528
124	0xbd6dd9f0	-0.05806917
125	0x3da2c799	0.079482265
126	0x3e0d8d28	0.13823378
127	0x3d190e40	0.037367105
128	0xbc02ffc4	-0.00799555
129	0x3dfd3011	0.123626836
130	0x3e271f89	0.16320623
131	0x3e85ccfa	0.26132947
132	0x3ef2e179	0.47437647
133	0x3ef103b5	0.4707314
134	0xbcf1f00a	-0.029533405
135	0xbd5bd8d4	-0.05367358
136	0x3c64b48c	0.013959061
137	0x3d10234f	0.035189923
138	0x3d683cf5	0.05669876
139	0x3cb11c9b	0.021620085
140	0xbe8d8fb5	-0.27648702
141	0x3eeee92c	0.4666227
142	0xbd5c8ba5	-0.053844113
143	0x3df73e40	0.1207242
144	0x3d572f83	0.052535545
145	0xbb18a6ea	-0.0023292848
146	0xbd995710	-0.07487309
147	0x3c60eb00	0.013727903
148	0xbd1fa892	-0.03897912
149	0xbe1ead72	-0.15495852
150	0xbbff23fd	-0.0077862726
151	0xbb83d510	-0.0040232018
152	0x3e495c7a	0.19664183
153	0x3ea99f46	0.33129328
154	0x3eb83e09	0.3598483
155	0x3e582117	0.21106373
156	0x3de1b01e	0.1101992
157	0x3ebe3d3f	0.37156102
158	0xbdcc7bd6	-0.09984557
159	0x3dc8d2f1	0.09805859
160	0x3e010b1e	0.12601897
161	0x3dbfffab	0.09374937
162	0x3e80bed2	0.25145584
163	0x3da8d5d3	0.08243909
164	0xbdebc29d	-0.11511729
165	0x3de74f2d	0.112943985
166	0x3d3b7b00	0.0457716
167	0x3cb4a18c	0.022049688
168	0x3d890152	0.06689705
169	0x3d63d66c	0.05562441
170	0x3e60ffb8	0.21972549
171	0x3ea1ca24	0.31599534
172	0x3ed80ad9	0.42195776
173	0x3efd39ab	0.4945806
174	0x3d8bb72d	0.068220474
175	0xbe2472d2	-0.16059425
176	0xbe5c0ef8	-0.21490085
177	0x3c1dbdb9	0.009627753
178	0xbea6b63f	-0.32560918
179	0xbde82315	-0.11334816
180	0xbd1e415c	-0.03863655
181	0x3ddb7231	0.1071514
182	0x3ddf6de2	0.1090963
183	0x3d497659	0.04918513
184	0x3d1a853e	0.037724726
185	0x3d4d1da5	0.0500771
186	0x3e5d943f	0.21638583
187	0x3d572fb9	0.052535746
188	0x3c65a05a	0.014015282
189	0x3d36aec3	0.04460026
190	0x3c067bde	0.008208243
191	0x3e3e2707	0.18569575
192	0x3e8a3e55	0.2700068
193	0x3e6cd714	0.23128921
194	0xbe0dab11	-0.13834788
195	0x3dc56c0d	0.0963975
196	0x3d9e3414	0.07724777
197	0x3e02531c	0.12727016
198	0xbc9130ee	-0.017723527
199	0x3c74d818	0.014944099
200	0xbdf5911c	-0.11990568
201	0x3e7d5889	0.24740805
202	0xbcd483cd	-0.025941754
203	0xbcb40837	-0.021976573
204	0x3e328df3	0.17436962
205	0xbb6d41bc	-0.003620251
206	0x3e63208f	0.22180389
207	0x3d06d286	0.032915615
208	0x3ca8106f	0.020515649
209	0x3dd352e9	0.10318548
210	0xbdaae774	-0.083449274
211	0x3d28333c	0.041064486
212	0x3e001dc8	0.1251136
213	0xbb3eda51	-0.0029121826
214	0xbe0778b9	-0.13229646
215	0x3d8447e4	0.064590245
216	0x3d1f8b96	0.03895148
217	0x3cdefca6	0.027220082
218	0x3d2254d0	0.039631665
219	0x3b6a817a	0.003578274
220	0xbf13a6e5	-0.57676536
221	0x3ee4d301	0.44692233
222	0xbea4cc80	-0.3218727
223	0x3e1a7c15	0.15086396
224	0x3e816649	0.2527335
225	0xbd8340ea	-0.06408866
226	0x3da6a62a	0.08137162
227	0x3e73e3c8	0.2381736
228	0x3e18f2fd	0.14936443
229	0xbdd9b86e	-0.1063088
230	0x3ee22891	0.44171575
231	0x3e6cae61	0.23113395
232	0x3f5cc513	0.8623821
233	0x3f38cef6	0.721908
234	0xbd527907	-0.051384952
235	0xbcce77cf	-0.025203614
236	0xbe498166	-0.19678268
237	0x3d48a116	0.04898175
238	0xbe466549	-0.19374575
239	0xbd830da1	-0.06399084
240	0xbe60dc09	-0.21958937
241	0x3d4ae54d	0.049535085
242	0x3e820ebf	0.25401875
243	0x3e3f84ad	0.18702956
244	0x3cae4bd5	0.021276394
245	0x3d0f0276	0.034914456
246	0x3e07176f	0.13192533
247	0xbc7ed3ed	-0.015553457
248	0x3dbe2c26	0.092857644
249	0x3d5f572a	0.054526486
250	0xbf077175	-0.52907497
251	0xbcbc5b0e	-0.022992637
252	0xbeac3b64	-0.3363906
253	0x3e483713	0.19552259
254	0xbe434053	-0.19067506
255	0x3dd15e1e	0.102230296

lstm.weight_hh_l0 f4 [512, 128]
0	0x3c3927ca	0.01130099
1	0xbdc4197f	-0.095751755
2	0x3d9f7380	0.07785702
3	0x3c8d5197	0.01725082
4	0xbdf7068e	-0.12061797
5	0xbe510271	-0.20411088
6	0xbe591c31	-0.2120216
7	0x3dc9f306	0.09860806
8	0xbdfb8559	-0.122812934
9	0xbe508173	-0.20361881
10	0xbe08e01a	-0.13366738
11	0xbc9edd16	-0.019392531
12	0xbd82925d	-0.06375573
13	0x3b268399	0.0025408028
14	0xbe49c8e6	-0.19705543
15	0x3cc2f925	0.023800442
16	0xbe407b0e	-0.18796942
17	0x3e66cc1d	0.225388
18	0xbe711a63	-0.23545222
19	0xbd25469c	-0.04035054
20	0xbd2ec1e2	-0.04266537
21	0xbda1a337	-0.07892459
22	0x3d87e96f	0.06636321
23	0xbe92f2f9	-0.28700998
24	0x3df2f5e7	0.118633084
25	0xbd78c238	-0.060732096
26	0x3db0a777	0.086256914
27	0x3dae7a27	0.085193925
28	0x3b87e7e1	0.004147515
29	0x3c9ecb8e	0.019384172
30	0xbdeb919f	-0.115023844
31	0x3df22682	0.11823751
32	0x3cf90b33	0.030400848
33	0x3d0e0c16	0.034679495
34	0xbdfc4ffa	-0.12319942
35	0xbd040a94	-0.03223665
36	0xbdf0d974	-0.11760226
37	0xbeb5e283	-0.35524377
38	0xbdbdd663	-0.09269407
39	0xbdaeb6a1	-0.085309274
40	0x3da8a1b9	0.08233971
41	0xbdfae072	-0.12249841
42	0x3d8b5e9b	0.06805154
43	0xbdaafa29	-0.083484955
44	0x3c790920	0.0151999295
45	0xbe019cbb	-0.12657444
46	0xbd2b1b78	-0.041774243
47	0x3dbd588b	0.09245404
48	0xbd993fe9	-0.07482893
49	0x3cc43c1f	0.02395445
50	0xbe5700a8	-0.20996344
51	0x3e0a1ad3	0.13486795
52	0x3d35ff3d	0.044432867
53	0xbd2c063f	-0.041998144
54	0xbd436297	-0.047701444
55	0xbe1c93c9	-0.1529075
56	0xbda7aea9	-0.08187611
57	0x3d02bae1	0.031916503
58	0x3c113218	0.008862041
59	0xbe7fa81e	-0.24966475
60	0xbc938196	-0.018006127
61	0x3e0b41d6	0.13599333
62	0x3e05181a	0.12997475
63	0x3d19cce8	0.03754893
64	0xbdb0779a	-0.08616562
65	0x3ddc8ed1	0.107694276
66	0xbddc8964	-0.10768393
67	0xbe879399	-0.26479796
68	0x3de2021b	0.11035558
69	0xbdd2fb7b	-0.10301872
70	0x3e1c6981	0.15274622
71	0x3dd753cb	0.10514029
72	0xbd6a0e79	-0.05714271
73	0xbeb00ac2	-0.34383208
74	0xbe37efeb	-0.17962615
75	0xbe6b910a	-0.23004547
76	0x3c231956	0.009954771
77	0x3ea35c7a	0.31906492
78	0xbda85f34	-0.082212836
79	0x3d02e199	0.031953428
80	0xbe9d6efb	-0.30748734
81	0xbca8c938	-0.020603761
82	0x3c70f805	0.01470757
83	0x3e542641	0.20717718
84	0x3d22475a	0.039618827
85	0xbdca2f56	-0.0987231
86	0xbbdcad51	-0.006734528
87	0x3ce7451f	0.028231202
88	0xbcfc66d2	-0.030810747
89	0xbe26a86e	-0.16275188
90	0x3e1e3aaf	0.15452074
91	0x3e00eec0	0.12591076
92	0xbc3fc026	-0.011703527
93	0xbe3c3eae	-0.18383285
94	0xbd9cf60e	-0.07664119
95	0x3c1105fd	0.008851525
96	0xbd4476f4	-0.047965005
97	0x3ca5b78b	0.020229122
98	0xbe1d3993	-0.15353994
99	0xbe25f6a9	-0.16207375
100	0xbdb4aabb	-0.08821627
101	0x3c3334e3	0.010937902
102	0xbe32cbc3	-0.17460541
103	0x3d84538b	0.06461247
104	0x3e4996c0	0.19686413
105	0xbdbc66d4	-0.091993004
106	0x3c20eba2	0.009821804
107	0xbea5018a	-0.32227737
108	0x3e227468	0.15864718
109	0xbe24c3af	-0.16090272
110	0x3d94b93f	0.072618954
111	0x3dce3169	0.10068018
112	0xbcae2e53	-0.021262323
113	0xbe2ab16e	-0.16669247
114	0xbdec9d38	-0.115534246
115	0xbe5b1540	-0.21394825
116	0xbd5c3bf6	-0.05376812
117	0x3de1754a	0.11008699
118	0xbc96e8aa	-0.01842149
119	0xbe6ba3ea	-0.23011747
120	0xbe836678	-0.25664115
121	0xbc8696fe	-0.01642942
122	0x3dbd5b5c	0.09245941
123	0x3e2d2fba	0.16912737
124	0x3cf14439	0.029451476
125	0xbdc76d54	-0.097376496
126	0x3c706b7b	0.014674063
127	0x3d2d8d8a	0.04237131
128	0x3de9dfd0	0.11419642
129	0x3d7b2bd1	0.061321083
130	0x3c95ab8c	0.018270276
131	0xbd716f91	-0.05894429
132	0x3e1acb7a	0.15116683
133	0xbc264864	-0.010149095
134	0x3d83f284	0.064427406
135	0xbd1c651c	-0.038182363
136	0x3d7d70fb	0.061875325
137	0x3c0a7900	0.0084517
138	0xbe12e23b	-0.14344113
139	0x3da5fbe6	0.081046864
140	0x3e105b50	0.14097333
141	0x3eabcac9	0.3355315
142	0xbda6d03a	-0.08145185
143	0x3dc2b89a	0.09507866
144	0xbdeec13b	-0.116579495
145	0x3d1f1131	0.038834754
146	0xbe253b4e	-0.16135904
147	0x3d9ea075	0.077454485
148	0xbcbd9311	-0.023141416
149	0xbd89e829	-0.06733734
150	0x3daa1c65	0.08306197
151	0x39a7b3c8	0.0003198667
152	0xbd7508df	-0.059822913
153	0xbe1944b9	-0.14967622
154	0xbce3a5d7	-0.02778904
155	0x3e482b72	0.19547823
156	0x3d1b4789	0.037910018
157	0x3d3c78a4	0.04601349
158	0xbd499b07	-0.04922011
159	0xbd54aff0	-0.0519256
160	0x3d9a4bec	0.07534012
161	0x3d0084d5	0.03137668
162	0x3cbfe9ad	0.023426855
163	0x3c6bb13e	0.01438552
164	0xbd971ec8	-0.07378918
165	0xbd3543b5	-0.044254024
166	0xbb6c8835	-0.0036091928
167	0x3d1cefd2	0.038314648
168	0xbd40a8ce	-0.047035985
169	0xbd48cd99	-0.0490242
170	0x3e3a8e83	0.18218426
171	0xbdc6c0d2	-0.09704746
172	0xbdec65ff	-0.11542892
173	0xbcaa9f00	-0.02082777
174	0xbaaa033c	-0.0012970935
175	0x3ce34db4	0.027747013
176	0x3d7e4851	0.062080685
177	0x3d090fcf	0.033462342
178	0xbe236037	-0.15954672
179	0xbc66d4a6	-0.014088785
180	0x3dad243c	0.08454177
181	0x3df3affa	0.11898799
182	0x3e61899a	0.22025147
183	0x3d29482a	0.041328587
184	0x3c0a7b20	0.008452207
185	0x3db9bae7	0.09068852
186	0xbdaab7ef	-0.08335864
187	0x3e57b0f2	0.21063593
188	0x3d67e953	0.056619
189	0xbcd7a96f	-0.02632591
190	0x3d8136c5	0.063092746
191	0xbdb0fe8c	-0.08642301
192	0x3e04d978	0.12973583
193	0x3d33b98c	0.043878123
194	0xbc2970c9	-0.0103418315
195	0x3e502df3	0.20330028
196	0xbd7b4035	-0.06134053
197	0xbe05a041	-0.13049413
198	0xbe1c4a7a	-0.15262786
199	0xbd84cf89	-0.06484897
200	0x3cef8dc4	0.029242404
201	0xbe1893dd	-0.14900155
202	0x3de93766	0.113875195
203	0xbc9faba2	-0.01949102
204	0x3cf79160	0.030220687
205	0xbd2e51b2	-0.04255838
206	0xbe2015d6	-0.1563333
207	0xbc7d1abf	-0.015448271
208	0x3e0f9207	0.14020549
209	0xbd0ef99b	-0.03490601
210	0xbcd96533	-0.026537513
211	0x3d61cc6d	0.055126596
212	0xbd7e2b9d	-0.06205331
213	0x3d1bc88d	0.038033057
214	0x3df9ba34	0.121937186
215	0xbdacf973	-0.08446016
216	0x3b7664f9	0.0037596805
217	0x3dac2922	0.08406283
218	0x3d50d9ca	0.05098895
219	0x3da7def4	0.08196822
220	0x3e131572	0.1436365
221	0x3da98614	0.082775265
222	0xbd43d385	-0.047809143
223	0xbcb3225b	-0.021866968
224	0xbdbdf69c	-0.09275553
225	0xbd387b45	-0.045039434
226	0xbd284da0	-0.041089654
227	0xbb8715f3	-0.0041224896
228	0xbe34297b	-0.17593949
229	0x3c6104db	0.013734068
230	0xbdb4d506	-0.088296935
231	0x3d42851f	0.047490235
232	0xbcbac109	-0.022797124
233	0x3b832f4e	0.004003442
234	0xbda2f96a	-0.07957728
235	0x3ea8c4ec	0.3296274
236	0x3d1c6949	0.038186345
237	0xbdb9d4df	-0.09073805
238	0xbc85204f	-0.016250758
239	0x3d9138df	0.070909254
240	0x3ad6e95e	0.0016396453
241	0x3a23a07a	0.00062418694
242	0x3cf7babf	0.030240415
243	0xbdb4b113	-0.08822837
244	0xbd50ac6f	-0.050945695
245	0x3ce05264	0.027383037
246	0x3d4e0cae	0.05030506
247	0xbe00c350	-0.12574506
248	0x3e8fc5f6	0.2808072
249	0xbdf5e944	-0.120073825
250	0x3d5a2224	0.053255215
251	0x3e335b4c	0.17515296
252	0xbdf13af9	-0.11778826
253	0xbe458977	-0.1929072
254	0xbdedf779	-0.11619467
255	0x3ce099e6	0.027417134

lstm.bias_ih_l0 f4 [512]
0	0x3dce1efc	0.100645036
1	0x3e3b70d2	0.18304756
2	0xbddd7217	-0.108127765
3	0xbdc3e2d4	-0.095647484
4	0x3d05b297	0.03264102
5	0xbd3dec08	-0.046367675
6	0x3c701a0c	0.014654648
7	0x3d43d910	0.04781443
8	0xbd641272	-0.055681653
9	0x3e3a285a	0.18179455
10	0xbca2d17e	-0.019875284
11	0xbda43281	-0.08017445
12	0x3d147cb9	0.036251757
13	0x3cf0b281	0.029381992
14	0xbd496311	-0.049166743
15	0x3d60bcfd	0.054867733
16	0x3bf4f3d2	0.0074753547
17	0xbcbf5b80	-0.02335906
18	0xbd9d430b	-0.07678803
19	0x3d4afc61	0.049557094
20	0xbda9674a	-0.08271654
21	0xbe49a190	-0.19690537
22	0xbd021429	-0.031757507
23	0xbd849a04	-0.06474689
24	0xbdc78b51	-0.09743369
25	0xbe5f599a	-0.21811524
26	0x3d31a03e	0.04336571
27	0x3dbf40f7	0.09338563
28	0x3cc5d55a	0.024149586
29	0x3dfd2a82	0.12361623
30	0xbd5d506d	-0.054031778
31	0xbca9435e	-0.020662006
32	0xbddc3005	-0.107513465
33	0xbd4b1f04	-0.049590126
34	0x3be64cac	0.007028183
35	0xbd6a8bd5	-0.05726226
36	0x3e5644d6	0.20924696
37	0x3c42eba7	0.011897004
38	0xbd35d79b	-0.04439507
39	0xbdd42432	-0.10358466
40	0x3d81a773	0.063307665
41	0xbdf5b496	-0.11997335
42	0xbe345dd2	-0.17613915
43	0xbca110b5	-0.019661287
44	0x3b0a25d9	0.0021079688
45	0x3d182ae9	0.037150297
46	0xbe0630bd	-0.1310453
47	0x3d46819e	0.048463456
48	0xbd46e831	-0.04856128
49	0xbdea013e	-0.11426018
50	0xbddc8d2f	-0.10769116
51	0xbe08fc6e	-0.13377544
52	0xbd7dd367	-0.061969187
53	0xbd8fee4f	-0.07027876
54	0x3cc67d6b	0.024229726
55	0x3cc514d6	0.024057787
56	0xbe116f2e	-0.14202568
57	0xbd3b76bd	-0.045767535
58	0xbdf47624	-0.11936596
59	0x3dcc5bee	0.09978472
60	0xbc9ded65	-0.019278238
61	0x3c9e9e70	0.019362658
62	0xbdaa1124	-0.083040506
63	0xbd26d0eb	-0.040726583
64	0x3dd71573	0.10502138
65	0x3e646b45	0.22306545
66	0xbdfefc37	-0.1245045
67	0x3e08798a	0.13327613
68	0x3d803389	0.062598296
69	0xbd4cd6b0	-0.05000943
70	0x3e4beee8	0.19915354
71	0xbc93329d	-0.01796847
72	0x3eb910fe	0.36145777
73	0x3e3a19fd	0.18173976
74	0xbe02d90d	-0.12778111
75	0xbe168ec5	-0.147029
76	0x3ce20cff	0.027594088
77	0x3d4c3184	0.04985191
78	0x3d1062c3	0.035250437
79	0xbd3edb15	-0.04659565
80	0xbd825b54	-0.06365076
81	0xbc90f660	-0.017695606
82	0xbe125580	-0.14290428
83	0x3e77cb6e	0.24198696
84	0x3dc6ac48	0.09700829
85	0x3d6e50bc	0.058182463
86	0x3d2f5696	0.042807184
87	0xbde9070a	-0.11378296
88	0xbde85ccd	-0.11345825
89	0x3e0026fb	0.1251487
90	0xbdfe7f04	-0.1242657
91	0xbdf23d16	-0.118280575
92	0x3d47d43a	0.04878638
93	0xbd76677d	-0.060157288
94	0xbdf33cfe	-0.11876868
95	0x3d0f9963	0.03505839
96	0x3c5c05ba	0.0134291
97	0xbd773bbe	-0.06035971
98	0xbcd4dfad	-0.025985563
99	0x3e67906a	0.22613683
100	0xbdfe91a0	-0.124301195
101	0xbdf25154	-0.11831918
102	0xbe17a9ac	-0.14810818
103	0xbdcbb29a	-0.09946175
104	0x3e0abbe4	0.13548237
105	0x3bd5ad67	0.0065209153
106	0x3c120ab1	0.008913682
107	0xbdafab84	-0.08577636
108	0xbe0089a5	-0.12552507
109	0x3d4cb50b	0.049977344
110	0x3d2bb1bc	0.041917548
111	0x3e67f076	0.22650322
112	0xbe010a3b	-0.12601559
113	0x3d668567	0.056279566
114	0x3d34a336	0.044100963
115	0xbcbf2351	-0.02333227
116	0x3df2ba65	0.11851958
117	0xbdfa370d	-0.12217531
118	0xbcda0ba0	-0.026616871
119	0x3e38b8c6	0.18039235
120	0x3d8f75b4	0.07004872
121	0xbb06470d	-0.0020489127
122	0xbdaab861	-0.08335949
123	0x3d7681a6	0.060182236
124	0xbdfbc9b3	-0.122943304
125	0xbdcffd1a	-0.10155697
126	0x3e19cddd	0.15019937
127	0xbd72da8c	-0.059290454
128	0xbe0e0353	-0.13868456
129	0xbe5220c3	-0.2052031
130	0xbe27861d	-0.16359754
131	0xbdb747c7	-0.08949237
132	0xbccdd4ad	-0.025125826
133	0xbd61c544	-0.055119768
134	0xbe4132d8	-0.18867052
135	0xbe182105	-0.14856346
136	0xbe546045	-0.20739849
137	0x3cce840d	0.025209451
138	0xbe132fba	-0.14373675
139	0xbe7d9b47	-0.24766265
140	0xbe37b997	-0.1794189
141	0xbe50dc80	-0.20396614
142	0xbdf6a104	-0.1204243
143	0xbe8edf5c	-0.27904785
144	0xbd891380	-0.066931725
145	0xbd5f80d3	-0.054566216
146	0xbdf2856a	-0.11841853
147	0xbe67b82d	-0.22628851
148	0xbdb5c83c	-0.08876082
149	0xbde081b3	-0.10962238
150	0xbdf9dee7	-0.122007184
151	0xbdbc4fc8	-0.091949046
152	0xbe30942c	-0.17244023
153	0xbe1c50c2	-0.15265182
154	0xbeb040cb	-0.34424433
155	0xbde3d5b9	-0.11124749
156	0xbdd492c1	-0.103795536
157	0xbe83cf77	-0.2574422
158	0xbe7e2cc6	-0.24821767
159	0xbe6abf2c	-0.22924489
160	0xbe0c9d5e	-0.13731906
161	0xbd6bf156	-0.057603203
162	0xbe3cfc71	-0.18455674
163	0xbeadae66	-0.33922118
164	0xbde37785	-0.11106781
165	0x3cdf4891	0.027256282
166	0xbe594f57	-0.21221672
167	0xbdc55f84	-0.09637359
168	0xbe6bb649	-0.23018755
169	0xbe615b9a	-0.220076
170	0xbe857a21	-0.2606974
171	0xbdbd1fdc	-0.09234592
172	0xbe894508	-0.2681048
173	0xbe095666	-0.13411865
174	0xbe2efce8	-0.17088664
175	0xbce6e378	-0.028184637
176	0xbe837389	-0.25674084
177	0xbdaf8124	-0.085695535
178	0xbd95131c	-0.072790354
179	0xbe457c80	-0.19285774
180	0xbe13ddfd	-0.1444015
181	0xbe2b26d1	-0.16714026
182	0xbe4180c4	-0.18896776
183	0xbdb8d902	-0.09025766
184	0xbe0b4c11	-0.13603236
185	0xbe673f01	-0.22582628
186	0xbe31b1f8	-0.17353046
187	0xbe71cbc5	-0.23612888
188	0xbe6e70ce	-0.23285219
189	0xbe3edea0	-0.18639612
190	0xbe023378	-0.12714946
191	0xbda1a9af	-0.07893693
192	0xbdf012a2	-0.11722304
193	0xbe866b5d	-0.26253787
194	0xbe134a7e	-0.14383885
195	0xbe75944d	-0.23982354
196	0xbe73a536	-0.23793492
197	0xbdeddce0	-0.11614394
198	0xbe341e53	-0.17589693
199	0x3cbd9f44	0.023147233
200	0xbec33093	-0.38122997
201	0xbe37f93c	-0.17966169
202	0xbe1203d6	-0.14259276
203	0xbdbe3c7b	-0.092888795
204	0x3ccf36ca	0.02529468
205	0xbe07f3c9	-0.1327659
206	0xbe45561d	-0.19271131
207	0xbe965c18	-0.29367137
208	0xbdd7f9cc	-0.10545692
209	0xbeb922c2	-0.3615933
210	0xbe1ea4b1	-0.15492512
211	0xbe7cf2d0	-0.24702
212	0xbe00b041	-0.12567236
213	0xbe280e7c	-0.16411775
214	0xbd5e3715	-0.05425175
215	0xbe39fc80	-0.18162727
216	0x3b2e7ce7	0.002662474
217	0xbd665e6f	-0.056242403
218	0xbdbeb013	-0.09310927
219	0xbe24fcce	-0.16112062
220	0xbdda76f5	-0.106672205
221	0xbde54536	-0.111948416
222	0xbe4bce7e	-0.1990299
223	0xbe80da90	-0.2516675
224	0xbe1a547f	-0.15071295
225	0xbdee3566	-0.11631279
226	0x3e082c75	0.13298209
227	0xbea1d5ef	-0.3160853
228	0xbe453823	-0.19259696
229	0xbea18763	-0.31548604
230	0xbd06146b	-0.032734316
231	0xbe65d772	-0.22445467
232	0xbe31e77b	-0.17373459
233	0xbe3f71c5	-0.18695743
234	0xbe647c13	-0.22312956
235	0xbe8083e1	-0.25100616
236	0xbe4f3e96	-0.20238718
237	0xbebb7184	-0.36610043
238	0xbe0b82de	-0.1362414
239	0xbea30e93	-0.31847057
240	0xbe6065cd	-0.21913834
241	0xbdc33514	-0.09531608
242	0xbcc8a9b3	-0.024494981
243	0x3db68233	0.08911552
244	0xbe450e75	-0.19243796
245	0xbe06c9c3	-0.13162903
246	0xbe4764a5	-0.19471987
247	0x3c60648c	0.013695847
248	0xbe22ac1f	-0.15885971
249	0xbe3e1d3f	-0.18565844
250	0xbe267342	-0.16254905
251	0xbe5c60a2	-0.21521237
252	0xbe54026d	-0.2070405
253	0xbeadfd4b	-0.3398231
254	0xbdc3f2b6	-0.09567778
255	0xbe5b83fb	-0.21437065

lstm.bias_hh_l0 f4 [512]
0	0xbc9d7d3f	-0.019224761
1	0x3e011f16	0.12609515
2	0x3afab822	0.0019128362
3	0xbc181864	-0.009283159
4	0x3e3b9254	0.18317538
5	0xbc90db7e	-0.017682787
6	0xbd753c01	-0.059871677
7	0x3d2d9d54	0.042386368
8	0xbb402126	-0.0029316633
9	0x3eaea259	0.34108236
10	0xbc785380	-0.015156627
11	0xbc4093dc	-0.011754002
12	0x3d9eb489	0.07749278
13	0xbd18b19b	-0.037278753
14	0xbd408b75	-0.047007997
15	0x3cc3c2c4	0.023896582
16	0xbc2358d3	-0.009969908
17	0xbd8be889	-0.06831462
18	0xbdf3e987	-0.11909776
19	0x3bb2f9f6	0.0054619266
20	0xbdf05b7c	-0.11736199
21	0xbd9958c3	-0.07487633
22	0x3b8d19df	0.0043060626
23	0xbd77bf5f	-0.06048524
24	0xbd97a0b3	-0.07403698
25	0xbe7336c4	-0.2375136
26	0xbcc538e2	-0.024074975
27	0x3dbf20ef	0.093324535
28	0xbcb19014	-0.021675147
29	0x3e064177	0.1311091
30	0xbc9d1a5e	-0.019177612
31	0xbceadb42	-0.028669003
32	0xbe14a063	-0.14514308
33	0x3d32bf10	0.043639243
34	0xbc6fbd2a	-0.014632503
35	0xbd967427	-0.07346373
36	0x3e0bb250	0.1364224
37	0x3d938705	0.07203487
38	0x3d21f377	0.039538827
39	0xbb99288e	-0.004674024
40	0xbd84b2fd	-0.06479452
41	0xbcebc71b	-0.028781464
42	0xbe1b9bae	-0.15196106
43	0xbe0c45f1	-0.13698556
44	0x399ba751	0.00029688564
45	0x3c843668	0.016139224
46	0x3bf58fad	0.007493934
47	0x3b6ba756	0.0035957894
48	0xbb8e062d	-0.0043342323
49	0xbd13b880	-0.036064625
50	0xbe015da2	-0.12633374
51	0xbddcd66c	-0.10783085
52	0xbd883340	-0.066504
53	0xbdd29e61	-0.10284115
54	0xbdc37410	-0.095436215
55	0xbd296e91	-0.04136521
56	0xbe181a6a	-0.14853826
57	0x3b2c2b86	0.002627106
58	0x3c8744b8	0.01651226
59	0x3e415cd4	0.18883067
60	0xbd1d54ca	-0.03841094
61	0xbd993592	-0.07480921
62	0x3d02b7d6	0.0319136
63	0x3d870986	0.06593613
64	0x3e3ea95c	0.18619293
65	0x3e11c078	0.14233577
66	0xbe1e3cb5	-0.15452845
67	0x3e36a266	0.17835388
68	0x3da3dec2	0.08001472
69	0xbe1328da	-0.14371052
70	0x3e5e99bc	0.21738333
71	0xbd55b96f	-0.052178796
72	0x3eb654a2	0.35611445
73	0x3e1c071d	0.15237089
74	0xba0d4668	-0.00053892145
75	0xbe0ed439	-0.13948144
76	0xbd61cf33	-0.05512924
77	0xbd38f886	-0.045158885
78	0x3da514f1	0.08060635
79	0xbd2bdf09	-0.04196075
80	0x3d0d8abc	0.034556136
81	0x3c309df2	0.010779845
82	0xbda1c571	-0.07898987
83	0x3dd047f0	0.10169971
84	0x3c2b3005	0.0104484605
85	0xbb182346	-0.0023214384
86	0x3d8d250e	0.06891833
87	0xbdc0d88c	-0.09416303
88	0x3cb84abc	0.022496574
89	0x3db03854	0.08604494
90	0xbe1090c5	-0.14117725
91	0xbe424536	-0.18971714
92	0x3ca0819a	0.019593049
93	0x3be9af56	0.0071314974
94	0xbe3286ad	-0.17434187
95	0x3da10d18	0.078638256
96	0x3ce15a2f	0.027508823
97	0xbe0539bc	-0.13010305
98	0xbce19bef	-0.027540175
99	0x3ebb4779	0.36577967
100	0xbdcafeae	-0.099118575
101	0xbde8a4f0	-0.11359584
102	0xbe31a6d2	-0.17348793
103	0xbc7b400a	-0.015335092
104	0x3d262158	0.040559143
105	0xbd6f1efa	-0.05837915
106	0xbd54fdb0	-0.051999748
107	0x3aea9085	0.0017895853
108	0xbe14c65e	-0.14528796
109	0x3da931f4	0.08261481
110	0xbd8089a0	-0.0627625
111	0x3eacb409	0.33731106
112	0xbd085beb	-0.033290785
113	0xbcc30760	-0.023807228
114	0x3d971cd4	0.073785454
115	0x3d2f6a55	0.042826016
116	0x3d9c68ad	0.07637153
117	0xbe2364a0	-0.15956354
118	0xbdc0ba1a	-0.09410496
119	0x3e0fdc72	0.14048937
120	0x3d36fb55	0.044673283
121	0x3d83274d	0.064039804
122	0xbd33581b	-0.043785196
123	0x3b167304	0.0022956738
124	0xbde5f43b	-0.11228224
125	0x3c0e0f05	0.008670573
126	0x3dd9ab81	0.10628415
127	0xbd78f8a5	-0.060784
128	0xbe0a95f8	-0.13533771
129	0xbe238209	-0.15967573
130	0xbe24ab01	-0.16080858
131	0xbd1afece	-0.037840657
132	0xbdbaf6a2	-0.09129073
133	0xbd8c94e4	-0.06864336
134	0xbe628a86	-0.22123155
135	0xbe47dd5d	-0.19518037
136	0xbe3c15b7	-0.18367659
137	0x3d81e823	0.06343105
138	0xbd97896e	-0.073992595
139	0xbe48f20b	-0.19623582
140	0xbe5c45e3	-0.21511035
141	0xbe393342	-0.1808596
142	0xbdd98a04	-0.106220275
143	0xbeb13894	-0.34613478
144	0xbe3b9a5a	-0.18320599
145	0x3b1c3088	0.0023832638
146	0xbdecd27a	-0.11563583
147	0xbe6d3b83	-0.23167233
148	0xbe5a97a0	-0.21346903
149	0xbe071a8d	-0.13193722
150	0xbd664b0d	-0.056223918
151	0xbe087fa8	-0.13329947
152	0xbddd3fae	-0.108031616
153	0xbe4103c0	-0.18849087
154	0xbed141ef	-0.40870616
155	0xbe0f52fb	-0.13996498
156	0xbc190f21	-0.009341986
157	0xbea2f4d1	-0.31827405
158	0xbe94b4eb	-0.2904428
159	0xbdc8d50f	-0.09806263
160	0xbe159dd6	-0.14610991
161	0xbd7bf756	-0.061515175
162	0xbe568fe9	-0.20953335
163	0xbea6ff16	-0.3261649
164	0xbd9764b1	-0.07392252
165	0xbc8f7978	-0.017513976
166	0xbe274d71	-0.16338135
167	0xbe1d0e6a	-0.1533753
168	0xbe5d57bd	-0.21615501
169	0xbe132178	-0.14368236
170	0xbe4a0f19	-0.19732322
171	0xbd4f48f5	-0.050606687
172	0xbe4a6a79	-0.19767179
173	0xbdf2d856	-0.11857669
174	0xbd8e0392	-0.06934275
175	0x3d1515df	0.03639781
176	0xbe1b86e0	-0.1518817
177	0xbe5c5316	-0.2151607
178	0xbd98fcb1	-0.07470072
179	0xbe08c6da	-0.13357106
180	0xbdcafc25	-0.09911374
181	0xbe5da0ff	-0.21643446
182	0xbdbf1f11	-0.09332097
183	0xbd73842d	-0.059452225
184	0xbe5380e7	-0.20654641
185	0xbe119265	-0.14216001
186	0xbda9bd2e	-0.08288036
187	0xbe80f42a	-0.25186282
188	0xbdedfba3	-0.116202615
189	0xbe61e148	-0.22058594
190	0xbde4f87c	-0.11180207
191	0xbdb5ff17	-0.08886545
192	0xbe4d3a42	-0.20041755
193	0xbea26232	-0.31715542
194	0xbe394788	-0.18093693
195	0xbe87843b	-0.2646807
196	0xbe823a1e	-0.25434965
197	0xbd9ce410	-0.07660687
198	0xbdc5a835	-0.096512236
199	0x3bb59405	0.005541327
200	0xbebb96fd	-0.36638632
201	0xbe1cc6b8	-0.1531018
202	0xbe83db30	-0.25753164
203	0xbdc60141	-0.09668208
204	0xbd9045ac	-0.07044539
205	0xbe101aef	-0.14072774
206	0xbe140f93	-0.14459066
207	0xbea0b7d4	-0.3139025
208	0xbe074b33	-0.1321228
209	0xbe82ffde	-0.25585836
210	0xbe4d8959	-0.20071925
211	0xbe7516cc	-0.23934478
212	0xbe0a824f	-0.13526271
213	0xbe285d6e	-0.1644189
214	0xbdb79efa	-0.08965869
215	0xbe6bd3db	-0.23030035
216	0xbe17fe80	-0.14843178
217	0xbe36190d	-0.17782994
218	0xbe2fef0c	-0.17181033
219	0xbe1c726a	-0.1527802
220	0xbe1af038	-0.15130699
221	0xbddf7c7c	-0.109124154
222	0xbe036b46	-0.1283389
223	0xbe89dcac	-0.26926172
224	0xbe13e30d	-0.14442082
225	0xbe34d796	-0.17660365
226	0x3d6e68c2	0.058205374
227	0xbea849b5	-0.32868734
228	0xbe6ddead	-0.23229475
229	0xbe5f9fb4	-0.21838266
230	0xbd092c9d	-0.033489812
231	0xbe80483e	-0.25055116
232	0xbe4e97e9	-0.20175137
233	0xbe58ce51	-0.21172453
234	0xbe3cab67	-0.1842476
235	0xbe7afdb7	-0.24510847
236	0xbe8934e5	-0.26798168
237	0xbeace52a	-0.33768588
238	0xbda4abe1	-0.08040596
239	0xbede5bcb	-0.43429407
240	0xbde51e1d	-0.11187384
241	0xbdf9df28	-0.12200767
242	0x3d155e82	0.036467083
243	0x3ddb0699	0.10694618
244	0xbe9db014	-0.307984
245	0xbdbaab34	-0.09114686
246	0xbe6880b7	-0.22705351
247	0xbd19728a	-0.03746275
248	0xbdef95bb	-0.11698481
249	0xbdbe09d2	-0.09279217
250	0xbe40595a	-0.18784085
251	0xbe907d52	-0.28220612
252	0xbe2de165	-0.16980512
253	0xbeb0c163	-0.34522542
254	0xbe0cf351	-0.13764693
255	0xbdacc4c7	-0.0843597

lstm.weight_ih_l1 f4 [512, 128]
0	0x3dc45966	0.09587364
1	0xbc0410f3	-0.008060682
2	0x3c6672ec	0.014065485
3	0xbe348edb	-0.1763262
4	0x3e8f1d53	0.2795206
5	0x3d2ed071	0.042679254
6	0x3dd68c49	0.10475976
7	0x3b5cf216	0.003371363
8	0x3d477323	0.048693787
9	0xbd75d917	-0.060021486
10	0x3e06b95f	0.13156651
11	0xbe1a3ce1	-0.15062286
12	0x3dde63b7	0.10858863
13	0x3e11b3ba	0.14228716
14	0x3e001a19	0.12509955
15	0x3b97e0e8	0.004634965
16	0x3dc86ad1	0.097859986
17	0x3c9e6768	0.019336417
18	0x3cde7710	0.027156383
19	0xbdd9466c	-0.10609135
20	0xbbf1c83c	-0.007378606
21	0xbcec8aff	-0.028874872
22	0xbd85ccad	-0.065331794
23	0xba641590	-0.0008700723
24	0x3e0e5a4e	0.13901636
25	0x3d827ff9	0.06372065
26	0xbd223cb8	-0.039608687
27	0x3b5157da	0.0031943233
28	0x3e061e9c	0.13097614
29	0xbc688f3b	-0.014194305
30	0xbe230711	-0.15920664
31	0xbe19cddb	-0.15019934
32	0x3d0fe7c9	0.035133157
33	0x3e02ddaf	0.12779878
34	0x3dd521cf	0.10406839
35	0xbc9791b6	-0.018502098
36	0x3d456430	0.04819125
37	0x3d71ae87	0.059004333
38	0xbc33c185	-0.010971432
39	0xbcb2c73c	-0.021823518
40	0xbd55c2db	-0.05218778
41	0x3dbcd91e	0.09221099
42	0x3dba6207	0.091007285
43	0x3c945a14	0.018109359
44	0xbdcbb37c	-0.09946343
45	0xbcaf0773	-0.021365857
46	0x3dbc312f	0.091890685
47	0x3dd31e19	0.10308475
48	0x3d3812c0	0.044939756
49	0xbd21bf0d	-0.03948884
50	0x3da68049	0.08129937
51	0xbe1dc406	-0.15406808
52	0x3dfe84f7	0.12427705
53	0xbbe9c438	-0.007133987
54	0x3d9a8d01	0.075464256
55	0x3e89b200	0.26893616
56	0x3c713787	0.014722711
57	0xbce7d2ea	-0.028298814
58	0xbdaf1203	-0.08548357
59	0x3e540c39	0.20707788
60	0x3d97d80d	0.07414255
61	0xbe185c57	-0.14878975
62	0xbda82fcd	-0.08212242
63	0xbdffaffe	-0.1248474
64	0x3e01cf0d	0.1267664
65	0xbceb535b	-0.02872627
66	0xbcd2cbcb	-0.025731942
67	0x3e0b9ce5	0.1363407
68	0xbce098fa	-0.027416695
69	0x3d6457e2	0.055747874
70	0xbcf24090	-0.029571801
71	0xbe3798ce	-0.17929384
72	0xbd737d0b	-0.059445422
73	0xbd68e2c1	-0.056856874
74	0x3d84c90b	0.064836584
75	0xbd092268	-0.033480078
76	0x3d9df47c	0.07712647
77	0x3de17f15	0.11010567
78	0xbabf7a67	-0.0014608622
79	0x3d9a45fa	0.07532878
80	0x3e061289	0.13093008
81	0xbc23a3c4	-0.009987775
82	0xbe00412b	-0.1252486
83	0xbdf558f9	-0.11979861
84	0xbdd4a447	-0.10382896
85	0x3e199915	0.14999802
86	0x3d0e4986	0.034738086
87	0x3d9d6992	0.076861516
88	0xbaa40a91	-0.0012515356
89	0x3dcffb36	0.101553366
90	0x3d073714	0.03301151
91	0xbcef9a79	-0.029248463
92	0x3dba65b6	0.09101431
93	0x3dd1eb5c	0.10249969
94	0xbdb37cfd	-0.08764074
95	0x3c99316f	0.01870033
96	0x3d85140e	0.06497966
97	0xbd3f1bc8	-0.046657354
98	0x3db581cf	0.0886265
99	0x3e1191b0	0.14215732
100	0x3c18697c	0.009302493
101	0xbca36838	-0.019947156
102	0xbdbf9efe	-0.09356497
103	0xbcbe7f74	-0.023254134
104	0x3dcd3267	0.10019379
105	0x3e247def	0.16063665
106	0x3d88214c	0.06646976
107	0x3dba2cb8	0.09090561
108	0xbd99f3dc	-0.075172156
109	0x3e726e14	0.23674804
110	0xbd1377d7	-0.03600296
111	0x3d806799	0.0626976
112	0xbd150fbc	-0.03639196
113	0x3b337327	0.0027381869
114	0xbdd082db	-0.10181209
115	0xbd469b9f	-0.048488256
116	0xbe55f65b	-0.20894758
117	0x3db5a561	0.08869434
118	0xbc01d11e	-0.007923393
119	0xbd08b38b	-0.03337435
120	0x3ee53039	0.44763353
121	0xbda7713e	-0.08175896
122	0x3dccbf0c	0.09997377
123	0xbd848ffe	-0.06472777
124	0xbd0ccde2	-0.034376033
125	0x3d836ea5	0.06417588
126	0xbe49b190	-0.19696641
127	0xbd48d4f4	-0.049031213
128	0x3df09195	0.117465176
129	0x3d056e84	0.0325761
130	0x3dc22a7a	0.09480758
131	0x3d88dee2	0.066831365
132	0xbe784155	-0.24243672
133	0xbe954911	-0.29157308
134	0xbeb05692	-0.34441048
135	0x3dc0afc5	0.094085254
136	0xbd4d6d5a	-0.050153114
137	0xbe86dc0c	-0.26339757
138	0xbe96802a	-0.29394656
139	0x3e1a3e6a	0.15062872
140	0xbceae279	-0.028672444
141	0x3df57bd0	0.11986506
142	0xbe8bbb16	-0.27291173
143	0xbe60cb17	-0.21952473
144	0xbe699455	-0.2281049
145	0xbea4ddad	-0.32200375
146	0xbe88503d	-0.26623717
147	0xbd46654a	-0.04843644
148	0xbe966c30	-0.29379416
149	0x3c6442fa	0.013931984
150	0x3e8b4a0b	0.27204928
151	0x3e2957a1	0.16537334
152	0xbdaa20fa	-0.08307071
153	0x3d3bcdc8	0.045850545
154	0x3e590a82	0.21195415
155	0x3e605a2d	0.219094
156	0xbe5131dc	-0.20429176
157	0x3d7fb940	0.062432528
158	0xbe867b44	-0.2626592
159	0xbcceab55	-0.025228182
160	0x3d1198b3	0.035546016
161	0xbdaeb7e6	-0.085311696
162	0xbda557f9	-0.0807342
163	0x3e124958	0.14285791
164	0xbd807cf1	-0.06273831
165	0xbebdf985	-0.3710443
166	0xbe3c5467	-0.18391572
167	0xbdb5d287	-0.088780455
168	0xbd9713bc	-0.07376811
169	0x3b8f644f	0.0043759714
170	0x3da14087	0.07873636
171	0xbcf3e5d6	-0.02977268
172	0xbe2965f1	-0.16542794
173	0xbd215986	-0.039392017
174	0xbe1e87fc	-0.15481561
175	0x3e8d78df	0.2763128
176	0x3d816614	0.06318298
177	0x3e194150	0.14966321
178	0xbe68f9ba	-0.22751513
179	0x3e3a38e4	0.18185765
180	0xbeb8d725	-0.36101642
181	0xbdc53094	-0.09628406
182	0x3d8a9c31	0.067680724
183	0xbe65826c	-0.22413033
184	0xbe732974	-0.23746282
185	0x3dcffedf	0.10156035
186	0xbe759a0e	-0.23984548
187	0xbd99a5ed	-0.07502351
188	0xbe90d1c7	-0.28285047
189	0x3e492c87	0.19645892
190	0x3dbcb842	0.09214832
191	0x3e2006f8	0.15627658
192	0xbd5e4e1f	-0.05427372
193	0x3c6f6605	0.014611726
194	0xbdc62399	-0.096747585
195	0xbe3968b2	-0.18106344
196	0x3d02b313	0.03190906
197	0xbd6f43ec	-0.058414385
198	0x3e5bbc42	0.21458533
199	0x3e3aeeb5	0.18255122
200	0xbdbf1826	-0.09330778
201	0xbcd621cb	-0.02613916
202	0x3da169a2	0.07881476
203	0xbe31581c	-0.17318767
204	0xbdd56ffa	-0.104217485
205	0xbcf4dea8	-0.029891327
206	0x3de637d7	0.11241119
207	0x3d4b846c	0.049686834
208	0xbeaa457b	-0.33256134
209	0xbe09d582	-0.13460353
210	0x3e32a389	0.17445196
211	0x3ba77844	0.0051107723
212	0xbdb0ab86	-0.086264655
213	0xbe71a74e	-0.23598978
214	0xbca7a132	-0.020462606
215	0xbe474a9f	-0.1946206
216	0x3e3e3001	0.18573
217	0xbe1fe5f7	-0.15615068
218	0x3e379d90	0.17931199
219	0x3dbd7ad6	0.09251945
220	0x3de8a8ec	0.11360344
221	0xbe4975fa	-0.1967391
222	0xbd2d3ae2	-0.042292483
223	0x3d92c2b1	0.07166041
224	0xbe1f83bb	-0.15577595
225	0x3e6a9057	0.22906624
226	0xbf18b02a	-0.59643805
227	0xbe814116	-0.2524497
228	0x3d7419ae	0.059594803
229	0x3e182e8f	0.1486151
230	0xbe82a8cc	-0.25519407
231	0x3e33f001	0.17572023
232	0xbd4992c8	-0.049212247
233	0x3c1f78f1	0.0097334245
234	0xbdfdb97a	-0.123888925
235	0x3e76dde0	0.24108076
236	0x3dced730	0.100996375
237	0x3e0e7de9	0.13915218
238	0x3e485595	0.19563897
239	0xbbffee10	-0.0078103617
240	0xbce61f93	-0.028091228
241	0xbe2ec81f	-0.17068528
242	0xbec1c5a5	-0.37846103
243	0x3edd3263	0.43202505
244	0xbd94e4ae	-0.0727018
245	0x3e30dd02	0.17271808
246	0x3e0a51d7	0.13507782
247	0x3ddf7160	0.109102964
248	0x3dde9c1c	0.10869619
249	0x3d291eee	0.041289262
250	0xbaa9bdb2	-0.001295021
251	0x3e0650d8	0.13116777
252	0xbddc81ba	-0.10766931
253	0x3e63cd55	0.22246297
254	0x3daafa26	0.08348493
255	0x3d509bdf	0.0509299

lstm.weight_hh_l1 f4 [512, 128]
0	0x3d9a0d19	0.075220294
1	0x3dd6cb6e	0.1048802
2	0x3c9c6fd2	0.019096289
3	0x3d2d5726	0.04231944
4	0xbcabf8f7	-0.02099274
5	0x3c024c53	0.007952767
6	0xbd8a985d	-0.06767342
7	0x3b3a1b90	0.0028397776
8	0x3d591539	0.052998755
9	0xbe05a4ae	-0.13051102
10	0xbd9cccf8	-0.07656282
11	0x3bf1e836	0.007382418
12	0xbd9af168	-0.07565576
13	0xbd80a2da	-0.062810615
14	0x3d4e829e	0.050417535
15	0x3d0343f4	0.032047227
16	0x3c7644b1	0.015031026
17	0x3de43af0	0.11144054
18	0xbcadd1c6	-0.021218192
19	0x3d84cf6f	0.06484877
20	0x3e2ae32b	0.1668822
21	0xbd03f0e9	-0.03221217
22	0x3bc42763	0.0059861406
23	0x3b19ea7d	0.0023485713
24	0xbdbf667f	-0.093457215
25	0x3d5cb749	0.05388573
26	0xbcc5b775	-0.02413533
27	0xbb4cb0c2	-0.0031233286
28	0x3dc36c98	0.09542197
29	0x3dc96f6e	0.09835707
30	0x3da74514	0.081674725
31	0xbcd65db0	-0.02616772
32	0xbe0a9a6d	-0.13535471
33	0x3d6102cd	0.05493431
34	0x3cccf9e0	0.025021493
35	0xbd439daa	-0.047757782
36	0xbe0b24ad	-0.1358821
37	0x3d8ddb78	0.06926626
38	0x3d82aeaa	0.06380971
39	0x3db2a335	0.087225355
40	0xbe109cc0	-0.14122295
41	0xbd9239e9	-0.07139952
42	0xbe258082	-0.16162303
43	0xbc904067	-0.017608834
44	0x3cf66bbe	0.030080672
45	0x3d9806c6	0.07423167
46	0x3d5e9098	0.054337114
47	0x3d8d9549	0.069132395
48	0xbd0b6a9f	-0.03403723
49	0x3d0177ee	0.031608514
50	0x3d4f2680	0.050573826
51	0xbc9ad069	-0.018898206
52	0xbd47ff44	-0.048827425
53	0xbddbf6bf	-0.107404225
54	0xbda759e2	-0.08171441
55	0x3d445ac2	0.047938116
56	0x3cdd59fb	0.027020445
57	0x3bfc1f78	0.007694181
58	0x3c4e883e	0.012605725
59	0xbd251362	-0.040301688
60	0x3dd96150	0.10614264
61	0xbdbee41f	-0.093208544
62	0x3c13696d	0.008997303
63	0x3cb6d5d2	0.022318754
64	0x3e15def1	0.14635827
65	0x3b5b8d7d	0.0033501082
66	0x3d7db3e7	0.061939146
67	0xbe12b393	-0.14326315
68	0x3e2fa811	0.17153956
69	0x3c103676	0.008802047
70	0xbdcdd512	-0.100504056
71	0x3d3a1f25	0.045439858
72	0xbd3da08f	-0.0462957
73	0x3d06124c	0.032732293
74	0x3e34454b	0.17604558
75	0xbd80ec56	-0.062950775
76	0x3cc4d04b	0.024025103
77	0xbc892f55	-0.016746202
78	0xbdd8ac4a	-0.105797365
79	0xbc6ac96b	-0.014330248
80	0xbdb51442	-0.088417545
81	0x3bdc0067	0.006713915
82	0x3de592d1	0.11209644
83	0xbdb8653c	-0.09003684
84	0xbc3f9067	-0.011692143
85	0xbdb043cb	-0.086066805
86	0xbded0bdd	-0.11574528
87	0xbd3eb6ce	-0.046561055
88	0xbd8a5d09	-0.06756026
89	0x3d58c5a4	0.05292286
90	0x3e23d109	0.1599771
91	0xbe0bf2e6	-0.13666877
92	0x3e288fca	0.16461101
93	0x3c011037	0.007877401
94	0x3befd868	0.007319499
95	0x3e86108d	0.26184502
96	0xbd12e92d	-0.035866905
97	0x3c88577c	0.016643278
98	0xbd7084d2	-0.058720417
99	0x3d116099	0.035492513
100	0xbdf9507c	-0.12173554
101	0xbd0f1068	-0.034927756
102	0xbd9c7b3b	-0.07640692
103	0xbcb49c16	-0.022047084
104	0x3d58f600	0.05296898
105	0x3b86954c	0.004107153
106	0xbd17065f	-0.03687131
107	0x3d81843f	0.06324052
108	0xbd868405	-0.065681495
109	0xbc441228	-0.011967219
110	0x3ea47713	0.32122096
111	0xbd849c0c	-0.06475076
112	0xbc8daf36	-0.017295461
113	0x3dcd9757	0.100386314
114	0x3e88877f	0.26665875
115	0x3db2773c	0.087141484
116	0xbd52949b	-0.051411252
117	0x3cb2dc87	0.021833671
118	0xbd8f6384	-0.07001403
119	0xbdc1157a	-0.094279245
120	0x3c774d49	0.01509411
121	0xbdd0a9c8	-0.10188633
122	0x3db80894	0.08986011
123	0x3c7f9bda	0.015601123
124	0x3d1e191b	0.03859816
125	0xbacae318	-0.0015479056
126	0xbcdb566e	-0.026774611
127	0xbd1b2bb0	-0.03788346
128	0xbd929df0	-0.071590304
129	0xbdd54e82	-0.10415365
130	0xbe5c8719	-0.2153591
131	0x3de1e2c9	0.11029584
132	0xbe115db2	-0.14195898
133	0x3e0995d1	0.13436057
134	0xbc8c25ce	-0.01710787
135	0x3e029daf	0.12755464
136	0xbe2d43b5	-0.1692036
137	0x3e177f51	0.14794661
138	0xbd528235	-0.051393706
139	0xbdadc99c	-0.084857196
140	0x3f0d1fd6	0.551267
141	0x3e3a2211	0.18177058
142	0xbd0a4750	-0.033759415
143	0xbddde330	-0.10834348
144	0x3e2076f9	0.15670384
145	0x3e440c49	0.19145311
146	0xbdbd9a44	-0.092579395
147	0x3dc00935	0.09376756
148	0x3d4b645e	0.049656264
149	0xbdff9cd4	-0.124810845
150	0xbcadc64c	-0.02121272
151	0xbe06f23c	-0.13178343
152	0xbde85e3f	-0.11346101
153	0xbd730d5d	-0.059338916
154	0xba9be716	-0.001189443
155	0xbe474010	-0.19458032
156	0xbd667d58	-0.05627188
157	0x3e14ba57	0.14524208
158	0x3c3d6f4f	0.011562183
159	0x3e5f6c1f	0.21818589
160	0xbcfeefb9	-0.031120168
161	0xbd9434b2	-0.07236613
162	0x3dfafa83	0.122548126
163	0xbd678961	-0.0565275
164	0xbcaf9e3f	-0.021437762
165	0xbc354c76	-0.011065593
166	0xbccb02f7	-0.024781687
167	0xbce675f2	-0.028132413
168	0xbd0fefa8	-0.035140663
169	0xbbdffc2b	-0.0068354807
170	0x3d8c4a11	0.068500645
171	0x3d818f1b	0.06326123
172	0x3e0c2188	0.13684666
173	0xbe0dec87	-0.1385976
174	0x3d964f5a	0.07339354
175	0x3d59e8ae	0.053200416
176	0x3daed70c	0.08537111
177	0xbe09369d	-0.1339974
178	0xbc5ae77d	-0.013360855
179	0xbde292e8	-0.110631764
180	0x3e1fe097	0.15613018
181	0x3cf58457	0.029970331
182	0x3eaf7876	0.34271592
183	0x3dcdd668	0.1005066
184	0x3d99d50c	0.075113386
185	0x3e157c66	0.14598235
186	0x3d7b1d6d	0.06130736
187	0x3e3d5083	0.18487744
188	0x3c32ccfa	0.010913128
189	0xbd7d8604	-0.061895385
190	0x3e537e79	0.20653714
191	0x3e0e722b	0.13910739
192	0x3cafc645	0.021456847
193	0xbd836b1f	-0.06416916
194	0xbd9f9303	-0.07791712
195	0x3b30b8e7	0.002696568
196	0x3e456d6a	0.1928002
197	0xbd96a831	-0.07356299
198	0xbc02918c	-0.007969271
199	0xbab2efbf	-0.0013651772
200	0x3d124d21	0.035718087
201	0x3df453df	0.1193006
202	0x3e22ac4e	0.15886042
203	0xbcdbc6da	-0.026828218
204	0xbdd3b23f	-0.10336732
205	0x3d6e2d70	0.0581488
206	0x39c2f1b7	0.00037182655
207	0xbe1b787f	-0.15182684
208	0x3cc1e5b7	0.023669107
209	0xbe30014f	-0.17187999
210	0xbe3847b8	-0.17996109
211	0xbd2e2413	-0.04251487
212	0x3e1d0e0f	0.15337394
213	0x3da9d00c	0.08291635
214	0x3db44edd	0.088041045
215	0xbdfd1748	-0.12357956
216	0xbe8e9eb0	-0.27855444
217	0xbc8bf836	-0.01708613
218	0x3d846da4	0.06466225
219	0x3d1db1af	0.03849953
220	0x3e8af5ac	0.27140558
221	0x3dae9c2a	0.0852588
222	0xbd3fc451	-0.04681808
223	0xbe587c5a	-0.21141186
224	0xbe6f0fa6	-0.23345813
225	0xbe4b6121	-0.1986127
226	0xbe088fc8	-0.13336098
227	0x3e44b0f8	0.19208133
228	0xbdb3e594	-0.08784023
229	0xbd75160d	-0.059835482
230	0xbda61560	-0.08109546
231	0xbc1ef900	-0.009702921
232	0xbcfdfc00	-0.031003952
233	0xbd179b71	-0.037013475
234	0x3d26c777	0.04071757
235	0xbdeb74cd	-0.11496887
236	0xbd7b7f50	-0.06140071
237	0x3d6e6ca2	0.05820907
238	0xbded399c	-0.11583254
239	0xbe89350d	-0.26798287
240	0xbd9681a3	-0.07348945
241	0x3cf2b736	0.029628377
242	0x3c82fcc5	0.01598967
243	0xbe0d5e88	-0.13805592
244	0xbc08f8f7	-0.008360139
245	0x3e31c1f4	0.17359143
246	0xbd73a3f5	-0.059482533
247	0xbe175d6d	-0.14781733
248	0xbcf5c3bd	-0.030000562
249	0xbe799eda	-0.24377003
250	0x3c7412a3	0.014897021
251	0x3d9e9524	0.0774329
252	0xbe7773c9	-0.24165262
253	0x3d6302ca	0.05542258
254	0xbe457d17	-0.19285999
255	0xbd5c782a	-0.053825535

lstm.bias_ih_l1 f4 [512]
0	0xbe7980c6	-0.2436553
1	0xbe2942da	-0.16529408
2	0xbeb6a357	-0.35671493
3	0xbde83eb3	-0.11340084
4	0x3d3ea557	0.0465444
5	0xbdbb128c	-0.09134397
6	0xbd6a42b4	-0.05719252
7	0xbcf30292	-0.029664312
8	0xbe14a661	-0.14516594
9	0xbdc0b64c	-0.0940977
10	0xbe6adc34	-0.22935563
11	0xbe145b13	-0.14487867
12	0xbe661bac	-0.22471493
13	0xbe0bba2a	-0.13645235
14	0xbea035b5	-0.31290975
15	0xbdfeae9c	-0.12435648
16	0xbe80bf9a	-0.2514618
17	0xbe1fe196	-0.15613398
18	0xbea590c6	-0.32337016
19	0xbe82403e	-0.25439638
20	0xbdbb2423	-0.09137752
21	0xbe6a05e5	-0.22853811
22	0xbe3e2be3	-0.18571429
23	0xbded000f	-0.11572277
24	0xbdebc3a8	-0.11511928
25	0xbea4e24f	-0.3220391
26	0xbdc51ea8	-0.09624988
27	0xbd8a6576	-0.067576334
28	0xbdf72deb	-0.12069305
29	0xbe6ca592	-0.23110035
30	0xbdccbf90	-0.09997475
31	0xbd7d8b77	-0.061900582
32	0xbe314974	-0.17313176
33	0xbe2ff0a7	-0.17181645
34	0xbe8210f8	-0.2540357
35	0xbdfbaacf	-0.122884385
36	0xbe414b53	-0.1887639
37	0xbcc1e6d1	-0.023669632
38	0xbdec1308	-0.115270674
39	0xbd3edc44	-0.04659678
40	0xbd9eddd2	-0.077571526
41	0x3e669579	0.22517957
42	0xbe0338fc	-0.12814707
43	0xbe6ed751	-0.23324324
44	0xbd5e7d16	-0.05431851
45	0xbe400e26	-0.18755397
46	0xbea7795b	-0.32709774
47	0xbe8e03be	-0.2773723
48	0xbed1f95d	-0.41010562
49	0xbd8ba97c	-0.06819436
50	0xbe24bff5	-0.16088851
51	0xbe5988c4	-0.21243578
52	0xbe3cb589	-0.18428625
53	0xbe239c20	-0.15977526
54	0x3d0d6fa3	0.034530293
55	0xbe58a3aa	-0.21156183
56	0xbe4a38bb	-0.19748203
57	0xbda5a034	-0.08087197
58	0xbda89860	-0.08232188
59	0xbe80d72e	-0.2516417
60	0xbe511a4f	-0.20420192
61	0xbd9ea04b	-0.07745417
62	0xbe42f396	-0.19038233
63	0xbe2056d9	-0.1565813
64	0xbe3f6481	-0.18690683
65	0xbe15859b	-0.14601748
66	0xbe8cd5ff	-0.27507016
67	0xbe2107a1	-0.15725566
68	0xbe61c50d	-0.22047825
69	0xbe890973	-0.26765022
70	0xbe1481c4	-0.14502627
71	0xbe292883	-0.1651936
72	0xbe98ecd6	-0.2986819
73	0xbe53e03b	-0.20691006
74	0xbe3d181d	-0.1846623
75	0xbe5b08f6	-0.21390137
76	0xbe162535	-0.14662631
77	0xbe62d610	-0.22151971
78	0xbe5456ea	-0.2073628
79	0xbe048397	-0.12940823
80	0xbe46b04a	-0.19403186
81	0xbe69259e	-0.22768256
82	0x3c8131b6	0.015770774
83	0x3c7766f1	0.015100227
84	0xbe4d3f03	-0.20043568
85	0xbea59a77	-0.3234441
86	0xbe93760d	-0.28801003
87	0xbdb7e888	-0.08979899
88	0xbe1f672d	-0.15566702
89	0xbe1c28bd	-0.15249915
90	0xbd53b1fa	-0.051683404
91	0xbe99efe5	-0.30065838
92	0xbd46f824	-0.04857649
93	0xbdc3fba1	-0.09569479
94	0xbe309646	-0.17244825
95	0x3d2eb094	0.042648867
96	0xbe843b69	-0.25826576
97	0xbdcf64cf	-0.101266496
98	0x3cc52d9c	0.0240696
99	0xbe2ea6cd	-0.17055817
100	0xbe1c9872	-0.15292528
101	0xbe030d1e	-0.12797973
102	0xbd5caaff	-0.053874012
103	0xbe6156ca	-0.22005764
104	0xbe9d73c8	-0.30752397
105	0xbe211e8c	-0.15734309
106	0xbe43abbd	-0.19108482
107	0xbd365cf4	-0.04452224
108	0xbe7cf7c9	-0.24703898
109	0xbe6390bf	-0.22223185
110	0x3d116a28	0.03550163
111	0xbe9b1a52	-0.30293518
112	0xbe5d663f	-0.21621035
113	0xbe56271c	-0.20913357
114	0x3cc55931	0.024090381
115	0xbda11f4e	-0.07867299
116	0xbdbb4858	-0.09144658
117	0xbdc002f7	-0.093755655
118	0xbe1a6aa0	-0.15079737
119	0xbea422c5	-0.32057777
120	0x3cbc2baf	0.022970049
121	0xbe82df53	-0.25561008
122	0xbd6cc309	-0.057803188
123	0xbe825d21	-0.25461677
124	0xbe1da3bf	-0.15394495
125	0xbdbd3733	-0.09239044
126	0xbcef714b	-0.029228827
127	0xbe32537f	-0.17414664
128	0xbe585d25	-0.21129282
129	0xbdbedd57	-0.09319561
130	0xbeaf63d0	-0.34255838
131	0xbe241877	-0.16024958
132	0x3dec9d0f	0.11553394
133	0xbda1c489	-0.07898814
134	0xbcc2c174	-0.023773886
135	0x3d1e3d93	0.03863294
136	0xbea3ffca	-0.3203109
137	0xbdbc6cb2	-0.092004195
138	0xbd195ad7	-0.037440147
139	0xbda02362	-0.07819249
140	0xbe2fc21f	-0.17163895
141	0xbd8508ea	-0.06495841
142	0xbe5518c8	-0.20810235
143	0xbd8263da	-0.063667014
144	0xbe5bb399	-0.2145523
145	0xbd98c312	-0.07459082
146	0xbeaaa2e0	-0.3332739
147	0xbe1cf013	-0.15325956
148	0xbd721295	-0.059099752
149	0xbdf2c627	-0.11854201
150	0xbe32f3c0	-0.17475796
151	0xbd259214	-0.040422514
152	0xbe6a9bb3	-0.22910957
153	0xbeea9fd6	-0.4582507
154	0xbe49420e	-0.19654104
155	0xbe5b4ee8	-0.21416819
156	0xbe03f7ef	-0.12887548
157	0xbe41d055	-0.18927129
158	0xbdcf2af3	-0.10115614
159	0xbe05598c	-0.1302244
160	0xbe2639b8	-0.16232955
161	0xbea67950	-0.3251443
162	0xbddf5766	-0.10905342
163	0xbe5c7da8	-0.21532309
164	0x3d996e5e	0.07491754
165	0x3dba14c7	0.09085994
166	0xbe4aff92	-0.19824055
167	0x39bae267	0.00035645367
168	0xbe0c4842	-0.13699439
169	0x3eb03586	0.34415835
170	0xbd97e0f2	-0.07415952
171	0xbe601757	-0.21883903
172	0x3c30db6d	0.010794503
173	0xbe49bdc0	-0.1970129
174	0xbe55aece	-0.20867464
175	0xbe0a879b	-0.13528292
176	0xbeb68732	-0.3565002
177	0xbd370416	-0.04468163
178	0xbdb574b0	-0.08860147
179	0xbe6b5639	-0.2298211
180	0xbe97a05e	-0.29614538
181	0xbd9e5548	-0.0773111
182	0x3e009689	0.12557425
183	0xbe9c913a	-0.3057955
184	0xbe1be74d	-0.15224953
185	0xbdbe080d	-0.09278879
186	0xbd383da2	-0.044980653
187	0xbde4a772	-0.1116475
188	0x3d9bb222	0.076023355
189	0x3ddccf24	0.107816964
190	0xbe0ab288	-0.13544667
191	0xbe6ca6dd	-0.23110528
192	0xb9cc4ab0	-0.0003896556
193	0xbeb1c31b	-0.34719166
194	0xbe0e8da9	-0.13921227
195	0xbe094ffc	-0.13409418
196	0xbe420227	-0.18946134
197	0xbd838684	-0.06422141
198	0xbbdb28a8	-0.006688196
199	0xbda7960a	-0.081829146
200	0xbe1a56bf	-0.15072154
201	0xbda110bc	-0.0786452
202	0xbe0d3bc7	-0.13792334
203	0xbd1a6a32	-0.037698932
204	0xbe4e94ab	-0.201739
205	0xbd79778e	-0.06090503
206	0xbd6853b3	-0.056720447
207	0xbe4b18e0	-0.19833708
208	0xbd9b9920	-0.07597566
209	0xbe857c32	-0.26071316
210	0xbc05fb12	-0.008177536
211	0x3dfa2127	0.122133546
212	0xbe653197	-0.22382198
213	0xbe48ee92	-0.19622257
214	0xbe4fc857	-0.20291267
215	0xbc5c9d1d	-0.013465193
216	0xbd9ae2b1	-0.07562769
217	0xbe069dc0	-0.13146114
218	0xbd679a25	-0.056543488
219	0xbe8355fa	-0.25651532
220	0xbe2932f3	-0.16523342
221	0xbc82e412	-0.015977893
222	0xbe229dd0	-0.15880513
223	0x3e2cf394	0.16889793
224	0xbe91c188	-0.28467965
225	0xbe2916e9	-0.16512646
226	0x3ccf90d1	0.025337609
227	0x3d2585e9	0.04041091
228	0xbe2a97b6	-0.16659436
229	0x3d8dbd84	0.06920913
230	0x3cd87ae1	0.02642578
231	0xbd4dabe2	-0.05021275
232	0xbe4025f6	-0.18764481
233	0xbd4e93c3	-0.050433885
234	0xbd5585e7	-0.052129652
235	0x3cd58ad7	0.02606718
236	0xbe6c370a	-0.2306787
237	0xbe0a610d	-0.13513584
238	0x3e0573e2	0.13032487
239	0xbe144046	-0.14477643
240	0xbd53274b	-0.051551145
241	0xbe2a8bbe	-0.1665487
242	0xbe71ca51	-0.23612334
243	0xbe283d6b	-0.16429679
244	0xbc5afcbf	-0.013365923
245	0xbe2c8d20	-0.1685071
246	0xbe539f1b	-0.20666163
247	0xbe8ee9be	-0.27912706
248	0x3dc03d9e	0.093867525
249	0xbe3d008e	-0.18457243
250	0xbdd0daf5	-0.10198013
251	0xbd49646c	-0.049168035
252	0xbded1e23	-0.11578014
253	0xbd570522	-0.05249513
254	0xbd8df564	-0.0693157
255	0xbd33cd72	-0.0438971
