models/modello_20250326_1425.pth (torch, 843772 bytes, 10 tensors)

lstm.weight_ih_l0 f4 [512, 10]
000000 02 4d b4 3d 5f 49 3b 3e 9c 78 e5 3b 39 d4 51 bd
       0.088037506 0.18289708 0.007002903 -0.051227782
000010 33 6f 29 3e a7 18 0e 3e 45 d8 bc 3d 8b 0d 25 3b
       0.16546325 0.13876592 0.09220938 0.0025185074
000020 82 7b d6 3d f1 b4 31 3e 00 8c fa bd 70 1b c7 3e
       0.10472776 0.1735418 -0.12233734 0.3888812
000030 7d 45 1f 3e 8b a7 e1 3d eb 1f a1 3d 01 e6 ce 3d
       0.15553851 0.110182844 0.07867416 0.101024635
000040 b3 23 05 3e 84 13 ee 39 68 4d c2 3c 79 32 92 bd
       0.130019 0.00045409438 0.02371855 -0.07138533
000050 3d c6 f5 bc 30 e8 ac 3d 87 84 ad 3d ee 3f ad 3d
       -0.030001754 0.08442724 0.08472543 0.08459459
000060 e2 57 08 3e e8 2c fc bc 90 70 02 bc 2c e5 8e bd
       0.13314775 -0.030783132 -0.007961407 -0.06977305
000070 e8 2e 11 be 71 b6 89 bd f1 b5 a6 bc 57 2f 37 bd
       -0.1417805 -0.06724251 -0.020350428 -0.04472288
000080 67 da e8 bd 60 03 2b bd a7 b1 3a 3d 1b a6 5b bd
       -0.11369782 -0.041751266 0.04557958 -0.053625207
000090 88 5b c3 bc 7e d3 f9 bc 86 91 21 bd 83 90 bb 3c
       -0.023847356 -0.030496355 -0.039445423 0.022896057
0000a0 a4 af 9b 3e 9b 5b 6b 3e cc 36 20 3e 9e 24 fc 3e
       0.3040744 0.22984163 0.15645903 0.49246687
0000b0 2a f9 c4 bb 21 4c 37 3c 53 6e 7e bc 01 91 e9 bc
       -0.006011148 0.011187584 -0.015529233 -0.028511526
0000c0 80 54 f8 bd 52 ba b6 bc ec 86 7a 3d 86 74 98 3e
       -0.12125492 -0.022305641 0.061163828 0.297764
0000d0 59 6a 7d 3e a2 18 25 3f 7e 4c f1 3d 6a 6c b2 bd
       0.247476 0.6449071 0.11782168 -0.087120846
0000e0 d5 6b f4 bd ac eb c4 3c c1 f5 e3 bd 46 ec c6 3d
       -0.1193463 0.024038158 -0.11130858 0.09713034
0000f0 14 58 05 be 60 2f f0 3d 43 6a 64 3d 8b 27 44 3d
       -0.1302188 0.11727786 0.0557654 0.047889274
000100 cd 69 01 3c 67 fe a2 3d 5a 01 8d bd 09 95 c1 bd
       0.00789876 0.0795868 -0.068850234 -0.09452254
000110 42 82 11 be d5 0b 69 bc e3 23 0c 3d 7c f2 25 3e
       -0.14209846 -0.014224012 0.03421391 0.16205782
000120 a4 94 4e bc b4 5f 8e bc 54 5c fa 3d 59 f2 f8 3d
       -0.012608681 -0.01737962 0.122246414 0.12155599
000130 1c 79 d4 3d 68 dd eb 3c 88 99 09 bd ab 2d ff 3d
       0.10374662 0.028792098 -0.033593684 0.12459882
000140 72 66 1f 3e c9 9e 00 3d 60 72 88 be 3b 3c 53 bc
       0.15566424 0.03140143 -0.2664976 -0.012892778
000150 9c 21 dc 3d df 43 07 3e 3d d0 e0 3c 4b 24 b0 3d
       0.10748598 0.13209485 0.027443046 0.08600672
000160 78 c3 06 3e 9b ef 80 bd 5b c5 35 3f a6 c2 8e 3e
       0.13160503 -0.06295701 0.71004266 0.2788288
000170 ce 0e 76 3f 63 0d 37 3f 6e 97 6f bd 9f 0a 96 bd
       0.9611634 0.715048 -0.058494024 -0.073262446
000180 ea e0 38 be bc 47 50 bd 83 8d 2a be 2b 7c 87 3d
       -0.18054548 -0.05084966 -0.16655545 0.0661548
000190 5c fd 08 bd 6c a3 69 3e 2d ae f7 bd d2 c9 aa bd
       -0.033444747 0.22816247 -0.12093768 -0.083392754
0001a0 7d a9 ae 3d 87 47 8c 3d 79 bb ed bc 0c 46 88 3d
       0.08528421 0.0684958 -0.029020058 0.066539854
0001b0 45 26 d9 3c 1b 80 80 3d e3 6a 1d 3e 74 d8 3e 3f
       0.026507506 0.06274434 0.15372805 0.7454903
0001c0 46 a5 40 3f 99 f9 74 3f c3 30 ca 3d 73 b1 fb bd
       0.7525219 0.95693356 0.09872582 -0.12289705
0001d0 62 3d 0e be a7 94 34 3c 3c d9 fa bd 22 1e 39 bd
       -0.13890603 0.01102177 -0.122484654 -0.045194753
0001e0 72 3e ce bd c1 65 42 3e 55 0c 1a be fa 48 aa bd
       -0.10070504 0.18984129 -0.15043767 -0.083147004
0001f0 31 65 93 3d 11 c3 16 3c 9f 6f c4 3d cd 4c 6c bd
       0.07197035 0.009201781 0.095916025 -0.05769043
000200 c7 b6 84 bd 25 9e b4 bd 9f 43 22 3e 62 10 46 3e
       -0.064801745 -0.08819226 0.15846108 0.19342187
000210 7a e6 8a 3e 01 25 b0 3e 21 e2 09 3e 87 8f b0 3c
       0.27128965 0.34403232 0.13465168 0.021552814
000220 db b9 84 ba 59 3e c0 3d e3 df 05 3d 2b b2 73 3d
       -0.001012619 0.09386892 0.03268422 0.059496086
000230 de 44 f1 3d d6 b8 4b 3e 41 08 3d 3e fe 29 c4 3d
       0.117807135 0.19894728 0.1846018 0.09578322
000240 a0 92 5d bc 87 3a 37 3d c5 e6 8e bc c0 a4 a1 3c
       -0.013523728 0.04473355 -0.017444024 0.01973188
000250 91 ae 6f 3d 83 a3 ec 3c 24 60 74 bc 94 f4 75 3d
       0.05851609 0.028886562 -0.0149155 0.0600477
000260 53 9a f0 3b 15 f9 b5 bd 2a e4 3a 3d 89 5a f9 3d
       0.0073426156 -0.08885399 0.04562775 0.12175471
000270 a5 30 d1 3d 06 53 b2 3d 62 32 cf ba 13 32 02 3d
       0.10214356 0.08707242 -0.0015807862 0.031786036
000280 96 3e 6d 3e 00 91 2f be 45 53 3e 3e 3f 3b 0f bd
       0.23168406 -0.17145157 0.18586452 -0.03496861
000290 6f 22 ed bd 62 5d 71 3d f9 e6 51 bc f5 a3 0f 3e
       -0.11578833 0.058926947 -0.012811416 0.14027388
0002a0 cf 7e 09 3c 74 ac 9e 3d ac 03 96 3e 4f 92 8c bd
       0.00839205 0.077477366 0.29299676 -0.06863844
0002b0 93 e1 ed 3e af 27 93 3e 1b 99 59 3d 71 b9 50 3e
       0.46461162 0.28741214 0.05312453 0.2038324
0002c0 5e ab 41 bd 92 20 8b 3e 1b 69 c9 3b 5d b0 30 bd
       -0.04728257 0.27173287 0.0061465628 -0.043136943
0002d0 61 7e 42 3c 14 99 ed 3d 86 a2 bc bc 14 e6 91 bd
       0.011870951 0.11601463 -0.023026716 -0.07123962
0002e0 11 83 82 3d f2 dd 73 3d 7e 6e f2 b8 18 92 95 3c
       0.06372655 0.059537835 -0.0001156004 0.01825814
0002f0 79 34 04 bc ba a4 48 bd 15 e9 6b 3d 6b 6b ed 3d
       -0.008069151 -0.04898522 0.05759533 0.11592754
000300 77 52 52 3e 29 de 23 3d 34 15 60 3d a8 9b 77 3d
       0.2053927 0.04000679 0.05470772 0.06045118
000310 27 09 b2 bc 6a 88 9e 3c 7e 90 47 3d 94 4f 2e 3c
       -0.02173288 0.019352157 0.048721783 0.01063909
000320 1e b6 96 3d f6 a7 1b 3e f8 9f bc bd 05 d4 83 bd
       0.07358955 0.15200791 -0.09210199 -0.06436924
000330 d9 3f 01 3d 19 98 c3 bc ee 4d d4 3d 34 73 ff 3c
       0.03155503 -0.023876237 0.103664264 0.031182863
000340 06 1b ab bc 9c c3 4d bd 72 31 92 3d 31 57 bd 3d
       -0.02088691 -0.050235376 0.07138337 0.09245146
000350 cf 46 1b 3f c1 f3 ef 3e 17 56 43 3d e0 02 e2 3d
       0.6065492 0.46865657 0.047689524 0.110357046
000360 e0 57 07 3d 31 11 49 3d 72 d0 04 bd de 11 44 3d
       0.03304279 0.04908866 -0.03242535 0.047868602
000370 46 26 e2 3e 31 88 e0 3d 2b 0e 7d bd 9b 57 29 3e
       0.44169825 0.109634764 -0.06178109 0.16537325
000380 d7 5d 5c 3c 31 7e d9 3c ed 88 86 3c 5e 2e 37 3b
       0.013450108 0.02654943 0.016422713 0.002795122
000390 f8 1e 9b 3c 35 62 dc 3d 3a 6f d0 3d ee f1 83 3e
       0.018935665 0.10760919 0.10177465 0.25770515
0003a0 25 91 c2 3d ba 2e f5 3d f0 9a d2 bc 64 3c 6e 3c
       0.0950034 0.11971803 -0.025708646 0.014540765
0003b0 76 6d 4d bc 24 dc fe 3d 58 b5 40 3b 1c 5f ac bc
       -0.012538305 0.12444332 0.0029404964 -0.021041445
0003c0 55 00 2a be 78 07 17 be 46 92 09 3c 44 17 a3 be
       -0.16601689 -0.14748943 0.008396691 -0.31853688
0003d0 c8 f9 69 3d 73 53 fa 3d da 27 9d bd 9d c6 83 bd
       0.057122976 0.12222948 -0.07673617 -0.06434367
0003e0 3e 9b df 3c 38 f3 ee bd b5 c6 32 be e3 d0 da 3b
       0.027295705 -0.11667484 -0.17458613 0.0066777333
0003f0 81 45 21 bd e2 94 e2 bd 71 44 28 3e 93 3d 5d 3d
       -0.039372925 -0.110635534 0.16432358 0.0540138

lstm.weight_hh_l0 f4 [512, 128]
000000 c8 28 41 3b 79 65 da 3d 95 e3 8b bd b7 be 3c 3b
       0.002947377 0.106638856 -0.06830517 0.0028800198
000010 e5 75 56 be 74 d7 25 be 5a b5 35 3d 78 d6 08 3e
       -0.2094341 -0.1619547 0.044362403 0.13363063
000020 dc c3 5c be 1b 13 7b bd c5 0b bb bb 12 4a f1 3d
       -0.2155909 -0.061297517 -0.00570819 0.11781706
000030 64 52 8f 3d 32 78 32 3c 59 a7 d5 ba d1 81 a6 3d
       0.06998137 0.010892915 -0.0016300484 0.08130229
000040 50 d7 ce 3c 11 76 4a bd 8f 34 bf bd 7b 49 92 3d
       0.025249153 -0.049429003 -0.09336197 0.071429215
000050 31 a4 0c 3c 46 21 16 bd 22 2d 32 bd 92 3e 1a bd
       0.008584068 -0.036652826 -0.043500073 -0.037657328
000060 a6 aa 60 bb 0f a5 5c bc b0 9b 6b bd d0 5d 82 bd
       -0.0034281402 -0.013467087 -0.057521522 -0.063655496
000070 48 6a 83 3c 05 89 ff ba b3 64 93 3d dd d3 ec bc
       0.01604189 -0.0019495791 0.07196941 -0.028909618
000080 5f 70 02 3d 3b 46 e9 3d d6 89 7d bd b7 59 d0 bd
       0.031845447 0.113903485 -0.06189903 -0.10173362
000090 41 3e e1 bc d2 6d a2 bd cc 71 d3 3c 96 83 b7 3d
       -0.027495505 -0.07931103 0.025811099 0.08960645
0000a0 4c 46 a5 bd f0 9a a5 bc a6 56 c4 3b e1 fa af bd
       -0.08070049 -0.020215482 0.0059917746 -0.08592773
0000b0 cc 4c 48 bc cb 5f 13 3e f2 46 43 3e 0e f5 96 3c
       -0.012225341 0.14392011 0.19070032 0.018427398
0000c0 79 e7 be 3d 76 a7 b2 bd 30 fa 61 bd 8d 01 8e 3d
       0.09321494 -0.08723347 -0.055170238 0.069338895
0000d0 d9 1e de bd f4 fe d7 bd 64 26 04 bd c7 aa df bd
       -0.108457275 -0.10546675 -0.032263175 -0.10921245
0000e0 7c 54 b0 3d 88 cc 97 bd 84 4a 94 bd c6 02 b4 bc
       0.08609864 -0.07412058 -0.07240775 -0.021973979
0000f0 4c 57 a7 3c 94 a9 06 3e 90 18 7e ba 2b 8e c3 3d
       0.020427369 0.13150626 -0.0009692991 0.09548601
000100 66 ca f6 bd d6 ac a8 3d 3e df 9e 3c 2e 87 9b bb
       -0.12050323 0.08236091 0.01939356 -0.0047463393
000110 0d d7 fb 3d 9a f2 23 3d ae 26 a3 bd a4 4a 83 bd
       0.12296877 0.040026285 -0.07966362 -0.06410721
000120 d7 a0 00 3d 0a 7b 01 be 1f 77 57 3d 48 a6 08 bd
       0.03140339 -0.12644592 0.052603837 -0.033361703
000130 cd 5a e4 bd 89 23 68 bc b5 60 1d 3b c3 53 0e 3e
       -0.111501314 -0.0141686285 0.002401394 0.1389914
000140 38 b4 81 be 3e 55 90 bd 90 55 c0 3d 11 82 23 bc
       -0.25332808 -0.07047509 0.0939132 -0.009979741
000150 26 18 90 bd fe 9a 97 3c eb 14 67 bd 24 ea f7 bb
       -0.07035856 0.018506523 -0.056416433 -0.0075657535
000160 15 28 c5 3d c3 76 81 bd 8b 05 be bd be df bb bd
       0.09626786 -0.0632148 -0.09278401 -0.09173535
000170 2f a9 23 3e 79 07 3a 3d 27 28 6b 3d 3a d6 07 3c
       0.15982507 0.045417283 0.05741134 0.008290822
000180 f8 c2 b0 3d f6 3b b4 bb d0 09 c9 bc c2 59 24 3c
       0.08630937 -0.005500312 -0.024540812 0.010031166
000190 36 aa 71 bd 22 ac 29 be 24 36 14 bd 23 c9 10 bd
       -0.059000216 -0.1656957 -0.036184445 -0.03534807
0001a0 3b cd 35 bb e4 02 8f 3b bd 04 72 3d 7c 66 39 3d
       -0.0027740735 0.0043643583 0.05908655 0.045263752
0001b0 83 4a 34 3e 0c 49 0a bd 8e 0e 0b 3d 78 1c 40 3c
       0.17606549 -0.03376107 0.033949427 0.0117255375
0001c0 29 89 aa bc b2 d2 ab bb 1d de e7 ba b4 f0 38 3e
       -0.020817356 -0.0052436227 -0.0017690096 0.18060571
0001d0 a2 bd b6 bd ce 53 b8 bc c0 1c 7b bd 76 3c 50 3e
       -0.08922888 -0.022500899 -0.061306715 0.20335564
0001e0 84 b0 a6 bb c9 2d 82 bd 39 78 24 3e 9e aa e5 3d
       -0.0050869603 -0.06356389 0.16061486 0.11214183
0001f0 8c 38 e3 bc e2 2f 39 bd 27 0a a7 bd b5 56 89 3d
       -0.027736925 -0.04521168 -0.08156233 0.06705991
000200 0c 31 a2 3d 5b a0 e1 3d 7b e4 fd 3d 0d e9 78 3d
       0.07919511 0.110169135 0.12397095 0.06076913
000210 6b 1c 1b be 8a 07 95 be 4f 45 8f 3c 03 14 84 3d
       -0.1514756 -0.29107314 0.017489104 0.064491294
000220 0b 0d 1e be cb 22 8a be b7 f5 40 bd 71 82 ac 3e
       -0.15434663 -0.2697967 -0.047109332 0.3369327
000230 01 c3 b2 bd 98 f0 8b 3c 30 73 64 bc 35 58 39 3e
       -0.087286 0.017082497 -0.013943478 0.18100055
000240 01 82 14 3d 2b c6 30 bc 1b 3e 02 be ce c8 95 3d
       0.036256794 -0.010789434 -0.12719004 0.07313691
000250 85 6f 6f be f5 79 61 bd 78 e5 95 3d 0f 5d 0c be
       -0.23382385 -0.055047948 0.07319158 -0.13707374
000260 cb d4 d1 3d 2b 0c c9 3d ea f2 88 bd 9a 13 7b bd
       0.10245665 0.09816774 -0.06686957 -0.06129799
000270 d6 58 0a 3e 8a 2d ac bd 36 f8 5a 3d 77 be 76 be
       0.1351045 -0.084071234 0.05345937 -0.24096094
000280 ba 25 78 bd fb a3 ce bd f2 a4 82 bd 7f 68 c3 bd
       -0.060582854 -0.100898705 -0.06379117 -0.095414154
000290 2b 8c 06 be 9a 07 f3 3c 4c ea 16 be ec 1d c8 3d
       -0.13139407 0.02966671 -0.14737815 0.09771332
0002a0 89 89 fa bd 79 00 eb 3c 4a 97 92 3e 53 cb b9 3d
       -0.12233264 0.028686749 0.2863105 0.09071984
0002b0 be 7f 02 bd 4c cf 59 3e c9 9b f6 3e fd 91 f1 3d
       -0.031860106 0.21270484 0.4816573 0.11795423
0002c0 b7 66 0d bd c9 f9 21 bd a8 77 72 be 19 c2 c1 3d
       -0.034521785 -0.039544854 -0.23678458 0.09460849
0002d0 fd b6 ac bc d8 2b 7c bd f9 a4 22 3d 76 9e 62 bd
       -0.02108335 -0.06156525 0.03970811 -0.0553269
0002e0 14 80 b2 bd 68 0d a5 bd 1d 13 d1 bc e8 c5 e2 bd
       -0.08715835 -0.08059198 -0.02552181 -0.11072904
0002f0 fe cb 5d bc 1a 95 6f 3d f8 5c c7 bd 67 cc cd bd
       -0.013537405 0.058491804 -0.09734529 -0.10048752
000300 da b1 a1 bd 17 c3 cc 3d db 02 d3 bb 99 47 7b bd
       -0.078952506 0.09998148 -0.0064395494 -0.061347578
000310 63 ca 14 be 47 41 a5 bd 3c b0 d7 bd d4 b3 c0 ba
       -0.1453033 -0.08069091 -0.10531661 -0.001470203
000320 39 1d 55 3e 12 ad d8 bd 0b f7 39 be 0c 2d 87 3b
       0.20811929 -0.105798855 -0.18160646 0.004125243
000330 6e f1 02 3e c9 67 a3 3c b5 4f 51 bd 71 af 3c be
       0.1278741 0.01994695 -0.051101405 -0.184263
000340 dc 16 96 be 6d df 1e be 38 1b 9a 3d 67 8e ed bd
       -0.29314315 -0.15514918 0.07524723 -0.11599427
000350 68 93 18 3e 21 34 1c bd 28 08 c7 3d 13 e0 28 be
       0.14899981 -0.03813565 0.097183526 -0.16491728
000360 94 87 23 3e b2 0b ac be d4 4b 42 3d 36 c4 9d 3d
       0.15969688 -0.33602673 0.047435597 0.0770344
000370 cf 61 cf 3d f5 88 30 bd eb ac 29 be 3b ad 9f 3d
       0.101260774 -0.043099362 -0.16569869 0.07796713
000380 eb 43 0d 3e 62 4b 27 3e 3a b0 ae be f4 8a d8 3d
       0.1379544 0.1633735 -0.34118825 0.10573378
000390 e4 2c 48 3d ba 55 19 be 18 27 00 be af 3b 95 ba
       0.048870936 -0.14974108 -0.12514913 -0.0011385585
0003a0 99 d9 d7 bd 82 aa 4a 3d 65 db 12 bd d5 15 f0 bc
       -0.1053955 0.049479015 -0.035853762 -0.029307285
0003b0 c0 3d 5a be f5 df c3 bb 58 99 1d bd d0 a1 93 be
       -0.21312618 -0.0059776255 -0.038476318 -0.2883439
0003c0 39 37 36 be 10 58 f9 bb f1 1c 23 3d d8 36 04 3e
       -0.17794503 -0.007609375 0.039822523 0.12911546
0003d0 53 18 27 bd 0d 96 f0 3c cb d7 0c bd 6d 8c 0b 3d
       -0.04079468 0.029368425 -0.034385484 0.034069467
0003e0 53 93 5b 3c d5 8e 47 3e a5 e5 8c 3d 0e 0a 1d 3e
       0.013401824 0.1948808 0.06879739 0.15335867
0003f0 e2 d2 b5 3d 33 2a 0b be 10 70 ac be 7f d7 63 3e
       0.08878113 -0.13590316 -0.33679247 0.22250174

lstm.bias_ih_l0 f4 [512]
000000 22 bb 94 3d e3 7c ec bb 8a a8 0d 3c 86 b9 83 bd
       0.07262255 -0.007217036 0.00864614 -0.0643187
000010 b4 b7 db 3d 04 47 f1 bd 9f 38 94 3c 01 1f a2 bc
       0.10728398 -0.11781123 0.018093405 -0.019790174
000020 49 5e 27 bd 5a 76 1c 3d 5f c7 5d 3c ae ed d5 3c
       -0.0408614 0.038198806 0.013536303 0.026114311
000030 43 66 33 3c 1a 3d 4b 3c 9c 0f a7 bd cb d1 73 3c
       0.010949674 0.0124047045 -0.08157274 0.0148815615
000040 c8 5d 06 3b b2 36 e3 3d 1e 6f 85 3c bd dd 49 be
       0.0020502675 0.11094417 0.016288336 -0.19713493
000050 20 ca f8 bb b0 78 62 3c f2 07 79 bd d8 51 00 be
       -0.0075924546 0.013822719 -0.060798593 -0.12531221
000060 f4 84 2c bd 41 6e 0c be f6 35 6c bd 1b 08 aa bc
       -0.04211898 -0.13713934 -0.05766865 -0.020755818
000070 e5 c3 53 bd 55 7f ed bc d1 11 84 bc 01 1c ca bd
       -0.05170049 -0.02899138 -0.016121777 -0.098686226
000080 98 4a 2f be 75 db 3d bd d8 d6 ab bd 71 f0 57 3d
       -0.17118299 -0.04635187 -0.083905876 0.052719537
000090 92 01 55 bd ae 7e 0f be 9a a2 ab bd 78 8f 68 bd
       -0.05200345 -0.14013168 -0.08380623 -0.056777447
0000a0 4b 6e 2b bd ea 9f 51 3c ad ed d7 bc e2 f9 ce 3c
       -0.04185323 0.012794474 -0.02635845 0.025265638
0000b0 a6 16 bf 3c 44 02 cf 3d 3f c4 9f 3c e8 80 87 bd
       0.02332623 0.10107854 0.019502757 -0.06616384
0000c0 90 a6 61 3d a3 8b 15 3d 52 78 92 bd 3e 6f ff bd
       0.055090487 0.03651012 -0.071518555 -0.1247239
0000d0 47 cd 42 bd db da d3 3c 81 16 48 bd 96 38 33 bd
       -0.04755905 0.025861194 -0.048849586 -0.043755136
0000e0 3d ae ba bb c8 2f 3c 3d 31 77 36 3c b9 73 96 3c
       -0.0056970404 0.045944005 0.011136816 0.018365728
0000f0 39 6f c6 bc fe 76 d2 bc dc 2a 38 be 04 16 09 be
       -0.024222957 -0.025691506 -0.179851 -0.13387305
000100 ff 86 b2 bd 8f 20 ca bb 8e 17 9d bd ff 36 0c bb
       -0.08717155 -0.006168432 -0.07670508 -0.0021395085
000110 5d cc db bd 17 e5 33 3d 08 88 0c 3c a9 cf 18 be
       -0.107323386 0.04391965 0.008577354 -0.14922966
000120 c9 69 3e 3d 81 32 3e 3c 91 05 36 bd ff e6 f5 bd
       0.046487603 0.011608721 -0.044438902 -0.1200695
000130 90 4e f7 bd a7 e1 bc 3c b8 30 fe 3d ea 53 85 3c
       -0.120755315 0.023056818 0.12411636 0.016275365
000140 ee 0d 61 bc be e9 84 bd 30 16 d7 3d 46 01 79 bd
       -0.013736231 -0.06489895 0.10502279 -0.06079223
000150 6e 53 1e be 3a 7e 36 3c 4f eb c8 bd 3d c8 cd 3d
       -0.15461513 0.011138493 -0.098105066 0.10047958
000160 15 3e 88 3d 60 32 2a bd ad 6f 26 be 51 55 47 bd
       0.06652466 -0.041551948 -0.16253538 -0.04866535
000170 8c 5e 42 3c 39 f2 4a bc 1f 72 a7 3d 53 95 57 3e
       0.011863362 -0.012386852 0.08176064 0.21053056
000180 69 4b c7 3c 9c 0c 77 3d 8b 0f 8c bd 66 99 1c 3e
       0.02432795 0.06031476 -0.06838902 0.15292892
000190 bd 58 e3 bd f8 9c ca bd 44 a2 0c 3e c6 39 b3 3d
       -0.1110091 -0.09893221 0.13733774 0.08751254
0001a0 b5 8b 59 bd 75 2e 9b bd e6 04 f0 bc bf e2 16 bd
       -0.05311175 -0.0757722 -0.02929921 -0.036837336
0001b0 76 82 1f 3d 73 5a 7a bb f7 bd 44 bd a9 d4 35 3d
       0.038942777 -0.0038200885 -0.048032727 0.04439226
0001c0 ac 51 a3 bd 0e b4 4c bd d0 79 89 3c 61 be 9a bc
       -0.07974562 -0.0499764 0.016781718 -0.018889608
0001d0 0f ee 9b bd ef e5 46 be 60 89 31 bd 6c 74 c3 bd
       -0.076137654 -0.1942365 -0.0433439 -0.0954369
0001e0 34 50 c2 3d d3 4f b7 3d eb 22 db bc 84 18 80 bb
       0.09487954 0.08950772 -0.026750049 -0.0039091725
0001f0 09 d0 90 3d 9e 53 16 be 47 51 cb 3d 2b 09 ad 3d
       0.070709296 -0.14680335 0.09927612 0.08449014
000200 01 83 4a be 73 2c 97 bc cf e7 29 bd 7f 04 dd bd
       -0.19776537 -0.018453812 -0.041480836 -0.10791873
000210 2e 11 74 bd 7e 1e 11 bd 16 ac 17 be 35 f9 13 be
       -0.059586696 -0.03542947 -0.1481174 -0.14450534
000220 02 51 d5 bb 94 66 75 bd 11 6d 2b be 54 40 9f 3d
       -0.006509901 -0.05991228 -0.16740824 0.077759415
000230 11 40 c2 bd 5a 4c 93 bd e4 79 72 bd 76 17 81 bc
       -0.09484876 -0.07192297 -0.059198275 -0.015758257
000240 d3 80 1c be 0d c7 da bc 6c 56 16 be 7c 3c 2a be
       -0.15283518 -0.026706243 -0.14681405 -0.16624635
000250 ca a0 c9 3d 15 ac 70 3c 50 fd 11 3d 94 0b 0c be
       0.09845121 0.014689465 0.03564197 -0.13676292
000260 0a c8 95 bd 1a 42 87 bd 82 b2 ab bd 0d 53 60 bd
       -0.07313545 -0.06604405 -0.08383657 -0.054766703
000270 50 1c 2b be 2d 4c 35 3d df 3c 2e be 1e 99 63 bd
       -0.16710019 0.0442621 -0.17015408 -0.055565946
000280 09 be f9 bd 34 55 6b be 56 8f a6 3d 6b 5e 84 be
       -0.121944495 -0.22981721 0.08132808 -0.25853285
000290 11 f6 b3 bd a6 50 88 bd f1 8c 2c bd b3 5b 90 be
       -0.08787168 -0.066560075 -0.0421266 -0.2819496
0002a0 4b 25 0e 3d 44 f6 bc bc 21 e1 37 bc 58 eb b0 be
       0.034703534 -0.023066647 -0.0112231085 -0.34554553
0002b0 5f b3 1f 3d 01 e4 ac bd 51 f5 33 3e 34 42 ed bd
       0.03898942 -0.08441926 0.1757405 -0.11584893
0002c0 09 48 38 3c ab 4a 72 be 8a d1 03 be f2 da 27 bb
       0.011247643 -0.23661296 -0.12872902 -0.002561268
0002d0 00 25 63 be 9f 19 90 3d e5 98 31 be 73 1b 9e bd
       -0.22182083 0.07036137 -0.17343481 -0.07720079
0002e0 4d 66 7c bd 97 fa 2b be 29 a9 a1 bd 4b 2e ff bd
       -0.061621 -0.16794811 -0.07893593 -0.124600016
0002f0 ce bc 08 be 01 49 19 be ff da 58 be d7 44 cd bd
       -0.13353273 -0.14969255 -0.2117729 -0.10022896
000300 08 a1 a0 bd f3 26 e9 bd b2 b1 46 be ef 4a 15 be
       -0.07843214 -0.11384382 -0.19403723 -0.14579366
000310 a8 cd 96 be 30 16 b0 3c 3c 7b 80 bd d1 03 3f be
       -0.29453778 0.021494955 -0.06273505 -0.186538
000320 e4 17 a3 bd 98 e5 ca bd f2 ca 0c be 27 44 5b be
       -0.07963541 -0.09907073 -0.13749292 -0.21412717
000330 db 80 1f be 5b 13 8c be 4a 5c 21 be b6 06 80 3b
       -0.15576498 -0.27358517 -0.15757862 0.00390705
000340 e2 65 1e bd 57 8a 23 be 1d 0e 1a 3e 9a 3c 10 be
       -0.03867138 -0.15970741 0.15044446 -0.14085618
000350 95 6e 49 bd 42 0b 37 bd 9f 85 55 bd 99 b2 49 be
       -0.049177725 -0.04468847 -0.052129384 -0.19697036
000360 81 88 3b be fe e3 d9 bd bb eb 8f be 8c e4 89 bd
       -0.18313791 -0.10639189 -0.28109536 -0.06733045
000370 05 1f 8a bd 3e d0 0a be 58 51 ac bd 99 d8 d4 bd
       -0.06744198 -0.13556 -0.084139526 -0.10392875
000380 81 c6 c6 bc 0b e0 59 bd 18 5b 45 bd 01 c4 90 be
       -0.024264576 -0.05319218 -0.048182577 -0.2827454
000390 60 bc 29 be 87 7c 0d be 26 3c 2a be 96 fc 59 be
       -0.16575766 -0.13817035 -0.16624507 -0.2128776
0003a0 f7 e6 83 be 07 ed c4 bd 35 6e 90 bd e8 2a 93 bd
       -0.2576215 -0.09615522 -0.0705227 -0.07185918
0003b0 9b bb ec 3d 9d 16 40 be d3 82 44 be 7b 01 0a 3b
       0.115592204 -0.18758626 -0.1919053 0.0021058011
0003c0 80 34 43 be 38 13 24 be de 5c 24 bd 9f d6 08 3d
       -0.19062996 -0.16022956 -0.040127628 0.033407804
0003d0 80 ef ca 3d 4b 2d e9 bd 29 27 dc bd 9a b3 68 be
       0.09908962 -0.11385592 -0.10749657 -0.22724763
0003e0 cb e2 11 3e 97 a3 83 3e 41 71 c6 bd 32 d9 29 be
       0.14246671 0.25710747 -0.0968957 -0.1658676
0003f0 a3 91 f1 bd 75 08 00 bd d8 42 93 bd e0 37 12 be
       -0.11795356 -0.031258065 -0.07190484 -0.14279127

lstm.bias_hh_l0 f4 [512]
000000 d7 2d 40 3d f2 f0 73 3d d1 bb 67 bd ee 69 a2 bd
       0.046918716 0.059555955 -0.0565756 -0.07930361
000010 d2 4b f2 3d 47 07 d3 3c ec 0c 00 3c 5f d1 79 3d
       0.11830868 0.025760306 0.007815581 0.060990687
000020 79 60 5a bc f0 34 0a bd f3 e1 67 bd 32 c7 96 39
       -0.013328665 -0.03374189 -0.056611966 0.00028758642
000030 7a bf 17 3c 1f ca bd 3c da 67 c0 3c 93 ac 32 bd
       0.00926196 0.023167668 0.02348702 -0.04362161
000040 7e 29 0a be b6 3a d9 3d 9c 08 3e bd d7 7f 1d bd
       -0.1349239 0.10606901 -0.04639493 -0.038451996
000050 49 c2 28 3d 77 d8 35 bd b6 4e 11 bd bc f6 b6 bd
       0.04120091 -0.04439589 -0.035475455 -0.089337796
000060 46 66 70 bd 6c e7 2b bd 30 c7 07 be 34 a2 ee bc
       -0.058691286 -0.041968748 -0.13259578 -0.029130079
000070 ca a7 b0 bd 0b 6c f5 bd a4 4a 21 be 7d 8f e7 bd
       -0.08625753 -0.11983498 -0.1575113 -0.11306665
000080 b6 a0 9e bc 49 90 1d 3d f5 cc 91 3c ab b0 14 3c
       -0.019363742 0.03846768 0.017797926 0.009075324
000090 b0 74 a3 bd 0d 73 45 bd 1a 75 ee bd b3 02 93 bd
       -0.07981241 -0.048205424 -0.11643429 -0.07178249
0000a0 64 5c a3 3c 22 bd ce bd 90 af 99 3d 34 09 c3 3c
       0.019941516 -0.10094668 0.07504189 0.0238081
0000b0 e2 02 0f 3e fa d8 bd 3d a7 7e e9 3d 40 9d 5a 3d
       0.13965943 0.092699006 0.1140111 0.05337262
0000c0 69 9b 88 bc 03 cb 8c 3d c8 62 84 bd b1 f2 76 bd
       -0.016675668 0.06874659 -0.064641535 -0.060290042
0000d0 cf ff 79 bd ac dd c4 3d 4f 6b 11 be ae 6a 25 bd
       -0.061034974 0.09612593 -0.14201091 -0.04038494
0000e0 98 15 35 bd 0e 9c 46 bd f0 9f c7 bd 95 a3 52 bd
       -0.044210047 -0.04848867 -0.097473025 -0.051425535
0000f0 7b eb a6 3b 3d 86 9d bd bf 6a fa bd 28 34 94 bb
       0.0050939894 -0.076916195 -0.122273915 -0.004522819
000100 e4 0b 14 bd b1 96 ba bd 0a d7 9f bd 1b 1d c3 bd
       -0.036144152 -0.09110773 -0.07804687 -0.09527036
000110 ff 29 52 bd 5e e0 99 3d a8 84 c3 bc 91 ef 65 be
       -0.05130958 0.07513498 -0.023866966 -0.22454669
000120 35 bd d7 3c 5c 87 f8 3c 2f df a1 bd e9 14 36 bd
       0.026335338 0.030337982 -0.07903897 -0.044453535
000130 7f ef 0a be 29 40 e1 3c ea 54 26 3d f9 61 e3 3d
       -0.13567923 0.027496414 0.040608324 0.11102671
000140 bf 04 99 3d dc 40 65 bd 42 67 8c 3c f2 1b df bd
       0.07471608 -0.055970058 0.01713908 -0.10894002
000150 9e 8e 81 bd 5b b4 0a 3d 9f 9f 11 be 57 b3 23 3e
       -0.0632603 0.033863407 -0.14221047 0.15986381
000160 6e 12 91 3d df e7 c7 bc b4 2e f6 bd fd cd b1 bd
       0.07083593 -0.024402557 -0.12020627 -0.08681867
000170 d3 77 a4 bd ee 3f a2 bd a2 5d c3 3c 91 a0 c9 3d
       -0.08030667 -0.0792235 0.023848359 0.09845079
000180 ac d0 ee bd 36 88 59 3d bc ee 29 3d 0d 72 64 3d
       -0.11660895 0.053108416 0.04148744 0.05577283
000190 a1 94 d0 bd 09 04 b0 3b 11 1c 73 3d 49 31 07 bd
       -0.10184599 0.005371575 0.059352938 -0.033005986
0001a0 73 da a9 bd 96 54 3b 3d 26 d6 85 3b 25 53 12 bd
       -0.08293619 0.045734964 0.0040843664 -0.035723824
0001b0 88 3e 8a bd a9 1c 31 3d 47 14 b1 bd 02 a4 00 be
       -0.06750208 0.043240223 -0.08646446 -0.12562564
0001c0 bd 7b 70 bd 81 a9 cf 3c 0d 21 da b9 4b de 1e bd
       -0.058711756 0.02534938 -0.00041604825 -0.038786214
0001d0 47 b7 b8 bd 05 f2 05 be b2 7d 39 bd 83 6b 35 bc
       -0.090193324 -0.13080604 -0.045285888 -0.011072996
0001e0 0c e7 f1 3d 20 b7 81 3d 84 63 3b be cd a2 08 be
       0.11811647 0.063337564 -0.18299681 -0.13343354
0001f0 89 38 a5 3c 55 c6 dc bd 25 70 b7 3d b1 f7 de 3d
       0.02016856 -0.10780016 0.08956937 0.10887087
000200 6d 70 ee bd 37 e6 8a 3d 65 80 d5 bc 2b e8 25 be
       -0.11642537 0.06782191 -0.0260622 -0.16201846
000210 cb 7a 0b be 35 48 b8 3d fc 9d cd bd 72 e9 dc bd
       -0.1362106 0.089981474 -0.10039899 -0.10786714
000220 65 d1 7b bc 96 1f 85 3d 7a 2a be bd 6c d4 b9 3d
       -0.015369748 0.06500165 -0.092854455 0.090737194
000230 ce 3f 1d be 87 27 05 be dc 67 3a be f2 dc 17 be
       -0.15356371 -0.1300336 -0.18203682 -0.14830378
000240 35 c8 51 be 2e d4 06 be 18 82 2b be 4a 61 53 be
       -0.20486529 -0.13166878 -0.16748846 -0.20642582
000250 b9 9b 17 3e a8 a9 f3 bd e8 a6 a3 3b a0 03 e7 bd
       0.14805497 -0.11897594 0.004994262 -0.11279988
000260 24 ba d1 bd f3 d7 a8 3c 90 42 24 be 18 0a d0 bd
       -0.10240582 0.020610785 -0.16041017 -0.10158175
000270 fa 6b 20 be 08 81 a4 bd c2 cc 8a bd bd 06 8d bd
       -0.1566619 -0.08032423 -0.06777336 -0.06886051
000280 27 df c7 bd 46 17 78 be 90 99 b3 3d 91 e4 30 be
       -0.0975936 -0.24227628 0.08769524 -0.17274691
000290 dd c4 11 bd 0b 26 e3 bd 05 8d db bd a8 ee 5f be
       -0.035588134 -0.110912405 -0.10720257 -0.21868384
0002a0 88 00 d6 3c b5 3c 34 be b6 04 a1 bd 31 38 7c be
       0.0261233 -0.17601283 -0.07862227 -0.2463081
0002b0 c3 3c 32 3c c9 a2 8c bd 1f bf 91 3e 85 71 83 bc
       0.010878745 -0.06866986 0.28466126 -0.016045341
0002c0 be 3d 15 be 9b 17 95 be e2 43 0b be 2b db 65 bd
       -0.14574334 -0.29119572 -0.13600114 -0.056117218
0002d0 e3 15 ca bd a8 46 3d 3d 21 70 3f be f3 06 17 be
       -0.09867456 0.04620996 -0.18695118 -0.14748745
0002e0 c3 79 42 bd 1f a1 28 be de df cb bd 78 5b 0f be
       -0.047479402 -0.16467713 -0.09954809 -0.13999736
0002f0 2d 31 da bd d4 ae 1d bd 33 82 8c bd e9 ed 8c bd
       -0.10653911 -0.038496807 -0.06860771 -0.06881315
000300 c4 06 19 bd 1a 47 91 bd ce d7 2c be 16 6e 8a bd
       -0.037359968 -0.0709364 -0.16879198 -0.067592785
000310 a8 29 9d be 0b bb b4 3b 22 a0 36 be bf bc 6c be
       -0.30695844 0.0055154613 -0.17834523 -0.23118876
000320 d0 15 e4 bd 96 14 ba bd 76 7f ba bc 0b 2e 15 be
       -0.11136973 -0.09085958 -0.022765856 -0.14568345
000330 fa 9a b6 bd 23 ae 34 be c4 c6 24 be fb e4 16 b9
       -0.08916278 -0.17644553 -0.16091448 -0.00014390417
000340 c8 a2 90 3d ef 05 43 be 49 57 76 3d 9f 69 00 bd
       0.07062298 -0.19045232 0.060141835 -0.031350728
000350 5e 66 9d bd 9b 6f d0 bb 6e 9f e5 bd 56 eb 85 be
       -0.076855406 -0.0063609607 -0.112120494 -0.2615611
000360 5f 14 b4 bd 7d b3 ab 3c fb f7 26 be c3 9c a9 3c
       -0.08792948 0.02095961 -0.16305535 0.020704633
000370 1c 23 41 be 78 da 28 be 12 16 eb bd dd 6e b1 bd
       -0.1886105 -0.16489589 -0.11478819 -0.086637236
000380 e6 64 22 bd 49 5b 1c bd fe e1 49 3d 49 db 62 be
       -0.039647005 -0.038172994 0.04928779 -0.22153963
000390 e8 05 33 be 41 29 aa bd 92 90 70 be 22 35 d1 bd
       -0.17482722 -0.0830865 -0.23492649 -0.102152124
0003a0 b0 ca a8 be 18 55 2c bd 74 ee 5b be 09 8c c7 bd
       -0.32967138 -0.04207334 -0.21477681 -0.097435065
0003b0 bf 1a d6 3d bf a5 28 be 51 46 48 be a8 0a 09 bd
       0.1045432 -0.16469477 -0.19558074 -0.03345743
0003c0 ba 17 73 be 24 c1 11 be 95 7f 26 be 76 aa 24 bd
       -0.2373952 -0.14233834 -0.16259606 -0.040201627
0003d0 74 f8 60 3d e4 5d 6a 3c e7 22 98 bd 04 28 27 be
       0.054924443 0.014304612 -0.07428532 -0.16323858
0003e0 72 6c c6 3d 9c 8e 2f 3e cf f2 2f be 9f 77 e3 bd
       0.09688653 0.17144245 -0.17182468 -0.111068
0003f0 6c 84 e8 bd 19 a0 d6 bd f0 1c 09 be b4 1b 4e be
       -0.113533825 -0.10479755 -0.13389945 -0.20127755

lstm.weight_ih_l1 f4 [512, 128]
000000 1d eb 11 be f0 db f6 3d 04 93 15 3e cf 7f a9 bd
       -0.14249845 0.120536685 0.14606863 -0.08276331
000010 a7 4e 30 3e 0f a7 30 be f6 1f 1c 3d f9 9f 8d bd
       0.17217503 -0.17251228 0.038116418 -0.06915278
000020 93 2a 64 be 65 6f b7 be 64 52 25 3e 52 c1 df 3e
       -0.22281866 -0.35827175 0.16144711 0.4370218
000030 f7 71 52 3e 24 b4 28 be f0 3b d6 bd 6f f8 74 3d
       0.20551287 -0.16474968 -0.10460651 0.059807237
000040 3f aa 78 be de 77 a5 be 3c 0c 20 bd 6c bc 19 be
       -0.24283694 -0.32318014 -0.039074168 -0.15013283
000050 bb 7a 19 3d 76 7b 53 be 47 49 f9 3d 26 89 e6 bc
       0.03747056 -0.20652565 0.1217218 -0.02814157
000060 67 eb a8 bd 82 ac c0 bd 14 81 53 3d ef 34 2a 3e
       -0.082480244 -0.09407903 0.05163677 0.16621755
000070 7e 9b 29 be db 7f ba 3c cc 92 93 bc 03 5b 8e be
       -0.16563222 0.022766044 -0.018014334 -0.2780381
000080 bd a3 89 bd ee 60 6e 3e 74 96 8a 3e 17 60 93 3d
       -0.06720684 0.23279163 0.27067912 0.07196062
000090 3c bd 9b 3d 66 3c ae 3d 35 0c 16 3e 05 ab 4a 3e
       0.07604453 0.08507614 0.14653094 0.19791801
0000a0 fd 14 2a bd 41 0b a5 3d 8a 1f 4e 3e d8 6d 50 be
       -0.041523922 0.08058787 0.20129219 -0.20354402
0000b0 1c 4e e9 bd f9 16 a0 bd 22 35 84 3e f1 5e 2a 3d
       -0.11391851 -0.07816882 0.25821787 0.04159445
0000c0 ae da a2 3e 7b e0 50 bc 29 9f 3f be b4 c1 9b 3d
       0.31807464 -0.012748833 -0.18713059 0.07605305
0000d0 13 8e 63 3c c5 f7 b5 be 4b 36 d4 3d 7c 26 27 be
       0.013888854 -0.35540596 0.10361918 -0.16323274
0000e0 29 c6 4c bd a1 78 6f 3b 06 a0 a3 bd 30 34 fb 3d
       -0.049993668 0.0036540406 -0.079895064 0.12265813
0000f0 20 55 3c 3e 94 ec df 3d 45 b1 50 3d 5d 48 b0 3e
       0.18391848 0.109337956 0.050950307 0.3443021
000100 9e 0f 28 be 30 67 1f 3d 53 f1 05 3e 19 b0 11 3e
       -0.16412207 0.038916767 0.13080339 0.14227332
000110 77 1d 2b 3e 53 df af be df 0f c2 3e a5 9f 8d 3e
       0.16710459 -0.3435007 0.37902734 0.27660862
000120 ee 5b f5 3d f0 68 7d bd dc 90 ca bc ba a8 e4 bd
       0.11980425 -0.061867654 -0.024727277 -0.111649945
000130 dd 83 84 be bd e3 24 be e4 56 d4 3d 3b d1 13 3d
       -0.25881854 -0.161025 0.103681356 0.03608821
000140 a5 bf 56 be 63 b5 f7 bd 68 5a c6 3d 33 b5 17 bd
       -0.20971544 -0.12095144 0.096852124 -0.03703804
000150 0f af 9b 3d eb 28 94 3d 70 2b 36 3e ee 05 61 3e
       0.07601749 0.07234367 0.17790008 0.21974918
000160 92 67 06 3e 19 ec 37 be 5c 9f 92 3d e0 af c6 bc
       0.13125446 -0.17961158 0.07159302 -0.024253786
000170 d5 ae 5e be c8 e5 d2 bd 40 3a 3b 3e 6a 3e e1 3e
       -0.2174638 -0.102977335 0.1828394 0.4399293
000180 71 e9 20 3e fa c6 50 3d 2b 53 b1 be 08 ae 06 bd
       0.15714051 0.05097101 -0.34633765 -0.032880813
000190 bf 14 d4 bd 84 3b 26 3e af 3c ba bd 0d b1 a4 3d
       -0.103555195 0.16233641 -0.09093606 0.08041582
0001a0 95 15 0f bb a4 b7 5f 3e 6a 7a e8 bd 28 d9 2e 3d
       -0.0021832932 0.21847397 -0.11351474 0.042687565
0001b0 ee c8 86 be d6 b5 6b 3d 80 9f c8 bd c8 a5 b5 be
       -0.26325172 0.05754646 -0.09796047 -0.35478044
0001c0 f7 53 8a 3a b7 fc ba 3d 63 30 e9 bd f9 10 3a 3d
       0.0010553588 0.09130233 -0.11386182 0.045426343
0001d0 1e 8f 95 bd db 4b 92 3e 03 2d 75 3d 1d c0 9f be
       -0.07302688 0.28573498 0.05985738 -0.31201258
0001e0 83 d5 7b 3e b3 9b aa 3e 42 ff 1f 3e 79 51 19 be
       0.24593167 0.33321914 0.15624717 -0.14972486
0001f0 80 e0 35 be 55 11 55 3e d2 5f a8 be c1 8d 3e be
       -0.17761421 0.20807393 -0.32885605 -0.18608762
000200 4e 1f 8d 3e e3 ba c4 3e a9 df 9a 3e 1f b0 57 3e
       0.27562946 0.38423833 0.30248764 0.21063279
000210 64 a3 63 be 25 37 c0 be fa 3c 02 3e 67 ff 70 3e
       -0.22230297 -0.37542072 0.12718573 0.23534928
000220 81 39 9a be 4c f5 e0 be fa 81 de bd 7d b6 10 3f
       -0.30121997 -0.43937147 -0.10864635 0.56528455
000230 42 d7 6c be a1 29 b9 3e dd 18 c3 3e c4 17 a3 3e
       -0.2312899 0.36164573 0.38104907 0.3185407
000240 c1 11 42 3e c0 86 8d 3e 7d 65 d7 be fc 98 d4 3e
       0.18952085 0.2764187 -0.42069617 0.41522968
000250 ab 5a 1d bd ca 2c 7b be 95 46 51 bd c2 dd 6d bd
       -0.038416546 -0.24528804 -0.051092703 -0.058072813
000260 61 4c 80 3e 49 9e ba 3e 35 ed 9a 3e 39 e6 86 be
       0.25058272 0.36448887 0.302591 -0.2634752
000270 8f ad c9 3e 2d 84 b1 be 5e 5b c3 3d e9 e2 08 bf
       0.39390227 -0.34671155 0.09538911 -0.5347124
000280 44 f3 43 be b0 53 a4 be c6 78 cb be bc 6b b5 be
       -0.19135767 -0.32095098 -0.3974058 -0.35433757
000290 18 0e 30 be 3d ec 96 be 0f 62 96 be cf d0 92 bd
       -0.17192876 -0.2947711 -0.29371688 -0.07168733
0002a0 0b 7c 45 3e 5d 0f 47 be 18 80 29 3f 76 44 87 3e
       0.192856 -0.19439454 0.6621108 0.2641942
0002b0 be 40 44 3e 15 88 29 3f 20 f0 43 3e 93 b1 a6 bd
       0.19165322 0.6622327 0.19134569 -0.08139338
0002c0 75 df 66 be c9 9d 78 3e 3b 9d 1e bd dc 44 b7 3e
       -0.2254618 0.2427894 -0.038724165 0.35794723
0002d0 2e 46 88 be 50 fa 96 3e bc 1c f1 bd 75 95 03 bd
       -0.26616043 0.29487848 -0.11773059 -0.032124955
0002e0 e5 05 42 bd b4 15 5c be 7b ac a1 bd 84 56 8c be
       -0.047368903 -0.21492654 -0.07894226 -0.27409756
0002f0 55 91 c4 3d 3e 56 b4 3c f5 37 cd be c7 5f db bd
       0.095980324 0.02201378 -0.40081754 -0.107116275
000300 b3 32 9e bd 56 3b e8 bd 05 4c c2 bd 2a b2 52 be
       -0.07724514 -0.113394424 -0.09487156 -0.20575777
000310 58 5d bf be c6 b6 f1 bd 38 f5 c6 be 05 94 ff 3d
       -0.37375903 -0.118024394 -0.38858962 0.12479404
000320 a7 c1 1d bd 10 35 02 bf dd c3 e0 be df 58 16 3e
       -0.03851476 -0.50862217 -0.43899432 0.14682339
000330 2e 41 18 3e 3f f6 40 3e 1f c9 0b bf 59 c8 e4 be
       0.14868614 0.18843935 -0.5460376 -0.44684103
000340 29 68 a9 be 66 43 87 be 5c d3 cf 3e 72 44 af be
       -0.3308728 -0.26418608 0.40590942 -0.34231907
000350 91 c3 26 3b 28 3a 49 be b7 9f e3 3e ee 40 38 bf
       0.0025446157 -0.19651091 0.4445779 -0.71974075
000360 47 c0 0c 3f bd 28 bf be 5d 02 6e 3e ab 35 31 be
       0.5498089 -0.37335768 0.23243089 -0.17305629
000370 b2 9d e4 be 7a f6 89 3e 61 78 f8 bd 9d 4e 33 bd
       -0.44651562 0.2694586 -0.121323355 -0.043776143
000380 38 90 a3 3e bb c0 21 3e 50 14 00 bf 37 ab 09 3f
       0.31945968 0.15796177 -0.50030994 0.5377688
000390 c4 65 1b be 22 b8 ec bd 4c e9 c8 be e4 81 12 be
       -0.1517554 -0.11558558 -0.3924049 -0.14307362
0003a0 13 89 aa 3d b6 7b ee b9 5e d5 2f 3e 2e 18 d9 3c
       0.08326926 -0.0004548707 0.17171237 0.026500788
0003b0 4f e1 14 bf 58 7c 8c be 51 25 88 be 7a c8 9b bd
       -0.58156294 -0.27438617 -0.2659097 -0.07606597
0003c0 cc cd 7e 3e 83 61 de bd d0 27 06 3e 5a 55 89 be
       0.24883193 -0.10858443 0.13101125 -0.2682293
0003d0 53 b7 b1 3e c1 b5 cd 3b b7 d6 db 3d 11 05 20 bd
       0.34710178 0.0062777703 0.10734313 -0.03906733
0003e0 89 3d cd bd 2b 45 96 3e 79 e3 3a 3e 3e 92 8c 3e
       -0.100215025 0.29349646 0.18250836 0.27455324
0003f0 12 3d b0 3e ad ea cd bd de 78 55 3e 98 85 1e 3f
       0.34421593 -0.100545265 0.20846888 0.619226

lstm.weight_hh_l1 f4 [512, 128]
000000 83 a7 41 bd 0d ee b8 3e 4d 6e aa be 72 25 8f 3b
       -0.047278892 0.36119118 -0.33287278 0.0043684775
000010 24 75 78 be e3 55 68 3d a2 e7 aa bd 7c f4 0d be
       -0.24263436 0.056722533 -0.08344962 -0.13862795
000020 4c 47 38 be 78 fa a6 bd 43 aa 91 be b1 60 a9 3c
       -0.17995948 -0.08153242 -0.28450212 0.020675989
000030 47 26 92 bd 33 ae cd 3d 98 c9 4f be 32 60 83 be
       -0.07136207 0.100429915 -0.20291746 -0.2565933
000040 c2 1f 81 bd 37 40 49 be cd 42 34 3c b6 8d b9 3d
       -0.063048854 -0.19653402 0.011002255 0.09060232
000050 73 5b 0b bd 05 ab 40 3c c0 90 c3 be 61 8f 2b 3e
       -0.03402276 0.011759524 -0.38196373 0.16753913
000060 92 1c 65 3d 04 78 5d b9 1c 6e da 3c 08 0a bc 3d
       0.05593545 -0.00021120912 0.026663832 0.09181601
000070 61 b9 c8 3d e9 b3 95 3e dd ff c5 bd 76 0d 79 bd
       0.09800983 0.29238823 -0.09667943 -0.060803853
000080 eb 07 e1 3b d6 60 58 3e 70 ea 26 3e 40 7b 62 3d
       0.006867399 0.2113069 0.16300368 0.05529332
000090 a4 85 0c be ad f5 19 3d 96 e6 2a be 66 4c 6a be
       -0.13722855 0.03758781 -0.16689524 -0.22880706
0000a0 96 69 2f bd ef b6 b6 bd c8 03 9c 3d dc ed 1f bd
       -0.042825304 -0.089216106 0.07617909 -0.0390452
0000b0 66 09 d1 3d 13 ee db bc 0c fb 2b bd 7a 3e f0 bd
       0.10206871 -0.026846921 -0.041987464 -0.117306665
0000c0 c0 5a a1 3d b6 5e 8a 3d 00 a5 2d bd b9 b1 89 bd
       0.07878637 0.06756346 -0.042393684 -0.06723351
0000d0 3a 7c 79 bd ee 4d fa bd a2 37 ac 3e 74 fa 77 3d
       -0.060909487 -0.12221895 0.33636194 0.060541585
0000e0 d4 ed 7b 3e 49 9d 06 bd 14 1e 34 be fc 57 1c 3e
       0.24602443 -0.032864843 -0.17589599 0.15267938
0000f0 ad 1b 1d be 27 81 60 3e 20 ea 8a 3d ed 7a b4 bb
       -0.15342589 0.21924268 0.06782937 -0.005507818
000100 8a 7d 5d 3d 89 f4 94 3d fc eb 23 3e b2 9b d0 bc
       0.0540748 0.07273204 0.1600799 -0.025464866
000110 e3 55 fc 3b fd 0b 54 be f2 1b 08 be 9f 55 dc 3d
       0.007700668 -0.20707698 -0.1329191 0.107585184
000120 fa d1 dd 3b 4c 07 97 3e b5 ba b2 bd a7 22 45 bd
       0.006769416 0.29497755 -0.08727018 -0.04812875
000130 8f 3c 29 3d fc 4b 1b bd 2a 1b f7 3c 86 87 04 3e
       0.04131752 -0.03791426 0.03016432 0.12942323
000140 bf af 6a be 73 68 8c 3d b7 12 99 be 3e d2 9f be
       -0.22918604 0.068558596 -0.2989709 -0.3121509
000150 eb 1c 38 3d b4 df 19 3e ad 1e 35 3e d6 d0 e2 3d
       0.044949453 0.15026742 0.17687483 0.110749885
000160 03 41 49 3e 73 3d 48 3d ca b5 42 3e 39 85 a1 bd
       0.19653706 0.048886728 0.1901466 -0.07886738
000170 e9 ef 51 3e fa 08 c8 3d 18 75 34 bd e1 02 7a 3d
       0.20501675 0.09767337 -0.04405698 0.0610379
000180 50 8b da bd a2 d6 9c bc dc c2 16 3c bc aa 64 bd
       -0.10671103 -0.019145314 0.0092017315 -0.055826887
000190 67 a3 0e 3e fd 2f e7 3d 68 f2 31 39 5f 47 d4 bd
       0.1392952 0.1128845 0.00016970339 -0.103651755
0001a0 0b 92 08 bd b5 2a fc 3d ff 99 3c 3e 02 b6 b7 bd
       -0.033342402 0.12312833 0.1841812 -0.08970262
0001b0 be 7c 86 3e d7 ce dd be 77 e7 ea 3d 27 5b 97 3d
       0.26267046 -0.4332187 0.1146993 0.07390433
0001c0 ca 75 91 3e 53 d5 36 3e c3 59 66 3e b6 f8 a9 3d
       0.28410178 0.17854814 0.22495179 0.08299391
0001d0 17 df 30 bd db 11 80 3e 0a 28 d8 3d 31 4e 13 bd
       -0.043181505 0.25013623 0.10554512 -0.03596324
0001e0 50 94 18 3e aa 3d 57 bd cc 2e 56 be 3f 88 ed bd
       0.14900327 -0.05254904 -0.20916289 -0.115982525
0001f0 a9 51 f4 3e 27 9f fc bd 70 c5 33 3e 22 46 f2 3c
       0.47718552 -0.123350434 0.17555785 0.029574458
000200 0f e9 ce 3e e0 28 7f 3e 46 85 f7 bd 3b 6a da be
       0.40412185 0.24917936 -0.12085967 -0.42659172
000210 64 2e 2b bf 0b f3 ed 3c 78 23 3b 3e 4d 8e cd 3e
       -0.6686766 0.029046556 0.18275249 0.4014763
000220 4b 99 31 3f 5f ed bf be e6 12 b3 bd 6c d7 0a 3f
       0.6937453 -0.37485787 -0.08743839 0.5423496
000230 fa 1d 95 3d 0a d9 ed 3d 99 d2 8a 3e f1 77 d7 3d
       0.07281108 0.116136625 0.27113798 0.10520924
000240 9b cc 91 be 8e 68 b9 be 96 32 8e 3e c5 3a 51 be
       -0.28476414 -0.3621258 0.2777297 -0.20432575
000250 83 4f ba be b6 4b 77 be f1 ff c4 be ca 1b 86 be
       -0.36388788 -0.24149975 -0.38476518 -0.26193076
000260 aa 4f 45 3e 9e 1f 8d 3d b4 dd f3 3d a7 58 ac 3e
       0.1926867 0.06890796 0.11907521 0.33661386
000270 8a ae df be 4f 4a 07 3f ef 8f e8 be a7 52 a9 3e
       -0.4368785 0.5284776 -0.45422313 0.3307087
000280 d7 0e 88 be b0 fd 05 bf 59 96 41 be 06 0b 84 3e
       -0.26573822 -0.5234022 -0.1890501 0.2578966
000290 d6 3f 6c 3e 39 1e 2e bd 1a cb 07 be c7 c7 66 be
       0.23071226 -0.04250929 -0.13261071 -0.22537147
0002a0 6a 10 02 3f f1 77 81 bc 47 a9 83 bd f0 df 13 3e
       0.50806296 -0.015804263 -0.064287715 0.14440894
0002b0 d6 90 6b be 12 2f 14 bd e2 c2 94 bd f5 61 16 3e
       -0.2300447 -0.036177702 -0.072637334 0.14685805
0002c0 bd b2 5b bd b2 e5 b6 3e de 35 de bd 17 49 1b 3f
       -0.053637255 0.3572212 -0.10850118 0.606584
0002d0 5e 01 40 3d 0f 72 3f be 10 d1 85 3c b1 c6 0a be
       0.046876304 -0.18695854 0.01633504 -0.13552357
0002e0 3a 43 a3 be e8 fe bb be 61 0e d6 3c 2b c3 86 3e
       -0.31887227 -0.36717916 0.026129903 0.26320776
0002f0 5c dd c6 be bd 0f e7 3e 96 7d bf bc 58 67 44 be
       -0.3884076 0.45129195 -0.023375314 -0.19180048
000300 dc 26 0b 3f 3b a9 8d bd 85 64 35 3d ae 19 3e 3c
       0.5435617 -0.06917044 0.044285316 0.011602802
000310 3c 53 9d be c2 7b a1 be 72 7d 86 3d cb 2b f4 3e
       -0.30727565 -0.31539732 0.065668955 0.4768966
000320 af 87 e0 3e d4 6a bb 3e a9 d7 6c 3d 6f 63 3a 3e
       0.43853518 0.3660494 0.057822857 0.18201993
000330 cc c9 c2 bd c8 51 85 be e8 57 f0 3e b8 a5 36 be
       -0.09511146 -0.26038957 0.46942067 -0.17836654
000340 d0 46 43 be 53 a5 18 bf be c6 35 3e 62 07 17 3e
       -0.19069982 -0.59627265 0.17751595 0.1474891
000350 67 c9 ca be 7d ef 84 3d 97 c6 29 3e 8e 98 1a be
       -0.39606783 0.06490991 0.16579662 -0.15097257
000360 a0 48 4c be 21 41 df bd 5d 5b e7 bc 36 9c b3 3e
       -0.19949579 -0.10901094 -0.028241808 0.35080117
000370 3e 6c bf 3e b4 0c f2 bd de 65 aa 3d 28 b7 a3 3e
       0.3738727 -0.11818829 0.08320211 0.31975675
000380 51 cd b3 3e b3 a3 9b bd b8 cd 41 3d 55 f8 88 3e
       0.3511758 -0.075995825 0.04731533 0.26751962
000390 56 5b 52 3e b4 a8 ac 3d 83 b1 57 3d 1d 94 a8 3e
       0.20542654 0.08430615 0.052659523 0.329255
0003a0 f7 47 25 3d de c1 1e bd c8 91 14 3f 65 f8 e2 bd
       0.040351834 -0.038759105 0.58034945 -0.11082534
0003b0 25 8d e5 3e 0d 8d 3d bf d9 56 0a 3e 16 78 a1 3d
       0.44834247 -0.7404335 0.13509692 0.07884233
0003c0 86 ba 5f bd e2 03 79 be 73 7f dc bd 34 3e bd bc
       -0.054621242 -0.24317887 -0.107664965 -0.02310095
0003d0 94 c5 8d be 5d ea 41 be c2 b4 2f 3e c8 de 5c 3e
       -0.27689803 -0.18937059 0.17158797 0.2156936
0003e0 50 19 11 be dc a4 a8 bd 80 2e 93 be eb 24 7d bd
       -0.14169812 -0.082345694 -0.28746414 -0.061802786
0003f0 e6 8a 90 3f 13 e6 98 3d 55 2a d4 be de 96 87 be
       1.1292388 0.07465758 -0.41438547 -0.2648229

lstm.bias_ih_l1 f4 [512]
000000 61 8c 77 bd 81 f8 35 bd 59 82 47 be 26 9f 02 be
       -0.06043661 -0.044426445 -0.19483317 -0.12756023
000010 72 28 20 be 74 64 99 bd cf 38 70 be 55 01 dd bd
       -0.15640429 -0.07489863 -0.23459171 -0.1079127
000020 22 1c 92 bd d4 7e 17 be 1f 4f 2d be ec e0 bf bc
       -0.07134272 -0.14794475 -0.16924714 -0.02342268
000030 d8 63 20 be 0a 17 2d be 77 3b 9d bd 82 a5 c0 bd
       -0.15663087 -0.1690332 -0.07677358 -0.09406568
000040 7a aa 85 bd ee e5 51 3c 7e 54 d6 bd 11 4b 9d bd
       -0.065266564 0.012811167 -0.10465334 -0.076803334
000050 19 fa 42 bd 8c 2e 79 be 63 ca 5d be af 45 56 be
       -0.047601793 -0.24334162 -0.21659236 -0.2092502
000060 73 01 15 be 6e ef 34 be fd 09 de bd 31 37 22 be
       -0.14551334 -0.1766946 -0.10841749 -0.15841366
000070 d7 9a 46 be a8 5b e5 3b db 98 7b be 6c be 42 be
       -0.19395004 0.0069994517 -0.24570028 -0.19017953
000080 bc e6 4e be 28 1c 6a be c0 2c 3c bd a7 94 56 be
       -0.20205206 -0.22862303 -0.045941114 -0.20955144
000090 59 87 27 be 19 91 cd bb ee 1c 60 be d4 24 b3 bd
       -0.16360225 -0.0062734005 -0.21886036 -0.08747259
0000a0 e0 a4 00 be 12 f6 e0 bd c5 e3 54 bd b4 33 29 be
       -0.12562895 -0.10984434 -0.05197503 -0.1652363
0000b0 90 f7 59 be 11 50 81 be f0 04 78 bd 01 bc f2 bd
       -0.21285844 -0.25256398 -0.060551584 -0.11852265
0000c0 e5 8a c6 bc 0a 90 0b be 9c 61 ab be 1a 98 0d be
       -0.024236152 -0.13629165 -0.33472908 -0.13827553
0000d0 3f 01 7a be e4 da 82 3c 92 b3 27 be 88 d5 7e be
       -0.24414538 0.015973516 -0.16377094 -0.24886143
0000e0 f3 24 41 bd 9e c6 0b be f1 94 38 be 78 5d 87 be
       -0.04715438 -0.13649985 -0.18025567 -0.26438498
0000f0 8a 88 a2 bd e8 69 d3 bd eb 39 d4 bd c8 bb 6e be
       -0.07936199 -0.103229344 -0.103626095 -0.2331382
000100 5f dd 1f be 22 ac 41 bd 63 90 1c bd 63 e5 bb bd
       -0.1561179 -0.0472833 -0.038223635 -0.091746114
000110 be c2 9a be c9 cd 46 bd e0 09 20 bd c9 11 17 3d
       -0.30226701 -0.048536096 -0.039071918 0.036882196
000120 13 2b 82 be 19 59 80 be 44 1e fa bd 25 c4 fc bd
       -0.25423488 -0.25067976 -0.12212804 -0.12342099
000130 2b 8c 26 be 40 db ba bd a4 84 cc bd 2d a6 6e be
       -0.16264407 -0.0912385 -0.09986237 -0.23305579
000140 a5 a0 05 be 04 6c 6f bd ad 3d 12 be 4a 50 5b be
       -0.13049562 -0.05845262 -0.1428134 -0.21417347
000150 51 05 2e be 1c 0a 31 bd f2 32 9f be 8e 62 ab bd
       -0.16994216 -0.04322253 -0.31093556 -0.08368407
000160 36 75 2f be bb db fe bd 5d d2 28 be 18 d9 3f bd
       -0.17134556 -0.12444254 -0.16486497 -0.046837896
000170 f6 38 4d be f6 23 13 bd aa 37 7c be 99 b6 14 be
       -0.2004126 -0.035922967 -0.24630609 -0.1452278
000180 37 a6 f2 bd 6f 09 56 be 17 46 53 be 9d a8 88 be
       -0.11848109 -0.20902036 -0.20632206 -0.26691142
000190 a0 fc 84 be 87 9a bf bd b2 df 11 be 5a e2 1b be
       -0.25973988 -0.093556456 -0.14245489 -0.15223065
0001a0 c0 6f b3 bc 55 b8 7a bd f8 1f d1 3d 6a 90 8b be
       -0.021903872 -0.06121095 0.10211176 -0.27258617
0001b0 74 96 18 be 8c 4f 1f 3e bf 72 22 be de 78 d1 bd
       -0.14901143 0.15557688 -0.15864085 -0.10228132
0001c0 8d d4 c6 bd de b1 50 be 29 4c 92 be 46 13 c7 bd
       -0.097085096 -0.20380351 -0.2857373 -0.09720473
0001d0 9a 7d 82 bd a2 d0 24 bd 17 90 95 be 0c 62 00 be
       -0.06371613 -0.04023803 -0.29211494 -0.12537402
0001e0 44 d1 8d be ea 4e 24 be 48 9c 64 be 2b 42 11 be
       -0.2769872 -0.16045728 -0.22325242 -0.14185397
0001f0 b0 12 56 3d 89 6b 58 bd 17 df f7 bd 5a 65 ab bd
       0.052263916 -0.05283693 -0.12103098 -0.08368941
000200 e3 4b 83 bd 5d cc 6a bd 69 88 02 be 56 48 64 be
       -0.064109586 -0.057323802 -0.12747349 -0.22293219
000210 19 da 36 bd 6d d3 ba 39 c5 cd f6 3c a4 e7 a4 bd
       -0.044641588 0.0003563421 0.030127415 -0.080519944
000220 96 50 74 bc 7c 5c 53 be ce 94 dc bc ff 61 90 bc
       -0.014911791 -0.20640749 -0.026926424 -0.017624853
000230 66 06 53 bd c7 f8 25 be 7a 01 9a bd b2 38 8a bd
       -0.051519774 -0.16208182 -0.07519813 -0.06749095
000240 1c d6 67 be 77 38 67 3d df df 18 3d b2 3f a7 3d
       -0.2264027 0.056450333 0.037322875 0.08166446
000250 22 e5 a9 bd 13 40 43 be 49 1d bc 3c 2c a1 2f be
       -0.08295657 -0.19067411 0.022963183 -0.17151326
000260 e3 07 10 be 76 18 0d be 48 a5 7e bd 2e 91 40 be
       -0.14065509 -0.13778862 -0.062169343 -0.18805382
000270 44 35 26 3c a0 17 b3 3c 0d 44 f2 bd 2b 5f 26 3c
       0.010144535 0.021861851 -0.11829386 0.010154526
000280 69 26 ea bd a6 9d c0 bd 92 1b 25 3d 50 37 b7 bd
       -0.114331074 -0.09405069 0.040309496 -0.08946097
000290 91 d1 18 be 5d 55 a5 3d 65 02 23 be 7f 8d 87 be
       -0.14923693 0.080729224 -0.15918882 -0.2647514
0002a0 fb 24 dd 3d e6 ed c4 3c c7 40 8e ba ed b1 f3 bd
       0.10798069 0.02403922 -0.0010853045 -0.11899171
0002b0 3f bc 91 be 3e 16 a9 bd 6d 2b 76 3c 62 b1 d1 bc
       -0.28463933 -0.082561955 0.015025002 -0.025597278
0002c0 c6 e6 ee 3b fa a8 6d bd 06 54 e3 bd 61 45 62 3c
       0.007290694 -0.058022477 -0.111000106 0.0138104865
0002d0 42 e8 c3 bd 05 b8 88 bc cd 60 ce bd 78 ec ef bd
       -0.09565784 -0.01668931 -0.10077057 -0.11715025
0002e0 fa e6 71 be 5a 1e 1b be 5c 92 2e be 1a bf d4 3c
       -0.23623267 -0.15148297 -0.17048019 0.02597003
0002f0 ca d6 b6 39 9a a8 85 bd f7 f9 23 be a8 84 19 be
       0.00034873775 -0.06526299 -0.16013323 -0.1499201
000300 a0 f6 4d bd 30 23 53 3d ca 89 c4 3d 85 b5 ee bc
       -0.050284028 0.05154723 0.09596594 -0.02913929
000310 b4 bb a2 bd 10 a7 48 3e 5e 9e ed bd 2a 7a ba 3d
       -0.07945958 0.1959498 -0.11602472 0.09105332
000320 c6 56 bd bd 9f 04 19 be d7 4b 93 bc f0 fe 6d 3c
       -0.09245066 -0.14943169 -0.0179805 0.014526114
000330 87 c9 fa bd 31 60 26 be 49 a2 04 be 84 41 8c bc
       -0.122454695 -0.16247632 -0.12952532 -0.017121084
000340 ce d5 e1 bd 25 57 3f 3e 7b 81 bf bb b5 a4 fb bb
       -0.11027108 0.18685587 -0.0058442927 -0.0076795467
000350 a8 23 d6 bd a5 02 5e bb 4e 72 72 bd bd 1b 1b 3c
       -0.1045602 -0.0033876088 -0.05919104 0.009467063
000360 16 21 4b be e3 d6 4f bd d9 8a e5 3c 15 a7 8c be
       -0.1983684 -0.05074204 0.02802031 -0.27471223
000370 66 2d 82 3c 56 17 8a 3d d3 20 3a be e3 2a 82 bc
       0.015890788 0.06742732 -0.18176584 -0.01588959
000380 2e 43 ce 3c b0 f1 a5 bd ab 7b 03 3a 96 72 5c bd
       0.025178518 -0.08102739 0.00050156814 -0.053820215
000390 8a d3 1d be 38 5c af bd 30 3f cc bc 3b 93 1b bd
       -0.15412727 -0.08562511 -0.024932474 -0.037982207
0003a0 89 13 90 bc 4d 24 ff 3c fe fd 90 bd 3d 66 15 be
       -0.01758744 0.03114524 -0.07079695 -0.14589782
0003b0 8c 01 be bb fa fc 06 3d 95 1b 92 bd 4a 0f 56 bd
       -0.0057985242 0.0329561 -0.07134167 -0.052260675
0003c0 31 4d a0 3a 45 77 f6 bd fe 05 00 be c2 b0 d7 3c
       0.0012230036 -0.120344676 -0.12502286 0.026329402
0003d0 39 59 1c 3d 59 d6 12 bd 95 45 09 3c dc 24 dc bd
       0.038171027 -0.03584895 0.008378406 -0.10749218
0003e0 d3 c9 0f be 54 87 85 bd 30 d7 ba bc c2 ef 75 bd
       -0.14041834 -0.065199524 -0.022807688 -0.060043104
0003f0 28 dc 20 3e d4 cb 83 bd 0e 63 1c bd b7 d2 72 be
       0.15708983 -0.064353615 -0.038180403 -0.23713194
