models/modello_lstm_20250513_2032.pth (torch, 833241 bytes, 10 tensors)

lstm.weight_ih_l0 f4 [512, 10]
00000000: 623a 303e 6621 173f 7511 e93e ef77 933e
00000010: 4330 debd 05da a4bc 50d3 6d3d 129c 793d
00000020: aae8 083e 5cba aa3d dce0 d73e 1324 e83e
00000030: 8acc ea3e 028c f23e 16e6 56bc d4d8 87bd
00000040: b43c dcbd e289 80bd fac2 4c3e de75 ff3b
00000050: 8a87 a83e 617a f03d 5f2c 843e 4053 3f3e
00000060: fc91 20be 2013 e53c a102 52bc 6eed e23b
00000070: e21b b43d cfa0 1a3e 197e 39bd e57e 60bb
00000080: 88a2 02bd 06b0 a53d c1fb 7bbd 3aeb 0e3d
00000090: 3160 f4bc b811 aabc 755e 703c 424e bfbd
000000a0: 9ed2 a03e 0bb4 94be 8c24 243d 7734 12be
000000b0: 025f 78bd f41c bc3d 52da 553d 5139 943d
000000c0: 4da2 e63d eb70 6bbb 0ec9 903e bc18 f83e
000000d0: 6267 db3e a3d2 aebd 7f9e 853d 0203 a13d
000000e0: 6a99 003c d0f8 f2bc 2c17 d5be 0d29 5bbe
000000f0: 6e8c 493e f224 ecbe a6a5 b8bc 10a9 8abe
00000100: cd6d 44bd da13 c53d 8104 553d 963e e13b
00000110: 4371 49bd 8ec2 3abc c7e8 bf3e 8c5f 07be
00000120: 04c5 873e ab4e 4cbd f543 63bd c265 eabc
00000130: 3a7b e4bd e58c 1ebe 76d0 f13d aaf5 e2bd
00000140: 5f8e 20bd 92a3 50be cd10 4dbe e631 00be
00000150: a2be 9dbd e9d8 eabc 0475 0c3d 25a5 d9bd
00000160: 4955 31be 1fc3 febd c9d8 19bc 5d2b d4bd
00000170: 0ed7 29be 2375 12bd ee98 ff3a c322 51bb
00000180: d6a1 43bd 3542 ecbd ee6a 693c 7c37 9b3b
00000190: dd1c af3e c4a0 f0bd 79b5 9e3e 4ec7 303e
000001a0: a7e4 9abd 6a81 093d 7b2e 04be a052 0b3c
000001b0: fa29 a7bc 429d 00bd fb7b 33bd cc1b 323d
000001c0: 8bef b83b 6400 513e 1f0f 923d bb22 0e3e
000001d0: 51ec ed3d 743a b53d 6107 4a3e 918f dc3d
000001e0: 13de 19bd ac33 963e ad44 0d3d 70db 67bd
000001f0: f06d ac3d 7882 a73c 1e9c a73d 3190 2fbd
00000200: 1a02 8abd 02a9 8f3d 222e be3b b1b0 b3bd
00000210: 749b f83d d5b7 0abd 57e3 36bd 73de 00be
00000220: 8b27 86bc 1999 62bd 7f9e a93d 8845 37bc
00000230: 7a95 d3be b09c d93d 33b8 e0be af87 88bd
00000240: a59e fe3b 37f5 60bd c314 943d 2e84 e2bc
00000250: 849e b5bd 163f 35bd 373c 90be 918e cc3e
00000260: 9939 6dbe 2230 db3d e675 523e c313 763e
00000270: 0613 d53e 83ad 643e 9d70 4e3e bc11 14be
00000280: 978f 663e 76ab 433e a7af 043f e68e ccbd
00000290: f4cd 813d 1790 37bc 4270 74bc e575 893c
000002a0: 2f31 45bc 00a4 24bd a3cd 0e3e 3d81 913e
000002b0: a4d7 693e df9d 913e 3596 763f aa1e 013f
000002c0: 9540 6f3f 07b7 6d3f d3fb 073f fc91 363f
000002d0: 0bd2 183b 4eb9 d33e c1d7 4c3e 7599 adbc
000002e0: ff80 463d 91df d5bd 9048 673d 3698 07bd
000002f0: 6409 213e 9689 b8bd 6a1c 223e f196 253f
00000300: 5c6e ea3e 9738 883d 0bc0 3e3e f019 083e
00000310: 9c22 293e 9c21 183e 44de 113e 7929 bd3d
00000320: 8b38 873e 3454 083f e9dd a83e ae4a 293f
00000330: 09a6 2e3d e115 563e ac5f 043e 2852 a83d
00000340: 061a 7c3e b18b 983e 4b2f 5c3f e474 903e
00000350: 85f3 0b3f 9a9a 8f3e 2f92 083f 46a0 843e
00000360: ad8f d33e 01db d73e 8aa3 013f 073f bb3e
00000370: 3439 6bbd fd28 47be dbdb 91bd 238a 34bf
00000380: 6b43 643d 3d34 a23c 90c3 eebc 9fed 9d3d
00000390: be1f 8e3e bbf4 1a3d eb1e 15bd a1c2 a63d
000003a0: 32f3 403c aa96 ecbd 4d62 ca3c e582 a23d
000003b0: 787e a03d d50b a43c 1ffc 723d 5383 d0bc
000003c0: 4e86 113d adfb c93c f112 6f3e 600f 1dbd
000003d0: 222c 593d 613d d3bd 3c0a 3ebd 4638 bdbd
000003e0: dec9 9e3d 30e6 efbd 6d42 1f3e 689c 293e
000003f0: a3c5 7e3e df5e 0f3e 042a e03c 94fe 973d
0.17209771 0.59035337 0.4552113 0.2880244 -0.10849049 -0.020123491 0.05806285 0.060939856
0.13370004 0.083363265 0.42163742 0.45340022 0.45859176 0.47372442 -0.01311638 -0.066331536
-0.10753766 -0.06276299 0.19996253 0.0077960333 0.32915908 0.11742092 0.25815102 0.18684101
-0.15680689 0.027963221 -0.01281801 0.0069252765 0.08794381 0.15100406 -0.04528627 -0.0034255323
-0.031893283 0.080902144 -0.061519388 0.0348923 -0.029831024 -0.020760402 0.014670958 -0.09341098
0.31410688 -0.29043612 0.040073916 -0.14277826 -0.06063748 0.0918521 0.05221016 0.07237495
0.11261425 -0.0035925459 0.28278393 0.4845637 0.42852312 -0.085362695 0.06524371 0.07861902
0.007849077 -0.029659659 -0.4161924 -0.21402378 0.19682476 -0.46121937 -0.022539925 -0.2708211
-0.047956277 0.09622927 0.05200625 0.006873916 -0.04918028 -0.0113989245 0.37482283 -0.13220042
0.26517498 -0.04987971 -0.05548473 -0.028612975 -0.11156316 -0.15483434 0.11807339 -0.11082013
-0.039198276 -0.20374897 -0.2002594 -0.12519035 -0.07702376 -0.028667884 0.034291282 -0.10627202
-0.1731769 -0.1243956 -0.0093900645 -0.103598334 -0.16585943 -0.03575624 0.0019500533 -0.0031911589
-0.04776176 -0.115360655 0.014246685 0.004736839 0.34201708 -0.117494136 0.30997828 0.17263529
-0.07563143 0.033570684 -0.12908356 0.008503586 -0.020405758 -0.031399973 -0.04381941 0.04348354
0.00564379 0.20410305 0.0713179 0.13880436 0.116173394 0.0884904 0.19729377 0.107695706
-0.037565302 0.29336298 0.034489322 -0.056605756 0.084194064 0.020447955 0.08184074 -0.04286212
-0.06738682 0.070146576 0.0058038393 -0.087739356 0.12139025 -0.033866722 -0.044650402 -0.12584858
-0.016376277 -0.055321787 0.08282184 -0.011186011 -0.4132498 0.10625589 -0.43890533 -0.066665046
0.0077703767 -0.054921355 0.072305225 -0.027650919 -0.08868125 -0.044249617 -0.2817094 0.3995252
-0.23166503 0.1070254 0.20552787 0.24030976 0.41616076 0.22331814 0.20160146 -0.1445989
0.22515713 0.19108376 0.51830524 -0.09988193 0.063381106 -0.011203787 -0.0149193425 0.01677985
-0.012035652 -0.040195465 0.13945632 0.28418913 0.22836167 0.2844076 0.9632295 0.50437415
0.9345792 0.928574 0.5311863 0.71316504 0.0023318555 0.41352314 0.20004179 -0.021191338
0.048462864 -0.104430325 0.056465685 -0.033104144 0.15726238 -0.090106174 0.15831152 0.64683443
0.45787323 0.06651419 0.18627946 0.13291144 0.16517109 0.14856571 0.14244944 0.09236426
0.26410326 0.53253484 0.32981804 0.6612958 0.042638812 0.20906784 0.12927121 0.08218795
0.24619302 0.29794076 0.86009663 0.2821418 0.54668456 0.2804764 0.5334806 0.2590353
0.41320553 0.42159274 0.50640166 0.36571524 -0.0574276 -0.1944923 -0.07122012 -0.7052328
0.055728357 0.0198003 -0.029145986 0.07711338 0.27758592 0.03783105 -0.03640644 0.08142591
0.011776732 -0.115521744 0.024705077 0.079351224 0.07836622 0.020025173 0.059322473 -0.025453245
0.035528474 0.024656141 0.2334707 -0.03834474 0.053020604 -0.103144415 -0.04639648 -0.09239249
0.07753347 -0.11713827 0.15552683 0.1656357 0.2488008 0.14001034 0.027363785 0.07421604

lstm.weight_hh_l0 f4 [512, 128]
00000000: 7186 10bd 4832 d53d 9a36 fc3b 0352 6b3a
00000010: 8f41 c53d 126d 5a3d d5cf 0dbd 023b d63c
00000020: b93f 99bd dfc2 97bb 2d41 8dbd 0255 bf3c
00000030: bcc7 0abd 52d0 83bd 9a41 c03b 4a11 64bd
00000040: a581 c23c efb6 fd3d b1ad 2fbd bd86 bb3c
00000050: 0a02 46bc 4c1b 553d f1be ad3c 458d 3a3d
00000060: 277e 383d df96 3cbd 9402 183e 3823 00bd
00000070: f025 ac3d 7ef3 543b 307e 5d3d 5674 683d
00000080: 0125 dfbd 666c 41bd 2c93 11bc fa73 213a
00000090: be68 8c3d 00e6 9dbc 474b d33d 23bb 00bd
000000a0: 1c1c f5bc 0953 e1bd 1396 47bd 314b c33d
000000b0: b444 dd3d 6c9c 1bbd 30b8 103e 6e96 52bc
000000c0: 8ba4 26bc 0f29 cfbc 7ed9 a7bc 3228 bbbb
000000d0: 0e5c 693c 2d96 bbbd a3c5 4d3d 0a39 55bd
000000e0: 0d23 bcbd a38f 9039 f93f 00be 5743 c1bc
000000f0: 55da 55bc 208e a8bd f2d8 6f3c 769d 0d3c
00000100: 1121 a33d c8f9 d03d d1a6 803d 49de 64bd
00000110: d10c 883c 91a3 e13d 2d89 13bd 91da 63bd
00000120: 47dc 91bc dc37 6cbd 4a0e 8bbd e59d 11be
00000130: 62c8 963d 18df 81bc e2d3 b5bd f632 a2bd
00000140: 5e04 ca3b 07f0 98bd f28f 843c a146 ba3c
00000150: 4c26 e9ba 74e4 753d 6fbf 2e3d 2fbc 99bd
00000160: ecc3 eebb 432c 533b e365 c43c dd69 b13b
00000170: d756 853d b75b bbbd 3849 073d fd64 27bd
00000180: 379b f13c 3b32 b1bd 6000 77bd 21fe 6dbd
00000190: e018 b8bd 3489 c7bd 294c a13d 10fe 933d
000001a0: db88 cebd 6e43 a83d 42c6 9bbd a6cb 90bd
000001b0: cb11 c0bd 066b 22bd db5a 103d 29c3 5d3d
000001c0: 94b5 99bc 32dd 193d 5818 d73b c79b ac3d
000001d0: 644f 853c 0c5d babd 854e d7bc cdd2 023c
000001e0: d3b2 01bc 769a 4fbd 1b70 01be 7264 5f3c
000001f0: b1fa 383b f953 923d 545d 55bd 915e 973d
00000200: 4538 8b3b ad69 403c a194 fbbb c583 fa3c
00000210: 13a7 3ebd 6d45 b43d 2235 52bd c5db c0bd
00000220: 1bdf 993d b3d6 f33d 951b 88bc 0580 96bc
00000230: 2ab8 cc3c 9195 663d 72c4 173d f220 303e
00000240: a9fd 863d c7cf 02bd 5eed 203d c150 b03d
00000250: 6ea1 4abc e791 65bd e7a4 d4bb 3404 06bb
00000260: bc6b 143d 71dc 1abd 1c87 083e d569 0bbd
00000270: 47f6 943d f633 2abe 70c2 6d3d e4d8 8e3d
00000280: ecc4 2c3d 6f54 e2bc bd23 7cbc 4bca f63c
00000290: 8bc4 553d f8e2 26bd 895d 6ebd d196 82bd
000002a0: 1f43 8d3d 3eea 603a 572b 1abe 7f00 57bc
000002b0: b9c4 363d 4d74 9cbd f139 9ebc 3528 56bd
000002c0: 7d35 093d 5080 4a3c 20fa a03d 8b23 d9bd
000002d0: da2a 22bc aba9 b23d 1b8c 73bd e98a 173d
000002e0: f71a 703c 5d3a 89bd 606d 3f3c b9b4 7f3d
000002f0: 725b 5d3d 331e 13be 1e64 2fbd d6f3 d13d
00000300: fb6c 443c b236 cabd 2dd3 a33c 3489 25be
00000310: f305 5bbd 816c b6bc 8de9 273d 68e1 a3bd
00000320: 1b76 973d baec 62bc 3e06 93bc 9c15 27be
00000330: 932c 1e3d b0b2 f2bd 4ca5 7e3d 53cb 053e
00000340: b274 aa3c 8475 ec3c e4f6 d43d 78d3 38bd
00000350: 500c 8c3c 2219 283d 162b bfbb eaf3 3abd
00000360: 5b38 683d 2ef7 71bd f986 9a3d e408 87bc
00000370: 62a3 223d c978 0b3d 99d0 d63c 5199 743d
00000380: f3c3 67bc cf91 c03c 2770 363d 1e88 b53d
00000390: 9cfc 0a3e dc0b 37bd 5e26 86bd c5d4 d6bc
000003a0: da11 303d 52a3 313d e961 4dbd 7517 1e3a
000003b0: 60d9 5ebd ba30 95bc ee6d 973c 5e48 88bd
000003c0: 68ea 073d e3b8 a93d 3792 3c3d 92d2 9c3d
000003d0: 112f 47bd daba 07be 602d 8d3d 1159 9d3d
000003e0: 13bf 62bd ac93 5e3d 272c a63d 12e6 2c3d
000003f0: 5f05 193b 9bf2 573d 521c 983c 952e d23d
-0.035284463 0.10409981 0.0076969387 0.0008976759 0.09631645 0.053326674 -0.034622032 0.026151184
-0.07482857 -0.0046313847 -0.06897197 0.023355965 -0.033881888 -0.06436218 0.0058671953 -0.05568055
0.02374346 0.123884074 -0.042890254 0.022891397 -0.012085447 0.052027985 0.021209212 0.04554488
0.045042183 -0.04604232 0.14844733 -0.031283587 0.084056735 0.0032493765 0.05407542 0.05675157
-0.1089573 -0.047222517 -0.008885186 0.00061589445 0.068559155 -0.019274712 0.103170924 -0.031428467
-0.02992063 -0.11002166 -0.048727106 0.09535826 0.1080412 -0.037990972 0.14132762 -0.012853248
-0.010171066 -0.025288133 -0.02048945 -0.0057115788 0.014243139 -0.09159503 0.05023731 -0.05205635
-0.09186373 0.00027572838 -0.12524404 -0.02359168 -0.013052543 -0.08230233 0.014639126 0.008643499
0.07965291 0.10203892 0.06281818 -0.05587605 0.016607674 0.11017526 -0.036019493 -0.055628363
-0.017805232 -0.05767046 -0.06789835 -0.14220388 0.07362439 -0.01585345 -0.08878304 -0.07919876
0.0061650714 -0.074676566 0.01618192 0.022738757 -0.0017787903 0.060032323 0.042663034 -0.07506596
-0.0072865393 0.0032222427 0.023974365 0.005414231 0.06510704 -0.091483526 0.03302881 -0.040867794
0.029492958 -0.08652159 -0.060303092 -0.058103684 -0.089891195 -0.09742966 0.078758545 0.07226193
-0.10084697 0.08215986 -0.07606174 -0.07070093 -0.09378394 -0.039652847 0.035242897 0.054141197
-0.018763341 0.037564464 0.0065641813 0.0842815 0.016273208 -0.090997785 -0.026282558 0.007984829
-0.00791617 -0.050684415 -0.12640421 0.013634788 0.0028225596 0.07144923 -0.052090958 0.07391084
0.004248651 0.011743945 -0.00767763 0.03058041 -0.046546053 0.088023044 -0.051320203 -0.09416918
0.07513257 0.11906185 -0.016614715 -0.018371591 0.02499016 0.05629498 0.03705258 0.17200068
0.065913506 -0.031936433 0.03928887 0.086091526 -0.012367589 -0.056047346 -0.0064893845 -0.0020449283
0.036235556 -0.037807886 0.1333279 -0.034036476 0.07273536 -0.16621384 0.05804676 0.06974962
0.042179987 -0.027628152 -0.01538938 0.030125758 0.05218939 -0.040743798 -0.05819467 -0.06376422
0.06897568 0.00085798267 -0.15055595 -0.013122677 0.044621203 -0.0763937 -0.019314738 -0.05228444
0.033498276 0.012359694 0.078602076 -0.106024824 -0.009897912 0.08723768 -0.059459787 0.03699771
0.014654866 -0.06700585 0.011683792 0.06242821 0.054042287 -0.14366989 -0.04282009 0.10251586
0.011988874 -0.098737136 0.019998157 -0.1616562 -0.05347247 -0.022268536 0.040994216 -0.08001977
0.07395574 -0.013850385 -0.017947312 -0.16316837 0.038616728 -0.11850488 0.062169358 0.13065843
0.020807598 0.02886463 0.10398653 -0.045123547 0.017095715 0.041039594 -0.0058339937 -0.04564277
0.05669437 -0.05907362 0.07545275 -0.016483732 0.039706595 0.034050737 0.026222514 0.059716526
-0.014145839 0.023507027 0.04454055 0.08863853 0.13572925 -0.044689044 -0.06550287 -0.026224503
0.042985775 0.043368645 -0.050142203 0.0006030717 -0.054406524 -0.018211711 0.018485036 -0.06654428
0.03318253 0.082872175 0.04603788 0.076573506 -0.04862887 -0.13254872 0.0689342 0.07683004
-0.055358004 0.05434005 0.0811389 0.0422116 0.0023349149 0.0527216 0.018568192 0.10262791

lstm.bias_ih_l0 f4 [512]
00000000: 4cb9 2e3d 5ef6 f83b 38b2 86bd cf64 40bd
00000010: 8b0d 813d 4320 48bd c72f 6a3d 8317 10be
00000020: ca26 e03c 09d3 dabd fbdb c7bd 4035 9ebd
00000030: 6101 6ebd 9128 fcbc 12d3 043e eaeb bd3e
00000040: 8131 d43d 369c 883f 6963 73bd 190e 373e
00000050: 9b67 853d c00a fe3e 6e07 d6bc efe9 463d
00000060: 3e45 b1bd 0b40 863d 1eaa 093e 06ca c63d
00000070: ea35 b6bb 2eca 353d d0b1 903d aeaa fa3d
00000080: 8851 2f39 0420 153e f285 9b3a 59ad 31bd
00000090: 8267 d93c 344f f83e 02bd 18bd b341 b5bd
000000a0: 0a43 5abd b7ed 4cbd adb6 403e 4adc babd
000000b0: 53f2 cb3d 3c3b 173e 9b01 853d d2cd 7e3e
000000c0: b09b 273f 42cc 123f 93eb c2bd 6462 30be
000000d0: 4fd5 673f 818e e2bc b2ac eb3d 68b6 6e3d
000000e0: 55ba f23d 2874 ca3d 86fa 5c3d 7137 2f3e
000000f0: e1f9 953e abab c13d 5837 98bd 9fa1 123e
00000100: cf47 7dbd 87b3 32bc b9e2 8e3d 3483 783d
00000110: a390 3ebd a88b cb3d aaeb 3d3e cc05 713d
00000120: b7e3 a63d 9633 243d c21f a23d d8fc cf3d
00000130: f86a 59bd f9a0 ed3e 4669 a5bc 2c4e 9c3e
00000140: 6b25 a4bd bd5f caba 49cf c8bd ecd2 1abd
00000150: f614 f23d ea4c 9d3c c01d 87bd 8b65 9a3c
00000160: ad57 823d 789c f03c 3df5 89bd 14f4 0e3d
00000170: eac5 993c 1004 e83d b1f4 9bbc a53c 8f3d
00000180: b63d e23d 9d8d 563d ac00 d23d 2bc3 663c
00000190: b0dc b53d a0db 08bd 4663 063e 34eb d73e
000001a0: 232f 093e a570 a13e 2b8b 64bd f6aa 043d
000001b0: d6db 8ebd 61fd fdbc d11d f33d 8698 9c3d
000001c0: 50ef e9bc 4e23 4a3e 6622 3ebd c72e 19bd
000001d0: ac9a 623e 7281 a83e 068a 2fbc 2871 283d
000001e0: 4f08 13bd 000f 20bd 4989 113e ca77 0c3f
000001f0: 97ba ed3e 0440 f53d 8bf7 16bb 98c2 14bd
00000200: 0259 08be 9137 dabd 7b7f 45bd 520a 403c
00000210: 0160 273c 8083 2d3e 0ee6 a3bd 32d2 eabd
00000220: dd96 723c ec30 213b d951 09be 4478 da3c
00000230: cae5 a6bd f9ac 013d b76d 77bd 4440 a9bc
00000240: d304 48bd 3e6c c0be b9c0 dd3c 2f51 62bd
00000250: 5215 53bd c372 a8be fc05 aa3c 796c 0cbc
00000260: 3eae a0bd 90db 6b3d 5b83 aa3d 6dec 463d
00000270: 7ff9 c13c cf84 60bd b5a4 3dbd 94ba 47be
00000280: 80f1 45bc 6c74 9fbd 967d 85bd 0520 b5bc
00000290: 1601 0ebe e370 52be d668 29bd a5a6 bbbd
000002a0: 45b0 9fbd 761d a9bd 62e6 50be 6d11 fabd
000002b0: 71e6 e1bc c071 23bc e668 babd 06ef e0bd
000002c0: c1f7 a9be 3be7 d9be 9e9e 10be f2fc 11be
000002d0: f7bd 5bbe b729 3ebd fd3d b7bd 6abe e5bd
000002e0: 8d4d 88bc 6817 103e b289 c6bd 7596 aabd
000002f0: cd5d 11be 8743 ebbd 8a9a 15be d080 b7ba
00000300: 61a7 54bc f6f1 293e 58f0 a4bc abfe 7bbc
00000310: 5c96 b1bd 9cdc 30bd 9bf1 d3bc 7e1a c1bd
00000320: b1dd e33d 4473 0d3d fb8b afbd 5a87 8d3d
00000330: 77d2 2a3c 846b 8fbe f4bb 0a3d d4a5 41be
00000340: 5209 c0bc 6a4b ef3c 4414 71bd a4ab 4bbd
00000350: 0e27 20be c5e0 2c3c 1c1f 8fbd 8c22 4cbd
00000360: e9ee e3bd 1e7b 623d ade5 50bd bf5a 51be
00000370: be89 99bd 3377 0cbd 5dda ccbc 9675 a6bd
00000380: 01c1 78bc acf6 a4bd c284 b9bd b452 0a3d
00000390: 2ccb 803d 4e50 b53d 8843 b3bd 1f9a 8abe
000003a0: 6d66 83bd f127 973d 78b4 3dbd c90a 033c
000003b0: d115 71b9 9976 853d fe79 78be d0f7 bcbc
000003c0: 642e 043d 18f0 33be 6efe 96bd fc75 f83c
000003d0: fca1 5bbe fa75 73be ef32 55bd 528a 933d
000003e0: b094 ad3d 8318 96bd 69ee 9cbd 86ce 11be
000003f0: eb53 abbe f8d4 23bc d964 7dbd 42c3 9fbd
0.04265718 0.0075977286 -0.06576961 -0.04697114 0.06301411 -0.048858892 0.05717447 -0.14071469
0.027362246 -0.10684783 -0.09758755 -0.077250004 -0.058106784 -0.030781062 0.12971142 0.3709405
0.103610046 1.0672672 -0.059420977 0.17876472 0.06513902 0.49617577 -0.02612659 0.04856294
-0.08655785 0.06555184 0.13443801 0.09706502 -0.0055606263 0.044382267 0.07065165 0.12239586
0.00016719673 0.14562994 0.001186548 -0.043378208 0.026538614 0.48497927 -0.037289627 -0.08850422
-0.05328659 -0.05003139 0.18819685 -0.09124048 0.09958329 0.1476869 0.06494447 0.24883202
0.65471935 0.5734292 -0.095175885 -0.17225033 0.9055986 -0.027655842 0.115075484 0.058279425
0.11851946 0.09885436 0.053949855 0.17110993 0.29292205 0.09456571 -0.07432431 0.14319466
-0.06183606 -0.0109070605 0.06976838 0.060672 -0.046524655 0.09938747 0.1854693 0.05884342
0.08148902 0.04008826 0.079162136 0.10155648 -0.05308053 0.46411875 -0.0201918 0.3052839
-0.080149494 -0.0015439909 -0.098051615 -0.037798807 0.11820404 0.019201715 -0.06597471 0.018847248
0.06364379 0.029371485 -0.067362286 0.03490074 0.01877113 0.113289 -0.019037576 0.06993989
0.11046927 0.052381147 0.102540344 0.014084618 0.088799834 -0.033412576 0.13123807 0.42171633
0.13396887 0.31531253 -0.055796783 0.032389604 -0.06975524 -0.03100461 0.118709214 0.07646279
-0.028556496 0.1974003 -0.046419524 -0.037398126 0.22129315 0.3291126 -0.01071406 0.04112354
-0.035896596 -0.039076805 0.14212526 0.54870284 0.4643142 0.11975101 -0.002303573 -0.03631839
-0.13315204 -0.1065513 -0.048217278 0.011721211 0.01021576 0.16944695 -0.08002864 -0.11465873
0.014806476 0.002459581 -0.13410129 0.026668675 -0.081492975 0.0316591 -0.060407367 -0.020660527
-0.048832726 -0.37582582 0.027069436 -0.055253204 -0.051534005 -0.32900056 0.020754807 -0.008570784
-0.07845734 0.057582438 0.08325835 0.048565317 0.02367854 -0.054814156 -0.046299655 -0.19504768
-0.012081504 -0.077858776 -0.06518094 -0.022109995 -0.13867602 -0.20550875 -0.041359745 -0.09162644
-0.077972926 -0.08257572 -0.20400384 -0.12210355 -0.027575703 -0.009975851 -0.09102039 -0.1098309
-0.33196834 -0.42559227 -0.14123008 -0.14256647 -0.21459185 -0.0464265 -0.0894737 -0.11217959
-0.016638542 0.14071429 -0.09694232 -0.08329479 -0.14195938 -0.11487489 -0.14609733 -0.0014000181
-0.012979359 0.16596207 -0.020134136 -0.015380542 -0.08671257 -0.04317914 -0.025872042 -0.09428881
0.11126269 0.034533754 -0.08571621 0.06910582 0.010426155 -0.28011715 0.033870652 -0.18910915
-0.023441944 0.029210765 -0.058857217 -0.049724236 -0.15639898 0.010551636 -0.069883555 -0.049837634
-0.11129553 0.055293195 -0.051000286 -0.20444773 -0.07496975 -0.034293365 -0.025006467 -0.081278965
-0.0151827345 -0.080548614 -0.09058525 0.033770278 0.06288752 0.088532075 -0.08753115 -0.2707071
-0.064160205 0.07380665 -0.046314687 0.007998177 -0.00022991678 0.06516761 -0.24265286 -0.023067385
0.032270804 -0.17572057 -0.07372747 0.030329697 -0.21448511 -0.23775473 -0.052050527 0.07204117
0.084756255 -0.07328894 -0.07662661 -0.14238939 -0.33462462 -0.009999506 -0.061863754 -0.07800914

lstm.bias_hh_l0 f4 [512]
00000000: 7295 04bd 92c6 2fbd f8ae e3bd f74d 6f3c
00000010: 65a2 b7bd 5d29 50bd 6591 87bd 801f a8bd
00000020: cbd4 89bd 82b7 fb3b b4a5 aebd 7155 5dbd
00000030: 4ec7 acbb 0588 9e3d e685 cabc 21ea ae3e
00000040: 26af 17bd 3fb0 883f 6dd7 d8bc a5c3 9d3d
00000050: a1ff 113e 53c2 e23e 0a1c 193d 5e8e fa39
00000060: a460 afbc f259 1d3c bcb4 4c3d acb2 ca3d
00000070: ab34 253d 6cf9 e7ba 10c5 003d 8a91 233d
00000080: 9e79 173d 9640 4f3e 5b30 ec3d c2a9 873c
00000090: ec56 aebd faf1 073f 84b6 c5bc b666 95bc
000000a0: 4e7d 7cbc 8cf3 aebd 30ca 5d3e 0141 99bd
000000b0: e228 86bd 8f30 013e 9b65 fa3c 403f 323e
000000c0: 6bf4 143f b556 113f 051b 47bb c148 80bc
000000d0: 756b 523f c981 b9bd 2fe4 bb3b aa97 d13d
000000e0: 1e6c 663d e08e 363e d88e e0bc 69cb 133e
000000f0: ac04 953e 5482 5c3e cb06 173d 27e8 113e
00000100: 4af9 28bc c437 1f3d 45a3 b63c 353f 1c3e
00000110: 5c52 50bc 8e19 b23d 7e42 c23d 04d0 c63c
00000120: d575 ae3d 74f9 b33b 8a4b 73bd ca53 8e3c
00000130: 3d74 eebd 9b92 d23e 1ae4 86bd 602a 5c3e
00000140: 9b13 80ba 7e44 3d3c 6c43 d7bc 705b dfbc
00000150: d016 4c3d 56cd 933d eb72 61bd 3fbe 49bd
00000160: 52bf 3c3d 81e3 393d 6156 013d f318 ee3a
00000170: 1efa ac3d 06a6 08bd 4e97 86bd db89 6bbd
00000180: 765b 3b3e 1192 ed3d 446e b6ba dcc3 00bd
00000190: d58b 023e 0207 77bc 0c34 d23d 59d1 ad3e
000001a0: 876d b03d 3efe 303e 3c64 973d 99e6 3dbd
000001b0: 3bee e9bb 947a 31bc b2d1 a33d e853 e33c
000001c0: 1df9 413c 4570 f23d 3868 893d 2574 dabc
000001d0: 28e5 2f3e ebff a73e 5c07 0ebe 9728 8cbc
000001e0: 0211 e03d 0a89 15bd ecbd 083e 4a63 f03e
000001f0: 5a0d 0f3f 7ff6 9d3d 66ed 0abe 909d 8b3c
00000200: bad4 bdbd 04b0 233b 0da7 10be d6c1 66bd
00000210: 24fd 55bd 8cc9 be3d d586 443b 8be6 cbbd
00000220: 52d0 b8bd 31fa d9bd 1170 e3bd 7107 b4bc
00000230: bf99 57be 111d 373c d69f ea3c 4674 07bc
00000240: ae46 39bd cfc6 8dbe 8b96 67bd 4069 27be
00000250: 4f88 04be 78ef 66be 739f dabd 724f f43c
00000260: 6f5b c8bc d253 26bd 9ea0 cfbc b918 293d
00000270: 0acf 503d 603a 16bd cd89 f0bd 2388 50bd
00000280: 2a9f 84bc aa64 2fbe db72 e7bd 2367 a3bb
00000290: 8476 56bd 076f 99bd 1f46 b9bc 7f2a 91bc
000002a0: 430b 22be 752b dabd 7ced 45be 2a11 bebd
000002b0: 2f5d a2bd 2250 873d 92d0 08be 1a84 9fbd
000002c0: b32d bfbe 9f5a e3be c479 0c3a 96ef acbc
000002d0: 17a8 5dbe c9f3 eabc b377 7ebd 4cfc 87bb
000002e0: 7414 003d a127 013e 4106 5dbd 421b 19be
000002f0: 0834 05be 0cdb b9bd 0a0c cebd 8ab5 3cbd
00000300: baa7 8a3d 44db 553e 5c3d 0abe 80cb 9d3b
00000310: e2db c2bd d97a 8cbd 8bf3 6c3c ae1c 11be
00000320: 845b 753d 62fd ceba 600c 37bb 1f35 293c
00000330: a08e 5fbd ffc8 8fbe 0561 463b eda3 58be
00000340: f2f3 2cbd 4890 e9bc 77fb 1abe 0d9c 44bd
00000350: 2851 86bd 0e6d 6b3b a8dc e8bd be04 c0bd
00000360: 06f9 1c3d a2ba 283d 384c 39bd fb0e 5ebe
00000370: 075f eabb 76c7 14bd ba41 ce3c f683 263d
00000380: 1fa8 c6bc a27e a6bc aab0 3fbc 6173 f0bc
00000390: 0e64 ce3c 7cca 583a 815b 43be dc3c a3be
000003a0: 603f c8bd 7e29 9a3c 41f7 7cbd 947b e3bb
000003b0: c474 e7bc 6e2c c1bc 5ecf 14be 3f1b 0dbd
000003c0: bc58 223d e7c8 60be b480 063d 3c2e a23d
000003d0: 2c21 bebd 94ab bdbd 2394 a4bc 7d46 99bb
000003e0: 4e3d ba3d ab7f bdbd 58c5 d6bc 7f4e 63be
000003f0: e07c d4be 1c83 5dbd 0763 39bd d356 67bd
-0.032369085 -0.04291398 -0.11117357 0.014605991 -0.08966521 -0.050820697 -0.06619529 -0.08209133
-0.0673004 0.007681788 -0.08527699 -0.05403656 -0.0052727824 0.077407874 -0.02472205 0.34163
-0.03703227 1.0678786 -0.02646991 0.07703332 0.14257671 0.44288883 0.037380256 0.00047789788
-0.021408387 0.009603964 0.04997705 0.0989736 0.04033343 -0.0017698235 0.031437933 0.03993372
0.036981218 0.20239481 0.115326606 0.016560439 -0.08512673 0.531036 -0.024134882 -0.018237453
-0.015410734 -0.08542547 0.2165916 -0.07483102 -0.065507665 0.1261618 0.030566027 0.1740694
0.5818545 0.5677293 -0.0030381095 -0.015659692 0.82195216 -0.09057958 0.0057339887 0.10234006
0.056255452 0.1782794 -0.027411863 0.14433064 0.29105127 0.21534091 0.036871713 0.14248715
-0.010313341 0.03887154 0.02229465 0.15258487 -0.0127149485 0.086962804 0.09485339 0.024269111
0.085185684 0.0054923836 -0.05939821 0.017373938 -0.116432644 0.41127476 -0.06586476 0.2150054
-0.0009771468 0.011551974 -0.026277266 -0.02726528 0.049826443 0.07216899 -0.055041235 -0.0492537
0.046080895 0.04538298 0.031576518 0.0018165394 0.084461436 -0.033361457 -0.06571828 -0.057504516
0.18296608 0.116001256 -0.001391836 -0.031436786 0.12748654 -0.015077354 0.102638334 0.33948782
0.08614641 0.17284486 0.07392165 -0.046362493 -0.007138995 -0.010832448 0.079989806 0.02774997
0.011839178 0.1183782 0.06709331 -0.02666671 0.1717726 0.32812437 -0.13869995 -0.017109198
0.10940744 -0.036507644 0.133537 0.46950752 0.5587975 0.07713031 -0.13567123 0.017042905
-0.0926909 0.002497674 -0.14126225 -0.0563372 -0.052243367 0.09315786 0.0029987593 -0.09956082
-0.09024109 -0.10643423 -0.11105359 -0.021976205 -0.21054743 0.011176364 0.028640669 -0.008267468
-0.04523342 -0.2769074 -0.056540053 -0.16348743 -0.12942623 -0.22552288 -0.10674944 0.029823039
-0.024457661 -0.04060728 -0.025345143 0.041283343 0.050978698 -0.036676764 -0.117450334 -0.05091108
-0.016189177 -0.17128244 -0.11301204 -0.00498666 -0.05235912 -0.0749188 -0.022616444 -0.017720459
-0.15824609 -0.1065282 -0.19328874 -0.092806175 -0.079279296 0.06607081 -0.13360813 -0.07788868
-0.37339553 -0.44405076 0.00053587207 -0.021110337 -0.21646152 -0.028680699 -0.062125873 -0.004149949
0.031269506 0.12612773 -0.053961042 -0.14951804 -0.1300813 -0.09074983 -0.1006089 -0.046071567
0.067702726 0.20884424 -0.13499969 0.004815519 -0.095145956 -0.06859369 0.014462362 -0.14171097
0.05990173 -0.0015792067 -0.002793096 0.010327606 -0.054579377 -0.28083035 0.003027023 -0.21156283
-0.042224832 -0.028511181 -0.15134989 -0.048000384 -0.06558448 0.0035923156 -0.11370212 -0.093759045
0.038323425 0.041193612 -0.045238703 -0.21685402 -0.0071524414 -0.036323033 0.025177825 0.04065319
-0.024250088 -0.020324055 -0.011699835 -0.029351892 0.025194194 0.00082699186 -0.19077875 -0.3188237
-0.09777713 0.018818613 -0.061759237 -0.006942222 -0.02825392 -0.023580756 -0.1453223 -0.034449812
0.039635405 -0.21951638 0.032837585 0.07918975 -0.09283671 -0.092612416 -0.020090168 -0.0046775923
0.09093724 -0.09252866 -0.026217148 -0.22197913 -0.41501522 -0.054080114 -0.045260455 -0.056479286

lstm.weight_ih_l1 f4 [512, 128]
00000000: 9eaf 393e 2f45 d8bd 879d b23d e66e 29be
00000010: 7de0 0abe e4bf bd3d 7e43 b13d b490 b03d
00000020: 9954 173d 404d 09be 722a 843e ea23 8e3e
00000030: 577b c8bd 0e5a 7b3e 6908 233d f796 863e
00000040: 7658 953c f428 2bbd 9f00 773e 97ac 97be
00000050: 561c e0bd 42ff 6ebd 465d a63d d781 29be
00000060: 4cc0 f2bc 013a bb3c 6cbd bcbe 07c4 1abe
00000070: 165d 823e f3fd 8e3d 2015 00be 2bf4 4bbe
00000080: e4eb 7abe 7ac5 84be 1303 a7bd a71f aabd
00000090: 61fd e8bd 2f53 9dbe 4a8a 22bd 7ec0 66bd
000000a0: c0c0 163c 1aff 5b3e dd0e a23e 5dc5 533e
000000b0: b190 38be d2ab 5f3c c47c 40be 40a0 be3e
000000c0: cd99 e3bd 961f 753e e181 c03d 7c5b 023c
000000d0: 877a 543e 82a4 f7bd 8317 d73d 136d a63e
000000e0: 8ed8 60be 8c70 803e d583 ce3d 54a6 80be
000000f0: 3eb8 7c3e 7ada f83c 66e6 fcbd 7237 31be
00000100: 879f 983d 7094 863d 553d 623e 97f7 c53e
00000110: 3949 863d 9fca f9bb cba8 9cbe 8029 6f3e
00000120: 7291 533e d5d9 993c 5e08 d3bc 94e9 b03d
00000130: 11c4 f1bc 9c0f 443e abcc dbbc 0261 033e
00000140: fc98 f33d da70 20bd 3d55 95be 90a3 893d
00000150: b476 f8bd c33a b2be 54b6 883d bf4d 91be
00000160: 0ea7 d6bd edc9 a9bd cfbb 01be ef93 84be
00000170: 1de9 03be 389d 883e b8eb 0cbd 0b99 243d
00000180: f327 c83e 1577 823d 4d3a b0bc 1f28 4d3d
00000190: 8de9 a63d f131 f0bb 9b5e b8be ce08 023e
000001a0: 4851 3a3e de6c 74be 7cc8 02be af71 e53d
000001b0: c2db 88bd b863 1f3d 6d7e 86bd c241 ebbd
000001c0: 3b25 78bc 0df2 8b3c e910 ba3d 5474 b2ba
000001d0: a0a2 9f3e 235d 6e3e dca0 663d 9ff8 dbbc
000001e0: db09 d6bd a01d 153e fa73 753e 6cc2 6ebe
000001f0: a613 5abd 0a30 7ebe e29b fa3d c562 e73c
00000200: 3768 fdbc 8e31 93bd 72ce 2abc cdb3 debd
00000210: 19b0 563d 0b8a 233c 917b 82bd 3fc4 37bd
00000220: b242 0a3e 46ea 943d 57a5 723d ed3a f43d
00000230: ecae da3d 550a 3abc 8d97 f7bc 22ab e6bd
00000240: 5de2 2e3d 9121 083e 1d45 88bd 5a14 6bbb
00000250: 77df afbb 7a5e b9bc b0f9 f93d 944b 893c
00000260: 3ab3 2e3c c031 6f3d 6a57 20bd a2ea 8fbc
00000270: fa43 e8bd 568b dcbd f57d db3c 5261 403d
00000280: 4f5c 853d 0179 e83b f494 bc3c a872 acbd
00000290: 7d3d 23bd 2fa1 143d 97d6 a53d 174e f33c
000002a0: 1e45 6dbd 9fb6 a7b9 d23a 763c 450e d33d
000002b0: dc3a 733d ae28 953d 11eb 21bd a969 8d3d
000002c0: 0aed 2d3e 3434 f13c f60a adbc 2d54 2dbd
000002d0: 48b9 163d 3a0e 25bd 7143 26b9 8a70 0ebd
000002e0: cfce ba3d 0c3d 19bc 509d 86bd 5178 afbc
000002f0: 9e4c 063d a039 2bbc 805d e93c 8a40 103d
00000300: cd42 8c3d d8db 17bd 3fdd f33d 5190 acbd
00000310: 9d90 ce3c 3646 7c3c 011b a2ba a825 0ebd
00000320: 42b1 093d 233f 48bd 6f96 983d 3859 ba3c
00000330: 810c 2dbd 6f43 793d 97cd 183d 1579 13be
00000340: d811 dbbc 1cd2 fd3d 5cab 343d fa0f 6b3b
00000350: 6a8d 263d 7ef3 39bd 561a 41bd 32fb 613c
00000360: 3e27 48be f7fb 2d3d d666 863d 7791 59bd
00000370: 3781 ff3c fb6a 3cbd 527b dc3d 1ff6 2a3c
00000380: 5daf 483d 204b ba3c 5aba 83bd 62ae 723d
00000390: a957 ae3d 039f b0bd 38bd 1dbd d5f5 bf3d
000003a0: 4f96 96bc 8e5b 833d 951f 293d a30a d4bd
000003b0: 5d78 57bd 4890 91bd f6e0 50bd 4e90 dcbd
000003c0: 0ba9 efbd 4a5a 693d 681a bf3d 18e8 e2bc
000003d0: b2c6 c1bd 95b4 6e3d df6c 2fbd d53c f6bd
000003e0: 434d da3c e97a 053d c3f3 6d3c c893 db3d
000003f0: 6c09 9a3d fca5 a3bd bd0d 89bd 4d5a 08be
0.18133399 -0.10560071 0.08721452 -0.1654621 -0.13562198 0.09265116 0.08655451 0.0862135
0.036945913 -0.13408375 0.25813633 0.27761775 -0.0978915 0.24546072 0.039802942 0.26287052
0.018230658 -0.041787103 0.2412133 -0.29623863 -0.10942905 -0.0583489 0.08123259 -0.16553436
-0.02963271 0.022854807 -0.36863267 -0.15113841 0.25461644 0.06982031 -0.12508059 -0.19917361
-0.24504048 -0.25931913 -0.08154883 -0.083068185 -0.11376453 -0.30727527 -0.039682664 -0.05633592
0.009201229 0.21484032 0.31651965 0.20680757 -0.18023945 0.013651805 -0.18797594 0.37231636
-0.111133195 0.2393783 0.093997724 0.007956382 0.20749865 -0.12091924 0.105025314 0.32505092
-0.21957609 0.25085866 0.10083739 -0.25126898 0.24679658 0.030377615 -0.123486325 -0.17306307
0.074523024 0.06571281 0.22093709 0.3866546 0.06556935 -0.0076230313 -0.3059753 0.23355675
0.20660952 0.018780628 -0.025760826 0.086383015 -0.029512437 0.1914658 -0.026830992 0.12829974
0.11894414 -0.039170124 -0.29166594 0.0672065 -0.12132016 -0.34810457 0.06675401 -0.28379628
-0.10481082 -0.082904674 -0.126693 -0.25894114 -0.12881894 0.26682448 -0.034404486 0.040185016
0.3909298 0.06370369 -0.021512175 0.05008709 0.08150015 -0.007330172 -0.36009678 0.12698671
0.18195069 -0.23869655 -0.12771791 0.11203324 -0.066825405 0.03891346 -0.065670826 -0.11487152
-0.015145595 0.017083192 0.090852566 -0.0013614991 0.3117876 0.23277716 0.05630575 -0.02685195
-0.104510985 0.14562082 0.23970023 -0.23316354 -0.053241394 -0.24823013 0.122367635 0.02824534
-0.030933483 -0.07187186 -0.010425197 -0.10874138 0.052414034 0.0099816425 -0.06371225 -0.04486489
0.13502005 0.072712466 0.05923971 0.11925302 0.10677895 -0.011355002 -0.030223632 -0.1126311
0.042696346 0.13294055 -0.06653807 -0.0035870285 -0.0053672153 -0.022628058 0.12205827 0.016759671
0.010662848 0.058397055 -0.039145865 -0.017567936 -0.113410905 -0.10768764 0.02679346 0.046967812
0.06511747 0.007094503 0.023020245 -0.084203064 -0.03985356 0.03628653 0.080975704 0.029700322
-0.057927243 -0.00031988785 0.015028672 0.10305456 0.059382305 0.0728315 -0.039530817 0.06904919
0.16984954 0.029443838 -0.02112339 -0.042316604 0.03679779 -0.04029677 -0.00015856118 -0.034775294
0.09121477 -0.009352934 -0.06572974 -0.021419676 0.03278791 -0.010450751 0.028486967 0.0352178
0.06848679 -0.037074894 0.11907434 -0.08425964 0.025215441 0.015397599 -0.0012367667 -0.03470388
0.03361631 -0.048888337 0.07450568 0.022747621 -0.042248253 0.060855325 0.03730544 -0.14401658
-0.026741907 0.12393591 0.044108734 0.0035867677 0.040662207 -0.045398228 -0.047144257 0.0137928
-0.1954622 0.04247662 0.06562583 -0.05311724 0.031189544 -0.046000462 0.10765709 0.010434656
0.048995364 0.0227409 -0.06432028 0.059248336 0.085128136 -0.08624079 -0.03851053 0.093730606
-0.01838222 0.06413947 0.041289885 -0.10353591 -0.05260502 -0.071075976 -0.05099579 -0.107697114
-0.11702164 0.056970872 0.093312085 -0.027698562 -0.09461726 0.058277685 -0.042828437 -0.120233215
0.02664817 0.03258792 0.014523449 0.107215464 0.07521328 -0.079906434 -0.066920735 -0.13315697

lstm.weight_hh_l1 f4 [512, 128]
00000000: 93ad 09be b1e1 19bc c2c1 1d3e 6bea d6bd
00000010: 1a5a c93d f739 673b 626c 81bd 7066 14be
00000020: 8d64 4dbd a121 c6bd ae03 ad3d 1ffe 92bd
00000030: cf0e d4bd f45b 04be 0c31 073e 0574 133d
00000040: 0008 98bc 2c29 c33e b64d 32bd 169d debc
00000050: b24a d3bc db04 80bd bd54 543d 9b56 e7bd
00000060: 0a9d 723d 11e1 b43c 33b2 eb3a 92be 81bd
00000070: 3e7d 2fbc 6274 1b3e 3890 55bc 08c3 4abd
00000080: 6ebe d43d e79a 1dbd b211 8dbb 7032 22bd
00000090: 5620 7b3c a068 67bd d861 6a3c 61e1 02be
000000a0: 20be 71be 535d 653b 6417 783c 7459 1ebd
000000b0: d677 063c 02f9 a3bd 17a0 26bd 062b b83c
000000c0: c104 90be 692a 89bd 619e 843c 71d1 f53c
000000d0: 93c0 06be b2f9 203e 247c 7abb 9fec 173d
000000e0: 7eae f1bd c962 853d 1214 253d 2899 db3c
000000f0: c841 29be 85e0 7bbd c3bf 033d 4163 96bc
00000100: 9306 e43c e527 ce3d c8d3 933c 3ae8 c8bb
00000110: 8cf7 ec3d bd53 90bd 6c42 8ebe c808 bbbc
00000120: 2d00 d3bd cc18 003e f89c 873c 57a7 a13e
00000130: e7fa 5c3c 25f5 9f3d 4898 a3bd ed52 64bc
00000140: 52b7 4dbe 0441 1c3e ec05 2d3d 646c 0abd
00000150: b3b1 fd3d 62c1 e1bc 1219 abbc 2fd9 1e3c
00000160: e5a8 6f3d 2593 893e 701c 8f3d dd91 7abd
00000170: 750c 60be e60a fcbd 290a 07be d7ac 3e3c
00000180: 1c48 eb3b 5258 393d 18bd 863d a155 0dbd
00000190: 0a68 013d b433 80bd 2ad3 8dbc 2f9e e8bd
000001a0: c3f7 923c e577 0c3e a858 2c3e b45f dabb
000001b0: 9eaa a4bd ded7 fc3d e55e 153d f587 98bc
000001c0: b12a 43be 6496 98be 2561 613c f23a abbc
000001d0: cd62 523d 1bb2 0fbd 6a37 28be 53bf e43d
000001e0: 68f2 f33d 3cff 6fbc ba83 8ebc 7d48 dabb
000001f0: 88c5 9f3c 5795 1f3e fb74 f13c fbfe 3a3c
00000200: cd2a 71bd 2962 243c e5cd 273e 5e62 183d
00000210: ce0b 6ebd 8469 b73d a69e 6bbd e1ca 1c3d
00000220: 87c1 2ebd 6e5c 0bbd dab2 a13d 76e4 edbd
00000230: 46a3 48bc a7b5 6b3c dcc3 97ba 3eac f43b
00000240: a829 4f3d c991 8c3d 6ad7 42bd 469b 41bc
00000250: 950e 55bd ceed adbd f778 97bc 209e 573d
00000260: fb14 943d 01d8 7c3b 6b6c ebbc 2055 833d
00000270: 0afd bfbd 77c5 873d 7b49 9ebd 3bf5 893d
00000280: 4ed5 e1bc c3a2 a13d d6a5 59bd e8ae 34bc
00000290: f02c 06bc 5e2a 513d e5c2 43bd 7299 c63d
000002a0: 1442 8939 cf57 16bc 33cd 383d b0cf 1d3c
000002b0: 18fb 4b3c c2ef c93d 54da b2bd 9b04 2d3d
000002c0: a6fc 09be 6572 c43d 076a 613d 7a62 ba3d
000002d0: 85fd 943d 1044 753d 7b96 79bc 1cbf f6bd
000002e0: 9feb 80bd fe58 3b3d 747f 203d 6530 b03d
000002f0: 89aa b3bd afa8 753d d251 853c d727 ec3d
00000300: 5100 febc 692c 003c 2f43 0a3e 350e 803d
00000310: 9227 aa3d c452 8cbc e149 1ebb 2430 d3bd
00000320: 4d66 1d3d adc5 c0bb b57b 8c3c 3fe3 673d
00000330: bab9 25bd d805 b43d 59d8 573d 3a59 0f3d
00000340: 6854 4abd 0af2 193a 2a40 843d b60a 863c
00000350: 0120 0bbd bc23 aaba 1c14 903c b5c6 66bd
00000360: 172b 973c 1b7a d0bd 8306 28bd 2ef7 493d
00000370: 54cf 693c 0ccd b73c 9989 353d a3ec df3d
00000380: 3477 3ebd 40dc 3abc 70c1 233d 83b0 4e3d
00000390: 3cb0 9ebd d859 f6bd 648e 123d 5d00 e73d
000003a0: 43ad f53b eca0 c4bd ecba a8bd 5c10 253d
000003b0: afb7 5fbd 2141 043d ec1b a3bb affd a23d
000003c0: 2896 8cbc a22c 203d dde6 0cbb 4391 d73d
000003d0: b18b b6bd ee81 a5bd 0ffe 8c3d d163 cabd
000003e0: 9bd9 843c 6f93 553d 2984 bbbd ff92 a8bc
000003f0: 455f 793c 9d66 21bd 47d2 1d3d 1317 a23d
-0.1344512 -0.009392188 0.15405944 -0.104939304 0.09831639 0.0035282352 -0.063195005 -0.14492202
-0.05014472 -0.09674383 0.084479675 -0.07177376 -0.10354387 -0.12925702 0.13202304 0.035999317
-0.018558502 0.3811735 -0.043531142 -0.027174514 -0.025792453 -0.06250926 0.051838625 -0.112958156
0.059231795 0.022079976 0.0017982185 -0.063351765 -0.010711012 0.15181115 -0.013034873 -0.049502403
0.10387884 -0.038477805 -0.004305088 -0.039598882 0.015327534 -0.056496263 0.014305554 -0.12781288
-0.23607683 0.0034998253 0.0151422955 -0.038659528 0.008207282 -0.08006479 -0.040680017 0.022481453
-0.28128627 -0.06697542 0.016188802 0.030007096 -0.13159399 0.15720251 -0.0038220966 0.037090894
-0.1180086 0.065129824 0.040302344 0.026806429 -0.16529 -0.061493415 0.0321653 -0.018357875
0.027835166 0.10066203 0.018045321 -0.006131199 0.11570653 -0.07047222 -0.2778505 -0.022831336
-0.10302768 0.1250946 0.01655434 0.31572983 0.013487554 0.078104295 -0.0798803 -0.013935787
-0.20089462 0.15259176 0.042241976 -0.033794776 0.12387409 -0.027558032 -0.020885978 0.009695335
0.05851068 0.26870075 0.06987846 -0.061174262 -0.21879752 -0.12306766 -0.1318747 0.011637888
0.007180227 0.045250244 0.065790355 -0.03450549 0.03159336 -0.062598616 -0.017312605 -0.11358296
0.017940408 0.13717611 0.16830695 -0.0066642407 -0.08040355 0.12345861 0.03646745 -0.018619517
-0.19059254 -0.2980224 0.013756071 -0.02090213 0.051363755 -0.035081964 -0.16427389 0.11169305
0.1191147 -0.014648255 -0.017396796 -0.0066614733 0.01950337 0.15584312 0.029474726 0.011413331
-0.05887871 0.010033169 0.16387136 0.037203185 -0.058116727 0.089556724 -0.057524346 0.038279418
-0.04266503 -0.034023695 0.07895441 -0.11615841 -0.012245959 0.014386571 -0.0011578756 0.007466822
0.050576836 0.06863744 -0.047568716 -0.011816805 -0.05201586 -0.08492623 -0.018490298 0.052641034
0.07230564 0.0038580897 -0.028738221 0.06412721 -0.09374435 0.0662946 -0.07728859 0.06736227
-0.027567532 0.078923725 -0.05313667 -0.011028029 -0.008189425 0.051065795 -0.047793288 0.09697236
0.00026179908 -0.009176209 0.04511757 0.009632036 0.012450002 0.09860183 -0.08733049 0.04224072
-0.13475284 0.095921315 0.055032756 0.09100814 0.072749175 0.059879363 -0.015233631 -0.1204817
-0.06294941 0.045739166 0.03918405 0.086029805 -0.087727614 0.059975322 0.016274367 0.11531036
-0.03100601 0.007823088 0.13502191 0.0625271 0.08308329 -0.01712931 -0.0024152922 -0.103119165
0.03842764 -0.00588294 0.017148832 0.056613203 -0.040460326 0.08790177 0.05269656 0.034997202
-0.049396902 0.00058725534 0.06457551 0.01636253 -0.03396607 -0.001298062 0.017587714 -0.056341846
0.018453164 -0.1017954 -0.041021835 0.049307995 0.014270622 0.022436641 0.044320676 0.10933807
-0.0465004 -0.011405051 0.0399794 0.050461303 -0.07748458 -0.12028855 0.035780326 0.11279366
0.007497461 -0.09601006 -0.082387775 0.040298805 -0.054618534 0.032288674 -0.004977694 0.079585426
-0.017161444 0.039105065 -0.002149991 0.10525753 -0.08913363 -0.08081423 0.06884395 -0.0988232
0.016217044 0.052142557 -0.09156067 -0.020577906 0.015220468 -0.0394045 0.038530614 0.07914557

lstm.bias_ih_l1 f4 [512]
00000000: 6d11 b73d f703 ac3d 67ad 52bd 9fdd 473d
00000010: f60a b0bc 68fa c3bc 6bd7 d7bd 0e41 01be
00000020: 537a 6abd ec4b cb3b b964 8dbd 5351 76bd
00000030: 2513 9f3a c34b 84be 6853 e6bd c546 783c
00000040: d75b 953c 58bd 803e de7e 3ebd b488 cebd
00000050: aa98 81bd d5e8 0cbe 468d 4a3d c30b f73c
00000060: c05f b8bc 3768 bb3d ba75 bbbd d82d fbbc
00000070: 6314 eb3c 16ca 58bc b3d2 a8bc 3b49 403c
00000080: a6fc e83b 28f4 f2bd 4a6c 2ebc d12b 66bd
00000090: 4a49 dfbc 306c debd d5bd e5bd ba66 0d3d
000000a0: 4a6c 5e3c cb1c ee3c 8d89 bb3d 7bcd 0ebb
000000b0: 4c8f 1cbe edfc 0a3d 7023 c7bd 7887 2c3c
000000c0: 0bb8 a43b e442 8ebd 440f 81bc 9dbb ffbd
000000d0: f973 56bd 3e97 3cbd ea02 ba3c c09d 8c3d
000000e0: 78de 8d3d 889d 6bbc 2498 6bbd 5ba5 13bd
000000f0: 007b 893b acf8 9abc 670a f0bc cd54 4dbd
00000100: 52ac a83c c739 abbd 2246 54bd 06f6 04bd
00000110: 0490 d93d 88ce bbbd e345 e3bd 6e14 513d
00000120: 4038 263d e987 923d 98ea 85bc 0b9e 01bd
00000130: f539 96bd 118f 02bd d275 03be e081 38bd
00000140: 6b64 243c fafe 92bc 99ff 62bd b6bc 093d
00000150: 35a3 013d 7dcb c63d 4cc4 80bd a701 23bd
00000160: 50fd 4fbc 1ba5 ad3d 4db9 b2bd 9f79 6bbd
00000170: fc55 96ba 0d4e fabc 88eb 2abd 33ac a33d
00000180: a6aa 6c3d 64f1 963d 24a3 02bd 58fb e6bd
00000190: 79a7 37bd 45ba 2abc a50e a1bd aab6 733b
000001a0: 40ec 083e e77a 86bd 1a88 d3bd 1ba6 65be
000001b0: 97ff 86bd daff a5bd 9ae7 8c3d 5b12 fdbc
000001c0: faeb 16bd f663 bd3c 6c6d af3d 3b06 dcbc
000001d0: 97dc 033e d66a 88bd 158d 8b3d fc1c 2b3d
000001e0: c36e 51bd 53c5 ffbd f333 a2bd 68c5 d1bd
000001f0: 2573 b7bd f326 af3c 2e99 6fbd 0a26 babd
00000200: 0704 783d 3c20 533d 8867 4dbd f8aa bf3c
00000210: 4ab2 b43c 9fa7 823c e2a8 e5bb 4c02 333d
00000220: 9809 0dbc dec0 7dbd 7421 aebc c492 1abd
00000230: 0f5a f0bd 9184 183d 4ffe f5bc a9b2 b73c
00000240: 3184 77bd 3894 ea3b fd4a 9e3d 1556 68bd
00000250: e167 9ebd 4da7 b9bd 954c 5b3c 3156 3b3d
00000260: 6433 fcbd 7658 4bbd 2e8b 43ba e8ed 2bbd
00000270: 168a 893c 9ddc 803b 8887 9abd 592d 66bd
00000280: 20ac 56bd a593 97bd a298 72bd 6269 99bd
00000290: a71f df3c 57b2 d1bd cb12 efbc 1cad 90bb
000002a0: 1aee 3d3d 21cf d53c 5781 90bd 10cb 2b3d
000002b0: eefd 833c f3fc 163d a06f db3c 23a6 b6bc
000002c0: 11a9 aebd e31f 86bd 6606 24bc b42c a33d
000002d0: 4f2b 273d b35a 013d 5ad2 8bbd 2444 ec3d
000002e0: d5bd dfbc beaf a73d 8f63 a5bd 1699 33bd
000002f0: 7848 9ebd 55ba 70bd 3df5 593d 7ca9 0d3d
00000300: 5c21 da3c be6f 1bbc 4944 aebd 3a90 6ebd
00000310: ce50 933c e5fc 3c3d d75f 2bbd cdcb f7bb
00000320: cf98 a5bd 87f4 eabc ea72 073d 82e3 8b3a
00000330: 7fc5 5b3b 2ae8 87bd d81a 95bc decd a1bd
00000340: 449a 45be 51fd 7abd 6e78 393d d122 db3d
00000350: 3681 c9bc 30b3 08bd c0ab ba3a 51b6 9e3c
00000360: 1f6b debc 1f9c 0e3d 1b00 93bd 57fc 0eba
00000370: ad46 113d f82f 49bd c507 51bc 60ae 99bc
00000380: 2a97 84bd cd5a 693d 2dc4 5b3b c637 1ebc
00000390: 6766 c3bb 9420 893d f3cb e4bd afef c53d
000003a0: 1bf1 6d3d 76d1 013d d7b4 793c 81b3 3dbd
000003b0: a745 0d3d 3d0e 2a3d 3053 6c3d b1e4 03bd
000003c0: 5f70 34be 7a1b 48bc 19b5 773c 0362 ed3c
000003d0: 77b5 9ebc 0747 a9bd cb98 44be 4289 563d
000003e0: 9462 a5bd b993 2ebc 76ae f5bd 9901 1bbc
000003f0: a6c3 fc39 2131 0dba f93f 8dbc 9731 38bd
0.089388706 0.08399194 -0.0514349 0.04879534 -0.021489602 -0.023923114 -0.105391346 -0.12622473
-0.057245564 0.006204119 -0.06903977 -0.06013615 0.0012136443 -0.25839052 -0.11246377 0.0151535915
0.01823227 0.25144458 -0.04650771 -0.10084668 -0.063279465 -0.13760693 0.049451135 0.030156976
-0.022506595 0.09150737 -0.09153314 -0.030661508 0.028696245 -0.013231775 -0.020608282 0.0117362095
0.007110196 -0.11862975 -0.010645935 -0.05619413 -0.027256627 -0.10860479 -0.11217848 0.034521796
0.013575623 0.029066464 0.09157095 -0.0021789956 -0.15289038 0.033932615 -0.09723556 0.010530345
0.0050268224 -0.06946352 -0.01575435 -0.12486956 -0.052356694 -0.046042673 0.022706468 0.06866026
0.06927198 -0.01438082 -0.05751814 -0.036046367 0.004195571 -0.018917404 -0.029301835 -0.0501297
0.020589981 -0.083606295 -0.051824696 -0.03246119 0.10623172 -0.09170252 -0.11097314 0.051044874
0.040580988 0.07154829 -0.016347215 -0.031644862 -0.07335273 -0.03187472 -0.12837914 -0.045045733
0.010033707 -0.017943848 -0.05541954 0.033627234 0.031649787 0.09706781 -0.06287441 -0.039796498
-0.012694672 0.08478757 -0.087267496 -0.057489034 -0.0011469717 -0.030554796 -0.041728526 0.07991829
0.05777993 0.0737026 -0.031893864 -0.11278409 -0.04483745 -0.010420387 -0.07864121 0.0037187734
0.13371372 -0.065664105 -0.10328694 -0.22426645 -0.06591719 -0.081054404 0.06880112 -0.030892542
-0.03684614 0.023118954 0.085657924 -0.02685844 0.12877117 -0.06661002 0.06814019 0.04177569
-0.05113102 -0.124888085 -0.07920065 -0.102427304 -0.08957509 0.021380877 -0.058495693 -0.090892866
0.060550716 0.051544413 -0.050147563 0.023396954 0.022057671 0.015949069 -0.007008658 0.043703362
-0.008608244 -0.06195151 -0.021256186 -0.037737623 -0.11735927 0.0372358 -0.03002849 0.022424059
-0.060428802 0.0071587823 0.07729147 -0.05672272 -0.07734657 -0.09065113 0.013384958 0.045736495
-0.123144895 -0.04964491 -0.0007459399 -0.041974932 0.016789477 0.003932549 -0.07545382 -0.05619559
-0.052410245 -0.07401208 -0.059227593 -0.07490803 0.027236773 -0.10239094 -0.029183766 -0.0044151675
0.04636965 0.026099743 -0.070559196 0.041941702 0.016112294 0.036862325 0.026786625 -0.022296017
-0.085283406 -0.06549051 -0.010011291 0.07967511 0.040812787 0.03158064 -0.06827231 0.11536434
-0.027312199 0.08187817 -0.0807563 -0.043847166 -0.07728666 -0.05877145 0.053212393 0.03458546
0.026627235 -0.009487091 -0.08509118 -0.058243014 0.017982867 0.046139617 -0.041839447 -0.0075621367
-0.080857866 -0.028681053 0.033068575 0.0010672661 0.0033534465 -0.06636079 -0.018201277 -0.07900594
-0.19297129 -0.061276738 0.045280866 0.107 -0.024597745 -0.03337401 0.0014241859 0.019374045
-0.027150689 0.034816857 -0.071777545 -0.00054544717 0.035467792 -0.049118012 -0.0127582 -0.018759906
-0.06474145 0.05697136 0.0033533678 -0.009656852 -0.005963135 0.06695667 -0.11171713 0.09664857
0.058091264 0.0316939 0.0152408695 -0.046313766 0.034490254 0.041517485 0.05769652 -0.03220052
-0.17620991 -0.012213582 0.015118861 0.0289774 -0.019373639 -0.082655005 -0.19198911 0.052376993
-0.08075443 -0.010655337 -0.119961664 -0.00946083 0.00048210955 -0.0005386044 -0.017242419 -0.044969168
