models/modello_24_03_v1.pth (torch, 831222 bytes, 10 tensors)

lstm.weight_ih_l0 f4 [512, 10]
00000000: 1abb 53bc 9a78 f43c efcd c0bd c06d cabd
00000010: 6be4 ae3d 42d9 483e 2104 053d 88e1 0f3e
00000020: f1d3 913d abbe 723d ddbe b7be 2e38 1fbf
00000030: 4983 06bf 4ecb 1fbf e204 9abd 1a5a 1e3d
00000040: 4a76 353a a1c9 903d 17de fd3d a423 d8bd
00000050: ee77 1a3c 21a9 373d 16a2 643e 6e79 453e
00000060: 3bdd b23b 1f0d e73c 0a45 b93d 8979 993c
00000070: 25ee 54bb 22db fa3c 5f17 713e 67a9 9e3e
00000080: c741 133f 305b bc3e 9684 583d d5a3 3bbc
00000090: be9d 723d a648 913d 1a62 60bd 5e00 65bb
000000a0: 8447 483d f189 393e 24b6 e93d fd4c d63d
000000b0: 571b 833d 3a44 fbbc 2b86 f43d 6f4f 373d
000000c0: e7a8 8bbd eec8 e63d a833 113e 3910 45bc
000000d0: a182 173e 0fa0 903c 0911 363d 1c95 8a3d
000000e0: eb94 d33d 0e85 ad3d 7aea a73c c91c 76ba
000000f0: e690 2a3d 61b0 613d 3da1 ab3e 4e7e 3e3e
00000100: ef78 9d3d 21ed 503d ca3c 2fbd a19c 6b3d
00000110: 8148 7e3c 2851 983d d262 f53d c702 363e
00000120: 923d d9bc 4f76 58bd 9179 633d 829d 2ebd
00000130: c821 59bd 8886 463d 42f7 bdbd e80a bcbd
00000140: c9ed 793c ead7 453d 4b1e 783e 9605 993d
00000150: 2cd7 0fbd ff58 063e 8def e8bc f0bb 4c3d
00000160: 6a52 ca3c 6b2a 47bd 7e89 f2be 72cf 23bf
00000170: 6efd 36bf 9297 18bf 70bc a93d b208 073e
00000180: 068a ba3d 6f9b 773d d67b 063e faf4 aabd
00000190: 3e15 3dbe 6ab0 abbd 99ef 35be 77fd 7e3d
000001a0: 66e3 fabd 2688 2b3d 540e a7bd 834f 3fbd
000001b0: 1e58 3fbd 7008 07be 26af cd3e 016b fc3d
000001c0: ffa3 b33d 772b 123d c813 133e ac9a d9bd
000001d0: ad15 a63c 68ab 023c ec0b b3bd 4a41 92bd
000001e0: 57e2 553d fad2 933d 3347 863c cdce 263e
000001f0: 1264 8a3e 7665 b13d b62a 0c3e 98d7 203e
00000200: 94be f23d fad9 b33d e57b 943d 7bb5 993d
00000210: 8d8c d13d ba73 4d3d b79e 813d e486 873d
00000220: ab26 d03d 5285 fb3c e763 983d 6f40 d6bd
00000230: 385b 3c3d 3c0e b53d 374c 963e c22c 823e
00000240: c6d3 023d 849e 823d de12 e03d c549 b9bc
00000250: f6e2 c93d 18f6 5038 ef4e d73d 277d 49bd
00000260: f281 debc 3848 29be 1ed2 67bc 12a1 933d
00000270: 7b97 033c 36dc ab3c bc0d 9b3c 2645 93bc
00000280: e8a5 2a3e e1d4 0d3e 9df8 513e 888b 9b3e
00000290: dcdc 13bc 7c5c abbc 3869 89bd 1fc7 35bd
000002a0: ad1c 123d 1465 a9bd cd87 853d 5f19 ec3d
000002b0: af41 b33d 4dbe e33d b012 2fbd 628a 973d
000002c0: cc80 fa3d 0bfe 6f3d 00df d53b 2673 bd3d
000002d0: ac12 493e a35f f53c ccd2 923d 3357 173e
000002e0: 4030 333d 39bf 9a3d c29d 233d b3a2 5a3d
000002f0: e4e8 68bd 50de 9bbd b002 1bbe d311 8a3e
00000300: c09f bc3e 3fe7 2b3e 1a7e dd3c defb a13d
00000310: 8e76 cebc 7d6a 04be 75b5 f6bc 35c2 9ebd
00000320: ffea a03e 7e0f 393e b6e9 d83c 2f06 673e
00000330: 2adb 80bc f803 0a3d b32e a0bb ec42 71bc
00000340: 9931 2ebc 3300 01bd 919d 80bd fd99 b43d
00000350: 1762 043e ddae 52bd f2fa 793d d075 413e
00000360: 5960 263e 9091 823e 5c0d 903c c14a 013d
00000370: bc21 c1bc f98a 2abe 6452 5bbd 5b22 54be
00000380: 8f77 05bd 8881 fa3d 1900 113c ada6 35bd
00000390: 4d45 62b9 a24d fa3d 45d2 ab3e 481d b73e
000003a0: b0a9 343f 70f6 ff3e 160f edbd 2806 83bd
000003b0: d499 53be b780 29be 7ea6 45be c602 64bd
000003c0: 0ffc b13d 47f8 883d 5b58 ff3b 0ed8 863d
000003d0: cdee f63d 1486 873c 2f08 493c ab0e 8b3d
000003e0: 4697 9b3b 55a1 d53d 9ae7 d93c 0485 e93d
000003f0: e72a 933e f069 5e3e eef1 df3d ca84 18be
-0.012923026 0.029842664 -0.09414279 -0.098842144 0.08539661 0.19614127 0.03247464 0.14050877
0.07120503 0.059263866 -0.35887805 -0.621951 -0.52544075 -0.62419593 -0.075204626 0.038660146
0.00069222285 0.07069708 0.12395876 -0.10553673 0.0094280075 0.04483903 0.22327456 0.19284603
0.0054585016 0.028204499 0.09046371 0.01873471 -0.0032490578 0.030622069 0.23544072 0.3098862
0.57522243 0.3678832 0.05286082 -0.011452635 0.059232466 0.07093935 -0.054781057 -0.0034942846
0.048896328 0.18119027 0.11411694 0.10463903 0.06401699 -0.030672181 0.11939653 0.04475349
-0.06819325 0.11268793 0.14179862 -0.012027794 0.14795925 0.017654447 0.04444984 0.067667216
0.10331138 0.08472644 0.02049755 -0.00093884446 0.041642092 0.05509985 0.33521453 0.18602869
0.07689082 0.051007394 -0.042782582 0.05752242 0.015520216 0.07437354 0.11981739 0.17774497
-0.026518617 -0.052847203 0.055535857 -0.04263068 -0.053010732 0.048468143 -0.09275676 -0.09181768
0.015254446 0.048301615 0.24230306 0.074717686 -0.035117313 0.13119887 -0.02843454 0.04998392
0.024697501 -0.048624437 -0.47370523 -0.6398841 -0.71480453 -0.5960628 0.08287895 0.13186911
0.09108357 0.060450967 0.13133177 -0.08347507 -0.18465135 -0.08383258 -0.1776718 0.06225344
-0.12250404 0.04187789 -0.0815703 -0.046706688 -0.046714894 -0.13186812 0.4017269 0.12325097
0.08771514 0.035685983 0.14363015 -0.106252044 0.020274008 0.007975437 -0.08742508 -0.07141359
0.052217808 0.07217975 0.016391372 0.16289826 0.27029473 0.0866193 0.13688168 0.15707242
0.11852756 0.0878181 0.072501935 0.07505318 0.10231886 0.050159194 0.063291006 0.06617525
0.10163625 0.03070322 0.0744093 -0.104615085 0.04598543 0.088406056 0.29355022 0.25424773
0.031940244 0.06377891 0.10941099 -0.022618184 0.098577425 4.9820257e-05 0.10513102 -0.04919162
-0.027161572 -0.16531456 -0.014149217 0.07208456 0.008031721 0.020979028 0.018927447 -0.017977308
0.1666485 0.13850738 0.20504995 0.3037989 -0.009024825 -0.020918123 -0.06709522 -0.04437935
0.03567188 -0.08271232 0.065200426 0.11528277 0.087527625 0.11120281 -0.04274243 0.07399441
0.12231597 0.058591884 0.006526828 0.092504784 0.19636029 0.02995283 0.071691126 0.14779358
0.043747187 0.07556004 0.03994537 0.05337782 -0.056862727 -0.07610762 -0.15137744 0.26966724
0.3684063 0.16787432 0.027037669 0.07909368 -0.025203016 -0.12931247 -0.030115822 -0.07751886
0.31429288 0.18072316 0.02647863 0.22560953 -0.015729506 0.03369519 -0.0048883795 -0.014725428
-0.010631942 -0.03149433 -0.062800534 0.088184334 0.12928043 -0.051436294 0.061030336 0.18892598
0.16247691 0.2550168 0.017584495 0.03156543 -0.023575656 -0.16654576 -0.05354537 -0.2071623
-0.032584723 0.122317374 0.008850121 -0.044348408 -0.00021578856 0.122218385 0.3355886 0.35764527
0.7057142 0.49992704 -0.11575143 -0.063976586 -0.2066415 -0.16553007 -0.19301793 -0.055666707
0.086906545 0.0668798 0.007792515 0.06584178 0.120572664 0.016543426 0.0122700175 0.06789907
0.004748258 0.10431162 0.026599694 0.11402324 0.2874367 0.217201 0.10934816 -0.14894405

lstm.weight_hh_l0 f4 [512, 128]
00000000: b261 203d d9d8 253d 6c7f 253d 418e 4bbb
00000010: ce9a 0abe 0578 5e3d cc3e 1dbc 6875 0dbc
00000020: a201 63bd 1f89 1e3d 606c f23d 8133 97bd
00000030: 0ff7 6e3c 6579 67bc a5c6 a63d 7bc0 dbbc
00000040: 1b81 a23d cdd4 013d 88de 273d 69e0 373e
00000050: 616c 493d 9d6d a3bc 7e46 d43c 250e 123e
00000060: ad18 56bd 7ebd 9fbd b603 a3bd 6cb7 9e3c
00000070: 62a3 1e3d 9e80 bcbd 569b bfbd b3bb 893c
00000080: b5be 083d 3f42 4ebd fe05 0dbe b5f5 6abd
00000090: 8443 0d3d 7265 093d ca5f 01bd 7882 973d
000000a0: cb57 cebc 1f49 d43d f84d 6dbc c10f 64bd
000000b0: 7a36 00bd a618 333d 22bc 1f3d 75c4 cf3c
000000c0: df9d e73d 0cb7 c63c 37f0 173d a064 75bd
000000d0: 5ff4 1a3c cba4 ddbc d6c2 9a3c 1e3a 1f3c
000000e0: 3792 9b3c 174d fcbc f6bd 0abb 1222 69bb
000000f0: 1cd3 e43b 81c7 0dbd 7e6e febc 75ce 8e3d
00000100: e9bb 4fbd 962c 4d3d 6a2e 5fbd 50cb 97bd
00000110: 9655 273b 485b 8c3d 61f3 f23c 0c48 ffbd
00000120: d12c c0bd 5412 fdbd cc5e d33d f617 c9bc
00000130: 6f26 883d 9334 d53d dee4 78bb d4be 663d
00000140: f610 993c c671 f93d 1858 5b3d 78ba fabd
00000150: c607 ac3d d53f 8ebd e8fa 11ba 39dd edbc
00000160: 91eb aa3c 21fe 64bc 6727 9e3d 155a c2bc
00000170: 3209 a23d 5fd6 febd d57a 883d 01aa 9f3d
00000180: 9ed7 abbd 23b6 063d b7b1 81bd d1e1 5cbd
00000190: b541 87bd 9b70 7b3d a5f4 d0bc 66cf 10bd
000001a0: 2385 113e d7a7 833b 819e f03b 52c4 cfbd
000001b0: 0237 66bd bf1e 5c3d 2d93 6cbd c83b 243d
000001c0: b4d5 4abc 87ee 48bc 7b7b 78bd 2ced 123c
000001d0: abfc 28bd b62f 423e d2b9 b53d 6c66 84bd
000001e0: 699a 7fbc d925 37bd 8429 873d 6d21 673d
000001f0: e2ab 45bd 046a b23d 21c5 47bd c487 40bd
00000200: a195 93bd 85e2 813d e82b 893b b07e 1fbd
00000210: c1e4 ea3c b9c2 d2bd afa2 953d dfa6 563d
00000220: 2bc8 39bb 10e0 8f3d a3da 913d 6939 a4bd
00000230: 0981 333c b7b7 c73d bccd 193d fe48 85bd
00000240: 8391 a2bd ba04 0abd 866c 63bd 78df 0a3e
00000250: 1157 65bd 5b15 a53d fd22 ebbd 562e cc3d
00000260: cee4 763c 0085 b5bc 1cf2 a43d e409 273d
00000270: 75cd 29bc 7122 9ebc 6112 dfbd eab4 583c
00000280: 046a 9fbd f72e 343e d206 6abd 2d44 31bd
00000290: d6ba edbd 9edc 653d d638 a2bd e2c6 0e3d
000002a0: 720b cb3d ce81 473c 8d85 ab3d 9769 8cbd
000002b0: 41c1 11bd c432 ca3c 9547 abbd c915 b4bc
000002c0: 3f5c 593d 9bd6 90bd 72c8 593d 7f8b 86bd
000002d0: 8924 5e3d fbec d3bd 797b 5bbb 8a58 703d
000002e0: eafb f9bd 16c5 34bd 9d09 0fbd 164b 9abd
000002f0: 0f8d 473c 57c0 20bd a99f bfbd aa6b d13d
00000300: 3812 7bbd fafa 11bd 3001 a43d 669a 15bc
00000310: da4c bbbc f4e5 a7bc 32d6 683d 9852 b9bd
00000320: 9538 a83d bdec 23be ba59 a9bd 524b 5dbe
00000330: 2092 91bd 1325 8c3d 42d0 89bd 19a0 a53d
00000340: 8452 5e3d 92bf c63c cb07 61bd a067 7c3d
00000350: 95f1 45bc 8b21 e0bd 8ad7 523e b556 be3d
00000360: 0c83 0dbd 706e 9abd f528 853d 5461 76be
00000370: af06 14be 27eb 1abd 900b 23bb cec4 0abc
00000380: cc62 bfbd 9382 79bc 9b28 c0bd 1e6a eebc
00000390: 659c 16bd 1904 1ebd 263c c4bd 6190 543d
000003a0: ede6 383e 338d a4bd a62f d03b 2589 2c3d
000003b0: 3025 27bd 40fe b43b 3209 283d 2dae 7abc
000003c0: b952 e2bc 9a9c 2b3c cc91 e13c e37a 093e
000003d0: fe35 213d 6e26 3c3d e0f5 5ebd d1d4 5dbd
000003e0: db87 ab3d 04f8 ccbd 1769 89bb f501 78bd
000003f0: 140d babd 1dfa 0bbe 72cb 143d ceeb c13d
0.03915567 0.040490005 0.040404722 -0.0031060132 -0.13535616 0.05431368 -0.0095974915 -0.008633949
-0.05542148 0.038704988 0.11837077 -0.073828705 0.014585271 -0.014128064 0.08143357 -0.02682518
0.07934781 0.031697083 0.040983707 0.179567 0.049175624 -0.019949729 0.02591252 0.14263208
-0.052269626 -0.07799815 -0.07959692 0.019374572 0.038730033 -0.09204219 -0.093558 0.016813135
0.033384997 -0.050356146 -0.13771817 -0.05736323 0.034488216 0.03354401 -0.031585492 0.07397932
-0.025188347 0.10365509 -0.014483921 -0.055679087 -0.031301953 0.04372468 0.038997777 0.025362233
0.113094084 0.024257205 0.03709432 -0.059910417 0.009457677 -0.027056118 0.018891733 0.009718446
0.01899062 -0.030798478 -0.0021170354 -0.0035573286 0.006983174 -0.03461409 -0.031058546 0.06972972
-0.050716314 0.05009135 -0.054487623 -0.07411826 0.002553319 0.06853348 0.029657068 -0.12464914
-0.09383548 -0.123570114 0.103208154 -0.024547558 0.066479556 0.10410418 -0.0037978212 0.05633433
0.018684845 0.12179904 0.05355081 -0.12242597 0.0839992 -0.06945769 -0.0005568699 -0.029036151
0.02086428 -0.013976605 0.07722359 -0.023724595 0.0791191 -0.12443232 0.06664053 0.077960975
-0.08390735 0.032888543 -0.063327245 -0.053926293 -0.066043295 0.061386686 -0.02550728 -0.03535404
0.14210944 0.004017811 0.007343114 -0.10144867 -0.056204803 0.05374026 -0.057757545 0.040096074
-0.012380052 -0.012263901 -0.060664635 0.008967679 -0.041256588 0.18963513 0.08873333 -0.06464848
-0.015600779 -0.04471383 0.06599715 0.05642836 -0.048259623 0.08711627 -0.04877198 -0.047004476
-0.07206274 0.06342033 0.0041861422 -0.038939178 0.028673531 -0.10291047 0.0730642 0.052405234
-0.002834807 0.070251584 0.0712178 -0.080187626 0.010956057 0.09751838 0.03754972 -0.06508063
-0.079379104 -0.033695914 -0.055523418 0.13561809 -0.055991236 0.08060714 -0.11481283 0.099697754
0.0150692 -0.022158146 0.08053991 0.040780917 -0.010363926 -0.019303532 -0.108921774 0.013226727
-0.07783893 0.1759604 -0.05713541 -0.043277908 -0.11607902 0.0561186 -0.07920997 0.03485764
0.099142924 0.012176944 0.08375082 -0.06856077 -0.035584692 0.02468241 -0.083632626 -0.021983044
0.05306649 -0.07072183 0.053169675 -0.065695755 0.05423406 -0.10347935 -0.0033490343 0.058678187
-0.12206252 -0.04413327 -0.034921277 -0.07533853 0.012179627 -0.03924593 -0.09356625 0.102256134
-0.06129667 -0.03563974 0.08008039 -0.00913105 -0.022863794 -0.020495392 0.056844898 -0.09048957
0.08213917 -0.16008277 -0.08269067 -0.21610764 -0.07107949 0.06843009 -0.06729175 0.08087177
0.05427791 0.02426127 -0.054939073 0.061622262 -0.012081523 -0.10943898 0.20590034 0.09293882
-0.034548804 -0.075405955 0.065019526 -0.24060565 -0.14455675 -0.037821915 -0.0024878718 -0.008469773
-0.09345016 -0.015228885 -0.09382745 -0.029103335 -0.036770243 -0.038578127 -0.09581785 0.051895503
0.18056841 -0.08034744 0.0063533364 0.04212298 -0.04080695 0.005523473 0.041024394 -0.015300316
-0.027627336 0.010474348 0.027535342 0.13425784 0.03935813 0.045935087 -0.054433703 -0.054158036
0.08375522 -0.10008243 -0.004193436 -0.06054874 -0.09084526 -0.1366963 0.036326833 0.09468804

lstm.bias_ih_l0 f4 [512]
00000000: 57d9 56bd 88ab 3abb 0dfd f3bd 7b35 abbd
00000010: a771 abbd c9e1 643c 1afe b43c 4646 2ebd
00000020: d5f4 dfbd 0b6b d4bd 7461 37bd 1a47 283c
00000030: b3c5 693b 3cf2 e4bc d33f d3bd 48f0 96bd
00000040: b808 473b 8948 94bb 631b 75bd a4f8 2b3d
00000050: 0b9c 52b9 4c0a 8f3d f93a bdbc 0a14 513c
00000060: 8252 3f3c 82ba 363d f396 223d 5eff 07bd
00000070: 1c4c d73d f9af bebd ca64 8a3c 713c 233d
00000080: 59b5 b7bd 5423 c53d b4c7 643c 1189 c73d
00000090: 08d6 533d 77f5 c43c 7813 bc3c bb79 40bd
000000a0: c883 423d fc7c 38bd e270 213d e6ee 133d
000000b0: 45db 83bd ec7c 3ebd d158 e7bd 8d43 c13c
000000c0: 7113 5bbd 7524 a1bc 8660 773d d5b7 5b3d
000000d0: 7b08 99bd 6335 8d3d f65f a03d ce03 b5bb
000000e0: 94f7 dd3a 6fc2 2e3e b662 283c 42fe e7bc
000000f0: bb2c 00be 8cd1 143e 8cfd 8cbc e235 973c
00000100: b91e 1bbd 84ac 26bd 0f57 5dbd 490c c0bc
00000110: 88b5 173d a3d7 c9bb 4e9d 8bbc 8fc3 b0bd
00000120: 436a 363e e7c0 673d 17b2 be3d 23ac 453c
00000130: a4cf 873d 9feb 4bba 5101 a23d 036d 90bd
00000140: f2b2 a53d 4e44 463e 98db a8bc 7de1 6a3d
00000150: 5879 393d 1ca5 9a3d d60d 163e 2d89 fcbd
00000160: 2515 22bd aad2 8b3d 3bf7 583e dd46 e13d
00000170: e1d0 2dbd 3070 783c b1e1 09be d85d 073c
00000180: a208 ddbd dd19 013b 9ece c8ba 8db7 60bd
00000190: 99a7 853d c86a c2bc aaae 153e 5800 97bc
000001a0: 0dc0 cb3d e0c8 bd3d e495 883c 8c39 17bd
000001b0: b8b3 2d3e 9471 463d 6648 3b3d febf 53ba
000001c0: c8e8 01bd 503b 95bb 8033 ebbd 1de8 b13d
000001d0: 3293 d8b9 cb97 563d 7abf f2bc 70de 9bbd
000001e0: e9fb 1a3d fd04 a4bc a2c3 27bd 3443 7a3e
000001f0: 9181 2bbd 7549 30bd 21e3 91bd a1f2 c63d
00000200: 0794 20be f75f 383d bf16 29be 1c31 353b
00000210: 4f59 33be b4de 41be 2aed 06be 8b50 36be
00000220: 2b10 85be 0f75 adbd 3207 c7bd 6348 84bd
00000230: c492 6fbe c3da 14bd cd29 37bd 7f0e a9bc
00000240: 6cc0 0ebe 43fd 6ebd c720 74bd bb46 5a3d
00000250: fbc3 c8bd 0c8d 8abe ffbc 31be d8dc 64bd
00000260: 8cff 32bd f9c6 54bd 775a 92bc 9409 37bd
00000270: 59a5 4ebd df73 21be dac6 b53d 8013 f2bc
00000280: e61c 81be ef9e 473d be01 993d e603 48be
00000290: d45a 2abe eba4 2abe 0bb7 36be 7815 0cbe
000002a0: 2613 aabd a999 cabc cf9f b2bd ad07 96bd
000002b0: 2a59 75bd 4cc0 94bd 0cdf 31be 2c1a 10be
000002c0: c345 e9bd 293f 81bd 0125 f0bc ed69 27be
000002d0: 3f09 07be 4c1d 1fbd 01cb 54be ea1f f9bd
000002e0: 7e95 9abc cd27 21be eb95 20be 006d 2bbe
000002f0: 2d7f 44be 529c f4bd 01cf 8abd f266 873d
00000300: b49c eebd aea5 b6bd a2a2 583c b3e3 76be
00000310: 2fb8 5bbd 5774 94bd 30ae 37bd 98d1 67bd
00000320: 0398 24be f8ee 68be 10fa eebd a8f4 92bd
00000330: 3f44 2cbe bbed 4bbd 8843 3dbe ecfb 62be
00000340: 6d4e 93be 49a8 44be 65ee 5ebe ee38 8fbd
00000350: 16d8 e9bd def3 5abd 2223 3cbe bb8b c0bc
00000360: 4082 26be 7c89 0fbe 983d 2ebe f1e6 bbbd
00000370: fde6 07be 5145 66bb efb1 04be 14f6 f4bd
00000380: 1a8c 6cbd eb57 91bd 5665 21be f52a 25be
00000390: d7c1 0ebe e395 b6bd 0c81 3dbe 60bf 62bd
000003a0: a16c d9bd 986a d8bd 70f2 1cbe 919f c4bd
000003b0: 156f e6bc 2b00 a53a d392 fcbd 2273 c4bd
000003c0: 0445 47bd 78dd b1bd 2e5a 21be 25f4 f7bd
000003d0: 1f21 3ebe 5c5a bd3d 3bc2 09be 570e 50be
000003e0: 582a e4bd 5daa 3cbe f465 e5bb 4775 74be
000003f0: 844a 2fbd 38dc debc 455a 82bd b364 2a3e
-0.052453365 -0.0028483588 -0.119135 -0.0835981 -0.08371287 0.013969847 0.022093821 -0.042547487
-0.1093537 -0.10371979 -0.044770673 0.010270858 0.0035670816 -0.027947538 -0.10314908 -0.07370049
0.0030370187 -0.0045252484 -0.05984057 0.04198517 -0.00020085291 0.06984386 -0.02309941 0.012761125
0.011677386 0.04461146 0.039694738 -0.03320252 0.105125636 -0.09310908 0.016893763 0.039852563
-0.08970136 0.09625879 0.013963629 0.0974294 0.051717788 0.024042828 0.022958502 -0.04699109
0.047488958 -0.04504107 0.039414294 0.036116503 -0.06438307 -0.046505854 -0.11296237 0.023591781
-0.053485338 -0.019670704 0.060394786 0.053642113 -0.07472321 0.06894948 0.07830803 -0.005524135
0.0016934746 0.17066358 0.010277441 -0.028319482 -0.12517063 0.14533061 -0.017210744 0.01845831
-0.037871096 -0.040691867 -0.054038104 -0.023443358 0.037038356 -0.006159739 -0.017042782 -0.0863105
0.17813973 0.05658045 0.09311312 0.012064966 0.06631401 -0.0007778946 0.07910407 -0.07052042
0.08090772 0.19361994 -0.020612523 0.05734395 0.045281738 0.07551023 0.14653715 -0.12330852
-0.039570946 0.0682729 0.21188061 0.10999844 -0.04243553 0.015163466 -0.13465 0.00826212
-0.10792662 0.0019699254 -0.0015320366 -0.054862548 0.06526107 -0.023732558 0.1461741 -0.018432781
0.0994874 0.092668295 0.016673036 -0.036920115 0.16963089 0.04844816 0.04572334 -0.00080776203
-0.031716138 -0.0045541897 -0.11484432 0.0868685 -0.000413084 0.052390855 -0.029632319 -0.07610786
0.037837896 -0.02002191 -0.040958054 0.24439698 -0.04187161 -0.043038804 -0.071233995 0.097142465
-0.15681468 0.045013394 -0.16512583 0.002764768 -0.17514537 -0.18932611 -0.13176408 -0.17804162
-0.25988898 -0.08469593 -0.09718169 -0.06459119 -0.2339583 -0.03634144 -0.0447176 -0.020636795
-0.1394059 -0.058346998 -0.05960157 0.05329011 -0.09803005 -0.27060735 -0.17357253 -0.055874676
-0.04370074 -0.051947568 -0.017865403 -0.04468687 -0.050450657 -0.15766858 0.088758186 -0.029550314
-0.2521736 0.048735555 0.074710354 -0.19532737 -0.1663621 -0.16664474 -0.17843263 -0.13680065
-0.083044335 -0.024731474 -0.08721887 -0.07325683 -0.059899487 -0.0726324 -0.17370242 -0.14072484
-0.11390259 -0.06310875 -0.02931452 -0.16349001 -0.13187121 -0.0388463 -0.20780565 -0.1216429
-0.018870112 -0.15737839 -0.15682189 -0.16740799 -0.19189139 -0.11943878 -0.06777764 0.06611432
-0.116509825 -0.0891832 0.013222368 -0.24110298 -0.053642448 -0.072487526 -0.044843853 -0.05659637
-0.16073613 -0.2274741 -0.116687894 -0.07175571 -0.16822909 -0.049787264 -0.18482792 -0.22166413
-0.28770772 -0.1920482 -0.21770628 -0.0699328 -0.11418168 -0.053455226 -0.18372777 -0.023504129
-0.16260624 -0.1401729 -0.17015684 -0.09174908 -0.13271709 -0.003513653 -0.12958501 -0.11960998
-0.0577508 -0.07096847 -0.15761313 -0.16129668 -0.13941132 -0.089153074 -0.18506259 -0.05535829
-0.106164224 -0.10567206 -0.15326858 -0.096007474 -0.02812914 0.0012588551 -0.12332692 -0.09592272
-0.048649803 -0.0868482 -0.15757057 -0.12107114 -0.18567322 0.0924575 -0.13453 -0.2031797
-0.11140889 -0.18424363 -0.007000679 -0.23872863 -0.042795673 -0.027204618 -0.06364874 0.16639976

lstm.bias_hh_l0 f4 [512]
00000000: b5ae 203c 6386 c7bc 23b7 0d3d b6a6 2ebd
00000010: c2f1 e9bc bb11 273d 4167 3e3d 1cf7 7ebd
00000020: 772a 4ebc 37c5 8ebd d61a e1bd 5601 ff3d
00000030: 1b92 c6bc 2f04 01bd dd56 603d 2562 9abd
00000040: 4504 01be 0a3d bdbd 09f3 42bd e765 b03d
00000050: a6e2 af3d d053 083e f4e0 0c3d 478c 40bd
00000060: f738 0bbc 3e75 2e3d 76a0 90bc 0239 ecbd
00000070: 9e31 64bd 12be 74bd 0494 0b3d 1655 893c
00000080: 8f60 2d3d c6da 0a3e a289 043d b8d4 623e
00000090: 02a4 2b3d e121 c53c d013 a2bd eb2f 4ebe
000000a0: ec18 51bd d621 4ebd db74 a43c 380c 6f3d
000000b0: 3aa6 8cbd c761 cfbb 1d28 063d bdf7 833d
000000c0: 378b 1ebe 3ae0 97bb ad99 60bc 338f 4b3d
000000d0: 35ae 1fbe 809b 1b3e f951 b8bc 2623 87bd
000000e0: 3f34 123b 2b70 143d c135 f33c eb1a 6f3b
000000f0: 21ab afbd 47da 1a3e 05b8 253d ecd1 19bd
00000100: ceaf e3bd e069 00be 4708 bbbc af17 cfbd
00000110: 2c19 fcbc 74fc debc 3ecc 80bc c71f 18be
00000120: b537 843e df7a 703b d5ab 29bc fec7 d73c
00000130: de10 783d cbad 0ebd 291e 2c3c c763 c2bc
00000140: 6251 473d ee93 1f3e e1e5 a73d d9c2 153d
00000150: 6a4d 3bbd 1cd2 bcbd aa10 1f3c 9dc9 cdbd
00000160: 751d b1bd 2b65 0bbd 0c04 153e 220d 1d3e
00000170: b9ea 473a 2f30 b53c 9d74 9abd 840d de3d
00000180: 9c51 c43c 5728 a3bd 88b2 eebd 89b5 6abd
00000190: 4d72 b9bb 1a56 d4bc 0d53 bf3a 6738 233d
000001a0: eaa6 4e3e 9488 98bd 1bea 3a3d a6b7 f1bd
000001b0: 9592 dd3d ff63 f13c 7c22 a03d 56f1 ccbd
000001c0: 4b21 0abd 6fc4 063d 9c3a d8bd 2a98 833a
000001d0: 9ffe 08bd 3538 843d 2dc3 17be 5be4 8c3d
000001e0: a6a3 8bbd 9973 e8bd 6d1e 95bd 75f3 363e
000001f0: b9bc 41bd c1ae b43d b69b 16be 35e2 97bb
00000200: 4b64 4abd d909 3f3d 233f 2fbe be26 37bd
00000210: 8288 3fbd d451 3cbe 7947 f6bd 2d9e 53be
00000220: 6331 78be f7a8 bbbd 16c6 dabc 2d08 3bbe
00000230: 2ee8 31be 9920 8bbc fa5f 01bd d223 87bd
00000240: 0540 febd 1caf ffbd a170 a8bd a406 0d3d
00000250: 8323 fbbd fc23 29be 354f 35be 1a5c cdbc
00000260: def9 09be 6144 423d 8994 62bd 5046 433c
00000270: 56e9 b6bd 7ea3 d7bd 3525 80bd 95ce 92bd
00000280: 667b 07be 0523 893d 5b4c f03c d440 37be
00000290: 8942 15be 722e 18be 658d 95be 53fa 2dbe
000002a0: 0b1d 793d 99d4 b5bc 7b72 52be d6e1 13be
000002b0: 3863 f9bc 4959 10be 3a22 2bbe 0296 59be
000002c0: 103e d4bc 6d49 edbd 6dc5 dabd 68d0 28be
000002d0: f131 11be 2a2f 25be 69fb 38be 28b6 77bd
000002e0: a892 84bd 852a 33be 4d17 debd 9245 49be
000002f0: 7d25 2fbe dc61 58be c65d 5dbd 82c3 21bd
00000300: ae69 00be 17f5 16bc 302b f13c 5eb4 9dbd
00000310: 395c 253d 3703 07be dad0 80bb 563b 22be
00000320: 23d1 67be 6681 05be f5a3 1cbe 6433 f3bd
00000330: c36a 2dbe c416 fbbb 3b7a d2bd de39 2cbe
00000340: 6e01 50be ac51 bdbd affa fdbd a399 d4bc
00000350: 773f 0dbe 7b7f 5cbc ba36 39be 3ae6 79bb
00000360: fe01 dabd 439b febc 20df 2cbe bf87 c4bd
00000370: 1938 8abd 2542 1ebe 8774 19bd 40e5 093c
00000380: e766 01bd 4be9 40bd 5730 ddbd af9a 27be
00000390: 6ca9 fabd 7bff a2bd 4631 babd 7adf 16be
000003a0: 6212 81bc ad09 58be 4536 f4bd 07f0 eebd
000003b0: ebc6 10be 2fec 593d a82a 11be 3562 133d
000003c0: 60eb 42be 495c 32bd 3efe 13be 7513 bdbd
000003d0: 3796 1cbe 94a5 9a3d eb5d 81bd 9ea3 eabd
000003e0: a7f3 9abd 3f0a 28be 0bb2 c6bd c132 63be
000003f0: 6249 5cbd fbad debd 3be5 2dbe ff63 1b3e
0.009807278 -0.024356073 0.03459848 -0.042639457 -0.028557662 0.040788393 0.04648519 -0.06224738
-0.012583367 -0.069712095 -0.10991447 0.12451427 -0.02423959 -0.03149813 0.05477034 -0.07538251
-0.12599285 -0.09240158 -0.047595058 0.08613186 0.08588152 0.13313222 0.03439422 -0.04700878
-0.008497468 0.04259228 -0.017654639 -0.11534311 -0.05571138 -0.059751578 0.034076706 0.016764205
0.042328414 0.13560018 0.03235782 0.22151458 0.041904457 0.024064006 -0.07913935 -0.20135467
-0.051049158 -0.050325237 0.020075252 0.058361262 -0.06867643 -0.0063287946 0.0327531 0.06443737
-0.15482794 -0.004634884 -0.013708514 0.049697112 -0.15593798 0.15196037 -0.022500025 -0.06598501
0.0022308973 0.036239784 0.029688718 0.003648455 -0.08577562 0.15122329 0.040458698 -0.037553713
-0.111175165 -0.12540388 -0.022831095 -0.10111939 -0.030773722 -0.027219988 -0.01572239 -0.14855872
0.2582375 0.003669433 -0.010355909 0.02634048 0.06056296 -0.03483371 0.010505238 -0.023729218
0.048661597 0.15583774 0.08198143 0.036562774 -0.045728125 -0.09219763 0.009708563 -0.1004822
-0.086481966 -0.03403203 0.14552325 0.15337041 0.0007626224 0.022117702 -0.075417735 0.10842422
0.023964696 -0.079666786 -0.11655146 -0.05730203 -0.0056593777 -0.025919963 0.0014596895 0.03984871
0.2018086 -0.07447925 0.045633417 -0.11802606 0.10818974 0.029466627 0.078190774 -0.10006969
-0.033723157 0.032902177 -0.10558054 0.0010039855 -0.03344595 0.06456033 -0.14820547 0.06879493
-0.06818323 -0.113501735 -0.07281194 0.17866309 -0.04729912 0.08822394 -0.14707837 -0.0046351203
-0.049412053 0.04664025 -0.17113928 -0.04471468 -0.046761043 -0.1839059 -0.12025351 -0.20665808
-0.2423759 -0.09163087 -0.026705783 -0.18264838 -0.17373726 -0.016983317 -0.03158567 -0.06598629
-0.124145545 -0.12484571 -0.08224607 0.03443016 -0.12262633 -0.16517633 -0.17705996 -0.025068332
-0.13474223 0.047428492 -0.055317435 0.011918619 -0.08931224 -0.105292305 -0.06257097 -0.07168309
-0.13230667 0.066961326 0.029333284 -0.17895824 -0.14576162 -0.14861467 -0.29209438 -0.16990022
0.060818713 -0.022196101 -0.20551483 -0.14441618 -0.030442819 -0.1409656 -0.16712275 -0.2124863
-0.0259085 -0.115862705 -0.10682187 -0.1648575 -0.14179207 -0.16131273 -0.18064655 -0.060476452
-0.06473285 -0.17496689 -0.10844288 -0.19655445 -0.17104144 -0.2113108 -0.054044507 -0.03949309
-0.12540314 -0.009213707 0.029439539 -0.07700418 0.040371154 -0.1318482 -0.003931147 -0.15842947
-0.22638373 -0.13037643 -0.1529692 -0.11875036 -0.16935258 -0.007662626 -0.1027722 -0.1681895
-0.20313045 -0.09244093 -0.1240133 -0.025952166 -0.13793741 -0.013458128 -0.18087283 -0.003813161
-0.10644911 -0.031079894 -0.1688199 -0.09596204 -0.06748981 -0.1545492 -0.037464645 0.008416474
-0.031592276 -0.047097486 -0.10800236 -0.16367601 -0.12239346 -0.07958885 -0.090914294 -0.14733687
-0.015755836 -0.21097441 -0.119244136 -0.11666875 -0.14138381 0.053203758 -0.14176428 0.03598233
-0.19035101 -0.04354504 -0.14452454 -0.09232227 -0.15291677 0.07551113 -0.063167416 -0.11456989
-0.07566004 -0.16410159 -0.09701928 -0.2218733 -0.05378092 -0.10873028 -0.16981976 0.15174864

lstm.weight_ih_l1 f4 [512, 128]
00000000: 72ae f03d f61e a03d 0bb3 6a3d ba42 29be
00000010: 355e b3bd a75a bcbd 897f 1f3d e4e9 45bd
00000020: 1b2c 87bb d2ae c93d 0289 90bb 8e99 11be
00000030: 6de1 20bd 6955 cebd 71a1 073c 9e3f a4bc
00000040: c6e2 293d 6a0d cabd 2116 aabd f154 853e
00000050: 2ac9 8ebd 3d36 55bd fb9f 8d3c d91a 8c3e
00000060: 9b1e 243d cc77 34be 3e0d 7cbd 190c 0f3c
00000070: 59a3 34ba ab71 d9bd 73f8 31be 4652 913d
00000080: 0b05 163a b007 0f3e 9e8f abbd 3742 32bd
00000090: 92c3 45bd 09e2 16be 4b48 c5bd d521 ab3c
000000a0: 50b4 4a3e e51a b4bd be5d 773c db4b 783d
000000b0: 4ca0 c5bd 37b1 60bc da0a c2bd 125c 84bd
000000c0: 29bb 3c3e 9ce4 48be e562 6cbd 026d 92bc
000000d0: f2c4 973d 4c1a fcbd 3af1 eb3d dc8f 983d
000000e0: fb1a 143e 4eb6 84bd 076d 503b 7c2a 8cbc
000000f0: 5485 e1bc 87cd 48bd c256 0abe 6248 0dbe
00000100: 0ef5 c2bc 674f f03d 07d7 403e b7f3 963c
00000110: bda1 6ebe 1bf5 d43d 9432 9e3d 5bb4 953b
00000120: 50e9 8dbc 8859 abbd f3e6 a6bd 998a 37bc
00000130: 6a75 d3bd 3e73 ed3c 2338 df3d 2e61 ac3b
00000140: d66b d03d e704 4f3e 489b 453d 9283 0dbe
00000150: b7e4 0e3e e24b 8abd 75c1 03bd 6eae edbd
00000160: aef6 a13c 1bc3 a63c 1136 a7bd 984e 3f3c
00000170: e6b2 5dbd 1ece 3cbe 71ca 86bd 744c 2dbd
00000180: d60a 49be 7f9d 5abd ef09 29bd ab8e 4abb
00000190: b9ab 993d 670b 6d3e 3680 24bd 6801 953d
000001a0: 2c5e e6bd e900 883d 438c d03d 9870 ab3d
000001b0: ffd4 20be c00f 593e 2ffa 763d 9840 2cbd
000001c0: aff1 4dbd e04e 013d dc83 a93c 7630 acbd
000001d0: 9949 cd3d 80e5 6b3e 07d1 fcbd 44db 543d
000001e0: dce5 843d c396 4fbd 0e6a d8bd 09fb 1e3e
000001f0: 9c74 88bd 80c8 293e 27f0 53bd 5cb7 7dbe
00000200: 3e8d 8dbd a026 b83d 26c6 abbd cae8 053e
00000210: 804a 2c3c e3ad 35be 364d e83c 0160 363d
00000220: 4955 7b3d d8d6 d53d aaa1 ffbd 47d6 4dbe
00000230: 1638 a9bd 0210 25be 46b7 c3bd e9ce 213e
00000240: ce45 10be f81f 473e dbfc d9bc 4d24 703c
00000250: 2d90 dc3c 5792 e43d 177d 6a3d 7c9c 933d
00000260: e0a6 f3bd cf37 563d 2884 b43c d558 863d
00000270: ac7f ee3d bbcd dbbc 3bbc e2bd 89e8 babd
00000280: c0c8 a43d df04 5e3e ab77 a33d 7525 22be
00000290: 52c5 c23d 6629 583c 8dff c63d 19f1 2abe
000002a0: e8b2 983d 8e7f bcbc c8fa eb3d e453 1f3d
000002b0: 89ad a53d df87 b23c 099b 9cbd 6be3 acbd
000002c0: 4c9b 88bd 1ee5 8f3d a634 b239 696c 3c3d
000002d0: 7c7d 99bc b0f7 a1bd b2e7 40bd 645c 86bd
000002e0: 0935 153e 603d a73d 8438 bfbd cb0d a63d
000002f0: 6682 073e 641a 123d 6b83 2dbe 0e4f f83d
00000300: 8027 053e bb45 b83c 50b7 d93d e6db cc3d
00000310: 6ec2 16be 16fc 2fbd 3e8e e73d e255 cc3d
00000320: ad72 3f3d bddf 1cbe 8a75 ce3c ca0b 6bbe
00000330: abb8 cabd 4fe9 dbbb bf79 8ebc c22a 90bc
00000340: cba7 db3d 8c50 dd3d 2b7f 38bd 0e9a 93bd
00000350: 7a24 d6bd 7c1c a03d a726 fa3d b83f 183d
00000360: 8881 c83d be13 60bd 6d04 283e cce1 bbbd
00000370: 6a54 25bd b59a cc3d 2b9d bfbd de31 adbc
00000380: 0cad f33d a6c2 28be 294c 673d 4fae 183e
00000390: 2b45 a43d e0f5 16bd 6420 d7bd 60e7 843d
000003a0: aca6 713e 4c0a 67bd d8af 243e 92aa 573d
000003b0: 1c16 983d 7ccf 9ebd af74 54bd 9b54 bb3c
000003c0: 758a 763d b602 c2bd 868a 743d a04c d53d
000003d0: 97c1 023c 17fa c53d b764 c5bd ef50 92bd
000003e0: 70b9 a9bd 3282 3ebe 5799 36be a096 5ebd
000003f0: 328c d83d fe7a f13d 580a 193e 7f6e 933d
0.11752023 0.07818405 0.057299655 -0.1652936 -0.08758203 -0.09196978 0.038939986 -0.04831876
-0.004125131 0.098477975 -0.004410864 -0.14218733 -0.039277483 -0.100748844 0.008278237 -0.020049866
0.041476034 -0.0986584 -0.08305002 0.26041368 -0.06971963 -0.05205368 0.017288199 0.27364233
0.04006825 -0.17623824 -0.061536066 0.008730912 -0.0006890796 -0.106173836 -0.17379932 0.070957705
0.00057227974 0.13967776 -0.08377002 -0.04352018 -0.048282214 -0.14734663 -0.096329294 0.020890156
0.19795346 -0.08794192 0.0150980335 0.060619216 -0.09649715 -0.013714126 -0.09474726 -0.064628735
0.18430771 -0.19618458 -0.0577115 -0.017874245 0.07410611 -0.12309703 0.1152062 0.07449314
0.14463417 -0.06480084 0.0031803267 -0.017110102 -0.027529396 -0.04902413 -0.13509658 -0.13797143
-0.023798492 0.11733895 0.18832026 0.01842676 -0.23303886 0.10398313 0.07724491 0.004568619
-0.017323166 -0.08366686 -0.08149519 -0.011202478 -0.10325129 0.028985616 0.10899379 0.005260608
0.10176818 0.20216714 0.04824379 -0.13819721 0.13954435 -0.06752755 -0.032166917 -0.116055354
0.019770946 0.020356705 -0.08164609 0.011676453 -0.05412569 -0.18438002 -0.065815814 -0.04230924
-0.1963304 -0.053372856 -0.04126924 -0.003090779 0.075034566 0.23148881 -0.040161334 0.07275659
-0.112484306 0.066407986 0.10183003 0.08371085 -0.15706252 0.21197414 0.060297187 -0.04205379
-0.050279316 0.03156936 0.020692758 -0.08407681 0.10023803 0.23036766 -0.12344556 0.05196692
0.06489155 -0.050680887 -0.10567103 0.1552545 -0.066628665 0.16580391 -0.0517427 -0.24776977
-0.069117054 0.08991742 -0.08387403 0.13077083 0.010515809 -0.17742114 0.02835713 0.04452515
0.06136063 0.10441369 -0.12482007 -0.20101272 -0.08262651 -0.16119388 -0.09556441 0.15801586
-0.14089128 0.19445789 -0.026609829 0.014657092 0.026924217 0.111607246 0.0572482 0.072075814
-0.11897063 0.052299317 0.022035673 0.06559912 0.11645445 -0.026831498 -0.11071058 -0.09126384
0.080461025 0.21681546 0.07981809 -0.15834601 0.09510292 0.013193464 0.09716711 -0.16693534
0.07455999 -0.023010042 0.11522442 0.038898364 0.0808974 0.021793304 -0.07646758 -0.08441814
-0.066702455 0.070261225 0.00033990032 0.046001825 -0.018736593 -0.07908571 -0.047095962 -0.06560591
0.14571013 0.08166003 -0.093369514 0.081080996 0.13233337 0.0356697 -0.16944663 0.121244535
0.1300335 0.022494188 0.10630667 0.1000288 -0.14722607 -0.042965017 0.113064274 0.09977318
0.046740223 -0.15319724 0.025202531 -0.22953716 -0.09898504 -0.006711162 -0.017392037 -0.017598514
0.10725363 0.10806379 -0.04504315 -0.07207118 -0.10456176 0.07817933 0.122144036 0.037170142
0.09790331 -0.054706328 0.16407938 -0.09173927 -0.040363707 0.099904455 -0.09356149 -0.021141943
0.118982404 -0.16480502 0.056469116 0.14910243 0.08021005 -0.03685558 -0.10504225 0.06489444
0.23598737 -0.056406304 0.16082704 0.052652903 0.07426092 -0.07754418 -0.05186909 0.022867491
0.060190637 -0.09473173 0.05970242 0.10415006 0.007980726 0.096668415 -0.096383505 -0.07144343
-0.082873225 -0.18604353 -0.17831932 -0.054342866 0.10573615 0.11791037 0.14945352 0.0719881

lstm.weight_hh_l1 f4 [512, 128]
00000000: f8fb 30bb 8971 b3bd 7fa9 bfbd f0a5 20bd
00000010: 56b6 44bd 2687 9f3c bdb1 83b9 4d72 143e
00000020: 8cf7 aabe 8e63 ddbc a1cf 5d3e a903 8bbe
00000030: 6f18 32be 0987 b5bd c0be 133d 00ce a93b
00000040: 5719 0c3d 3bab 7d3c 7c0d 54bd d53b 9e3d
00000050: ddc7 563c da83 1abe 37ff b5b9 a1a3 6eb9
00000060: 7ec0 dd3b 6738 563d af5f 923c 7bc9 52bd
00000070: 049d d43d 2258 033e 89f4 97bd cf29 2b3c
00000080: b5f2 593d 2d1d e1bd 9684 183d 399a 26be
00000090: 11a1 01bc c5cc 6e3c 067a 9dbd c42d 81be
000000a0: 1be9 4e3d 36fa 273d d56c d6bd ba2e 80bd
000000b0: f2dd 9b3c b4ae efbd 84ef b2b9 0ea6 0cbe
000000c0: 7bfd 6abe 08f5 4abe d6d4 043c 575f a03d
000000d0: b3a6 413d 0fb4 6ebc abbf 533e 3bde 71bc
000000e0: b140 b5bd b008 20bd 18ef 0a3d 8e0b 043d
000000f0: 78ba 4dbc c55e b53c ae23 e93c c037 df3d
00000100: 232e da3d 9475 00be 7a91 b7bd 4a11 fdbd
00000110: d8d6 0bbe ae2f e53c a9b8 01be 8fc7 fbbc
00000120: b3d1 173d 6113 453d 9913 21bd e919 453b
00000130: 2f2e d13d d95a 0ebd c5e5 dcbd 3c35 2c3d
00000140: 5c6c 813d f782 463e 6286 a0be 60c2 023d
00000150: 82a1 003e 6f9b 043e 99db a1bb 6659 a63d
00000160: 66d8 33be 260e 32bd 639e 14be f01e 71bd
00000170: 5cfc a83d 40eb e1bd 0c42 a53e 2c80 85bd
00000180: 8b13 4d3e 6706 ac3c dcd1 8d3c da6d 013e
00000190: f21e 3f3e b81d da3c 8c4d b8bc 6320 8abc
000001a0: d8b1 603d ca61 51bd 9571 0c3e 9ee2 113e
000001b0: 4b30 f5bd 6135 863d cbdc 03bd 66d2 12be
000001c0: 9f59 ffbc 21b4 c2bd c3ac dd3c 3e3d e5bd
000001d0: eeec 10bd 10d4 c73d eb5d 98bc 8b57 7a3e
000001e0: 4d5b ae3d ad37 e93e 9282 603e d8dc 06be
000001f0: 7211 923d 53c8 753d d930 38be cea6 1d3c
00000200: 31a6 87bd 5016 f7bd 1d74 00be eed0 0d3d
00000210: 45a1 273b 4ff2 9fbd 18cc a1bd acef 213d
00000220: 4bca 38be 472a ebbc 4769 143d 888c c4be
00000230: c90a fe3c 99e0 6e3b eaee b9bd a0f6 0b3e
00000240: cf7a 723d 5c33 b53d 717d 04bd 177c 2bbe
00000250: 9261 843d fd97 5bbc e9f0 163e 2bcc bdbd
00000260: dc1e 8abd c3f2 323e 1934 163d 446d 383e
00000270: 2377 b63d 80c1 a53d 03c6 033d b24a bcbd
00000280: 1265 97be ca32 013e 838f c33d 833d 823e
00000290: 521b c7bc 7b09 57be 728c 2bbd 733e 383d
000002a0: b8ce 19be 8432 7abc 872e 613c d5c7 b53d
000002b0: 646d d83d 5d30 54bd ec17 483e e600 91bc
000002c0: c4df 663e 53ff 8ebe da37 933a a20d 1bbe
000002d0: e481 87bd b794 ddbd c455 a53c 90be ddbc
000002e0: 3a33 043e 487f f8bd 8181 17be 9cce 023e
000002f0: 0d20 05be 1c21 3bbe e1fc 343e e9d0 b63d
00000300: db39 8ebd 2643 f53c e0cd c33c 4173 1c3e
00000310: e37f 4e3d 10af 17bd 90e1 2a3e ec03 4c3e
00000320: e9a4 a5bd f493 0bbe c3a8 3d3e ba89 6a3d
00000330: ff08 afbb 9f12 cc3d c5fc 6ebc 9e70 033d
00000340: 618c 553d e95c 92bc 1418 373c 1a03 c7bc
00000350: 21d6 fb3d 90d4 213c 79dd 533e 0da5 bcbd
00000360: a2bd a3bd 1c15 2a3e fe8f 9b3d 6058 3e3e
00000370: 6658 aabd 3b31 113d 937b 8c3d 7993 643e
00000380: d181 a33d ff67 5a3b 720d bcbc 1301 46bd
00000390: ee4e ad3d 54f9 1ebd 44ad 873d 96b3 163e
000003a0: 17bf d4bd 9492 953d 18dd 183c 98a6 58bd
000003b0: 0a80 8ebc c3a9 c7bd 81ec 1c3e 7adf 24bc
000003c0: 0047 843d 9e45 29bc a8ff 68bd 91bd 11be
000003d0: 700c 8e3e 7730 bc3d 1025 143e 260a f0bc
000003e0: 3e82 26be ca7b 1e3d 75ef c33d c138 66bd
000003f0: 1515 043d b995 9bbd e88d 1ebe d1de 883d
-0.0027005654 -0.087618895 -0.09358501 -0.03922075 -0.04802545 0.019473623 -0.00025118692 0.14496727
-0.33391988 -0.02702501 0.21661235 -0.2715123 -0.17392133 -0.088636465 0.036070585 0.005182028
0.034203853 0.015482719 -0.051770672 0.07726256 0.013109175 -0.1508936 -0.0003471316 -0.00022758405
0.0067673316 0.052299883 0.017867891 -0.051461678 0.10381511 0.12826589 -0.07419688 0.01044698
0.05320998 -0.10991893 0.03723582 -0.16269769 -0.007911936 0.014575188 -0.0768929 -0.2523023
0.050515275 0.041010104 -0.10469977 -0.062589124 0.01902673 -0.11703244 -0.0003412926 -0.1373522
-0.22948258 -0.19820035 0.008107385 0.07830685 0.047278117 -0.0145692965 0.20678584 -0.0147624565
-0.088502295 -0.039070785 0.033919424 0.032237582 -0.012556665 0.022139916 0.028459396 0.10899305
0.10653331 -0.12544852 -0.08963294 -0.12356813 -0.13656175 0.027976837 -0.12668099 -0.030734805
0.03706522 0.048114184 -0.03932533 0.0030075258 0.10213887 -0.034754608 -0.107860126 0.042042956
0.06319496 0.19385897 -0.31352526 0.03192365 0.1256161 0.12949918 -0.004939508 0.0812252
-0.17563018 -0.043470524 -0.14513545 -0.058867395 0.08251259 -0.110311985 0.32276952 -0.065185875
0.20026986 0.020999147 0.017311983 0.12639561 0.18664148 0.0266255 -0.022497915 -0.016861146
0.054857105 -0.05111865 0.13715203 0.14246604 -0.11972102 0.0655315 -0.032192986 -0.14338073
-0.031170664 -0.09507013 0.027059918 -0.11193322 -0.035382204 0.097572446 -0.018599471 0.24447457
0.08513508 0.4555029 0.21924809 -0.13170183 0.07132234 0.060005497 -0.17987384 0.009622289
-0.06623495 -0.12064803 -0.12544294 0.03462308 0.0025578302 -0.078098886 -0.07900256 0.03953521
-0.18045919 -0.028706683 0.036233213 -0.38388467 0.031011002 0.0036449789 -0.09078772 0.13668299
0.05919915 0.08847687 -0.032346193 -0.16746555 0.064639226 -0.013402936 0.14740337 -0.092674576
-0.06744167 0.17475419 0.036670778 0.18010432 0.08909442 0.08093548 0.03217126 -0.091939345
-0.29569298 0.1261703 0.09548857 0.25437555 -0.02430502 -0.2099971 -0.041881986 0.04498143
-0.15020263 -0.015270833 0.013744003 0.088760056 0.105677396 -0.051803935 0.19540375 -0.017700624
0.22546297 -0.27929172 0.0011231855 -0.1514192 -0.066165715 -0.10819381 0.020182498 -0.027068406
0.12910166 -0.12133652 -0.14795496 0.12774128 -0.13000508 -0.18274349 0.1767459 0.08926565
-0.06944629 0.029939245 0.02390188 0.15278341 0.05041493 -0.037032187 0.16687608 0.19923371
-0.08088095 -0.13630658 0.18521409 0.057260253 -0.0053416486 0.09964489 -0.014586632 0.032089822
0.05213583 -0.017866569 0.011175174 -0.024293471 0.12296701 0.009877339 0.20689954 -0.092111684
-0.07995154 0.16609615 0.07595824 0.185884 -0.08317642 0.03544734 0.068595074 0.22321881
0.07983745 0.0033326147 -0.02295563 -0.04834087 0.0846232 -0.038811997 0.06624845 0.14716944
-0.1038801 0.07303348 0.009330057 -0.05289325 -0.017395038 -0.09749176 0.15324594 -0.010063047
0.06458855 -0.010331539 -0.056884438 -0.1423247 0.27743864 0.091889314 0.14467263 -0.029301714
-0.16260621 0.038692273 0.09567157 -0.05620647 0.032246668 -0.07596917 -0.1548382 0.06683124

lstm.bias_ih_l1 f4 [512]
00000000: bc83 39be be6a b5bd ccac c9bb 6a11 40be
00000010: 83e0 14bd e7ca 13be fa04 4cbc 09f8 35bd
00000020: 064e 9139 1b05 00be b48e fcbd 7867 c2bd
00000030: 4354 bbbd 9bfa 39be bd36 85bd fa06 b8bd
00000040: f6da 05bd cf6b f6bd 4679 c5bd 87d8 a6be
00000050: 0b19 d5bc cb24 39bd beca d9bd 26ae 83be
00000060: 3086 16be 2524 22bc 5dd1 dcbd 9317 33bd
00000070: afa7 e0bc aa15 8bbd 5efa 39be 299d 4bbb
00000080: 7925 a9bc 94da 14be 51c8 2dbe 1037 96bd
00000090: 5e51 94bd 9987 d3bc 973d 39bd e5c0 053e
000000a0: e4c8 fcbd e4df 29be 14d9 2fbe 74eb 09be
000000b0: 6d4d 84be 22a7 7e3c e10f 09be 1813 33be
000000c0: 53c7 8abd 954d 8fbc 8bd6 a4bd 1600 46bc
000000d0: 7753 ddbc b924 57be 7500 bdbd 6697 b0bd
000000e0: 7648 27be 9f6f 56be ca5b 04be 11e8 e0bd
000000f0: 5486 6bbd 0720 23bd 482b b3bc d756 c3bd
00000100: 3b2f 0d3e fc48 1ebe e209 d6bd 0e80 d63d
00000110: 8adf 57be 5d97 34be d636 d23c 1f2c 3fbe
00000120: e8d8 54be cce5 cbbd ea06 30be 1603 aebd
00000130: 67c2 dfbd e945 febd cc95 22be 3334 a7bd
00000140: cfaf 3ebe 147b 22bd 2b07 04be b845 24be
00000150: b606 56be 42d2 2cbe 0f31 32be 11bd 25be
00000160: 546a 22bd 9f27 1ebc 762f cfbd 8a8f b6bd
00000170: 7154 34be 8794 1abd 71e4 2d3c 5604 f1bc
00000180: 363d 65be 7cdf b1bd a489 dbbd 7148 38be
00000190: 37c0 39be dfcd 27be e4ca 40bd 81b3 2abb
000001a0: 33da 45be af8c 68bc bae0 fcbd d298 d3bd
000001b0: a704 13be 3b17 efbd 4452 04be 33bd 75bd
000001c0: 6899 85bd b83c 74be 05ae 12bb 0d19 53bd
000001d0: 6357 2bbe 75a7 91bd dee5 01be ac25 7bbe
000001e0: 7806 38be 3ba0 e33d 01c4 5ebe d1b5 2abc
000001f0: 7a3f adbd ef9f 18be dc61 fdbd 166e 84bd
00000200: 124d a1bd 9b8b dc3d 7874 c03b 2ea5 983c
00000210: 6bd0 24be 79a7 33be 75bf 7ebd 2cb5 013c
00000220: f924 c1bc e7b0 d6bc 1f04 10bd b65d c9bd
00000230: aad2 97bc b91c dabd 97c2 9c3d aa61 8fbd
00000240: d2ab 183c e12c 33bd 98ba cabd 668c 3dbe
00000250: 4b92 ca3c 2dc6 9ebd 410b 42bd 5666 3dbe
00000260: 1ae1 933a bf5c ddbd 8490 2abc 473c 423c
00000270: 788c 77bd 062c febd 5851 92be b415 ebbd
00000280: 51e3 6f3a 0205 dbbc ff17 bfbd eca0 823d
00000290: 7ac7 dc3a 9716 f83c ea95 38be cad5 0f3e
000002a0: db4d 80bd 2bbb 873c 5b9f 35be 79b3 89bd
000002b0: be8c 26be 94c6 c0ba 2414 e93c 6d0e 1b3d
000002c0: 424e 78bd 7525 e43c a801 56be 548f 34bd
000002d0: 11b8 9cbd 35a3 c0bb dbb5 ba3b e4dc 53bd
000002e0: 1768 4fbe 9d18 9bbc 8815 1e3d 58bc 97bc
000002f0: ab99 9fbb fefe a33d da2b ddbd 377c 12be
00000300: a763 7e3e 47aa ffbd c2ae 8ebd 9e2c ca3d
00000310: 7921 1ebe f4dd 3ebe 99db c53d 21e9 c4bd
00000320: 71f1 00bd a36f 14be bfaa 21be c812 eabd
00000330: aa3f c1bc bc9d 8fbd 6e00 d0bd 5343 47bc
00000340: fd97 243d 44b9 88bd 2a14 acbd ca13 1ebe
00000350: 70ca 36be de4c f5bd d007 44be 9803 7abc
00000360: c730 23bc 81b8 ba3d dc30 dabc 595f 403c
00000370: 4a2a 2cbe f151 8c3d 139c 6b3e b2da e0bd
00000380: 47cc 80bd d936 2f3d a0cd 44be f51a 4cbe
00000390: 5cc6 b4bd b7c5 9a3c fa89 8ebd 5c11 b5bc
000003a0: 26b7 17be f4a6 8dbd 5f81 5f3d a8fe bfbd
000003b0: 5b64 d4bd 55e6 eabd 2b11 01be 7bc0 1ebd
000003c0: abf3 b73d 47bd 3a3d 8015 3ebe 9d1e 94bd
000003d0: c59e 06be ca7b 453c 0b2a 203c badc acbc
000003e0: 9844 61bd 4bc9 873d f0ea e8bd c72b 473d
000003f0: 6bc5 c73d 5d14 44be 8ff2 7e3c 8c75 14be
-0.18116659 -0.0885825 -0.006154632 -0.18756643 -0.036346924 -0.1443287 -0.012452358 -0.044425998
0.00027714687 -0.12501948 -0.12331906 -0.09492391 -0.09146931 -0.18162005 -0.06504581 -0.08985706
-0.03267952 -0.120322816 -0.09642272 -0.32587072 -0.026012918 -0.045201104 -0.10634373 -0.25718802
-0.14699626 -0.009896313 -0.107821204 -0.043723654 -0.027423708 -0.067912415 -0.18161914 -0.0031069017
-0.020647751 -0.14536506 -0.16970946 -0.07334721 -0.07242082 -0.025821494 -0.045224752 0.13061865
-0.12343004 -0.16589314 -0.17172652 -0.13468724 -0.2584032 0.015542777 -0.13384964 -0.17487752
-0.06776299 -0.017493049 -0.08048733 -0.012084981 -0.027017338 -0.21010102 -0.09228603 -0.08622627
-0.16336235 -0.20941018 -0.1292564 -0.10981763 -0.057501152 -0.039825466 -0.021871224 -0.09538048
0.13787548 -0.15457529 -0.10451104 0.10473643 -0.21081367 -0.17635866 0.025660913 -0.18669175
-0.20785868 -0.0995594 -0.17190138 -0.08496682 -0.10925751 -0.12415678 -0.15877455 -0.08164253
-0.18621753 -0.039668158 -0.1289336 -0.1604222 -0.20900998 -0.16877082 -0.17401527 -0.16185404
-0.039652184 -0.009653001 -0.10116474 -0.08914097 -0.17610337 -0.037739303 0.010613547 -0.029421013
-0.22386631 -0.086852044 -0.10719612 -0.17996384 -0.1813973 -0.16387127 -0.04706849 -0.0026046934
-0.19321518 -0.014193698 -0.12347551 -0.103318825 -0.14357243 -0.11674353 -0.12922007 -0.059994888
-0.065234005 -0.23851287 -0.0022381556 -0.051537562 -0.16732554 -0.07112018 -0.12685344 -0.2452609
-0.17971218 0.11114546 -0.21754457 -0.010419325 -0.08459373 -0.1490476 -0.12372181 -0.0646631
-0.07876028 0.10768815 0.005873259 0.018633451 -0.1609513 -0.17544354 -0.062194306 0.00791673
-0.0235772 -0.0262074 -0.03516018 -0.09832327 -0.01853307 -0.1065001 0.076543026 -0.0700105
0.009318309 -0.04374397 -0.09898871 -0.18510589 0.024727961 -0.07752643 -0.047374014 -0.1849607
0.0011282295 -0.108087055 -0.010410432 0.011855192 -0.060436696 -0.124107406 -0.28577685 -0.11478749
0.0009150999 -0.026735786 -0.09330749 0.0637835 0.0016844117 0.03028421 -0.18025938 0.14046398
-0.0626485 0.01656874 -0.1773657 -0.06723685 -0.16264626 -0.0014707618 0.028451987 0.037855554
-0.060621507 0.027849892 -0.2089907 -0.044082 -0.076522954 -0.005878831 0.0056979484 -0.05172433
-0.20254551 -0.018932635 0.038594753 -0.018522426 -0.0048706136 0.0800762 -0.1079938 -0.14305197
0.24842702 -0.1248365 -0.06966926 0.09871791 -0.15442456 -0.18639356 0.096610256 -0.09614778
-0.031480256 -0.14495711 -0.1578779 -0.114293635 -0.023589928 -0.07012507 -0.10156332 -0.012162047
0.04018401 -0.066759616 -0.084022835 -0.15437236 -0.17850661 -0.11977552 -0.19143605 -0.015259646
-0.00996036 0.091172226 -0.026634626 0.011741483 -0.16813007 0.068515666 0.23008756 -0.10979213
-0.06288963 0.042776916 -0.19219065 -0.19932158 -0.088268965 0.018893106 -0.06959911 -0.022103004
-0.1481596 -0.069166094 0.054566737 -0.09374744 -0.10370704 -0.114697136 -0.12604205 -0.038757782
0.08982023 0.045590665 -0.18562889 -0.072324015 -0.13146503 0.012053439 0.009775649 -0.021101344
-0.054997057 0.066301905 -0.11372936 0.048625734 0.09754451 -0.19148393 0.01556076 -0.14497966
