models/trained_hydro_model 8_4.pth (torch, 826424 bytes, 10 tensors)

lstm.weight_ih_l0 f4 [512, 10]
0	0x3e3f8009	0.18701185
1	0xbd57c33d	-0.052676428
2	0xbd20179d	-0.03908502
3	0x3e93afe0	0.2884512
4	0xbdc0387d	-0.09385774
5	0x3e0e2a0c	0.13883227
6	0xbce8040b	-0.02832224
7	0x3e1d61cd	0.1536934
8	0x3c0140ca	0.007888982
9	0xbcf36f0d	-0.02971604
10	0x3e5f6218	0.21814764
11	0x3f06615d	0.52492315
12	0x3d932d7e	0.07186411
13	0x3e91c795	0.28472582
14	0xbe3617f6	-0.17782578
15	0xbd966df2	-0.07345189
16	0xbd244ba8	-0.040111214
17	0x3b501aad	0.0031754181
18	0x3d077a2e	0.033075504
19	0xbdca22ce	-0.0986992
20	0xbda27961	-0.079333074
21	0x3d0cb9bb	0.034356814
22	0x3d8992a7	0.06717425
23	0x3df3ad11	0.11898244
24	0x3d77e1a5	0.060517926
25	0x3ddc651f	0.10761475
26	0xbd57b23c	-0.052660212
27	0x3e95d69c	0.29265296
28	0x3da05c43	0.078300975
29	0xbd3b7270	-0.045763433
30	0xbd70824a	-0.058718003
31	0x3e64c187	0.2233945
32	0x3e4e3dd7	0.20140778
33	0x3e78ae49	0.24285235
34	0xbc8e6a08	-0.017384544
35	0x3baf5733	0.005350971
36	0xbb5e20b2	-0.0033894
37	0x3d508ff3	0.05091853
38	0x3d8da85a	0.06916876
39	0xbcc06808	-0.023487106
40	0x3ed54685	0.41655365
41	0xbe539a37	-0.20664297
42	0x3dacee0a	0.0844384
43	0x3d014d15	0.03156765
44	0xbdd364ed	-0.103219844
45	0x3da7ef8e	0.08199988
46	0xbd06a742	-0.032874353
47	0x3e13bade	0.14426753
48	0x3ddae3cc	0.1068798
49	0xbcd53811	-0.026027711
50	0x3dd1291b	0.10212918
51	0x3d92d83a	0.07170148
52	0x3d2a6aa6	0.041605614
53	0xbcb08b95	-0.021550933
54	0x3e3e2e5f	0.18572377
55	0x3e67f5c7	0.2265235
56	0x3dc439f0	0.09581363
57	0x3dac9956	0.08427684
58	0x3db36ebd	0.08761356
59	0x3e077bef	0.1323087
60	0xbe597447	-0.21235763
61	0xbd735943	-0.0594113
62	0x3ba36b92	0.0049871886
63	0x3e9ac0c3	0.3022519
64	0x3d8e3f21	0.06945635
65	0x3e1e5788	0.15463078
66	0xbd10a1f9	-0.03531072
67	0x3e664fa5	0.2249132
68	0xbc399611	-0.0113272825
69	0xbd007a20	-0.031366467
70	0xbda2b484	-0.07944587
71	0x3d94d15f	0.07266497
72	0x3d924e96	0.07143895
73	0xbd480201	-0.048830036
74	0xbcb6f49f	-0.022333441
75	0x3e12d4e5	0.14339025
76	0x3d92b761	0.07163883
77	0x3e104beb	0.1409146
78	0x3db2e3a1	0.08734823
79	0x3d37fe22	0.044920094
80	0xbd93c887	-0.07215982
81	0xbe9563df	-0.29177758
82	0x3e6308c5	0.22171314
83	0x3d8510cc	0.064973444
84	0xbdc08405	-0.09400181
85	0x3dee40ed	0.11633477
86	0x3d887d80	0.06664562
87	0x3e812923	0.25226697
88	0x3c06b2e4	0.008221362
89	0x3c693e2c	0.014236014
90	0xbe33654d	-0.17519112
91	0x3e9ee642	0.31035048
92	0xbe2dcd8c	-0.16972941
93	0xbc033a37	-0.008009485
94	0x3dc9152b	0.098184906
95	0x3d289f90	0.041167796
96	0x3b87b760	0.004141733
97	0xbccfb7c3	-0.02535618
98	0xbe04504a	-0.12921253
99	0xbce7e6d8	-0.028308317
100	0xbec27137	-0.37977
101	0x3e4e73a9	0.20161308
102	0xbe62e44a	-0.22157398
103	0x3d556004	0.05209352
104	0x3e2f34de	0.17110011
105	0x3c0d0dcb	0.0086092455
106	0x3e85f1fc	0.26161182
107	0x3e6e8a79	0.2329501
108	0x3e40dbae	0.18833801
109	0x3de61dc4	0.11236146
110	0xbdbc0150	-0.09179938
111	0x3e8f5aaf	0.27998874
112	0x3e22c1fa	0.15894309
113	0x3e57fe1a	0.21093026
114	0x3e0a7c8e	0.13524076
115	0x3e00e374	0.12586766
116	0x3da3ae59	0.079922386
117	0xbd3e3e19	-0.04644594
118	0xbc76e1e7	-0.015068508
119	0xbdeefb63	-0.11669042
120	0xbd5b865a	-0.053594925
121	0x3d7b3777	0.061332192
122	0x3dd7e8bc	0.105424374
123	0x3db54d3d	0.08852623
124	0xbdcff9b2	-0.101550475
125	0x3d337c1b	0.043819528
126	0x3db50437	0.088386945
127	0x3dfba2e8	0.12286931
128	0x3d7c74ae	0.061634712
129	0xbdef3781	-0.116805084
130	0xbdd11a90	-0.102101445
131	0x3dccf931	0.10008467
132	0x3d885bd1	0.066581376
133	0xbcc79c71	-0.02436659
134	0xbcd553f8	-0.026041016
135	0x3dc172aa	0.094456986
136	0x3d95a9e6	0.07307796
137	0x3e2454a9	0.1604792
138	0x3d2a8ff4	0.04164119
139	0x3c46593e	0.012106238
140	0xbf090e16	-0.5353712
141	0x3e13f42d	0.14448614
142	0xbf088187	-0.53322643
143	0xbe88f189	-0.26746777
144	0xbe4678c8	-0.19382012
145	0xbae0cf39	-0.0017151601
146	0x3d388330	0.045046985
147	0xbdb44d4b	-0.08803805
148	0x3c9ca6eb	0.019122561
149	0x3b1e0ee4	0.0024117762
150	0x3f1518cb	0.58240956
151	0x3b044ba5	0.002018669
152	0xbe1df4ab	-0.15425365
153	0xbe1fa110	-0.15588784
154	0x3e317fdb	0.17333929
155	0x3e125ce7	0.14293252
156	0x3d5ff0d9	0.05467305
157	0x3e42479e	0.18972632
158	0x3cc55b65	0.024091432
159	0x3d8888a8	0.0666669
160	0xbecb4395	-0.39699998
161	0xbd2e9986	-0.04262688
162	0xbe541827	-0.20712338
163	0xbe108dcd	-0.14116593
164	0xbcb27ca6	-0.021787953
165	0xbcf60067	-0.030029489
166	0x3e211a9d	0.15732808
167	0x3e02f467	0.12788545
168	0xbc1ca64d	-0.009561134
169	0xbbaeac11	-0.0053305705
170	0xbe89a22c	-0.2688154
171	0xbe8992e9	-0.26869896
172	0x3e3d6f1f	0.1849942
173	0x3d805061	0.06265331
174	0xbe1d6f57	-0.15374504
175	0x3db68e49	0.089138575
176	0xbcea3c05	-0.028593073
177	0x3e4e9470	0.20173812
178	0xbb6f6312	-0.0036527556
179	0x3ce3431d	0.027741963
180	0x3eabcb91	0.33553746
181	0x3e60feb0	0.21972156
182	0x3eaaf82a	0.3339246
183	0x3ebbd824	0.3668834
184	0x3d97108b	0.07376202
185	0x3e1803ee	0.14845249
186	0x3d52a1dc	0.051423892
187	0x3cf81a01	0.030285837
188	0x3d2c8647	0.042120244
189	0xbce2e093	-0.027694976
190	0xbea6f424	-0.3260814
191	0xbe3fbeea	-0.18725172
192	0xbe41d05e	-0.18927142
193	0xbe90bdb8	-0.28269744
194	0x3e579067	0.21051179
195	0x3e5d16f9	0.21590795
196	0x3e8b085c	0.27154815
197	0x3e1fdf99	0.1561264
198	0x3da529f8	0.080646455
199	0xbd209e4c	-0.039213464
200	0xbebc9bac	-0.36837518
201	0xbe806b6e	-0.25081962
202	0xbd1b4392	-0.037906237
203	0x3d7e2180	0.062043667
204	0x3e08669e	0.13320395
205	0x3e9b90a5	0.30383793
206	0x3e3cbfbe	0.18432519
207	0x3e9671fb	0.29383835
208	0x3e5862aa	0.21131387
209	0x3e6b5370	0.22981048
210	0x3edf8b5f	0.4366102
211	0x3f02b564	0.5105803
212	0x3f8fc353	1.1231483
213	0x3f82cec9	1.0219356
214	0x3c1efab5	0.009703328
215	0xbd34dcea	-0.044155993
216	0xbe3181a6	-0.17334613
217	0xbe0c70ff	-0.1371498
218	0xbe547284	-0.20746809
219	0xbd813e4a	-0.06310709
220	0xbd907bb0	-0.070548415
221	0x3f008408	0.50201464
222	0xbc6222bd	-0.013802228
223	0x3e8a077f	0.26958844
224	0x3e78faff	0.24314497
225	0xbd85f190	-0.06540215
226	0x3ded62ba	0.11591096
227	0xbda42aed	-0.08016
228	0xbe258597	-0.16164242
229	0x3e77f34b	0.24213903
230	0xbe87871b	-0.26470265
231	0xbd56f4d5	-0.052479584
232	0x3e518657	0.20461403
233	0x3d99a7de	0.07502721
234	0xbaf184ab	-0.0018426379
235	0x3d827ce1	0.06371475
236	0xbd307d42	-0.043088205
237	0xbd93c87c	-0.07215974
238	0xbc9914fe	-0.018686768
239	0xbd26b42f	-0.04069918
240	0xbc0ca882	-0.008585097
241	0x3ec99ef4	0.39379084
242	0x3e7fe27a	0.24988738
243	0x3e8b1763	0.2716628
244	0xbccd7337	-0.025079353
245	0x3e33ecfa	0.17570868
246	0x3d31692e	0.043313198
247	0x3e0fa052	0.14026001
248	0xbd3beae9	-0.045878325
249	0xbd911647	-0.07084327
250	0xbe1cb8eb	-0.15304916
251	0xbd31d929	-0.04341999
252	0xbe3ace9b	-0.18242876
253	0x3da817f4	0.08207694
254	0x3d4f8ba7	0.050670292
255	0x3e10013c	0.14062971

lstm.weight_hh_l0 f4 [512, 128]
0	0x3dfb371b	0.1226637
1	0x3db9b248	0.090672076
2	0x3dbac047	0.09118705
3	0xbd0f7e2a	-0.03503243
4	0xbdb78853	-0.08961549
5	0x3d0912ba	0.033465125
6	0x3b1b5ab7	0.0023705193
7	0x3d4301b8	0.04760906
8	0x3d675214	0.05647476
9	0x3e40ca51	0.18827178
10	0xbe2f25fa	-0.1710433
11	0x3e499f3e	0.19689652
12	0xbda918bd	-0.082566716
13	0xbdc2838c	-0.09497747
14	0xbe3a769a	-0.18209305
15	0xbd4b5ea7	-0.049650814
16	0x3e18dd66	0.14928207
17	0x3c4eceea	0.012622574
18	0xbd839737	-0.06425326
19	0xbe186087	-0.14880572
20	0x3dab5918	0.08366603
21	0x3e3761a7	0.17908345
22	0x3da64ca9	0.081200905
23	0x3df29950	0.11845648
24	0xbd830adc	-0.06398556
25	0x3ade71c7	0.0016971164
26	0x3dc3f0bd	0.095674016
27	0x3d8ac4db	0.067758285
28	0x3e67ff3c	0.22655958
29	0xbd8fd060	-0.07022166
30	0xbd0cf2fb	-0.03441141
31	0x3d0c5f96	0.034270845
32	0xbc8328fe	-0.016010758
33	0xbde7b52d	-0.113138534
34	0xbdf1267a	-0.11774917
35	0xbe0097a7	-0.12557851
36	0xbd8a2bb4	-0.06746617
37	0xbdf446f1	-0.119275935
38	0x3de6d41e	0.11270927
39	0x3e139bf5	0.14414962
40	0xbdac830b	-0.08423432
41	0xbd8a9ddd	-0.06768391
42	0xbca89bd4	-0.020582117
43	0x3cf31557	0.029673262
44	0x3df41bca	0.11919363
45	0x3dfbb047	0.122894816
46	0xbcdd3be4	-0.027006097
47	0xbdad8e13	-0.08474364
48	0xbd0c6695	-0.034277517
49	0x3dd4c1a1	0.10388494
50	0xbdb32a0a	-0.08748253
51	0x3cc71fe6	0.024307203
52	0xbdfb6e9b	-0.12276956
53	0xbde2d41d	-0.11075614
54	0x3d39f3cf	0.04539853
55	0xbd41fd89	-0.04736093
56	0x3d3a6d2a	0.045514263
57	0xbe44e2c8	-0.19227135
58	0x3b229869	0.0024810082
59	0xbdd53fe9	-0.104125805
60	0xbc7fbb3c	-0.015608605
61	0xbe541aff	-0.20713423
62	0xbe303279	-0.17206754
63	0xbd819e15	-0.0632898
64	0xbe0be5da	-0.136619
65	0x3d964bb8	0.07338661
66	0x3d0a8fa0	0.033828378
67	0x3eb12361	0.34597304
68	0x3d9869b6	0.07442038
69	0xbd97c30b	-0.07410248
70	0xbded1545	-0.115763225
71	0xbdb07303	-0.08615687
72	0xbe0f1852	-0.13974121
73	0x3e63100f	0.22174095
74	0xbdcc36b5	-0.09971372
75	0xbe3c9d81	-0.18419458
76	0xbd071495	-0.032978613
77	0xbd8cc322	-0.06873156
78	0xbd727943	-0.059197675
79	0x3e5c9565	0.21541364
80	0x3e1d7ebd	0.15380378
81	0xbd287d10	-0.041134894
82	0x3df6d3a8	0.12052089
83	0x3e713a22	0.23557332
84	0xbe19f5c9	-0.15035166
85	0x3e462a45	0.19352062
86	0xbd40b77e	-0.04704999
87	0xbdaa4cf6	-0.083154604
88	0x3d5e2d80	0.05424261
89	0x3d9870e1	0.07443405
90	0x3d73cc4f	0.059521016
91	0x3cda1702	0.0266223
92	0xbd39c0d4	-0.04534991
93	0x3b285e06	0.0025690808
94	0xbd05cf30	-0.032668293
95	0x3ddb7e2f	0.10717427
96	0xbd8d5562	-0.06901051
97	0x3c85e8aa	0.016346294
98	0xbd3178ed	-0.043328214
99	0xbd989586	-0.07450394
100	0xbd0fd82c	-0.035118267
101	0xbd56ad5d	-0.052411426
102	0xbd4d09f2	-0.050058313
103	0x3e792423	0.24330191
104	0x3db26d29	0.08712227
105	0x3dc9c81b	0.0985262
106	0xbd8c4c5b	-0.06850501
107	0x3c4dc2c0	0.012558639
108	0x3c841aac	0.016126
109	0x3de809a6	0.11329965
110	0x3d906a3f	0.07051515
111	0x3dfd72b8	0.123753965
112	0xbd9283a7	-0.07154017
113	0xbe2d4d6c	-0.16924065
114	0xbd11fcd2	-0.0356415
115	0xbdfd52f5	-0.123693384
116	0xbe0e8ec7	-0.13921653
117	0xbd96cd3d	-0.07363365
118	0x3dc4cec7	0.09609752
119	0x39fad454	0.00047841913
120	0xbc825d57	-0.015913649
121	0xbd8378df	-0.06419539
122	0xbd53dd17	-0.05172452
123	0x3c1f6a16	0.009729883
124	0xbd74099c	-0.059579477
125	0xbdd36fbd	-0.10324047
126	0x3d3648fe	0.044503205
127	0xbdcbccc1	-0.09951163
128	0xbd13d641	-0.036093
129	0xbe186a0d	-0.14884205
130	0xbe2c4d32	-0.16826323
131	0x3cffd0a6	0.031227421
132	0xbdd73a95	-0.105092205
133	0xbd882da0	-0.06649327
134	0x3d37f418	0.04491052
135	0xbc2949f9	-0.010332578
136	0xbddd45fb	-0.10804363
137	0x3e07e740	0.13271809
138	0xbdcf6544	-0.10126737
139	0x3d9f2f06	0.07772641
140	0x3ccece11	0.025244744
141	0x3dd962db	0.10614558
142	0x3e0e0b86	0.13871583
143	0x3d568425	0.052372117
144	0x3ddd39a2	0.10802008
145	0x3e13d355	0.14436086
146	0x3d4bfa80	0.049799442
147	0xbeacaea5	-0.33726993
148	0x3e5ceac0	0.21573925
149	0x3e253c23	0.16136222
150	0x3dbde18d	0.09271536
151	0xbd85b3d1	-0.06528438
152	0x3d6fa0a4	0.05850281
153	0x3da18698	0.07887
154	0xbd4952e1	-0.049151305
155	0xbcb6945a	-0.022287536
156	0x3cc4c0fb	0.024017802
157	0x3de13d4e	0.10998021
158	0xbd2e7b6a	-0.042598166
159	0xbdfdaca8	-0.12386447
160	0x3ce5d945	0.028057704
161	0xbe0f8951	-0.14017226
162	0xbdd22aa5	-0.1026204
163	0x3d79d455	0.06099351
164	0x3d571f48	0.052520066
165	0x3d69777f	0.056998726
166	0xbde119fa	-0.10991283
167	0x3cc18ea7	0.023627592
168	0x3cdf5b3e	0.027265187
169	0x3dafb98a	0.08580311
170	0x3e58d7e5	0.21176107
171	0x3da61e56	0.08111255
172	0xbd82a0b5	-0.06378309
173	0x3dc38d3f	0.09548425
174	0x3e0beb70	0.13664031
175	0x3dc156be	0.09440373
176	0x3c6dcdaa	0.014514366
177	0xbdcbc7cd	-0.09950218
178	0x3d8498bd	0.06474445
179	0x3df25d10	0.118341565
180	0xbc833f73	-0.016021466
181	0x3d437921	0.04772294
182	0xbd8c25bc	-0.06843135
183	0xbe4b79db	-0.19870703
184	0xbcbd68e6	-0.023121309
185	0x3b6c8fb7	0.0036096403
186	0xbe94a00a	-0.2902835
187	0x3db0e4cd	0.0863739
188	0x3b53f2bc	0.0032340726
189	0x3cf44dc2	0.029822234
190	0x3dfcd62e	0.12345539
191	0xbde93ac2	-0.1138816
192	0xbe07cc4d	-0.13261528
193	0x3d1129e8	0.035440356
194	0x3e126b93	0.14298849
195	0x3dd40eb3	0.10354366
196	0xbd8b1e1f	-0.067928545
197	0x3cb19c9c	0.021681122
198	0xbd6f805c	-0.058472022
199	0xbd627a54	-0.055292442
200	0x3e6d408d	0.23169155
201	0x3c0065e2	0.007836791
202	0xbd5759e9	-0.05257598
203	0x3d55a05e	0.05215489
204	0x3db36172	0.087588206
205	0xbd87692a	-0.06611855
206	0x3d055593	0.032552313
207	0xbd2ff97a	-0.04296253
208	0xbd0fe928	-0.035134465
209	0x3d7d12cf	0.061785515
210	0xbe0a90bd	-0.13531776
211	0x3db6443c	0.088997334
212	0x3e12048d	0.14259548
213	0x3c00967c	0.007848378
214	0xbe025fda	-0.12731877
215	0x3d9fde4c	0.07806072
216	0xbb03503a	-0.0020036832
217	0xbd8c6659	-0.06855459
218	0xbe3616de	-0.1778216
219	0x3ccdd1b6	0.025124412
220	0xba86802e	-0.0010261589
221	0x3a9baf8c	0.0011877879
222	0x3d8283e5	0.06372813
223	0xbb85697e	-0.0040714135
224	0xbd2ffb5f	-0.042964336
225	0x3dc275f2	0.094951525
226	0x3cfa00a2	0.03051788
227	0x3e145f51	0.14489485
228	0xbe005129	-0.1253096
229	0xbd25df30	-0.04049605
230	0x3d8d0ed4	0.06887594
231	0xbcdecb77	-0.027196629
232	0xbdbc504b	-0.09195002
233	0xbdb48258	-0.088139236
234	0x3e7cc23b	0.24683468
235	0xbc038fa0	-0.008029848
236	0x3d04857f	0.032353874
237	0xbd015edd	-0.03158461
238	0x3b392466	0.0028250455
239	0xbdc698c3	-0.09697106
240	0xbac292d8	-0.0014844788
241	0x3e21f9d7	0.15817963
242	0xbc17ea57	-0.00927218
243	0xbe83d500	-0.25748444
244	0x3dd5f23e	0.10446595
245	0x3da96897	0.08271902
246	0x3c8478a8	0.016170815
247	0x3de11495	0.10990254
248	0xbbb04c8c	-0.005380219
249	0x3e160b78	0.14652812
250	0xbe422711	-0.18960215
251	0xba3493d4	-0.0006888483
252	0xbd95df84	-0.07318023
253	0x3e39ca50	0.18143582
254	0xbd7e05ea	-0.06201736
255	0x3c589a1b	0.013220335

lstm.bias_ih_l0 f4 [512]
0	0xbd158c7e	-0.036510937
1	0x3cfd63d6	0.030931395
2	0xbc1c10ea	-0.009525517
3	0xbdd926ab	-0.106030785
4	0x3dc51914	0.09623924
5	0x3c651813	0.0139827905
6	0xbaebb1fe	-0.0017982123
7	0x3d8ced90	0.06881249
8	0xbd816c03	-0.0631943
9	0xbd6a2465	-0.057163615
10	0xbdba72a9	-0.09103901
11	0xbd85d049	-0.06533868
12	0xbdf86527	-0.12128668
13	0xbd5253a1	-0.051349286
14	0x3e77841a	0.24171486
15	0x3c946070	0.018112391
16	0xbae197bd	-0.0017211359
17	0xbd40fee2	-0.047118075
18	0x3b94ea5a	0.0045445384
19	0x3d3b6484	0.045750156
20	0x3d9816de	0.074262366
21	0x3b75ba95	0.0037495245
22	0x3db37d0d	0.08764086
23	0xbd520c29	-0.051281128
24	0xbb9aa34b	-0.004719173
25	0xbddc937d	-0.10770319
26	0x3e4b5245	0.19855602
27	0xbe0665d8	-0.13124788
28	0xbcac9e9d	-0.021071726
29	0xbd254c6a	-0.040356077
30	0xbdb41a42	-0.08794071
31	0x3cd1913f	0.025581954
32	0x3df40c53	0.11916413
33	0x3e556f33	0.208432
34	0xbd05c861	-0.0326618
35	0x3dd91cd3	0.10601201
36	0xbd0f4fd0	-0.034988225
37	0x3df60f1a	0.12014599
38	0xbcc9f3f8	-0.024652466
39	0xbcd07523	-0.02544648
40	0x3ddf703c	0.10910079
41	0x3d2668b8	0.04062721
42	0xbb4d685e	-0.0031342725
43	0xbdced0ba	-0.10098405
44	0x3cb4cf14	0.022071399
45	0xbce2f2ce	-0.027703669
46	0xbd1107a6	-0.035407685
47	0x3e3bae6b	0.18328254
48	0xbd3ebcf0	-0.046566904
49	0x3d46a432	0.048496433
50	0x3cd122a0	0.025529206
51	0xbdc08584	-0.09400466
52	0x3d07d2e6	0.033160113
53	0x3d026249	0.031832013
54	0xbcbc6f6d	-0.02300235
55	0x3e5b0f19	0.21392478
56	0x3dc07646	0.09397559
57	0xbb0dd18b	-0.002163979
58	0x3e2ef1c0	0.17084408
59	0x3dcddbfb	0.100517236
60	0xbc4436d1	-0.01197596
61	0xbd715328	-0.058917195
62	0x3e5e7a07	0.21726237
63	0x3e32572b	0.17416064
64	0x3e88a6b1	0.26689675
65	0xbdc19705	-0.09452633
66	0x3e4f7b71	0.20261933
67	0xbdcff79c	-0.101546496
68	0x3dbf0c87	0.09328561
69	0xbd51b37a	-0.051196553
70	0xbe06e4f3	-0.13173275
71	0xbc70b763	-0.01469216
72	0x3de7728c	0.11301145
73	0x3c4c85cb	0.012483071
74	0xbe6997c7	-0.22811805
75	0xbd50ba09	-0.050958667
76	0xbc82dfee	-0.015975919
77	0xbe39ab6d	-0.181318
78	0xbd134a44	-0.035959497
79	0xbcfb08fa	-0.030643929
80	0xbccee9c8	-0.02525796
81	0xbd08d57f	-0.03340673
82	0x3d0b5846	0.03401973
83	0xbc27ae83	-0.010234478
84	0xbdaeb18d	-0.08529959
85	0xbdb9ac32	-0.09066047
86	0x3ba9a635	0.005177284
87	0xbdcb8f78	-0.09939474
88	0x3cb8a25b	0.022538355
89	0xbdbad8a7	-0.091233544
90	0x3d958cf8	0.07302278
91	0xbdc78e2e	-0.097439155
92	0xbd9e0488	-0.07715708
93	0xbe527683	-0.20553021
94	0xbc5b8957	-0.013399444
95	0x3d9beb08	0.07613188
96	0xbd700ce0	-0.05860603
97	0xbd995a2c	-0.07487902
98	0x3c990093	0.018677032
99	0xbd930e6a	-0.07180484
100	0x3ca6d9d8	0.020367548
101	0x3d84b066	0.06478958
102	0xbdd0a6b0	-0.10188043
103	0x3d750c05	0.059825916
104	0x3e307d66	0.17235336
105	0x3e3c63b7	0.18397413
106	0x3d789924	0.06069292
107	0x3c8a2753	0.016864454
108	0xbd930b4e	-0.071798906
109	0xbc334eca	-0.010944078
110	0x3d018f70	0.031630933
111	0xbd711d8e	-0.058866076
112	0x3e534b5c	0.20634216
113	0xbd535a50	-0.0515998
114	0xbc3848f9	-0.011247867
115	0x3d030e79	0.031996224
116	0x3ddd10c5	0.10794214
117	0xbd8530ea	-0.0650347
118	0xbd78d7df	-0.060752746
119	0x3d2754b7	0.040852275
120	0xbcf8f714	-0.030391254
121	0x3c7cc972	0.015428888
122	0x3befa836	0.0073137535
123	0xbd675e31	-0.056486312
124	0x3e017f14	0.12646133
125	0xbdb274c7	-0.0871368
126	0xbc0cbe43	-0.008590284
127	0x3e5c9993	0.21542959
128	0xbe711e85	-0.23546799
129	0xbe1ff489	-0.15620627
130	0xbe69bc7b	-0.22825806
131	0xbe2a07db	-0.16604559
132	0xbe4e54b6	-0.20149502
133	0xbdf9f55e	-0.12205003
134	0xbe83621a	-0.25660783
135	0xbd919544	-0.07108548
136	0xbdae663d	-0.08515594
137	0xbde1f656	-0.11033313
138	0xbe21fb75	-0.1581858
139	0xbdf36e01	-0.11886216
140	0xbe367b1e	-0.17820403
141	0xbe597e1b	-0.21239512
142	0xbac13146	-0.0014739416
143	0xbeb8c925	-0.3609096
144	0xbe2e1f89	-0.17004217
145	0xbe69dd8b	-0.22838418
146	0xbe1387fb	-0.14407341
147	0x3cc90e70	0.024543017
148	0xbe8676af	-0.26262423
149	0xbda63b87	-0.08116823
150	0xbd340eff	-0.043959614
151	0x3cae8e3c	0.021308057
152	0xbcd5e7b9	-0.02611147
153	0xbe7b11d8	-0.24518526
154	0xbe3a1260	-0.18171072
155	0xbe6aba14	-0.22922546
156	0xbe8be3ea	-0.27322322
157	0xbe6d8289	-0.23194326
158	0xbe95d806	-0.29266375
159	0xbe2cb90d	-0.16867466
160	0xbebc85be	-0.36820787
161	0xbdc8a209	-0.09796531
162	0xbda9bc0f	-0.082878225
163	0xbdc6be16	-0.09704225
164	0xbe6a9f6f	-0.22912382
165	0xbe88a36d	-0.26687184
166	0xbe0e03a5	-0.13868578
167	0xbe343134	-0.17596895
168	0xbe8b390f	-0.2719197
169	0xbd8c318b	-0.06845387
170	0xbd5711d8	-0.05250725
171	0xbe67ed44	-0.22649103
172	0xbdcef0cc	-0.10104522
173	0xbdceb37b	-0.10092827
174	0xbe0469b2	-0.12930945
175	0xbe08f2fc	-0.13373941
176	0xbebd5d69	-0.3698533
177	0xbec7df85	-0.3903772
178	0xbd3a125a	-0.045427658
179	0xbe82cdfa	-0.25547773
180	0xbe0a9f85	-0.13537414
181	0x3b98c231	0.0046618213
182	0xbdd975c4	-0.10618165
183	0xbdf86e82	-0.12130453
184	0xbe7e9347	-0.2486087
185	0xbdcd7bcc	-0.10033378
186	0xbe8dad07	-0.27671072
187	0x3d89adca	0.06722601
188	0xbe2774ac	-0.163531
189	0xbe3f834d	-0.18702431
190	0xbe915c76	-0.28390855
191	0xbe7af99d	-0.24509282
192	0xbdbfd591	-0.093669064
193	0xbe1548cb	-0.1457855
194	0xbd80b9ea	-0.0628546
195	0xbdc51844	-0.09623769
196	0xbe775ce8	-0.24156535
197	0xbe857038	-0.2606218
198	0xbd8e6211	-0.069522984
199	0xbd152bce	-0.03641873
200	0xbdf5a5c0	-0.11994505
201	0xbe5bcb4d	-0.21464272
202	0xbdf0d507	-0.11759382
203	0xbe26d600	-0.16292572
204	0xbe39963f	-0.1812372
205	0xbd98c027	-0.07458525
206	0xbe532951	-0.2062123
207	0xbdde3b79	-0.10851187
208	0xbe7111b1	-0.23541905
209	0xbd943e8a	-0.07238491
210	0xbc5b9c26	-0.013403928
211	0x3e19f555	0.15034993
212	0xbe44593f	-0.1917467
213	0xbe59a8c2	-0.21255782
214	0xbe822d53	-0.25425205
215	0xbd9ac178	-0.075564325
216	0xbe76a457	-0.24086128
217	0xbe3a001c	-0.18164104
218	0xbe1e129e	-0.1543679
219	0xbdeac394	-0.11463085
220	0xbe07c12a	-0.1325728
221	0xbdc8dd99	-0.098078914
222	0xbdffeec5	-0.124967135
223	0xbe893519	-0.26798323
224	0xbd8828e2	-0.06648423
225	0xbe45135b	-0.19245665
226	0xbe1126c4	-0.14174944
227	0xbdc6ab50	-0.09700644
228	0xbe403bb0	-0.18772769
229	0xbe38ba8f	-0.18039916
230	0xbdf166d5	-0.11787192
231	0x3a456fad	0.00075315946
232	0xbe0959fe	-0.13413236
233	0xbea8c196	-0.32960194
234	0xbc357064	-0.011074159
235	0xbe1d5f88	-0.15368474
236	0xbd2c6d3c	-0.04209636
237	0xbe696326	-0.22791728
238	0xbe08779a	-0.13326874
239	0xbe3cff98	-0.18456876
240	0x3aea1a9e	0.0017860716
241	0xbddf5444	-0.10904744
242	0xbe70f86c	-0.23532265
243	0xbd356cff	-0.0442934
244	0xbe0c408b	-0.13696496
245	0xbe21a802	-0.15786746
246	0xbe9c9fef	-0.3059077
247	0xbe7ea8c9	-0.24869074
248	0xbe166be1	-0.1468959
249	0xbdf82ae5	-0.121175565
250	0xbdd8b0e8	-0.10580617
251	0xbe528d46	-0.20561704
252	0xbebae366	-0.36501616
253	0xbe3d0157	-0.18457542
254	0xbe6dbdbe	-0.23216912
255	0xbd3400ee	-0.0439462

lstm.bias_hh_l0 f4 [512]
0	0xbdf413c5	-0.11917833
1	0xbd7f76b0	-0.06236905
2	0x3d3d8a67	0.04627457
3	0xbddda079	-0.10821623
4	0x3dd8e406	0.10590367
5	0x3d187f8e	0.03723102
6	0x3d83b6cb	0.06431349
7	0x39233032	0.00015562846
8	0xbd56baeb	-0.052424353
9	0x3c77ef91	0.015132801
10	0xbdcb8611	-0.099376805
11	0xbc58a6b8	-0.013223343
12	0xbdd2b481	-0.10288335
13	0x3d9019a6	0.07036142
14	0x3e8d6d34	0.27622378
15	0x3df30287	0.118657164
16	0xbb47f455	-0.0030510623
17	0x3d252c46	0.040325426
18	0xbd35c018	-0.044372648
19	0x3d3756f8	0.044760674
20	0x3e56a9e6	0.20963249
21	0xbd577edd	-0.05261122
22	0x3dea61f5	0.11444465
23	0x3de06aff	0.10957908
24	0xbcf6cd7e	-0.030127283
25	0xbe03786d	-0.12838908
26	0x3d0b4d81	0.03400946
27	0xbdf2c601	-0.118541725
28	0x3d1c275b	0.03812347
29	0xbdd11da0	-0.10210729
30	0x3d615465	0.055012126
31	0x3d49622e	0.049165897
32	0x3dff1eca	0.124570444
33	0x3e23940f	0.15974449
34	0xbc17e15e	-0.00927004
35	0x3d1b25c5	0.037877817
36	0xbe0f2fd7	-0.13983093
37	0x3e6f9d81	0.23399927
38	0xbdac15b0	-0.08402574
39	0x3c871288	0.016488329
40	0x3e0cb292	0.13739994
41	0x3d4ede92	0.05050523
42	0x3bfbd76a	0.0076855915
43	0xbd9ac6e0	-0.07557464
44	0xbd89708f	-0.06710922
45	0xbd914f3f	-0.07095193
46	0x3de10400	0.10987091
47	0x3df545a1	0.11976171
48	0xbc2bca2d	-0.010485214
49	0x3dbaa458	0.09113377
50	0x3c5f5879	0.013631933
51	0x3d51e199	0.051240537
52	0xbde7a372	-0.113104716
53	0xbce617fe	-0.028087612
54	0x3d4a2fe2	0.04936207
55	0x3e03355e	0.12813327
56	0x3c96d92c	0.018414102
57	0x3d5b1b35	0.053492744
58	0x3e1843c2	0.14869598
59	0x3e60abf2	0.21940592
60	0xbe2ec940	-0.17068958
61	0xbe1ba7b2	-0.1520069
62	0x3e9c6222	0.3054362
63	0x3c9b67e1	0.018970432
64	0x3e3f1391	0.18659808
65	0xbda28305	-0.07935146
66	0x3df6aebc	0.12045047
67	0x38213693	3.8436217e-05
68	0xbc7c9e71	-0.015418635
69	0x3c79a2ed	0.015236598
70	0xbd46f45f	-0.048572894
71	0xbe0c9d4a	-0.13731876
72	0x3dbaf460	0.09128642
73	0x3e2a05c3	0.1660376
74	0xbdd37dc3	-0.103267215
75	0xbd28e5bd	-0.04123472
76	0x3d6c1b66	0.057643317
77	0xbe3ca051	-0.18420531
78	0xbe1cba72	-0.15305498
79	0x3ca7b0de	0.020470079
80	0xbd1c115f	-0.038102504
81	0xbd8ecb57	-0.06972378
82	0x3d22c40a	0.03973774
83	0xbd8ea0b2	-0.06964244
84	0xbdebc4f1	-0.11512173
85	0x3d8c6965	0.0685604
86	0xbd90c44d	-0.070686914
87	0x3c34a5e6	0.011025881
88	0x3b66e2c5	0.003523038
89	0xbe3aad6a	-0.18230215
90	0x3e0c9006	0.13726816
91	0xbbc96ac0	-0.006146759
92	0xbe6c0c77	-0.2305163
93	0xbddb9d43	-0.10723355
94	0xbdaef283	-0.08542349
95	0x3d890df7	0.06692117
96	0xbd4b1e04	-0.049589172
97	0xbdafdd5a	-0.08587141
98	0xbd0993b8	-0.03358814
99	0xbd902870	-0.07038963
100	0xbba10226	-0.004913586
101	0x3ccb21dc	0.024796419
102	0x3d4a87cc	0.049445912
103	0xbd9eeb28	-0.07759696
104	0x3e4a3aa8	0.19748938
105	0x3e18aa61	0.14908744
106	0x3dbab113	0.091158055
107	0x3d28fcc1	0.04125667
108	0xbcdf29f5	-0.027241686
109	0xbcfb4413	-0.030672109
110	0x3d2639a2	0.040582307
111	0xbdd7c2dc	-0.10535213
112	0x3e654d8c	0.22392863
113	0xbd8146f6	-0.06312363
114	0xbdc636f0	-0.09678447
115	0x3cf6dbb6	0.030134063
116	0x3d5a3a38	0.053278178
117	0xbda799f1	-0.08183659
118	0x3c421716	0.011846324
119	0x3df038e2	0.117295995
120	0x3ce8cec0	0.028418899
121	0x3dfc43b4	0.12317601
122	0x3dfad28c	0.1224719
123	0x3c777261	0.015102954
124	0x3e1fd98c	0.15610331
125	0x3c928614	0.017886199
126	0x3bd24c67	0.0064177993
127	0x3da8eb6e	0.0824803
128	0xbe732123	-0.2374311
129	0xbd23563a	-0.039877154
130	0xbe910e15	-0.28331056
131	0xbd97b759	-0.07408018
132	0xbe886a86	-0.2664377
133	0xbe637035	-0.22210772
134	0xbe8fced6	-0.2808749
135	0xbe3508ed	-0.17679186
136	0xbe48f31c	-0.19623989
137	0xbdc2902e	-0.09500156
138	0xbe3fe709	-0.18740477
139	0xbd834b19	-0.06410808
140	0xbe652d12	-0.22380474
141	0xbe4fc859	-0.2029127
142	0x3ca41570	0.020029753
143	0xbea6c139	-0.32569292
144	0xbdeaa97b	-0.11458107
145	0xbe5f4243	-0.2180262
146	0xbe0fa6a5	-0.14028414
147	0x3b97c9e2	0.0046322206
148	0xbe967c2f	-0.2939162
149	0x3d106f0e	0.03526216
150	0xbddd1cd5	-0.10796515
151	0xbdefcba6	-0.11708765
152	0xbe0ebc84	-0.139391
153	0xbe8f8b18	-0.28035808
154	0xbe7067f4	-0.23477155
155	0xbe5c4340	-0.21510029
156	0xbe2dd96c	-0.16977471
157	0xbe2cae61	-0.16863395
158	0xbe69e6bc	-0.22841924
159	0xbd980053	-0.07421937
160	0xbec4f04a	-0.38464576
161	0xbd94b135	-0.07260362
162	0xbd7b379e	-0.061332338
163	0x3c572f0a	0.013133774
164	0xbd9ed8d0	-0.077561975
165	0xbe839cc5	-0.25705543
166	0xbe0178c3	-0.12643723
167	0xbe4adaca	-0.19810024
168	0xbe2935b3	-0.16524391
169	0xbe46e2b3	-0.19422416
170	0xbd342234	-0.04397793
171	0xbe6a3e06	-0.22875223
172	0xbe335776	-0.17513832
173	0xbe384744	-0.17995936
174	0xbe19d44a	-0.15022388
175	0xbbbd604b	-0.0057793013
176	0xbe7a8645	-0.24465282
177	0xbe765aac	-0.24058026
178	0xbdbec76e	-0.09315382
179	0xbe6dcdb5	-0.23223002
180	0xbd90c39a	-0.07068558
181	0x3d0b3023	0.033981454
182	0xbe288667	-0.1645752
183	0xbe025c47	-0.12730514
184	0xbe72bfdb	-0.23706
185	0xbe34fc71	-0.17674424
186	0xbe206539	-0.15663613
187	0x3d1791eb	0.037004393
188	0xbddc9703	-0.10770991
189	0xbdec1335	-0.11527101
190	0xbe046d2e	-0.12932274
191	0xbe8c0aab	-0.2735189
192	0xbddec92f	-0.108782165
193	0xbe318373	-0.173353
194	0xbdcf3184	-0.10116866
195	0xbe0257c4	-0.12728792
196	0xbe84f393	-0.25967082
197	0xbe9b46da	-0.30327493
198	0xbe22f5ad	-0.1591403
199	0xbd6e489c	-0.058174714
200	0xbd8f8c29	-0.07009155
201	0xbe89789e	-0.26849836
202	0xbe25b1b2	-0.16181067
203	0xbd902597	-0.0703842
204	0xbe2587ff	-0.1616516
205	0xbe16676f	-0.14687894
206	0xbdc9a0a7	-0.09845095
207	0xbe4e5c35	-0.20152362
208	0xbe564a2f	-0.20926736
209	0xbe04111e	-0.12897155
210	0xbd32f245	-0.043688077
211	0x3db5b096	0.08871572
212	0xbdcbb839	-0.09947247
213	0xbdfb930c	-0.12283906
214	0xbe1470f6	-0.14496216
215	0xbe217e6c	-0.15770882
216	0xbe0f8323	-0.14014868
217	0xbe5c446a	-0.21510473
218	0xbe7b9694	-0.2456916
219	0xbe348aeb	-0.17631118
220	0xbe002cf5	-0.1251715
221	0xbda6272d	-0.08112941
222	0xbe3872bc	-0.18012518
223	0xbe6e0f97	-0.23248135
224	0xbd9dcbc0	-0.07704878
225	0xbdc9e3f3	-0.09857931
226	0xbda14c94	-0.07875934
227	0xbda3b35e	-0.07993196
228	0xbe1bad46	-0.15202817
229	0xbe0823a9	-0.13294853
230	0xbd8d0959	-0.068865485
231	0xbdb06aa6	-0.086140916
232	0xbe56ad44	-0.20964533
233	0xbe4d09ae	-0.20023224
234	0x3e023b06	0.12717828
235	0xbe920970	-0.28522825
236	0xbd32f0de	-0.04368674
237	0xbda23236	-0.07919733
238	0xbda8acbe	-0.08236073
239	0xbd991d88	-0.07476336
240	0xbd743c9c	-0.059628114
241	0xbe828fc9	-0.25500324
242	0xbe33ddfc	-0.17565149
243	0xbbc8d327	-0.006128687
244	0xbe125577	-0.14290415
245	0xbe46065e	-0.19338366
246	0xbec55691	-0.38542607
247	0xbe68e68e	-0.227442
248	0xbd98816c	-0.0744656
249	0xbd080353	-0.033206295
250	0xbe8783c9	-0.26467732
251	0xbe6c4bca	-0.23075786
252	0xbeb8286e	-0.35968345
253	0xbe16b1f7	-0.14716326
254	0xbe72bdd4	-0.23705226
255	0xbdb75523	-0.089517854

lstm.weight_ih_l1 f4 [512, 128]
0	0x3dba5666	0.090985104
1	0x3dd11ac6	0.10210185
2	0x3e10c36b	0.14137046
3	0x3e627600	0.22115326
4	0xbdcba160	-0.09942889
5	0xbe03212a	-0.1280562
6	0xbda3a895	-0.07991139
7	0xbdf4d0ba	-0.11953874
8	0xbe516584	-0.20448881
9	0xbeb6cfea	-0.357055
10	0x3f046422	0.5171529
11	0xbeaaef39	-0.33385637
12	0x3e7b21dc	0.24524635
13	0x3e469d7b	0.19396012
14	0xbebb72fa	-0.36611158
15	0xbcaa8a1f	-0.020817814
16	0xbef9d301	-0.48793796
17	0x3c2e93dc	0.01065537
18	0x3e1d69fc	0.15372461
19	0x3e40640c	0.18788165
20	0xbd9c45e0	-0.07630515
21	0x3d070583	0.03296424
22	0xbeefb37d	-0.46816626
23	0xbcb02ebb	-0.021506658
24	0x3e3e37eb	0.18576019
25	0xbc8d0a30	-0.017216772
26	0xbe4a9402	-0.19783023
27	0xbd649413	-0.055805277
28	0xbeebdeb9	-0.4606836
29	0x3e217af0	0.15769553
30	0xbe603108	-0.21893704
31	0xbdad29d6	-0.08455245
32	0xbcdf7dee	-0.027281728
33	0x3e8d39b1	0.27583078
34	0x3e9cc464	0.30618584
35	0xbdf70b69	-0.12062723
36	0x3e176a87	0.1478673
37	0x3d18edff	0.037336346
38	0x3ceee186	0.029160272
39	0xbe65aadf	-0.22428463
40	0x3eb1b265	0.34706417
41	0x3dc9b946	0.09849791
42	0x3e9319d5	0.28730646
43	0xbeb5120c	-0.3536533
44	0xbe569c67	-0.209581
45	0x3d963195	0.07333676
46	0x3c3a7a68	0.011381723
47	0xbe660e6b	-0.22466438
48	0x3f0acdc5	0.5422023
49	0x3e68bca1	0.22728206
50	0xbe1db986	-0.15402803
51	0xbe932109	-0.2873614
52	0x3df4bca1	0.119500406
53	0x3dc21779	0.09477133
54	0xbe3a54f0	-0.18196464
55	0x3f08a248	0.5337262
56	0x3e1ce136	0.15320286
57	0x3f0606fd	0.52354413
58	0x3dea3b47	0.114370875
59	0xbec4d8c2	-0.38446623
60	0x3e514968	0.20438159
61	0x3e9b84e1	0.30374816
62	0x3ea0388a	0.31293136
63	0x3e0bb91f	0.13644837
64	0xbd1bd6b8	-0.03804657
65	0xbea1878b	-0.31548724
66	0xbed69880	-0.41913223
67	0xbf184a7c	-0.59488654
68	0x3db26bdf	0.08711981
69	0xbd96a26c	-0.07355198
70	0x3e7b9fee	0.24572727
71	0xbe61c95b	-0.22049467
72	0xbeeb5c09	-0.45968655
73	0xbdc9e50e	-0.09858142
74	0x3e6b0950	0.22952771
75	0x3ecc8b5a	0.39950067
76	0xbda778ff	-0.08177375
77	0x3cc922b0	0.024552673
78	0xbc6062cc	-0.01369543
79	0xbe90acd6	-0.28256863
80	0xbd2a17ab	-0.041526478
81	0x3e076602	0.13222507
82	0xbe765b40	-0.24058247
83	0xbe1087d9	-0.14114322
84	0xbbbc4526	-0.005745548
85	0xbf3bc821	-0.7335225
86	0x3dcb9b63	0.09941747
87	0x3df4c26a	0.11951144
88	0xbd7c643c	-0.06161903
89	0xbcce21f7	-0.02516268
90	0x3e99d0e2	0.30042177
91	0xbe7204d5	-0.23634656
92	0xbd9c5ad9	-0.07634515
93	0xbd222d16	-0.03959378
94	0x3e7a6f54	0.24456531
95	0xbe881d5f	-0.26584908
96	0x3f03b61d	0.5144976
97	0x3d7d9aef	0.061915334
98	0x3d653c6c	0.055965826
99	0xbc481ab9	-0.012213402
100	0x3e6f3b61	0.23362495
101	0x3db386b3	0.08765926
102	0xbd8c20aa	-0.06842168
103	0xbeaf2dab	-0.3421453
104	0x3e6c7819	0.23092689
105	0xbe08009b	-0.13281481
106	0xbe47df38	-0.19518745
107	0x3d20c914	0.039254263
108	0x3e002aa1	0.12516262
109	0xbe4454c6	-0.19172964
110	0xbe27bb0c	-0.16379946
111	0x3c001d05	0.007819419
112	0xbd612225	-0.054964203
113	0x3ed52688	0.4163096
114	0x3cbb0d7b	0.022833576
115	0xbc84419d	-0.016144568
116	0xbed38b67	-0.41317293
117	0xbd141f98	-0.036162943
118	0xbe60e540	-0.21962452
119	0x3e1dcdb0	0.15410495
120	0xbddfbcd6	-0.109246895
121	0xbed7950d	-0.42105904
122	0x3d59d7de	0.053184383
123	0xbd6d79d8	-0.057977527
124	0xbd36a3ad	-0.044589687
125	0xbde01420	-0.109413385
126	0xbd361b76	-0.044459783
127	0xbcec3fba	-0.028838981
128	0x3dafba9a	0.08580513
129	0x3e3e0e2b	0.18560092
130	0xbda5fa17	-0.081043415
131	0xbdf2595e	-0.11833452
132	0xbe5ab522	-0.21358159
133	0xbd80669a	-0.0626957
134	0xbddba3e4	-0.10724619
135	0xba3c9154	-0.00071932864
136	0xbcdcbd06	-0.026945602
137	0x3ec40c7c	0.38290775
138	0xbe8a0cab	-0.2696279
139	0x3e4d4c4b	0.20048635
140	0xbd55bc11	-0.052181307
141	0x3d9ddd86	0.07708268
142	0x3c81d01d	0.015846306
143	0xbdf68085	-0.12036232
144	0x3d8b7876	0.068100855
145	0x3c353d3e	0.011061965
146	0xbdd14b73	-0.10219469
147	0xbe58c022	-0.21167043
148	0x3e8beaa1	0.27327445
149	0x3ebab5e4	0.36466897
150	0x3d4b157e	0.049581043
151	0xbccd67f3	-0.02507398
152	0xbc1a7163	-0.009426448
153	0x3e13bdb4	0.14427835
154	0x3dd4bd5d	0.10387681
155	0x3aa1d328	0.0012346255
156	0x3dbfdca1	0.093682535
157	0xbe4942d6	-0.19654402
158	0xbd51d4dd	-0.051228393
159	0x3d0ae064	0.0339054
160	0x3da594f3	0.080850504
161	0xbe823df6	-0.25437897
162	0xbd256886	-0.040382884
163	0xbbbef18d	-0.005827135
164	0xbe16513f	-0.1467943
165	0xbdb1b9e9	-0.08678038
166	0x3e039b5c	0.12852234
167	0x3dda7c42	0.106682315
168	0xbe94a85e	-0.29034704
169	0xbd4898d2	-0.048973866
170	0xbd5c9fb7	-0.053863253
171	0xbe1fac79	-0.15593137
172	0x3e3970d3	0.18109445
173	0x3e29fa5b	0.1659941
174	0xbe3f1a48	-0.18662369
175	0x3d67c4c1	0.056584124
176	0xbe1e286d	-0.15445109
177	0xbc8ff998	-0.01757507
178	0xbe49f69e	-0.19722983
179	0xbddce29d	-0.107854106
180	0xbd66ccce	-0.05634766
181	0xbeda12e5	-0.4259254
182	0xbe382ef3	-0.1798666
183	0xbe67001c	-0.22558635
184	0x3d34efdb	0.044174057
185	0xbcc8e4b3	-0.024523115
186	0x3e1e57de	0.15463206
187	0x3d092c3d	0.033489455
188	0x3e223fd0	0.15844655
189	0xbe0709c0	-0.13187313
190	0xbe054d19	-0.13017692
191	0x3c195459	0.009358489
192	0x3c97d0a0	0.018532097
193	0x3d8de519	0.069284625
194	0x3bedd544	0.0072580893
195	0x3e97074d	0.29497758
196	0x3dc22d3b	0.09481283
197	0x3ccf0247	0.02526964
198	0xbd47935f	-0.04872453
199	0xbd9da724	-0.07697895
200	0xbe820c48	-0.25399995
201	0xbd677a03	-0.056512844
202	0x3daead80	0.08529186
203	0xbd503e69	-0.05084077
204	0x3c549af9	0.0129764015
205	0xbda30873	-0.07960596
206	0xbe990665	-0.2988769
207	0x3d8a3bd2	0.06749691
208	0x3df82847	0.12117057
209	0xbd8c1d4a	-0.06841524
210	0xba9eeb32	-0.0012124537
211	0x3eb3e6aa	0.3513692
212	0xbc3a5383	-0.01137245
213	0x3e0e1619	0.13875617
214	0x3db307bd	0.0874171
215	0x3d77696e	0.06040328
216	0xbc804c7d	-0.015661472
217	0x3de8ad18	0.1136114
218	0xbd980ad4	-0.0742394
219	0x3d916c6e	0.071007594
220	0xbdaf5f2e	-0.08563076
221	0xbdb17eee	-0.08666788
222	0xbdf50c9a	-0.11965294
223	0xbc74b7c6	-0.014936393
224	0xbe3ed186	-0.18634614
225	0xbe101781	-0.14071466
226	0x3bec884f	0.0072183977
227	0xbe31c4e5	-0.17360266
228	0x3d312c3d	0.04325508
229	0xbde4ca52	-0.11171402
230	0x3d136df1	0.03599352
231	0x3e3f0a37	0.1865624
232	0x3e87a6fb	0.26494583
233	0x3e1d1772	0.15340975
234	0xbe1134bf	-0.14180277
235	0x3e2928e2	0.16519502
236	0x3d98e565	0.074656285
237	0x3db19a65	0.086720265
238	0x3d5d431b	0.054019075
239	0x3e494a5e	0.19657275
240	0xbdae32c6	-0.08505778
241	0xbe5c759b	-0.21529238
242	0xbdbe259e	-0.09284519
243	0xbdaacb03	-0.08339503
244	0xbb0141f2	-0.0019723144
245	0xbea10532	-0.31449276
246	0x3d25b432	0.04045505
247	0xbe7466be	-0.23867318
248	0x3d7435a6	0.059621476
249	0x3e3f48e4	0.1868015
250	0x3ce965eb	0.028490981
251	0xbe6fec55	-0.23429997
252	0xbd9fd960	-0.07805133
253	0xbe5f1c38	-0.21788108
254	0x3e42e3eb	0.19032256
255	0xbe626b71	-0.22111298

lstm.weight_hh_l1 f4 [512, 128]
0	0x3ebfc612	0.37455803
1	0xbd3452e7	-0.044024374
2	0x3e23ce5d	0.1599669
3	0xbd633f41	-0.055480246
4	0x3db640d0	0.08899081
5	0x3db5f742	0.08885051
6	0xbcf476f5	-0.02984188
7	0x3bcf07a1	0.006318048
8	0x3c83292c	0.016010843
9	0x394766af	0.00019016372
10	0xbda64825	-0.08119229
11	0xbb46d0fe	-0.0030336971
12	0x3e1899c6	0.1490241
13	0xbe535a66	-0.20639953
14	0x3e3f1fa1	0.18664409
15	0xbe3fbc74	-0.18724233
16	0xbd6dd9eb	-0.05806915
17	0xbe029fa9	-0.12756218
18	0xbd9cb731	-0.076521285
19	0xbd9ae899	-0.07563896
20	0xbd7f2252	-0.06228859
21	0xbd125e8c	-0.0357347
22	0x3cc56e27	0.024100376
23	0x3d72273f	0.05911946
24	0x3a9b74a2	0.0011860321
25	0x3db1dc0b	0.08684548
26	0x3d86c49e	0.065804705
27	0xbe9d103e	-0.30676454
28	0x3e4fc7aa	0.2029101
29	0xbe2f4c13	-0.17118864
30	0x3de108c3	0.10987999
31	0x3d30bcaf	0.043148693
32	0xbc9a0573	-0.018801427
33	0x3e4c2db0	0.19939303
34	0x3d11fbff	0.035640713
35	0xbe2f9663	-0.17147212
36	0x3e35ad44	0.17741877
37	0xbde865b7	-0.113475256
38	0x3e450e1d	0.19243665
39	0x3cf18204	0.029480942
40	0x3db78475	0.08960811
41	0xbd711307	-0.058856037
42	0xbe3c68bc	-0.18399328
43	0xbe29b258	-0.16571939
44	0xbd712e0b	-0.0588818
45	0x3e19d4b2	0.15022543
46	0x3d154237	0.0364401
47	0xbdb80943	-0.089861415
48	0x3e1e5256	0.15461096
49	0x3e8d60cd	0.27612916
50	0xbe0d7e3c	-0.13817686
51	0xbe597559	-0.21236171
52	0x3dce23f1	0.10065449
53	0x3e1983f2	0.1499174
54	0x3d175a18	0.036951154
55	0xbdba2b09	-0.090902396
56	0xbe452d13	-0.19255476
57	0x3ea2665e	0.31718725
58	0x3deb2bc0	0.11482954
59	0x3da73819	0.08164997
60	0xbe0bbdff	-0.13646697
61	0xbe44ac26	-0.19206294
62	0x3c6e9c00	0.0145635605
63	0xbc8085cf	-0.015688805
64	0xbe2cfab8	-0.16892517
65	0x3e53df26	0.20690593
66	0x3e2a1c37	0.16612326
67	0xbe0b0756	-0.13577017
68	0x3db86a8b	0.090046965
69	0x3de7d37f	0.113196366
70	0x3e0f42af	0.13990282
71	0x3db760e4	0.08954027
72	0x3c4f4a34	0.012651969
73	0xbe0c98c6	-0.13730153
74	0x3d01721c	0.031602964
75	0x3e1b576c	0.15170068
76	0x3de3f58b	0.11130818
77	0xbe471c86	-0.19444475
78	0xbe8afb70	-0.27144957
79	0xbe110f20	-0.14165926
80	0x3df42c99	0.11922569
81	0x3d5a182d	0.053245712
82	0x3ddfc178	0.10925573
83	0xbea60428	-0.32425046
84	0x3dd7667b	0.105175935
85	0xbd339003	-0.043838512
86	0x3dc1d457	0.09464329
87	0x3d8f88bf	0.07008504
88	0xbd3e80fc	-0.046509728
89	0xbe022874	-0.12710744
90	0x3cafd1db	0.021462372
91	0xbe60ee35	-0.21965869
92	0xbd9f34c1	-0.07773734
93	0xbe85792d	-0.26069012
94	0x3c8fb2c2	0.017541293
95	0x3dd0069e	0.10157512
96	0xbe191c2d	-0.14952154
97	0xbe5824f0	-0.2110784
98	0x3df95204	0.12173846
99	0xbe4b660f	-0.19863151
100	0x3e3f7c6f	0.18699811
101	0x3d602fb3	0.05473299
102	0x3dcc14f5	0.09964935
103	0xbe98ebc0	-0.29867363
104	0x3dc3fe2f	0.09569966
105	0x3e32a0fe	0.17444226
106	0x3c8978d5	0.01678125
107	0x3d982541	0.074289806
108	0x3d612d2e	0.054974727
109	0xbe58aab5	-0.2115887
110	0x3f110004	0.5664065
111	0xbd8a23b9	-0.06745095
112	0xbe0fbbc6	-0.14036474
113	0xbda314f6	-0.07962982
114	0x3dfcdc2e	0.123466834
115	0x3bdb747e	0.0066972366
116	0xbd20c33a	-0.039248683
117	0xbd0d7721	-0.03453744
118	0xbd8632c1	-0.06552649
119	0x3e8942b2	0.26808697
120	0xbe6921f5	-0.2276686
121	0xbe0d599d	-0.13803716
122	0x3e3d9687	0.18514453
123	0xbcc4228c	-0.023942254
124	0x3e589804	0.2115174
125	0x3d994a77	0.07484906
126	0x3e9476b1	0.28996804
127	0xbe798c38	-0.24369895
128	0x3d95e8ce	0.073197946
129	0x3db5f949	0.08885438
130	0xbdb28975	-0.08717624
131	0x3a89fc1e	0.0010527407
132	0xbb65257d	-0.0034964972
133	0xbd49eb75	-0.049296815
134	0xbd973f44	-0.07385114
135	0x3d7361ad	0.059419323
136	0xbe155924	-0.14584786
137	0x3d43c50e	0.047795348
138	0xbd9cf7a7	-0.076644234
139	0xbd3c45f7	-0.04596516
140	0xbe07165f	-0.13192128
141	0x3dc82787	0.09773164
142	0xbd6619e1	-0.056177024
143	0x3d7ec53c	0.062199816
144	0x3ec9b478	0.393955
145	0x3af94833	0.001901871
146	0xbd84c982	-0.06483747
147	0x3e81c1db	0.25343212
148	0x3d1de729	0.03855053
149	0xbeddaf77	-0.43297932
150	0x3e06b0ea	0.13153425
151	0xbdfdc11e	-0.1239035
152	0x3e273f4c	0.1633274
153	0xbbe17df6	-0.006881471
154	0xbbad6724	-0.0052918363
155	0xbc58d377	-0.013234011
156	0x3d73e718	0.05954656
157	0x3d6da790	0.05802113
158	0x3e1d4827	0.15359555
159	0xbccfc5aa	-0.025362808
160	0xbda5cdb4	-0.080958754
161	0xbd30351a	-0.04301939
162	0xbdfcff8c	-0.12353429
163	0xbdfb57cb	-0.122726046
164	0xbcd8ec0f	-0.026479749
165	0xbe0cd41b	-0.13752787
166	0xbe1fd4f7	-0.15608583
167	0x3d46df65	0.04855289
168	0xbdb5d18b	-0.08877858
169	0xbdbb1723	-0.09135272
170	0x3c31c1c4	0.01084942
171	0x3e24771b	0.1606106
172	0x3cfdeaf5	0.030995825
173	0xbd2ccc6d	-0.042187143
174	0xbe009662	-0.12557366
175	0x3d7e6b51	0.062114064
176	0x3d0b325e	0.03398358
177	0xbe1880fc	-0.14892954
178	0x3c955613	0.01822952
179	0x3e010425	0.12599237
180	0xbd61a120	-0.0550853
181	0xbe46ebca	-0.19425884
182	0x3eb6fa45	0.35737815
183	0x3e0ade32	0.13561323
184	0xbe49a7cf	-0.1969292
185	0x3e44851d	0.19191404
186	0x3e32da93	0.17466192
187	0x3de16ebc	0.11007449
188	0x3c86d4e1	0.01645893
189	0x3e7d9c36	0.24766621
190	0x3d58f332	0.052966304
191	0x3d546911	0.05185801
192	0x3d520dc2	0.05128265
193	0xbb94a83d	-0.004536657
194	0xbdc3137c	-0.09525201
195	0x3e919cec	0.28440034
196	0x3e127083	0.14300732
197	0x3e5eb561	0.21748878
198	0x3d7bc2a4	0.06146492
199	0xbcef5099	-0.029213237
200	0x3d30f3be	0.0432012
201	0x3d7652ea	0.060137667
202	0x3ddc0139	0.10742421
203	0xbe848670	-0.25883818
204	0x3d7b7d6a	0.0613989
205	0x3e0f26a8	0.1397959
206	0x3d9eff19	0.077635
207	0x3dde9ec9	0.108701296
208	0x3cf7f60b	0.03026869
209	0x3df07c43	0.11742451
210	0xbd769462	-0.060200103
211	0xbda76b04	-0.081747085
212	0x3d1b4700	0.037909508
213	0xbd58fb3c	-0.05297397
214	0xbc8205f2	-0.015871976
215	0x3cc5a940	0.024128556
216	0xbe74d226	-0.2390829
217	0x3e932352	0.28737885
218	0x3ea4ff41	0.32225993
219	0x3dddf144	0.108370334
220	0x3d1b2d44	0.037884966
221	0x3e4ed197	0.2019714
222	0xbd8a1400	-0.06742096
223	0x3daba17d	0.08380411
224	0x3da958d3	0.08268895
225	0x3e7d87f6	0.24758896
226	0x3dd02751	0.10163749
227	0xbdbed4a6	-0.09317903
228	0x3de5ce28	0.11220962
229	0x3e1bbc2a	0.15208498
230	0x3b6d4781	0.003620595
231	0x3dc48719	0.0959608
232	0xbcd5d78d	-0.02610376
233	0xbd87ef9c	-0.06637499
234	0xbd80f678	-0.0629701
235	0x3d808964	0.06276205
236	0x3d1a0be8	0.03760901
237	0x3df55384	0.1197882
238	0xbecf0d86	-0.40440005
239	0xbe2531e1	-0.16132309
240	0xbdb19ab7	-0.08672088
241	0x3d7c6511	0.061619822
242	0xbe3a4c3e	-0.18193147
243	0xbbf194c8	-0.0073724724
244	0x3d2a593c	0.041589007
245	0xbddc2748	-0.1074968
246	0x3e2d492a	0.16922441
247	0xbf0f016c	-0.55861545
248	0x3d602744	0.054724947
249	0x3d914751	0.07093681
250	0x3c55763a	0.013028676
251	0xbdd9deb1	-0.10638178
252	0x3d6a31aa	0.05717627
253	0xbdd80d80	-0.1054945
254	0xbef4e4d7	-0.4783084
255	0x3df16b75	0.11788074

lstm.bias_ih_l1 f4 [512]
0	0xbd7feae7	-0.06247988
1	0xbe3c6c0b	-0.1840059
2	0xbd6960ce	-0.056977086
3	0xbd52242b	-0.051304024
4	0xbe4eaa87	-0.20182239
5	0xbdc7e21f	-0.09759926
6	0xbe710b09	-0.23539366
7	0xbe7a0d41	-0.24419118
8	0xbe8ed45f	-0.278964
9	0xbea7da0b	-0.3278354
10	0xbe4f13e5	-0.20222433
11	0xbd6b02f8	-0.057375878
12	0xbd4961b4	-0.049165443
13	0xbe8884d4	-0.2666384
14	0xbce4c910	-0.027927905
15	0xbe938c18	-0.2881782
16	0xbc64bd2f	-0.0139611205
17	0xbcc9af7b	-0.024619808
18	0xbdc0da9f	-0.09416699
19	0xbe85795f	-0.2606916
20	0xbdb0061d	-0.08594916
21	0xbd2dd7fe	-0.042442314
22	0xbdfd7b2a	-0.12377007
23	0xbdf17d91	-0.11791528
24	0xbea0c7bc	-0.31402385
25	0xbe5a8674	-0.21340352
26	0xbe55fad5	-0.20896466
27	0xbde63f3c	-0.1124253
28	0xbddc2a9b	-0.10750314
29	0x3d889fe9	0.066711254
30	0xbe823eff	-0.25438687
31	0xbdd1573a	-0.10221715
32	0xbd98250a	-0.0742894
33	0xbe162a1f	-0.14664505
34	0xbe4c617c	-0.19959062
35	0xbda46bd0	-0.08028376
36	0xbd257ba0	-0.0404011
37	0xbe3d1f48	-0.18468964
38	0xbe0d89ef	-0.13822149
39	0xbdd5aefa	-0.10433765
40	0xbd1ae1ad	-0.037812877
41	0xbdc84186	-0.097781226
42	0xbe03af0b	-0.12859742
43	0xbe4e1d39	-0.20128335
44	0xbcf2a0e2	-0.02961773
45	0xbe5d2284	-0.21595198
46	0xbe0afaee	-0.13572285
47	0xbe0cd5f2	-0.13753489
48	0xbd9ec235	-0.07751886
49	0xbe72e825	-0.23721369
50	0xbe1dc189	-0.15405859
51	0xbe56bed5	-0.20971234
52	0xbb3ea711	-0.0029091279
53	0xbe1e70c3	-0.15472703
54	0xbe228b80	-0.15873528
55	0xbe1729a6	-0.14761981
56	0xbda3503a	-0.079742864
57	0xbdb0b319	-0.0862791
58	0xbe33ff08	-0.17577755
59	0xbd5ad2c6	-0.053423665
60	0xbdf906aa	-0.12159474
61	0x3c050bf1	0.008120523
62	0xbe37924b	-0.179269
63	0xbe5c10eb	-0.21490829
64	0xbd994c14	-0.07485214
65	0x3d2f092f	0.042733368
66	0xbd8ee0ee	-0.06976496
67	0xbe41b036	-0.18914875
68	0xbe07a37b	-0.13245957
69	0xbdaf3924	-0.085558206
70	0xbd8f26f5	-0.06989852
71	0xbe1a049a	-0.15040818
72	0xbe03c14b	-0.12866704
73	0xbe00146b	-0.12507789
74	0xbe470b34	-0.19437867
75	0xbd83949d	-0.0642483
76	0xbe3d4105	-0.18481834
77	0xbe3b4786	-0.18289003
78	0xbd1522c4	-0.03641011
79	0xbe810fb0	-0.2520728
80	0x3cc1fa12	0.023678813
81	0xbdfab80b	-0.12242135
82	0xbd59e832	-0.053199954
83	0xbe505fe4	-0.2034908
84	0xbdf6b997	-0.12047117
85	0xbdc5f4a1	-0.096658
86	0xbe292361	-0.16517402
87	0xbe736378	-0.23768413
88	0xbe0c06f8	-0.13674533
89	0xbd64a3fb	-0.055820446
90	0x3d29b04b	0.04142789
91	0xbe536dac	-0.20647305
92	0x3daa0603	0.08301928
93	0xbdaa20b8	-0.08307022
94	0xbd7c804d	-0.061645795
95	0x3ce5745d	0.028009588
96	0xbe18aba2	-0.14909223
97	0xbe183610	-0.14864373
98	0xbe5b4562	-0.21413186
99	0xbdaae0d1	-0.083436616
100	0xbe27293e	-0.16324326
101	0xbe3266e1	-0.17422058
102	0xbe6aae0e	-0.22917959
103	0xbe7c56b3	-0.24642448
104	0xbdba061a	-0.09083195
105	0xbd71d36a	-0.05903951
106	0x3caaf5ce	0.020869162
107	0xbe6ca72b	-0.23110645
108	0xbdc6e488	-0.097115576
109	0xbe35c4a4	-0.17750794
110	0xbe54703c	-0.20745939
111	0xbe284cb9	-0.16435517
112	0xbe601764	-0.21883923
113	0xbe0590cf	-0.13043521
114	0x3bd0c074	0.0063705985
115	0xbde475d4	-0.111552864
116	0xbe27fcd4	-0.1640504
117	0x3dc3f87f	0.09568881
118	0xbeb11c4a	-0.34591895
119	0x3d97237d	0.07379816
120	0xbe114945	-0.14188106
121	0xbe741a69	-0.238382
122	0xbe4cbd41	-0.1999407
123	0xbe37ae27	-0.17937528
124	0xbe92d2c1	-0.28676417
125	0xbc19cb3c	-0.009386834
126	0xbc8a0c76	-0.016851645
127	0xbdc8b1cb	-0.09799536
128	0x3e438f5f	0.1909766
129	0xbea1ebb0	-0.31625128
130	0x3bd38699	0.0064552543
131	0xbd3751b7	-0.044755664
132	0xbdac95c9	-0.08427007
133	0xbe350fb4	-0.17681772
134	0xbdf71905	-0.12065319
135	0xbe51ed86	-0.20500764
136	0xbdf8036a	-0.12110026
137	0xbe931780	-0.28728867
138	0xbe4f8de2	-0.20268968
139	0xbe17daab	-0.14829509
140	0xbe633cdd	-0.22191186
141	0xbdfb700f	-0.12277233
142	0x3d46e721	0.048560265
143	0xbdac9118	-0.08426112
144	0x3e2d0fbf	0.16900538
145	0xbe3c76c4	-0.1840468
146	0x3d987752	0.074446335
147	0xbe009206	-0.12555704
148	0xbe8de1a5	-0.27711216
149	0xbdefcee7	-0.11709385
150	0xbc9d706c	-0.019218646
151	0xbe0382c9	-0.1284286
152	0xbe2b8750	-0.16750836
153	0xbe01d0d6	-0.12677321
154	0xbd396407	-0.04526141
155	0xbe337676	-0.17525658
156	0xbe4f6cda	-0.20256367
157	0xbd01cb44	-0.03168799
158	0xbdd181f1	-0.102298625
159	0xbd8d3937	-0.068956785
160	0x3cc6ce3a	0.024268258
161	0xbc32a3e1	-0.01090333
162	0xbe7e7b4e	-0.24851725
163	0xbe725d44	-0.2366839
164	0xbce3d61c	-0.027812056
165	0xbd1b178e	-0.03786426
166	0xbe37cec8	-0.17949975
167	0x3a7c57c1	0.00096261135
168	0xbd0076f5	-0.031363446
169	0xbec987a1	-0.3936129
170	0xbdaf04c8	-0.08545834
171	0xbdda3dc6	-0.106563136
172	0xbe9f2d34	-0.31089175
173	0xbe408b13	-0.18803053
174	0xbe551e60	-0.20812368
175	0xbc222ea9	-0.00989882
176	0xbe065881	-0.13119699
177	0xbdc07958	-0.093981445
178	0xbdb98ffa	-0.090606645
179	0xbddf14f1	-0.10892666
180	0xbdcf66fc	-0.101270646
181	0xbdc4451f	-0.09583496
182	0xbdcea317	-0.10089701
183	0xbe80dcbe	-0.25168413
184	0x3b18af52	0.0023297858
185	0xbdd847eb	-0.10560592
186	0xbde4faa4	-0.111806184
187	0xbcffdf59	-0.03123443
188	0xbe0a9b82	-0.13535884
189	0xbd1889ff	-0.03724098
190	0xbdacf9f8	-0.08446115
191	0xbe14fbab	-0.14549129
192	0x3cab1f2f	0.020888893
193	0x3e0e0d14	0.13872176
194	0x3b9642a5	0.0045855814
195	0xbdb81c1a	-0.08989735
196	0xbe89bb4c	-0.2690071
197	0xbe1f2e43	-0.15544991
198	0xbd018807	-0.031623866
199	0x3d2dcc83	0.042431366
200	0xbd963d72	-0.073359385
201	0xbd821f4e	-0.06353627
202	0xbe88fd50	-0.26755762
203	0xbcdde4fc	-0.027086727
204	0xbcb32e67	-0.021872712
205	0xbe4512f0	-0.19245505
206	0x3d3ea158	0.04654059
207	0xbea5c754	-0.32378638
208	0x3d80124a	0.06253488
209	0xbd9b236c	-0.075751156
210	0xbd883494	-0.066506535
211	0xbe1c709d	-0.15277334
212	0xbe48f23f	-0.1962366
213	0xbd01dc14	-0.031704023
214	0xbe80a5b6	-0.25126427
215	0xbe4d626d	-0.20057078
216	0xbd938637	-0.07203334
217	0xbdfc004e	-0.123047456
218	0xbd4fe398	-0.05075416
219	0xbe731825	-0.23739679
220	0xbdaa4227	-0.08313399
221	0xbd320e07	-0.04347041
222	0xbe02d5cc	-0.1277687
223	0xbd610f23	-0.054946076
224	0xbdfa7175	-0.122286715
225	0xbe3578c8	-0.17721856
226	0xbde6f4f4	-0.1127719
227	0xbc2c58c3	-0.010519209
228	0xbb662a48	-0.0035120416
229	0xbdc7a423	-0.097481035
230	0xbcaa2cb3	-0.020773267
231	0xbd6ed661	-0.058309916
232	0x3d754c5c	0.059887275
233	0xbe032653	-0.12807588
234	0x3de2a793	0.110671185
235	0xbd28ba04	-0.041193023
236	0xbdaec27e	-0.0853319
237	0xbdaa6380	-0.08319759
238	0xbd3e8c7f	-0.046520706
239	0xbe674865	-0.2258621
240	0xbd650637	-0.05591413
241	0xbc5ef134	-0.013607312
242	0xbcd70706	-0.026248466
243	0xbd746e1f	-0.059675332
244	0xbd373ad2	-0.04473383
245	0x3e12cdab	0.14336269
246	0xbe861257	-0.26185867
247	0x3da1f6ec	0.07908425
248	0x3a5b69b8	0.00083699403
249	0xbe17bed2	-0.14818886
250	0xbe68bab2	-0.22727469
251	0xbe8e6fdf	-0.27819726
252	0xbd6839f4	-0.056695893
253	0xbe812324	-0.25222123
254	0x3c3f229c	0.011665966
255	0xbd80d8a2	-0.062913194
